results/edm_swiss_roll/checkpoints/epoch=87-step=2816.ckpt (torch, 842042 bytes, 37 tensors)

model.base_model.time_embedding.frequencies f4 [4]
00000000: 0000 803f 971e 3e3d 6b31 0d3b 16b7 d138
1.0 0.04641589 0.0021544348 9.999999e-05

model.base_model.net.0.weight f4 [128, 10]
00000000: de43 8b3e 55ad b13e 3d28 d2bd 98a9 873e
00000010: 3afb c2bd f475 3c3d 94d7 f0bd 7c95 603e
00000020: a7ee 9f3e e327 4bbe baa4 8f3e bb91 9a3d
00000030: a105 863e 36f8 903d 113a 333e e52c 2fbd
00000040: b966 873e 9ff3 7a3d e650 08be 6fca c23d
00000050: d986 5dbe 3dcf 0ebd 46d2 11be c660 493e
00000060: 10fd 83be be2f 15be f07f bfbd fefa 43be
00000070: bb5e ea3c 0b8c a0be 3af4 ee3e bf0b c7be
00000080: a75a 253e 99c2 cdbc f3e1 33be 0f38 223e
00000090: 73af ae3d 6d58 953e bbe5 903d f325 82bd
000000a0: 7aef 073e d9a2 e4bd ee4f e13d b221 853e
000000b0: de91 243e 5a8a 1bbe 4999 3f3e 1bcb 793d
000000c0: c2f4 283e 9fdb 40be 6161 c9be 7bd2 0cbe
000000d0: 4ed2 72be c565 883e 9f02 ca3d 057e 0c3e
000000e0: 5929 e43d e107 803b 6f86 833e bb72 5cbe
000000f0: 5bb0 da3c 42bb 97be 3255 a53d 7326 fcbd
00000100: 7be1 ae3d b0d4 8abd d844 863e 49a0 3fbe
00000110: 07d3 40be 03d6 40be ead9 b73e 4547 233e
00000120: 12a3 853e 1864 9abe 3261 b4be 9900 8abe
00000130: 7314 4ebe 618b 103e 0156 013e 073a 8d3e
00000140: 6b0a 65be 174c 7dbe c93c 343e 4040 f2bd
00000150: f76c 4f3e f508 8bbd 7d1d 393e 320a 7dbe
00000160: f1d9 24be c892 c23d f48e 053e d1ba bcbd
00000170: 6577 233e 5062 3e3e 1b93 83be cddb 39be
00000180: 6715 933e 23a8 dbbd bfb5 e6bd b9f0 9cbe
00000190: ed25 66be f3fe 853d 94da aabd 8e9e 8abe
000001a0: 9664 c5bc 9e5b 62be 5c91 8cbe 06a7 30be
000001b0: d5dc 8cbe 0681 4cbe d2a9 f13e 9e7d dd3d
000001c0: 82ab 823d 01f9 a6be 1c96 70be 1ee7 f3bd
000001d0: 38c0 c13d c4ff 6ebe 8b31 bbbd 8bee 13be
000001e0: 585b 42bd 91e2 22be fec2 63bc 9430 51be
000001f0: d17b 54be cfc7 36be a8b0 d7bd a2ff 7ebe
00000200: 7e0b 883e 70be 7ebd 911b a93e 0f04 183e
00000210: 3f1a a3be 241e 2f3e 710e 06be 3109 11be
00000220: 5a2a 75be a3cf 93be fceb ed3d a8b0 31bd
00000230: b5a2 da3d 5dfd 93be 7324 833e 5b4c 58be
00000240: b665 0dbd e540 9b3d e30d 2a3e 2ee3 823e
00000250: abaa 933e e634 80be e2a9 a33d 9217 3ebe
00000260: cbe5 a4bc 2112 63be e152 9a3e 54f2 6bbe
00000270: c9cb 303e 377c e23d 1e4c d13d e7a5 2fbe
00000280: 2ae1 d13e 4e01 ee3d ac29 483c 2f5d 9bbe
00000290: 6c6c df3d 1c6c 79bd c48f dcbd 82de 9c3e
000002a0: 1a91 d73d 5092 0fbe 3fbe 56be 8eb3 5fbd
000002b0: 9b9d 143e 930b e2bd c31d 51be 3661 e6bd
000002c0: 824f 6dbe 62b1 f53d ec01 813e 4cbe 94be
000002d0: 1c3c ec3d abc1 523e 4e4e 153d 347d 07be
000002e0: 1f7f 163e 5eba 213e 2e72 fc3d 83ce 4fbd
000002f0: 7899 a1bd ce5b 1e3d 8a1b e9bd d0ee dcbd
00000300: 8085 673e edc0 963e 02f4 1fbc 99f1 76bd
00000310: 5d41 3c3c 361c 6abc d018 a53d 23e3 be3d
00000320: f0f0 a5be 937a 36be 5cde 643e a2c4 ab3d
00000330: 9b03 3bbd ed40 4cbe d611 2ebe 6ebb 84be
00000340: ade5 a1bd 53f5 053e be16 8a3e 161c 523e
00000350: ded8 a7be 93d7 71be 841a c1bd 5854 8e3e
00000360: 8fc0 663d 96a8 8bbd 2c00 143e 429b dabd
00000370: c1ed 8ebe 3853 5d3e 9546 febd 9849 2ebd
00000380: abe0 96be 34d8 613e b347 853e 914e 073e
00000390: fe81 50be 2327 97be 3bf3 b3be c566 aa3e
000003a0: 5552 383e 5134 973e 8c6e 3e3e d902 ab3d
000003b0: 5e88 6b3d e09c 40be 0dce 5fbe e43f 79be
000003c0: 1521 353e 6c77 45be 0837 ebbd 4441 6bbe
000003d0: 74c6 cabd 29f6 73be fde6 4dbe 7f89 e93d
000003e0: 3cbe adbd 8c45 513e 14cf 0cbe 197f 88be
000003f0: 0d06 d0bc 5a3c f8bd abc2 87bd 8d14 92be
0.27200216 0.34702554 -0.10261581 0.26496577 -0.09520574 0.046010926 -0.11759868 0.21932024
0.31236765 -0.19839434 0.28055364 0.07547327 0.2617617 0.070785925 0.1750262 -0.042767424
0.2644556 0.06126749 -0.1331211 0.095112674 -0.21633472 -0.034865607 -0.14240369 0.19665822
-0.2577901 -0.14568993 -0.09350574 -0.19138715 0.028609624 -0.31356844 0.46670705 -0.3887615
0.16147862 -0.025117205 -0.17566662 0.15841697 0.08529558 0.29169026 0.070750676 -0.063548945
0.13274947 -0.11163873 0.110015735 0.2600227 0.16071269 -0.15189496 0.18710817 0.060984712
0.16499618 -0.18833779 -0.39332107 -0.13752167 -0.23713037 0.26640144 0.09863781 0.13719948
0.11140699 0.0039071892 0.25688502 -0.21528141 0.026695421 -0.29635054 0.0807289 -0.12312021
0.08539101 -0.06778848 0.262244 -0.18713488 -0.188305 -0.18831639 0.35908443 0.15945156
0.26100975 -0.3015449 -0.35230404 -0.2695358 -0.20124988 0.14115669 0.12630464 0.27583334
-0.22367255 -0.24736057 0.17601313 -0.11828661 0.2025641 -0.06788818 0.18077655 -0.2471092
-0.16098763 0.095006526 0.13042814 -0.0921532 0.15963514 0.1859219 -0.2569817 -0.18150254
0.28727266 -0.10725429 -0.11265134 -0.30652407 -0.22475405 0.06542768 -0.08342472 -0.27074093
-0.024095815 -0.22105262 -0.2745465 -0.17251214 -0.2751223 -0.19971094 0.47199875 0.10814975
0.06380369 -0.3261185 -0.23494762 -0.119093165 0.09460491 -0.23339754 -0.09140309 -0.14446466
-0.047450393 -0.1590674 -0.01390147 -0.20428687 -0.20750357 -0.17849658 -0.105317414 -0.24902204
0.26571268 -0.062193334 0.33028844 0.14845298 -0.31855962 0.17101341 -0.13091446 -0.14163662
-0.23941937 -0.28869352 0.11617276 -0.043381363 0.10675565 -0.28904238 0.25613746 -0.21122877
-0.034520827 0.07580737 0.1660686 0.2556395 0.28841147 -0.25040358 0.07991387 -0.18563679
-0.020129105 -0.22174884 0.30141357 -0.2304166 0.17265238 0.11058848 0.10219596 -0.1715313
0.409921 0.116213426 0.012216967 -0.3034453 0.10909352 -0.060894117 -0.107696086 0.3063851
0.10525723 -0.14020658 -0.2097101 -0.054614596 0.14513247 -0.11037364 -0.2042151 -0.1124901
-0.23174861 0.11996724 0.2519678 -0.29051435 0.115349025 0.20581691 0.03645163 -0.13231355
0.1469693 0.1579375 0.123264655 -0.050734054 -0.078906 0.03866177 -0.11382206 -0.10787737
0.2260952 0.29444066 -0.009762766 -0.060289 0.011490193 -0.014288953 0.08061373 0.09320667
-0.32410383 -0.17820196 0.22350448 0.08387114 -0.045657735 -0.19946642 -0.16998991 -0.25924248
-0.07905135 0.13081865 0.26970476 0.20518526 -0.32782644 -0.23617391 -0.094288856 0.27798724
0.056335982 -0.068192646 0.1445319 -0.10674144 -0.27915767 0.21613777 -0.12415806 -0.042550653
-0.29468283 0.22055131 0.26031265 0.13213564 -0.20362088 -0.29522046 -0.35146508 0.33281532
0.18000157 0.29532102 0.18596858 0.083501525 0.057503097 -0.18809843 -0.21855946 -0.24340779
0.17688401 -0.19283837 -0.11485106 -0.22974116 -0.09901133 -0.23824371 -0.20107646 0.114031784
-0.0848355 0.20436686 -0.13750869 -0.26659468 -0.02539351 -0.12120886 -0.06628927 -0.28531304

model.base_model.net.0.bias f4 [128]
00000000: f1e4 47be ad1b 84bd 37b8 00bd 1726 0fbe
00000010: 05ab 6abe 726f 633e 6f0f 5c3e 6e59 8cbe
00000020: e534 cb3d d82b 033e d9a5 9a3e 2446 693e
00000030: b723 953e c967 9fbd 3f25 633e 9268 833e
00000040: a419 87be 2790 7cbe 43fc 8c3d a283 353e
00000050: 8d46 08be b1ca 463d 9781 863c 8097 073e
00000060: afa3 24be 02ac 393e d09a 573e 631e 54be
00000070: 3da5 883b 41af 843c e7ce d03d c8c1 953e
00000080: 9c67 b13d a543 5ebd 3ef5 8f3e 134e f9bd
00000090: d201 a2bd 5526 383d f767 6bbe 96ed 4a3d
000000a0: 7ebd 45be 1cd1 6b3d 0df7 063d 8944 453d
000000b0: 1f4f 72be 83f5 92be 50c8 073e 18b4 973e
000000c0: 9a87 90be 73be fe3d 6e2c 60be 82a8 033d
000000d0: 0621 973e 8a0e 753e 62df 60be 6b74 433e
000000e0: fd06 463e 61ec 1f3a c820 983e dc80 d9bd
000000f0: fe2c 8fbd ce33 20be 5e01 5f3d bedd d83d
00000100: 6264 4c3d d937 29be 6031 08be ed9a c13d
00000110: b214 77be e4a9 34bd aca4 a83a 6937 fcbd
00000120: a25c 053e f332 883c e127 6c3e 0b8f c3bc
00000130: 5ab6 3cbe 3ff7 6d3e 0988 363d ca34 b7bd
00000140: f10e 4abe 57a7 a23d ba5d 8bbe ac93 c03d
00000150: 807d 193e 7976 8fbe 564c 55be e7ca 61be
00000160: 5222 8b3e 05ba 903e a95c f83c 6839 973e
00000170: 014b cebd 6635 99be dea6 fc3d bd5c ff3d
00000180: 6e88 a23e f405 8a3a ecc3 723e 11dc 4d3e
00000190: a30d 703e 51ee 9cbe 00ce 8c3e d519 86be
000001a0: 398c 993e 8e16 1dbb 1c82 8ebe 4ee5 e63d
000001b0: 96a3 85bd 5364 8dbe a3e7 e2bd 4448 003d
000001c0: fdd3 7e3e ed9a a1bd d6d4 3f3e 8ae9 143d
000001d0: e939 9c3c ea04 7d3d 5c9b 4bbe 23b6 82be
000001e0: 7d7b c2bd e79e 90be ebe9 0ebe 8081 803c
000001f0: 78de 41be 2b2a fcbd 916c 32bd ddc6 23bd
-0.19520928 -0.06450591 -0.03142568 -0.13979374 -0.22916801 0.22210482 0.21490262 -0.2741198
0.09922198 0.12809694 0.30204657 0.22780663 0.2912881 -0.07783467 0.22182177 0.25665718
-0.2638675 -0.24664365 0.068840526 0.17725995 -0.13308163 0.048533145 0.016419215 0.13241386
-0.16078065 0.18132022 0.2105515 -0.20714717 0.0041700886 0.016196849 0.101957135 0.29249406
0.0866234 -0.05426373 0.28116792 -0.121730946 -0.079105034 0.04495843 -0.22988878 0.049542986
-0.19310567 0.05757247 0.03295045 0.048161063 -0.23662995 -0.28702936 0.13260007 0.29629588
-0.28228456 0.12438669 -0.21891949 0.032143123 0.29517382 0.23931327 -0.21960214 0.19087379
0.19338603 0.0006100592 0.2971251 -0.10620281 -0.069910035 -0.15644762 0.054444663 0.10589169
0.04990042 -0.1652521 -0.13300085 0.09453378 -0.24128988 -0.044107333 0.0012866459 -0.12315256
0.13023618 0.016625857 0.23062088 -0.02387192 -0.18428937 0.23238848 0.044563327 -0.089456156
-0.19732262 0.07942074 -0.27219945 0.09403166 0.1498928 -0.28020075 -0.20829901 -0.22050057
0.27174622 0.28266922 0.030317621 0.29535985 -0.100728996 -0.29923552 0.12336515 0.1246886
0.31744713 0.0010530339 0.23707551 0.2010348 0.23442702 -0.3065057 0.27500916 -0.26191583
0.29989794 -0.0023969742 -0.2783364 0.11274205 -0.06525342 -0.27615604 -0.110793374 0.031318918
0.24885555 -0.07890878 0.18733534 0.036355533 0.019070582 0.061772265 -0.19883484 -0.25529584
-0.0949621 -0.28246233 -0.1395642 0.01568675 -0.18932521 -0.123127304 -0.04356057 -0.039984573

model.base_model.net.2.weight f4 [128, 128]
00000000: da11 00be e8bc 40bd 4b54 58bc 46d7 3eba
00000010: 1959 d9bb fcf4 79bc 35c9 abbc 8a2c 80bd
00000020: 73d1 8bbc 3d14 f13a 47c7 12bc c6f5 6ebc
00000030: 4f1f 0b3d 1925 163d d6ec a53b 7086 78bd
00000040: 0a1a 8abc dfbb 59bd ec4f 82bd 5bd0 96ba
00000050: dd2c 0bbd 4e5d e5bd dd7e b93d 29cc 333d
00000060: 6231 81bb 65c5 d33d 0e72 ccbd ec48 043a
00000070: 3f20 973d 3f3c 473d a8aa babd 21bc 643b
00000080: b127 5abd 79a2 98bd 67cf f9bb 0b57 e1bd
00000090: 9371 b3bd 2ff2 00be c0a7 d03c 6f33 6a3d
000000a0: c284 aebd 8670 ccbc 87b4 d5bb 3bb3 00be
000000b0: 2432 fb3c f766 963d bbc0 923c 04f6 01be
000000c0: 415b f73b 07cf 503c 84b9 853d d11a 01bd
000000d0: 0bc9 9ebd 12e3 ba3c 66b9 033d 6841 bfbc
000000e0: fd72 6bbd 5566 20bd d4c1 723d d879 aebd
000000f0: 05d6 903d 776e 363d d2c1 c03c 6ce4 783c
00000100: d774 76bb cbc8 0c3d 6284 5dbd 2647 013d
00000110: cf07 c6bc 273f a53c e789 0ebd b666 27bd
00000120: b943 91bc 1dee aa3c 2395 b8bd 02de b8bd
00000130: 59a1 53b9 1f7e d4bd e2ce 343d 4be9 6b3d
00000140: fdfb 80bc 9fee d23d 22d5 d8bd 4fce c9bd
00000150: 23b1 1bbd 8c05 83bd ab20 81bd cbfa d5bd
00000160: 831f ebbd d015 9a3c 1b92 dd3c d7bb cf3d
00000170: 0838 c73d f993 24bd 600e 9d3c 7066 02bc
00000180: 335b 6a3d 2b40 cfbd 1f87 0b3d eeab 7bbc
00000190: 6091 24bb c80e 813c 239e 1abc cf2b 543d
000001a0: 92c2 743d a197 fb3c acd1 1f3d 1181 2f3c
000001b0: 2080 c53d dad3 87bc c124 ab3d 38c8 133b
000001c0: 115c 9f3d 3617 d53c affc b33c 0847 d63d
000001d0: a04c e63b 4faf bfbc b89d 76bd 888a 943c
000001e0: ed73 173d 4aa2 5fbd 4503 d13d 58a0 d03c
000001f0: 1de5 63bd 71d0 c8bb e728 48bd 3944 6ebd
00000200: 0f4c 173d 42e5 02bd fcee 2cbd 5f1d 07bd
00000210: c809 2dbd e9cb a53d ea37 083d 73b9 ba3d
00000220: 6c93 8c3c 13bf 2e3c a0b2 223d 9d5f ce3c
00000230: f07a 92bd 78f1 0cbd 2a6a f4bc 2f64 3abb
00000240: 6af4 373d 7f3b 0d3d 1f3d a33d 73c7 ac3b
00000250: 8c31 eabc 2bb4 3ebd 3716 74bd cef6 61bd
00000260: a47c 123d 5350 2f3d 4851 a43d f9e0 68bc
00000270: 2430 00bc 7625 60bc 0406 823c 2e84 033d
00000280: f842 8438 50ff c73c 17af 1a3c 543e f63c
00000290: 6634 90bc 49ff 2abd 91fc e73c eef0 46bc
000002a0: ae1d 0cbd e8f5 163d 5439 243c 6a4a 253a
000002b0: 57c4 e5bc 1dc6 c43b bc35 9cbd 9c01 053d
000002c0: 4288 883a 3377 583d 15a2 2b3c 9cc1 073b
000002d0: a133 c93c 0e2c 933d 7762 46bd b1f1 533d
000002e0: 252a 3b3d ba97 3abd e5a3 e83c 415f a5bc
000002f0: ef3e 99bc d16f 02bd a030 2ebd 4bf4 963d
00000300: 5520 9fbd a8c4 353d df89 9dbd 6b95 24bc
00000310: 1576 3c3c 998a 883d db3c e7bc 4a8d ed3c
00000320: 9103 913c 4218 703d 56d2 853a 7603 293d
00000330: c999 4fbd a676 21bd 111e 913d e937 79bd
00000340: 0289 16b8 ddcb 91bc 8efd ed3d 0b53 fa39
00000350: 0d3a 8dbd aac2 b7bc 4e72 2a3d 738f 3d3d
00000360: df68 963d 2e86 52bc c02a 4f3d 008d b1bd
00000370: 9dbf 193d f040 563d b4ec 7e3d 719a 86bd
00000380: 7ae0 d0bc 3a87 b23c f3b4 91bd 12ae 4dbd
00000390: 7092 97bd 4052 713c c91a 583d 9364 ed3c
000003a0: 7602 bb3b db32 293d adfb 83bd 199a f63c
000003b0: dc69 b3bc b3c0 c9bc 8fd9 a53d 1832 91bd
000003c0: f42b de3b c70d 99bd e90f 50ba 4877 2dbd
000003d0: 59a6 0f3d 72b9 5bbd b1df b23d 6066 8cbd
000003e0: 05a2 443d 1c5c 8bbd 2110 153d 261a 1cbd
000003f0: a30d 1c3b 76db 78bb 4993 ad3d e8c1 e73c
-0.1250681 -0.047055155 -0.013203691 -0.0007280003 -0.0066329357 -0.015256163 -0.020969966 -0.06258495
-0.017067647 0.0018392872 -0.008958644 -0.014584964 0.033965405 0.036656473 0.0050636334 -0.060675085
-0.01685812 -0.053157683 -0.063629 -0.0011506187 -0.03397833 -0.11199437 0.090574004 0.043895874
-0.0039426545 0.103403844 -0.09982692 0.00050462666 0.07379197 0.04864144 -0.09114581 0.0034902173
-0.05326051 -0.07452864 -0.0076236012 -0.1100293 -0.08761897 -0.12592386 0.025470614 0.057177957
-0.08521415 -0.024956 -0.0065217647 -0.12568371 0.030663557 0.07343858 0.017914167 -0.12691504
0.00754872 0.012744672 0.06529525 -0.031519715 -0.0775319 0.022813354 0.03215923 -0.023346618
-0.05748271 -0.03916009 0.05926688 -0.085193336 0.07072071 0.04453894 0.02352992 0.015191179
-0.0037606263 0.03437118 -0.05408133 0.031561993 -0.024173645 0.020171715 -0.034799483 -0.040869437
-0.017732488 0.020865494 -0.090128206 -0.0902672 -0.00020182635 -0.10375618 0.04414261 0.057595532
-0.015745157 0.102994196 -0.10587527 -0.09853803 -0.038010728 -0.06397542 -0.06305059 -0.104482256
-0.1148062 0.01880923 0.027047208 0.101432495 0.09727484 -0.04018018 0.019171894 -0.007958993
0.05721588 -0.10119661 0.03406441 -0.015360815 -0.0025111064 0.015754119 -0.009437117 0.05179959
0.05975587 0.03071195 0.039018318 0.010711924 0.096435785 -0.01658051 0.083566196 0.002254976
0.07781232 0.026012044 0.021971075 0.10462767 0.0070281774 -0.023399023 -0.060209006 0.018132463
0.03697579 -0.05459813 0.10205702 0.025467083 -0.05563842 -0.006128364 -0.048867133 -0.05817053
0.03693777 -0.03195692 -0.0422201 -0.032986995 -0.042245656 0.080955334 0.03325645 0.09117403
0.01716014 0.010665673 0.03972113 0.025192076 -0.07152355 -0.03440997 -0.02983578 -0.0028441062
0.044910826 0.034480568 0.07970642 0.0052727996 -0.028588079 -0.04655854 -0.0595915 -0.055167012
0.035763398 0.042801213 0.08023316 -0.014213794 -0.007823978 -0.013680806 0.01587201 0.03210848
6.3067244e-05 0.024413735 0.009441159 0.030059017 -0.01760311 -0.041747365 0.028318675 -0.012142403
-0.034207992 0.03685561 0.010023434 0.0006305339 -0.028047724 0.0060050623 -0.076274365 0.032472238
0.0010416585 0.052848052 0.010475655 0.0020714765 0.024560751 0.07186137 -0.048433747 0.051744167
0.04569449 -0.045554854 0.028398464 -0.020187022 -0.018706767 -0.031844918 -0.04252684 0.07370814
-0.07769839 0.044377 -0.076923124 -0.01004539 0.011502762 0.066670604 -0.02822726 0.028998036
0.017701896 0.058616884 0.001020978 0.041263066 -0.05068377 -0.039419793 0.07085813 -0.060844336
-3.5890385e-05 -0.017797405 0.11620627 0.00047745588 -0.06895838 -0.02243169 0.041612916 0.046279382
0.07344221 -0.012849374 0.05057788 -0.08669472 0.037536252 0.052308023 0.062237456 -0.06572426
-0.025497664 0.021792997 -0.071145914 -0.050214835 -0.074009776 0.014729083 0.05275992 0.028978622
0.0057070805 0.041308265 -0.06444488 0.030102776 -0.021901064 -0.024628019 0.08098137 -0.07089633
0.006780142 -0.07473331 -0.0007936941 -0.042350084 0.03507075 -0.05364365 0.08734072 -0.06855464
0.048006076 -0.06804678 0.036392335 -0.038110875 0.002381184 -0.0037972606 0.08475358 0.028290704

model.base_model.net.2.bias f4 [128]
00000000: d5c7 62bb b3f9 2abd 0d3f 74bd fc4f 39bd
00000010: 600a 19bd 87b5 b23d 7d2e 7c3b c428 48bd
00000020: b3d6 07bc 80c6 92bb f44a a73c d487 f03c
00000030: 4128 6a3d 23f0 1abd 9352 a1bc 277c 8ebd
00000040: 27d0 fbbc ae89 9dbd fee6 27bc f941 23bd
00000050: aa0a 16bd bc2a ba3d bea2 a63d 074a bd3c
00000060: 953e 3d3d 4efa 503d 45eb 113c 83ed 983c
00000070: 8dc6 e2bb 4a61 93bd 52bc 8f3d 1706 7bbd
00000080: a3cf cfbc 6f46 94bd 02e8 50bd bff6 b63d
00000090: c2ed a6bb 8f21 b63c eb07 b33c 6c1c 8c3d
000000a0: 0adc a43c ee3c ceba e80e 06bd 9121 373c
000000b0: 8b03 c03c 4197 62bd 2e30 5cbd fb96 1ebd
000000c0: dbcb a33d 5248 373d e09d 463d 5e79 863d
000000d0: 3fbd 44ba 0cbb 77bd 3ed5 af3d 0a96 423c
000000e0: 4bb1 eebc b6e0 073d 2a7f 72bd 899e 623b
000000f0: 21fb 9f3d 806e f93c 5c8a 8dbd 0385 a33d
00000100: cc84 7c3c 8af1 ecbc d867 8a3d 56f1 1f3d
00000110: 6464 643d 8e44 423d 12c1 13bd fa12 52bd
00000120: 4650 723d 5381 e9bb 48bf a33d 6e77 3a3d
00000130: 7b93 abbd d5c6 563d 66bf 3f3d efd6 a5bd
00000140: 5d91 ad3b aded 90bd c16e 483d e89a 643d
00000150: 39be fb3c 2993 6d3d 9d03 32bd 11cd 2c3b
00000160: d998 a0bc 2864 7d3d dfef 7b3d 039d cfbc
00000170: 5a09 87bd ebaa 67b9 5e00 9b3d c994 b4bc
00000180: 5a27 123d 44e1 78bd b1dd 65bd c9b1 95bd
00000190: 52bb 9bbd cdd3 0ebd 83a8 01bd b488 1d3d
000001a0: 0430 9c3d 23e9 f03b 0952 093d cbde 54bd
000001b0: 04b4 ffbc d4d2 a4bd 71b9 a93d ed00 4c3c
000001c0: b1c6 d2bc d0c8 99bd 6498 a83c dfb1 b4bd
000001d0: 65e6 623d 6cfc a6bd 2213 8f3c 5a1c 563d
000001e0: 880f 93bd b11c 813d 20b7 9f3d 3355 6f3d
000001f0: 2ca8 a83d 8fea 17bd 9f2f 78bc 5e09 a93d
-0.0034603972 -0.041742038 -0.059630442 -0.045242295 -0.03736341 0.0872603 0.0038479858 -0.048867002
-0.008290934 -0.0044792295 0.020421483 0.029361643 0.057167295 -0.03782667 -0.019692695 -0.06957274
-0.030738903 -0.07692276 -0.010247944 -0.03985784 -0.036631264 0.09090182 0.08136509 0.023106588
0.04620226 0.05101996 0.00890619 0.018667942 -0.0069206418 -0.07196291 0.07018341 -0.061285105
-0.025367564 -0.07239997 -0.05100251 0.08933782 -0.005094261 0.022232799 0.021854362 0.068413585
0.020124454 -0.0015734711 -0.03272906 0.011177436 0.02343919 -0.05532003 -0.053756885 -0.038718205
0.07997867 0.044746704 0.048490405 0.06566118 -0.00075050065 -0.060481116 0.085855946 0.011876592
-0.029137274 0.033173285 -0.059203304 0.0034579358 0.07811571 0.030448198 -0.069111556 0.07984354
0.015412521 -0.028923769 0.06758088 0.039048515 0.055759802 0.04742866 -0.036072798 -0.05128763
0.059158586 -0.0071260124 0.079954684 0.045524053 -0.08377739 0.052435715 0.04681339 -0.08097636
0.0052968697 -0.07076583 0.04893375 0.055811793 0.030730354 0.05800167 -0.043460477 0.0026367346
-0.019604133 0.061863095 0.061508056 -0.025343424 -0.065935805 -0.00022093549 0.075684294 -0.022043603
0.03568206 -0.060761705 -0.056119625 -0.073093005 -0.07604088 -0.034869958 -0.031654846 0.03846045
0.07626346 0.007352011 0.0335255 -0.051970284 -0.031213768 -0.08048025 0.08287323 0.012451393
-0.02572951 -0.07509005 0.020580478 -0.08822989 0.055395503 -0.081536144 0.017465178 0.052273132
-0.07180697 0.063043006 0.077986 0.05843086 0.08235201 -0.037088927 -0.0151480725 0.0825374

model.base_model.net.4.weight f4 [128, 128]
00000000: 3f9c 74bc 6686 60bd 1c1f 963d f909 89bd
00000010: 3ca1 40bd 2b19 b03c e6e3 bd3d d813 76bd
00000020: 77b3 e2bc 03c4 c5bc d51f 09bd 0f67 1d3d
00000030: 6b2c f4bb 725d 12be 4a5a f9bb 36d4 063c
00000040: f397 6bbd c082 103d bd92 dcbd 82a4 94bb
00000050: 6e34 e23c 324a f73c 533c ff3c 9ab4 a2ba
00000060: 3305 a0bc 4834 3f3d 0a05 e63b 2272 9e3d
00000070: a47a a43d 0034 d2bd 2e45 b23d c790 f83c
00000080: 2c18 9cbd 4f6a 60bd e967 75bd a017 013e
00000090: 1c06 4a3d 09bb 83bb ee82 afbd a499 60bd
000000a0: dd49 76bd 472a 3abc c7fc 1dbe 8568 d5bd
000000b0: 4be3 60bd 2aa8 173d b191 5e3d 7ac0 0f3d
000000c0: f03c b73d 3f16 843d 1eba 24bd 44b0 6b3d
000000d0: 7105 1abd 46d2 703d 4707 2ebd 7b61 a8bd
000000e0: 0947 eebc f213 9bbd 3ffd 28bd 2ca0 84bd
000000f0: ab90 223c 165e a9bc 4511 41bd 2654 b7bd
00000100: ce98 d3bd 45f2 d8bd e39b 98bd 1cd2 af3d
00000110: 2389 f13c d4a2 4b3d c71c ef3d 432c 7cbd
00000120: 9a31 2ebd 8b94 46bd ca96 77bd 0462 863d
00000130: 2b94 cfba 9c45 01be 1ada 4a3d ee5e 9abd
00000140: e3da 773d 2723 a53b fc83 ba3c 1138 963b
00000150: 2943 46bd 2e18 26bb 6c3c b3bc 296e acbc
00000160: 31fe 74bd d78a 99bd 6937 38bd a87f 87bd
00000170: 510a e4bd d8d8 fc3d e058 1bbe 60a2 79bd
00000180: e0f0 18bc 17a8 62bd c08c bbbd 8e84 2c3a
00000190: 34db 00bb 670c 06bd e4bd 2a3e 3e21 423b
000001a0: d9a2 8abb 1f90 713c aa0b 21bd b2cf 36bd
000001b0: 76f2 ae3d 4115 87bd e4dd b0bd af68 74bd
000001c0: 1ddc c63c 37f3 6a3d 5434 f7bd e27b 84bd
000001d0: f129 193d 3cd5 003e c83c d93a 23d1 8cbd
000001e0: 41d1 a93d f323 23bd 5514 b6bd b9ca 833d
000001f0: e05b a8bd 08dc 5e3d 413d 20bd 8753 833d
00000200: b83f 2b3d e534 f8bc 4852 4f3d cbeb df3d
00000210: 5254 17bd c8d9 523d 74ce 4ebd e5aa 44bd
00000220: e118 fcbc 5397 b4bd e590 673d 9497 033d
00000230: 2013 41bd ca54 1bbd a614 6d3d 550b 8c3b
00000240: b7f7 4dbd ff05 d43b 7ee7 94bc f711 e63c
00000250: 5d2d 3ebd 0408 42bd c5ed dfbc 3ef9 95bd
00000260: a81d 1e3c 5e32 4a3d 166e 61bb 0ff6 293d
00000270: 5571 9bbc 1abb 11bd 2e9b 6cbd 1d88 97bd
00000280: 8ce0 86bd bf81 f1bc 9f67 bd3d 99b1 9bbd
00000290: c68e a83d 989e 5f3d 045f 8e3d 1a57 583d
000002a0: e20e 6d3d 838a ab3d f65b 833d 04cd 8f3b
000002b0: 9f7a 513d d1fb 8e3c fba4 6fbd 7590 3d3d
000002c0: be4a c63d c745 8f3d bfd6 0bbd e70b 8e3b
000002d0: 2017 423d 5b8d 5c3d 6c3c 93bd d9b9 083d
000002e0: 8d3e 283c 2851 cf3d b083 6c3c 2215 d1bc
000002f0: 0ce3 27bc be0f af3d 1ee8 06bd 6a3c e33c
00000300: 6020 cd3d 1750 68bd f11b 83bc c11d a4bd
00000310: 597a d0bb 0e60 2f3d 02e7 8e3c dcf7 8c3d
00000320: 0259 47bd cedd 3f3d c8f6 62bd a518 e63c
00000330: beff d6bc 62f4 d83d f21b d5bb 4db2 cd3c
00000340: b81e 8ebd 7a24 a63b 0f33 8a3d d914 b7bd
00000350: f536 d23d 2aba 4b3d 6bb3 aebc 25c0 94bd
00000360: 48fa a03d 01ac febb d4b2 233d 853d bebb
00000370: 27c0 c43d 61eb 5ebd 8c70 7f3c 36fd 443d
00000380: ac44 04bd f7c8 b6bc d4ae 21ba 362c bf3d
00000390: f4c1 053d 46dd 9abd b75d 523c 7e0b f13c
000003a0: f7eb eb3c 2b41 ef3d 5c49 b8bc 7273 1cbc
000003b0: fefe 743d 20c3 9c3d 5076 a2bc 3eef 5c3c
000003c0: bf3a 013c 1f1c 793d 403f 21bc b985 3abc
000003d0: bd22 633d 5e17 d1bc 093e 27bd eee1 943d
000003e0: fc6a 0ebd 569c 7e3d af5d acbc 8207 a1bd
000003f0: 316b 4ebd 4947 84bb 97be 893d ef4c c7bc
-0.01492983 -0.054815672 0.073301524 -0.06691355 -0.047028765 0.021496376 0.09271984 -0.06007752
-0.027673466 -0.024141317 -0.033477623 0.038428362 -0.007451584 -0.14293459 -0.0076096402 0.008229306
-0.057517957 0.035280943 -0.107701756 -0.0045362124 0.027612891 0.030186746 0.031156695 -0.0012413443
-0.01953373 0.04668072 0.0070196437 0.07736613 0.08031204 -0.102638245 0.08704601 0.030342473
-0.07621798 -0.054788884 -0.05991355 0.12606668 0.049322233 -0.004020099 -0.08569895 -0.054834023
-0.060129035 -0.011362619 -0.15428458 -0.10420326 -0.054904263 0.037025608 0.05433816 0.03509567
0.0894717 0.064495556 -0.040216558 0.057541147 -0.037602846 0.058794282 -0.04248741 -0.08221718
-0.029086607 -0.07572164 -0.04125714 -0.06475863 0.009922187 -0.020674746 -0.04713561 -0.08951597
-0.103318796 -0.10593084 -0.07451608 0.08584997 0.029484337 0.049715832 0.11675411 -0.06156565
-0.042527772 -0.048481505 -0.060446538 0.06561664 -0.0015837004 -0.1262421 0.049524404 -0.07537638
0.06051148 0.005039591 0.022768013 0.0045843204 -0.048403893 -0.0025344002 -0.021879397 -0.021048622
-0.05981273 -0.07497185 -0.04497472 -0.06616145 -0.1113478 0.12346047 -0.15170622 -0.06094587
-0.009334773 -0.055336084 -0.09157705 0.00065810315 -0.0019661905 -0.03272667 0.16674 0.0029621865
-0.0042308387 0.014743834 -0.039317764 -0.044631667 0.085423395 -0.06595851 -0.08636072 -0.059670147
0.02427488 0.057360854 -0.12070528 -0.06468941 0.037393514 0.12581342 0.00165739 -0.06875827
0.08291865 -0.039829206 -0.08890597 0.06435151 -0.08220649 0.054409057 -0.039120916 0.06412416
0.041808814 -0.03029866 0.05061558 0.10933646 -0.03694565 0.051477224 -0.050489858 -0.04801454
-0.030773582 -0.08817925 0.056534667 0.032126978 -0.04713738 -0.037922658 0.05788102 0.004273812
-0.050285067 0.0064704414 -0.01817679 0.028084738 -0.04642998 -0.047370926 -0.027335057 -0.0732293
0.009650625 0.04936444 -0.0034397892 0.041494425 -0.01897494 -0.035578825 -0.05776518 -0.073990084
-0.06585798 -0.029480813 0.0924828 -0.076022334 0.08230357 0.054594606 0.069517165 0.05281744
0.05787552 0.083760284 0.064140245 0.0043884534 0.05114233 0.01745406 -0.058506947 0.046280343
0.09682225 0.06995731 -0.034140345 0.004334915 0.047385335 0.053845745 -0.07189259 0.033380363
0.0102688195 0.10122901 0.014435694 -0.025522772 -0.010247003 0.085479245 -0.032936208 0.027738769
0.10015941 -0.056717005 -0.016004534 -0.080134876 -0.006362241 0.042816214 0.017444137 0.06883213
-0.04866887 0.04684239 -0.05541113 0.028087923 -0.026244994 0.10593487 -0.0065035755 0.025109435
-0.06939453 0.0050702663 0.0674802 -0.08939523 0.102643885 0.049738087 -0.021325788 -0.07263211
0.07860237 -0.0077719693 0.039965466 -0.0058056735 0.09606963 -0.054423694 0.015590798 0.048093043
-0.032292053 -0.022312624 -0.0006167714 0.093346044 0.03265567 -0.07561736 0.012839726 0.029424425
0.02879904 0.11682352 -0.022495918 -0.009549009 0.059813492 0.07654405 -0.019831806 0.013484774
0.007887541 0.060817834 -0.00984174 -0.011384421 0.05545305 -0.025523838 -0.040830646 0.07269655
-0.034769997 0.062160812 -0.021040766 -0.0786276 -0.050395194 -0.004036818 0.06725805 -0.024328677

model.base_model.net.4.bias f4 [128]
00000000: cc92 06bd de7b a33d eaf6 e9ba fce5 ad3d
00000010: d435 d9bc a391 793d eea1 96ba d4c8 00bd
00000020: 016b 933d ed81 87bd e2b2 6cbb bc67 753c
00000030: 3af8 5abc ae84 2ebd 5e70 acbc 8437 523d
00000040: d3cc 18bc 82dc 1cbd e3a7 f9bc 8f46 81bd
00000050: 5b74 6e3d a7a8 9bbd b8de 27bd e762 9b3c
00000060: 9008 a13d 0ae7 8ebd 68b1 7b3c 3120 82bd
00000070: 0f7a 7c3d c0a0 903d e503 6b3d 42ca 2abd
00000080: 7abc 54bd c5c5 47bd 5518 e1bc 2ce3 303d
00000090: e01e 5cbc e176 a13d 59ae 9ebd 2867 af3b
000000a0: c7f2 8fbd 5842 9ebd 02fc 67bd be85 1a3c
000000b0: b9d4 a8bd 7219 8dbb b5ec 2ebd 7c74 50bd
000000c0: 9f5c a63d 382a ddbc 0e30 a4bd a9f1 6b3d
000000d0: 0bf6 b3bd 5e2c d7ba 6db2 8dbd fd7a 483d
000000e0: 57ea 053d 6ec8 55bc fe72 bbbc 3e0e 83bd
000000f0: 33fd 81bd 3c93 133d 3d1f 83bd ea70 b9bc
00000100: 21d4 833d 2bf6 a7bd 07b1 ce3a 11d5 d8bc
00000110: 1b61 243d 09ca e9bc 69bb 983d 8a07 e53c
00000120: 7642 57bd a1ae 9d3c 0fbd b9ba 1bc9 26bb
00000130: 0682 4bbd 2b79 3c3d 9c6b 8b3c 4ec5 9bbb
00000140: 1a80 35bd e68c ad3d 992c 93bd 4271 093d
00000150: d370 9cbd 9340 90bd 06be 083d 0eec 8a3c
00000160: 21d5 43bc d31e 233d e52e e7bb 7941 ee3c
00000170: 6d9b 92bd db26 203d 5963 b5bc ce42 733d
00000180: 2928 83bd 323d 803c e843 e5bc b579 153d
00000190: efaf 81bd f2de 8fbd ae7a fc3c 638c 7f3b
000001a0: 677a 6dbd 78d4 6fbd 7471 90bd 54bf aa3c
000001b0: 18e2 123d 6bcc 32bd 939b 6c3d b335 4e3d
000001c0: 4715 433c b2d1 4bbd 60fd 82bd 65fa 0bbd
000001d0: 8d4f 5dbd c217 a73c 086c 7d3d a564 9c3d
000001e0: 6078 2abd 4308 34bd 9e8c 633c 8337 bcbc
000001f0: 2291 5e3d d0f2 9abd 10f3 2b3d 7d94 983b
-0.03285484 0.0798261 -0.0017850075 0.08491132 -0.026514925 0.060929906 -0.0011492351 -0.031441525
0.07198144 -0.06616578 -0.0036117365 0.0149783455 -0.013364846 -0.042607002 -0.021049675 0.051322475
-0.009326178 -0.03829623 -0.030475562 -0.06312286 0.058216434 -0.07600527 -0.040983886 0.018968059
0.07862961 -0.06977661 0.015362121 -0.06353796 0.06163984 0.07061911 0.05737676 -0.041696794
-0.051937558 -0.048772592 -0.027477423 0.043185398 -0.013435096 0.078840025 -0.07748098 0.0053528734
-0.07028728 -0.07727498 -0.056636818 0.009431301 -0.082436986 -0.004306012 -0.04270621 -0.05089234
0.08123135 -0.02699767 -0.08016978 0.057603512 -0.08787163 -0.0016416421 -0.06918798 0.048945416
0.032694187 -0.013048274 -0.022881981 -0.06399201 -0.06347122 0.036029086 -0.064024426 -0.02263685
0.06436945 -0.0820125 0.0015769311 -0.026468785 0.04013167 -0.02853872 0.07457621 0.027957696
-0.052553616 0.019248309 -0.0014170724 -0.0025449458 -0.049684547 0.046013992 0.017019086 -0.004753745
-0.04431162 0.0847414 -0.07186241 0.033555277 -0.07638707 -0.070435666 0.033384345 0.016958263
-0.011952669 0.03982432 -0.007055151 0.029083954 -0.07158551 0.039099555 -0.0221421 0.05938988
-0.06404144 0.01565418 -0.027986482 0.036493022 -0.06332385 -0.07024945 0.030820217 0.003899359
-0.05797806 -0.058552235 -0.070528895 0.020843185 0.03586015 -0.04365198 0.057765555 0.05034418
0.011906928 -0.049760528 -0.06395984 -0.03417434 -0.054030944 0.02039707 0.061870605 0.07636384
-0.041618705 -0.04395319 0.013888506 -0.022975689 0.05433763 -0.07565844 0.04197985 0.004656373

model.base_model.net.6.weight f4 [128, 128]
00000000: 508a 6d3d 0ea9 0ebd a652 623c 20eb d43c
00000010: 9bc5 6abd bbbb 90bd fe13 4b3d f9c9 30bd
00000020: c17a 383d 61dc 963c 8a6e 1e3c 985c 8b3d
00000030: 0d15 c3bc ca9f e3bc 824b 1a3d 5dea 193d
00000040: 1ac0 8f3d 50b4 ab3d 7c68 b83d 7eb9 163d
00000050: 7d95 9dbc 3e2a 9cbd 7c5f 44bc 9b12 51bc
00000060: c5de a53c 9d24 87bd a2d0 90bc 9fda 4d3d
00000070: 4010 6ebd 7a67 17bc c468 033c 46d2 723d
00000080: bf72 f03c d8ac d23d 4980 873d e50b f33c
00000090: 5962 c4bc db2b 89bd 0cf9 473d 87b3 90bd
000000a0: 7c42 36bd ed9e 5bbd a3ac de3b f0c1 a43c
000000b0: 1439 2e3d 6ae6 023c c1f5 adbd fcfa 203d
000000c0: 8e26 61bd 5700 1e3c ad66 71bd 7ce3 f43c
000000d0: b1c9 b5bd 31cc 7a3d 5b89 473d 9dca cabc
000000e0: e2e5 26bc 832e 503b 7c90 99bd d7e3 31bd
000000f0: 2812 9b3c 7587 643d 6fe5 2c3d 033d 803d
00000100: 8b64 853d 5a1b 733d a6e0 99bd 665f 153d
00000110: 087c 22bd 8f5f 52bc 2b17 2ebd b2c5 243d
00000120: 3572 dbbc 7b93 203d e48f 0d3d c54a 4c3d
00000130: 16d6 863d 5d61 d23c b5b5 14bd b8d1 363d
00000140: 1374 c03d 3f3b 583d 62c8 8fbd 5201 593d
00000150: df63 b3bc 5903 ec3d ce1c f5bc 9c63 08bd
00000160: cfc9 323d a680 cebd 84c0 0f3d ef16 763d
00000170: b11d df3a 1562 8ebd f7b2 dbbd 50d4 90bd
00000180: 5413 6abd 1d2a 1a3d 8707 bdbc 0222 18bd
00000190: d157 a03d 99a6 f73b 4dbd 9ebd 0716 5c3c
000001a0: d9e3 363d 4966 0fbd 9f4f ae3c 99d8 17bd
000001b0: 8a03 adbd 7d55 96bd c347 01bd 78bc 4f3d
000001c0: 6bde 843d ef6f 83bd a3ad 823d d552 88bc
000001d0: 11e5 3abc e789 323d d5b7 a03a 2286 0f3d
000001e0: 5d2f afbd e1bf d83c 8930 cbbd d56d 873d
000001f0: 1963 d33d 6318 b8bd 6c0a 853d 1d89 613d
00000200: 0f80 b9bd 99ec 803b 1e55 8dbd 41ba 5dbd
00000210: 3008 40bd 840b 09bd b746 a7bd 0a0b 90bc
00000220: 80c0 a13d 4338 4f3b 9cf2 6c3c bfa4 95bd
00000230: b658 b13d 3ec6 4b3d 9d18 9e3b b473 043e
00000240: a81f 0b3e 7ecb 893d 92bb b0bd 855c 4dbd
00000250: 20cc 22bd a28b a0bc 2444 dc3b 98f3 12bd
00000260: 8221 3dbb a3f6 f1bc 39e9 a5bd cd91 9bbd
00000270: 9a42 fb38 8e02 803d 883e a43d 5fd7 e93d
00000280: 3b00 92bd 70ed 593c 15e6 2abd ca0e ec3c
00000290: 0436 b43d f293 723d 32f4 343d c6b0 93bd
000002a0: 612d a13d c1fd 94bd 06e1 aabd b3bb 403d
000002b0: 522d a23d 69da 173d 1d44 ddbd f0dc 453d
000002c0: 35d2 e6bc 75f3 d1bb 2a84 d6bc a367 633b
000002d0: 0f0b 01bd 446c 9dbc 61c2 663d d0fa 59bd
000002e0: 6516 62bd e754 a03d c9b6 2cbd cef3 c0bd
000002f0: 9699 103d e264 f73c c40c 40bc fbe4 0fbb
00000300: 1723 dd3d 681a 833d 54e4 2dbd 19e5 773d
00000310: cb10 91bc c5d7 75bd 7fd6 003d c4d1 89bd
00000320: 545f 843d 59ea b33c 45c0 d73c fe8b 54bb
00000330: 1595 873d 5043 ff3c 2fee 553d e6ff 15bd
00000340: 1cb4 bd3c 1f07 693d 2ee3 643d 703b 9b3d
00000350: f599 76bd c524 063e 4cf3 af3c 1169 4abd
00000360: 5c41 d1bc 1342 df3c aec3 b53d 6de6 993d
00000370: c663 4d3d d22c 52bd c8f1 ccbd ef7b bbbb
00000380: 5a60 13bd d03d 97bd c684 b1bd b41a 0e3c
00000390: b2e4 c53c 6e07 aa3c c276 7bbd 5ae3 8abd
000003a0: d610 26bc 509d fe3c fa9e 013d 7b49 dc3c
000003b0: 806e 01bd 3b4e 41bc 61ce 013c 3882 223d
000003c0: 793a 5e3d 682f 05bc a34a 533c 0b3f f93d
000003d0: f1b5 84bd c03d 6e3d 63bb 96bb dfd0 b2bc
000003e0: 41ef 38bc 0e4e 5bbd 7c72 c8bb b3e2 733d
000003f0: d12d b03d f5dc c83d 37de b63d 9a65 743d
0.057993233 -0.034829192 0.01381365 0.025991023 -0.057317358 -0.07067057 0.049579613 -0.043161366
0.045038942 0.018415632 0.009669909 0.0680477 -0.023813749 -0.027786154 0.037669666 0.037577022
0.07019062 0.08384001 0.09004304 0.036797993 -0.01923632 -0.076252446 -0.011985656 -0.012760784
0.020247826 -0.0659878 -0.017677609 0.05025732 -0.058120966 -0.009240979 0.008020584 0.059282564
0.02935159 0.102868736 0.06616265 0.029668758 -0.023972677 -0.06697818 0.048821494 -0.07065492
-0.044497 -0.05361836 0.0067954822 0.020112008 0.042534903 0.007989505 -0.084941395 0.039301857
-0.05496841 0.009643636 -0.05893581 0.02989363 -0.0887636 0.06122989 0.048714977 -0.024754817
-0.010186644 0.0031766004 -0.07498261 -0.043430176 0.018929556 0.055793244 0.042210992 0.06261637
0.06513318 0.059352256 -0.075135514 0.036467932 -0.039669067 -0.012840166 -0.042502563 0.0402276
-0.026787857 0.03920315 0.034561053 0.049875993 0.065838024 0.025681192 -0.0363061 0.044633597
0.093971394 0.052790876 -0.07020642 0.052979775 -0.021898208 0.11524076 -0.029920962 -0.03329812
0.04364949 -0.100831315 0.035095707 0.060080465 0.0017022399 -0.069523014 -0.10727494 -0.070717454
-0.05714734 0.03763782 -0.023074878 -0.037141807 0.0782925 0.007557702 -0.0775095 0.013432986
0.044650886 -0.035009656 0.0212782 -0.037071798 -0.08447941 -0.07340524 -0.031562578 0.050716847
0.06487735 -0.06417834 0.06380775 -0.01664106 -0.011407153 0.043588545 0.0012261817 0.03504003
-0.08553956 0.026458682 -0.09921367 0.06612746 0.10321636 -0.089890264 0.064961284 0.055062402
-0.09057628 0.0039344546 -0.069010004 -0.054132704 -0.04688281 -0.033458248 -0.08167785 -0.017583389
0.078980446 0.0031619228 0.014462139 -0.073068134 0.086594984 0.049749605 0.0048247115 0.12934762
0.13586295 0.06728266 -0.08629526 -0.05013706 -0.03974545 -0.019597832 0.00672199 -0.03587684
-0.0028859084 -0.02953655 -0.08101124 -0.07596169 0.00011981018 0.06250487 0.080197394 0.11418032
-0.0712895 0.013301238 -0.04172333 0.028815646 0.08799365 0.059223123 0.044178195 -0.07211451
0.078699835 -0.07274962 -0.08343701 0.047054004 0.079188004 0.037073527 -0.10804007 0.048306406
-0.028176406 -0.006407196 -0.026186068 0.0034699223 -0.031504687 -0.019216664 0.056337718 -0.05321771
-0.05519714 0.07828694 -0.042166505 -0.09421502 0.03530272 0.030199472 -0.011721794 -0.0021956551
0.107977085 0.06401521 -0.04245408 0.06052122 -0.017708203 -0.060020227 0.03145456 -0.06729463
0.06463495 0.021962332 0.026336798 -0.0032432075 0.06620232 0.031160027 0.052229103 -0.036620997
0.023157172 0.056891557 0.055880718 0.07579696 -0.06020542 0.13099964 0.021478318 -0.049416605
-0.025543861 0.027253186 0.088752136 0.07514653 0.05014398 -0.051312275 -0.100070536 -0.005721561
-0.03598056 -0.07384837 -0.08667903 0.008673359 0.024156902 0.020755496 -0.061392553 -0.06781645
-0.01013585 0.031080872 0.031645752 0.026890507 -0.03159952 -0.011798437 0.00792274 0.039674968
0.054254983 -0.008128978 0.012896213 0.121702276 -0.06480015 0.05816436 -0.004599975 -0.021828113
-0.011287511 -0.053541236 -0.006117163 0.05954237 0.08602489 0.09807769 0.08929103 0.059667207

model.base_model.net.6.bias f4 [128]
00000000: 98bd 48bd c96b a5bd cf64 b9bc 70bf ca3b
00000010: df50 2f3c d85e b6ba bb96 b3bd 8353 dfbc
00000020: d806 4cbd 3fa9 89bc ac47 35bd 3831 a1bb
00000030: 8a61 97bc 23e8 94bd 54f9 293d 0233 d33c
00000040: b9fa ce3c e7ea f83c d2d2 aebb d559 b63c
00000050: 24aa afbd ef7e 793d 4016 953d df48 d7bc
00000060: 0c87 943d ea30 e7bc 84ef 083d 9f8b 15bd
00000070: 5eab 56bd 20c0 22bd 5c6f 823d ead3 efbc
00000080: c455 8cbd 829a 0b3c 61da 6abd 703c 6ebd
00000090: f773 54bd 9760 64bd a7a5 5cbd b18f 103d
000000a0: 73bd 08bd 9b69 b73c 32da a23d fba3 cd3c
000000b0: 61fe bb3d 1d98 8e3d 39d5 113c 7bd0 1e3d
000000c0: 3540 a43d 7c13 73bd 0aae 51bd ae0f 7b3d
000000d0: b804 333d 886b de3c 3c2d a43c bc1a 52bd
000000e0: f3de 0c3d ca64 30bb a25f bc3b 03b7 a93d
000000f0: 3739 453d dac8 06bb cd60 abbc 3793 4bbd
00000100: ff31 2e3d c9e6 b13d de05 3ebd 6f93 64bd
00000110: 20e8 693d 848e 92bd c4a2 ab3d 6501 6c3c
00000120: 0e7b a73d 7046 7f3b 7142 fa3c fb22 a5bd
00000130: d698 79bc 32a9 8e3d 842e 06bd 58b2 9c3d
00000140: 9041 51bc 983e 43bd 29bc 38bd 2207 90bd
00000150: 101a f53c 875b 42bd b391 003d 9f40 d7bc
00000160: 1c1a 553d 6c7e 6b3d 5e81 84bd 1697 48bd
00000170: 2d77 653d b5d9 d0bc 2660 94bd 902f 40bd
00000180: 832d 9dbd b318 66bd ad63 9a3b c789 7e3d
00000190: 913c 8f3c 8d5e 053c 88fc 6dbb efe7 40bd
000001a0: 5e94 233d c7f5 823d 3ab1 f93c 2472 9b3d
000001b0: 586e bb3d 4245 d23b 1b83 4bbd 7ca9 883d
000001c0: 71b8 463c e229 60bc 70d2 4abc b0ce 1f3c
000001d0: 1975 34bd a256 493d f01d 8cbd e113 1b3c
000001e0: afcc b4bd 931a 1a3d fe9f 23bd 9fb4 18bc
000001f0: 4f94 943d afa1 913c 20dc 793b 1c04 f13c
-0.049008936 -0.08077199 -0.022631077 0.006187372 0.0107004335 -0.0013913764 -0.08768984 -0.027261501
-0.049811214 -0.016804336 -0.044257805 -0.0049191974 -0.018479127 -0.07270839 0.041497543 0.025781158
0.025266038 0.030385448 -0.0053351903 0.022259632 -0.085773736 0.06091207 0.072796345 -0.026279865
0.07252321 -0.028221566 0.033431545 -0.036510106 -0.052409522 -0.039734006 0.06368896 -0.029275853
-0.06852296 0.008520724 -0.05733717 -0.058163106 -0.051868405 -0.055756178 -0.053868916 0.035293285
-0.033383798 0.022389224 0.07951774 0.025102606 0.09179378 0.06962607 0.008900934 0.03877304
0.08020059 -0.059344754 -0.051191367 0.06129425 0.043705672 0.027150884 0.0200411 -0.051295027
0.03439231 -0.0026915544 0.005748705 0.0828686 0.048150267 -0.0020566494 -0.020920182 -0.049700942
0.04252815 0.08686597 -0.046392314 -0.055804666 0.057106137 -0.07156089 0.083806545 0.014404629
0.08177768 0.0038951896 0.03054926 -0.080633126 -0.015234193 0.06965865 -0.032759205 0.07651204
-0.012771979 -0.047667116 -0.04510132 -0.070326105 0.029919654 -0.04745057 0.03138895 -0.02627593
0.052026853 0.057493612 -0.06469987 -0.04897221 0.056021858 -0.025494436 -0.07244901 -0.04692036
-0.07674696 -0.0561759 0.0047115893 0.062143113 0.017484935 0.008140218 -0.003631385 -0.04709619
0.039936416 0.063945346 0.030480016 0.0759013 0.09151906 0.0064169476 -0.04968558 0.066729516
0.012128935 -0.013681861 -0.012379274 0.009753868 -0.044056986 0.049154885 -0.068416476 0.009465189
-0.08828103 0.037623 -0.039947502 -0.009320407 0.0725485 0.017777292 0.003812559 0.029420905

model.base_model.net.8.weight f4 [128, 128]
00000000: dd84 b039 886b 373d 4403 b7bc 5fb2 9e3d
00000010: 1cb3 513d b63b b3b9 8c58 ad3d c643 1d3d
00000020: 6b15 883d c9b3 dabd 6715 f3bd 8ec6 74bc
00000030: 8cf1 c03c 2649 33bd 9a9b 58bc 530c 7f3d
00000040: 2ecc b53d ed1b e63c 18a1 e33d 6343 8f3d
00000050: f937 e13c dece 443c c57e d1bc 37ae 3bbd
00000060: f7ce 023d b187 1e3c 41fd 51bd 073b 6aba
00000070: d043 05bd 35e8 093c 98a1 493d c95b 8a3d
00000080: d472 84bd 0b57 7f3c 13a4 1abd ac74 abbd
00000090: dd3a 293d ae66 b03d f639 bb3d c17b 943d
000000a0: 159f c4bc 472c de3c 0aa8 933c 9b96 78bd
000000b0: 3b55 b93d 5b5b 34bd 2679 053d 2174 2dbd
000000c0: bd6b 013d baa3 753d 8c8f 3a3b 88f8 19bd
000000d0: dfd3 403d 3c71 d1bd 206a 86bc 98d8 a4bd
000000e0: 9793 be3b ea9d 083d ffae 2b3d 427b ccbc
000000f0: 0a0e 3ebd 1102 293b dfc2 2bbd 29ee a0bd
00000100: 57b4 643d 844c cb3c 0c36 79bd 024b bdbd
00000110: 2b51 9c3c 3045 c7bc 428a 30bd 6b6f 9c3d
00000120: 4341 143d bb2e dc3d b37a 05bc d4b4 6d3b
00000130: 077b 25bd a5cf 0f3d 8fba 19bd 8f53 98bb
00000140: 8502 efbc ebd9 573d 0f20 1f3d a6c4 cfbd
00000150: 2c42 933b 0000 b83d 7fb9 553c ba11 773d
00000160: dd4f c0bc 4d53 81bd 45ff 3e3d 753c 9ebc
00000170: 2953 263d 12a9 9a3d 56ac 59bd 0a26 b8bd
00000180: bf11 1fbc bae3 38bd 23ef 863d 84aa 5e3d
00000190: b04e 4a3d 50fb 78bd 0ff0 e73c e5cd 133b
000001a0: d0aa cbbc 6bed 4abd e18f 2e3d 860c 9a3b
000001b0: a3cd 923d 05f9 fb3b b53b 053d 8257 c03c
000001c0: c378 90bd 9ab2 70bc ace0 bdbc dab6 07bd
000001d0: a92d 433d 94ae 45bd 1228 85bd fea7 cfbc
000001e0: b6e0 8abd 250c 00bc a6f3 ccbd 337d cebc
000001f0: d31d 80bd 91fc cdbd b83a ba3d 26ff 993d
00000200: 1c30 60bd e480 133c 6c4a d0bd f50c 15bd
00000210: 424e babd 80a5 25bd 785b d83d 7e47 453d
00000220: 1431 503d 2795 99bd f77f aa3b a7f1 893c
00000230: 2dc4 023d 1e93 f6bb 5fea 24bd 59a1 6a3d
00000240: 58c8 e33d c6e2 903b 73d4 f93d 6f8e 58bc
00000250: bad5 eb3c b5f5 663d 5108 d7bc 9e95 493d
00000260: 69bc 12bd 1a23 52bd 9025 7abc c34a 623d
00000270: 5712 0a3d 6947 543d 5ad8 bbbc e863 923d
00000280: df22 a4bd d824 8f3c 34e7 4b3c 4619 343d
00000290: c5d9 69bc 46b0 0f3d 8d71 49bd e29c e63c
000002a0: 08ff 05bc f0eb 893d bf82 8c3d 0720 833d
000002b0: d37f 5dbd 749f 813d 22c0 c8bc 9fbe 9cba
000002c0: 1ce3 8e3c 2900 8dbd 8793 aebd e934 8c3c
000002d0: c083 023d e9d0 afbd 7815 c33c 1247 883d
000002e0: f882 3bbc d189 bfbd 8c91 b33c 70a1 3bbd
000002f0: 58a0 79bb 0658 c3bc 9cbe 933d 0ac9 1d3c
00000300: 7980 aebd 876c a8bd 74b7 cabc 305d c7bd
00000310: 0271 cfbc ec92 39bd c186 26bd cbe9 c5bd
00000320: 28f1 753d 1adb 02bd 0305 5bbd 7387 9a3d
00000330: 4b5a 723c 16d9 f4bc 1111 2f3d 51c5 30bd
00000340: 2154 323d 0868 97bb 998b 723d 41d7 6839
00000350: f874 47bd d53c 1bbc f8b0 ce3c c1a0 debc
00000360: cffa 403d 3333 813d ed0e 44bd cfbf e8bc
00000370: f224 84bc 9af5 be3d a5a0 5e3c 96ab 823d
00000380: a492 3b3d 5a96 553c a5b9 abbd 528b 08bc
00000390: c2ec 82bd c47d 30bd 5118 813d 40dc 74bd
000003a0: f8bd 33bb 2afc 733d 5ae8 39bd 969c 91bd
000003b0: aec7 23bd 59db 133c e383 63bd 7336 cdbd
000003c0: c2a7 ccbd bfe5 de3c f24b a33c 29cb 93bd
000003d0: fa38 07bd 22d4 30ba b1aa 6ebd c5f3 19bd
000003e0: af19 78bc 2ff7 bdbd a5a3 05bd ca59 c8bc
000003f0: 08d5 aa3b 3885 b4bc 4b46 a03d 96ba 12bd
0.00033668327 0.044780284 -0.022340424 0.07748865 0.051196203 -0.0003418603 0.084641546 0.038394712
0.0664471 -0.106788225 -0.118693165 -0.014939917 0.023552679 -0.04377093 -0.013220692 0.062267613
0.08876835 0.028089488 0.111147106 0.06995275 0.02749251 0.012012212 -0.025573144 -0.04582044
0.03193566 0.009675906 -0.051266912 -0.00089351874 -0.032535374 0.008417179 0.049226373 0.06755788
-0.06467214 0.0155847175 -0.03775413 -0.08371863 0.041315902 0.086133346 0.091419145 0.07250167
-0.024001637 0.027120722 0.018024463 -0.060690504 0.090494595 -0.044032436 0.03258624 -0.042347077
0.031596888 0.059970595 0.0028466908 -0.037590533 0.047077056 -0.10226676 -0.016408026 -0.080491245
0.005815934 0.033353724 0.041914936 -0.024961118 -0.046400107 0.0025788585 -0.04193389 -0.078579254
0.055836048 0.024816759 -0.06084256 -0.09242822 0.019081673 -0.024324983 -0.043100603 0.07638439
0.03619505 0.10751101 -0.00814693 0.0036271112 -0.04040053 0.035110135 -0.03753143 -0.004648633
-0.029176006 0.052698057 0.038848933 -0.101449296 0.0044939723 0.08984375 0.013044714 0.06031964
-0.023475582 -0.063147165 0.046630163 -0.019315938 0.04060665 0.07551779 -0.053142868 -0.089916304
-0.009708821 -0.045139052 0.065885805 0.054361835 0.04939145 -0.060786545 0.028312711 0.0022553143
-0.024861723 -0.049542826 0.042617682 0.0047012 0.07168128 0.0076895976 0.032527644 0.023479227
-0.070542835 -0.014691019 -0.023178421 -0.033133365 0.047650967 -0.048262194 -0.065017834 -0.02534866
-0.067811415 -0.0078153955 -0.1000741 -0.025206184 -0.062556885 -0.10057939 0.09093231 0.07519369
-0.05473338 0.009002898 -0.10170445 -0.03638931 -0.09096958 -0.040441036 0.10564321 0.048163883
0.050828055 -0.07499152 0.005203243 0.016838862 0.03192537 -0.007524862 -0.040262576 0.05728278
0.11122197 0.0044215648 0.121987246 -0.013217553 0.028788436 0.05638667 -0.026249083 0.04921495
-0.035824213 -0.051303007 -0.015267745 0.05524708 0.033708896 0.051825915 -0.022930313 0.07147962
-0.08014464 0.017473623 0.01244526 0.043969415 -0.014273112 0.035080217 -0.049180556 0.02815098
-0.00817848 0.06734455 0.06860875 0.06402593 -0.05407698 0.063292414 -0.024505679 -0.0011958665
0.017442279 -0.06884796 -0.08524232 0.017115073 0.031863928 -0.08584768 0.023813948 0.066541806
-0.0114448 -0.09352458 0.021919988 -0.045808256 -0.0038089957 -0.023845684 0.0721409 0.009630451
-0.08520598 -0.08223825 -0.02474568 -0.09734571 -0.025322441 -0.04530613 -0.040655855 -0.09663733
0.060044438 -0.031947233 -0.053471576 0.07545366 0.014792035 -0.02988867 0.042740885 -0.043156926
0.043537263 -0.004620556 0.059215162 0.00022205432 -0.048695534 -0.009474953 0.02523087 -0.027176263
0.04711419 0.063085936 -0.047865797 -0.028411774 -0.016130898 0.093241885 0.013588105 0.06380384
0.045794144 0.013036335 -0.08385018 -0.008333998 -0.06392814 -0.04308869 0.06303466 -0.05978036
-0.0027426463 0.059566654 -0.045387603 -0.071099445 -0.03998535 0.0090244645 -0.0555457 -0.10020151
-0.09992935 0.02720916 0.019933674 -0.07216484 -0.03301332 -0.00067454774 -0.058268253 -0.037585992
-0.015142842 -0.09275662 -0.032626767 -0.024456877 0.0052133836 -0.02203618 0.07825907 -0.035822473

model.base_model.net.8.bias f4 [128]
00000000: c8af 8bbd f46e 6f3b 613d 2abd e41d b33c
00000010: 6238 9bbd 2844 3a3d 3db0 793d d907 923d
00000020: 3892 a2bc d980 6fbd 4961 533d dfb4 483d
00000030: ef8e 0dbd 7465 543d 4aaf 9c3c da35 c7bc
00000040: 975c 3d3d 5198 483d 35ae d13c d103 58bd
00000050: bc44 85bc d70b a43d 921b 78bb d548 a9bd
00000060: 2dcc 3c3b 8e9f e3bc 20dc 063d f536 34bd
00000070: d89e 75bc 99d1 86bd 7b2a a1bd 4b68 52bd
00000080: 1c92 54bd dfac c33c 8d9d 163d 2595 723d
00000090: 9092 1dbd 71bc 57bd e746 cb3c a027 3cbd
000000a0: 617a 56bd 5224 9a3c f9c6 263d 967b b03b
000000b0: a29b 90bd 3d50 c83c 14e0 2d3d fb91 56bc
000000c0: 77b8 44bd 627b 8d3c 1e4b 633c bda1 38bd
000000d0: 2794 0dbd 6a5d 2dbd 2689 88bc f286 013d
000000e0: 022f 21bd e6eb 9f3b 3e27 2abd eaa0 d7bc
000000f0: c1b1 293c 009f 183d 7eb9 643d a981 8dbd
00000100: 8d43 e0bb 3869 93bc 577e 813d a228 02bd
00000110: 0d56 9dbc b699 51bd 1a07 3d3d 4739 e1bc
00000120: 2b7f 1e3c d962 eebc fdc9 6dbd 29be 94bd
00000130: a058 c239 bfc1 9d3b b95b c03a 80bb 963d
00000140: aeb1 6cbd eb8b 8fbb 0d38 4e3c 176e 803d
00000150: a5c6 623d 36b5 763d 5115 a0bd f6bb c73c
00000160: 3e64 98bd 457c ed3c d98f 8abd 0c4f a13d
00000170: 2367 aa3d 8538 893c 16f8 6b3c af68 8dbd
00000180: 6a86 08bd 0164 0d3b 32f3 44bc 7d72 b4bd
00000190: 1e7d 4abd 3f90 40bd 007b 2b3d 670b 613c
000001a0: 1f37 27bd 0a59 4a3d 3d92 91bd 8d45 a63c
000001b0: ad47 613d b0f2 18bc 2c66 473c c264 cfbc
000001c0: e539 a4bc d353 42bd 44d8 803c 73e6 20bd
000001d0: 1b8e debc 8606 8ebd 1e9c 313d f08e 98bd
000001e0: 0f44 27bd 9f11 323d 5c69 a03d 690e 92bd
000001f0: f03d b7bd 6df5 1a3d 759e e4bc 4765 0e3d
-0.06820637 0.003653464 -0.04156244 0.021864839 -0.075791135 0.045475155 0.06095909 0.07130403
-0.019845113 -0.058472488 0.05160645 0.049000617 -0.03456014 0.051854566 0.019126553 -0.02431767
0.04623088 0.048973385 0.025595764 -0.052738015 -0.016268127 0.08010071 -0.003785823 -0.08265845
0.0028808222 -0.027786043 0.03292477 -0.043997724 -0.014991485 -0.06582946 -0.07869431 -0.051368993
-0.051897153 0.023886142 0.036771346 0.059224267 -0.03846985 -0.052669946 0.024814082 -0.045936227
-0.052362803 0.018816147 0.0407171 0.0053858263 -0.070609346 0.024452323 0.042450026 -0.013096328
-0.048027482 0.017270748 0.01387289 -0.04507612 -0.034565117 -0.042325415 -0.01666696 0.031622835
-0.03935147 0.004880416 -0.04154133 -0.026321847 0.010357321 0.03726101 0.05584096 -0.06909496
-0.00684399 -0.017994508 0.063229255 -0.03177703 -0.019206071 -0.05117198 0.04614935 -0.027493132
0.009673874 -0.029099869 -0.05805396 -0.07262833 0.00037068594 0.004814356 0.0014675773 0.073599815
-0.057786636 -0.004380693 0.012586606 0.06270998 0.055365223 0.06023141 -0.07816566 0.024381619
-0.07440995 0.02898992 -0.06765718 0.07876405 0.08320453 0.016750583 0.01440241 -0.069047324
-0.033331312 0.00215745 -0.012020873 -0.088108994 -0.049435727 -0.047012564 0.04186535 0.013735629
-0.040824052 0.04940132 -0.07107971 0.020296836 0.054999996 -0.009335205 0.012170356 -0.0253166
-0.020047138 -0.047443222 0.015728123 -0.039282274 -0.02716737 -0.06934838 0.043361776 -0.07449138
-0.04083639 0.043473836 0.07832596 -0.07131655 -0.089473605 0.037831713 -0.02790759 0.034764554
