results/edm_swiss_roll/checkpoints/epoch=1-step=64-v2.ckpt (torch, 843898 bytes, 37 tensors)

model.base_model.time_embedding.frequencies f4 [4]
0	0x3f800000	1.0
1	0x3d3e1e97	0.04641589
2	0x3b0d316b	0.0021544348
3	0x38d1b716	9.999999e-05

model.base_model.net.0.weight f4 [128, 10]
0	0x3e75da43	0.24009041
1	0x3e87d473	0.26529273
2	0xbd92cf9c	-0.071685046
3	0x3e95e5b3	0.2927681
4	0xbd8bbd58	-0.06823224
5	0x3d82dc67	0.06389695
6	0xbe1c78de	-0.15280482
7	0x3e3ee071	0.18640305
8	0x3e8f14cd	0.27945557
9	0xbe6cdb95	-0.23130639
10	0x3e8c54da	0.27408487
11	0x3d7ef88f	0.062248763
12	0x3e72449a	0.23658982
13	0x3d3b23ff	0.045688625
14	0x3e1dd648	0.15413773
15	0xbd3632ad	-0.044481922
16	0x3e7a0379	0.24415387
17	0x3d3fb6bb	0.046805125
18	0xbe171b19	-0.1475643
19	0x3da535f0	0.080669284
20	0xbe158e6b	-0.1460511
21	0xbd147afa	-0.036250092
22	0xbe01b337	-0.12666021
23	0x3e584f99	0.21124114
24	0xbe7f5389	-0.2493421
25	0xbe154482	-0.14576915
26	0xbdb6e714	-0.089307934
27	0xbe42fbc0	-0.19041348
28	0x3cf23fd3	0.02957145
29	0xbea00dff	-0.31260678
30	0x3e926655	0.28593698
31	0xbe885470	-0.2662692
32	0x3e7c13ab	0.24616878
33	0x3d5faa7b	0.054605942
34	0xbdcfce70	-0.10146797
35	0x3e483c63	0.19554286
36	0x3d4e289b	0.050331693
37	0x3e832f30	0.2562194
38	0x3d108ac5	0.03528859
39	0xbdcac650	-0.09901106
40	0x3db2c983	0.087298416
41	0xbdac8cac	-0.084252685
42	0x3e0a6a88	0.13517201
43	0x3e918bda	0.2842701
44	0x3e3c5374	0.1839121
45	0xbe0d71f4	-0.13813001
46	0x3e37e676	0.17959008
47	0x3d5b8f53	0.05360348
48	0x3e216560	0.15761328
49	0xbe486b01	-0.19572069
50	0xbea2d317	-0.31801674
51	0xbdfe4520	-0.12415528
52	0xbe7b9224	-0.24567467
53	0x3e835d05	0.25656906
54	0x3db674bf	0.08908986
55	0x3e05d5b8	0.13069808
56	0x3dd3c074	0.10339442
57	0xbb0a9911	-0.0021148364
58	0x3e8071c3	0.25086793
59	0xbe629c19	-0.22129859
60	0x3c92a5f0	0.01790139
61	0xbe5d56f4	-0.21615201
62	0x3dc5a7c8	0.09651142
63	0xbde0dc0b	-0.1097947
64	0x3dc55fdc	0.09637424
65	0xbd870a8a	-0.06593807
66	0x3e883794	0.26604903
67	0xbe3c3557	-0.18379723
68	0xbe3d67f4	-0.18496686
69	0xbe3d6af0	-0.18497825
70	0x3e91db8e	0.2848782
71	0x3dd44f0a	0.10366638
72	0x3e9c0067	0.30469057
73	0xbe85730e	-0.26064342
74	0xbea08a29	-0.31355408
75	0xbe7d5a7d	-0.2474155
76	0xbe5dc566	-0.21657333
77	0x3dfed063	0.1244209
78	0x3de06607	0.1095696
79	0x3e84a86b	0.25909743
80	0xbe22b7ba	-0.15890399
81	0xbe5b5262	-0.21418145
82	0x3e2e6753	0.17031603
83	0xbe009255	-0.12555821
84	0x3e459cc1	0.19298078
85	0xbd99829c	-0.07495615
86	0x3e3472d7	0.17621933
87	0xbe802824	-0.25030625
88	0xbe2821d2	-0.16419151
89	0x3dbc034d	0.09180317
90	0x3d8f097d	0.069842316
91	0xbda2a677	-0.07941907
92	0x3e431a29	0.19052948
93	0x3e5e190d	0.21689244
94	0xbe69850c	-0.2280466
95	0xbe2cb73b	-0.16866772
96	0x3e91fdbf	0.28513905
97	0xbde369d0	-0.111041665
98	0xbdee7a44	-0.11644414
99	0xbe9ee1d0	-0.31031656
100	0xbe36f689	-0.17867483
101	0x3d9d17ae	0.07670532
102	0xbd2d8ea2	-0.042372353
103	0xbe6bdc38	-0.23033226
104	0x3be406bc	0.0069588106
105	0xbe5d3ce0	-0.21605253
106	0xbe8b65aa	-0.27226
107	0xbe3613db	-0.17781012
108	0xbe8f95ff	-0.28044125
109	0xbe51f331	-0.20502926
110	0x3ea308a8	0.31842542
111	0x3d761259	0.06007609
112	0x3dc44b09	0.09584624
113	0xbe97cbde	-0.29647726
114	0xbe55ad6a	-0.20866933
115	0xbdd7ccb6	-0.105370924
116	0x3d56ebad	0.05247085
117	0xbe8cf11d	-0.27527705
118	0xbe087972	-0.13327578
119	0xbe3ecf3b	-0.1863374
120	0xbae9fcfb	-0.0017851883
121	0xbdf0db31	-0.117605574
122	0xbcb64472	-0.022249434
123	0xbe5bb157	-0.21454369
124	0xbe5e89a4	-0.21732193
125	0xbe3cf576	-0.18453011
126	0xbdd9f913	-0.1064321
127	0xbe7dd157	-0.24786888
128	0x3e88a34d	0.2668709
129	0xbd7a014f	-0.061036404
130	0x3e8b857a	0.27250272
131	0x3dc496da	0.09599085
132	0xbe89d39a	-0.26919252
133	0x3e5eb8ba	0.21750155
134	0xbdb39c27	-0.08770018
135	0xbdf8665a	-0.12128897
136	0xbe86e2ff	-0.2634506
137	0xbea159df	-0.3151388
138	0x3db7be65	0.08971862
139	0xbd8f05ed	-0.06983552
140	0x3df644da	0.12024851
141	0xbe858492	-0.26077706
142	0x3e6ef827	0.2333685
143	0xbe6f1634	-0.23348314
144	0xbd640747	-0.055671003
145	0x3d86e034	0.06585732
146	0x3e287b3f	0.16453265
147	0x3e8360c3	0.2565976
148	0x3e9428e5	0.2893745
149	0xbe7f6d3c	-0.24944013
150	0x3d9cf835	0.07664529
151	0xbe0c98eb	-0.13730209
152	0xbd166621	-0.03671849
153	0xbe746347	-0.23865996
154	0x3e92ba00	0.28657532
155	0xbe6de7df	-0.23232983
156	0x3e2f87be	0.17141625
157	0x3de89412	0.11356367
158	0x3dd76cdb	0.105188094
159	0xbe2c9590	-0.16853929
160	0x3e935d2e	0.28782028
161	0x3d939abb	0.07207247
162	0x3d271ecd	0.04080086
163	0xbe8e95ff	-0.27848813
164	0x3e08282e	0.13296577
165	0xbd4231ca	-0.047410764
166	0xbe1102a6	-0.14161167
167	0x3e8c9b97	0.27462456
168	0x3d968928	0.07350379
169	0xbe301652	-0.17196015
170	0xbe2304e8	-0.1591984
171	0xbc8ed8e3	-0.017437404
172	0x3e331896	0.17489848
173	0xbda91ae2	-0.082570806
174	0xbe3a02cf	-0.18165134
175	0xbdde198f	-0.10844719
176	0xbe75387d	-0.2394733
177	0x3de1049f	0.109872095
178	0x3e77ac74	0.2418688
179	0xbe99ea09	-0.30061367
180	0x3d9999d1	0.07500041
181	0x3e24d974	0.16098577
182	0x3d6d8bd5	0.057994682
183	0xbde5c9e3	-0.112201475
184	0x3e2933b7	0.16523634
185	0x3e2a2cbc	0.16618627
186	0x3de9e32d	0.114202835
187	0xbd7365a0	-0.05942309
188	0xbdb363bf	-0.087592594
189	0x3cf58eb4	0.029975273
190	0xbd6bf094	-0.05760248
191	0xbdc2fefc	-0.09521291
192	0x3e4e8c5c	0.2017073
193	0x3e8aeea8	0.27135205
194	0xbd0171e1	-0.031602744
195	0xbd911306	-0.070837066
196	0x3b912665	0.004429626
197	0xbc9bf2a1	-0.019036593
198	0x3d9b6199	0.07586975
199	0x3db52bec	0.08846268
200	0xbe9298d7	-0.28632233
201	0xbdf26c1e	-0.11837028
202	0x3e876ff6	0.26452607
203	0x3df8f5cf	0.12156259
204	0xbc8423b0	-0.016130298
205	0xbe43415b	-0.190679
206	0xbe468c0b	-0.1938936
207	0xbe912809	-0.28350857
208	0xbdd39983	-0.103320144
209	0x3dda36b5	0.10654966
210	0x3e51243d	0.2042398
211	0x3e13359e	0.14375922
212	0xbe8e9bb7	-0.27853176
213	0xbe41d580	-0.189291
214	0xbd4aaba4	-0.049480096
215	0x3e9ca3aa	0.30593616
216	0x3d29e571	0.041478578
217	0xbdb0157e	-0.08597849
218	0x3e01c94d	0.12674446
219	0xbdff091a	-0.12452908
220	0xbe561f0c	-0.20910281
221	0x3e6d72ea	0.23188367
222	0xbe159bce	-0.14610216
223	0xbd8623ac	-0.065497726
224	0xbea1a5a6	-0.31571692
225	0x3e589cd9	0.21153583
226	0x3e7a13b4	0.24421579
227	0x3df54daf	0.119777076
228	0xbe5d26f9	-0.21596898
229	0xbe9d79bb	-0.30756935
230	0xbe841f30	-0.25805044
231	0x3e75c605	0.2400132
232	0x3e1ce27a	0.15320769
233	0x3e88e001	0.267334
234	0x3e29e4fa	0.16591254
235	0x3da3f08f	0.08004867
236	0xb9a79040	-0.00031960197
237	0xbe73c294	-0.23804694
238	0xbe897771	-0.2684894
239	0xbe963053	-0.29333743
240	0x3e028106	0.12744531
241	0xbe216c9a	-0.15764084
242	0xbd88ff9d	-0.06689379
243	0xbe3d7cbf	-0.18504618
244	0xbd73071f	-0.059332963
245	0xbe6414c1	-0.22273542
246	0xbe50b810	-0.20382714
247	0x3ddcc868	0.10780412
248	0xbdba848c	-0.091073126
249	0x3e4ae27c	0.1981296
250	0xbdd57baf	-0.104239814
251	0xbe6b9105	-0.2300454
252	0xbd61609f	-0.055023786
253	0xbe1c1712	-0.15243176
254	0xbdc4d415	-0.09610764
255	0xbe9a1442	-0.3009358

model.base_model.net.0.bias f4 [128]
0	0xbe69980b	-0.22811906
1	0xbda1b24b	-0.07895335
2	0xbcf990cd	-0.030464554
3	0xbe3376ca	-0.17525783
4	0xbe723a42	-0.23655036
5	0x3e5d45b4	0.21608621
6	0x3e5f7991	0.21823718
7	0xbe94eb5d	-0.29085818
8	0x3dc4a659	0.09602041
9	0x3dfe9428	0.12430602
10	0x3e97ed38	0.2967317
11	0x3e3e652c	0.18593282
12	0x3e95bb1f	0.29244325
13	0xbdd59469	-0.104286976
14	0x3e6421e4	0.22278553
15	0x3e84f0a4	0.25964844
16	0xbe975bac	-0.29562128
17	0xbe8373c0	-0.25674248
18	0x3d76611c	0.060151204
19	0x3e30a858	0.17251718
20	0xbe211fdc	-0.1573481
21	0x3cfbda4c	0.03074374
22	0x3b85563d	0.0040691183
23	0x3da8edfe	0.082485184
24	0xbe2b0655	-0.16701634
25	0x3e3a97a7	0.18221913
26	0x3e53848e	0.20656034
27	0xbe5d16ee	-0.21590778
28	0x3b4e561e	0.0031484435
29	0x3b8b6ce4	0.004254924
30	0x3dc7baba	0.09752412
31	0x3e98a348	0.29812074
32	0x3db40468	0.08789903
33	0xbd8cba7f	-0.06871509
34	0x3e8f5370	0.27993345
35	0xbdfd9d07	-0.12383466
36	0xbdb47e37	-0.08813136
37	0x3cc85715	0.024455586
38	0xbe7a2b96	-0.24430689
39	0x3d17bc8f	0.037045058
40	0xbe589520	-0.21150637
41	0x3cf012be	0.029305812
42	0x3cd6e927	0.026234223
43	0x3d225a37	0.039636817
44	0xbe893dfc	-0.26805103
45	0xbe97c894	-0.29645216
46	0x3e1388d9	0.14407672
47	0x3e894aed	0.26814976
48	0xbe9148e5	-0.28375927
49	0x3df63ff0	0.12023914
50	0xbe7021f9	-0.2345046
51	0x3cb93bd0	0.022611529
52	0x3e98d2b1	0.29848245
53	0x3e78ab96	0.24284205
54	0xbe67df33	-0.22643737
55	0x3e4aa422	0.19789174
56	0x3e2c6f88	0.16839421
57	0xbb9b4082	-0.0047379145
58	0x3e9b986b	0.30389723
59	0xbe016e2d	-0.12639685
60	0xbd912212	-0.070865765
61	0xbe278680	-0.16359901
62	0x3d4d0f82	0.050063618
63	0x3daa4e26	0.08315687
64	0x3cef5a9b	0.029218009
65	0xbe33020c	-0.1748125
66	0xbe0d500e	-0.1380007
67	0x3ddc8042	0.10766651
68	0xbe8ee9bb	-0.27912697
69	0xbd386a56	-0.045023285
70	0xbb7b45b7	-0.0038341114
71	0xbe04309e	-0.12909171
72	0x3de1d741	0.110273845
73	0x3ca013b8	0.019540653
74	0x3e678327	0.22608624
75	0xbcc7157d	-0.024302239
76	0xbe49388a	-0.19650474
77	0x3e608756	0.21926627
78	0x3d3d53e8	0.046222597
79	0xbdc245fc	-0.09486005
80	0xbe518d4d	-0.20464058
81	0x3da15b2b	0.07878717
82	0xbe98f234	-0.29872286
83	0x3da4ebb0	0.08052766
84	0x3e23e30b	0.16004579
85	0xbe8c20f9	-0.27368906
86	0xbe54a0a1	-0.207644
87	0xbe6bd0bc	-0.23028845
88	0x3e8a40b4	0.2700249
89	0x3e8b3099	0.27185515
90	0x3cc0a3e9	0.023515658
91	0x3e982e5f	0.29722878
92	0xbde03cd0	-0.10949099
93	0xbe9e61f8	-0.3093412
94	0x3ddbc316	0.10730569
95	0x3de50557	0.11182659
96	0x3ea0fdfc	0.31443775
97	0xbb63b45b	-0.0034744951
98	0x3e79817d	0.24365802
99	0x3e48f45a	0.19624463
100	0x3e6927d7	0.22769104
101	0xbe9f30cc	-0.31091917
102	0x3e87ae7f	0.26500317
103	0xbe8842bd	-0.26613417
104	0x3e939670	0.28825712
105	0xbc856779	-0.016284691
106	0xbe919a3c	-0.28437984
107	0x3daf3593	0.0855514
108	0xbd8c4dbe	-0.06850766
109	0xbe913606	-0.2836153
110	0xbdf0beb4	-0.11755124
111	0x3d16b37d	0.036792267
112	0x3e7e798c	0.24851054
113	0xbdca24b9	-0.098702855
114	0x3e3be889	0.18350424
115	0x3d12ca94	0.035837725
116	0x3bc6f98e	0.0060722297
117	0x3d839d2c	0.064264625
118	0xbe529b47	-0.20567046
119	0xbe86f8e5	-0.26361766
120	0xbdc2498b	-0.094866835
121	0xbe98d35f	-0.29848763
122	0xbe19d442	-0.15022376
123	0x3c641a46	0.01392228
124	0xbe57ad01	-0.2106209
125	0xbe02dcd7	-0.12779556
126	0xbd78bb98	-0.06072578
127	0xbd040601	-0.03223229

model.base_model.net.2.weight f4 [128, 128]
0	0xbd5ac37b	-0.05340908
1	0x3b3ac4c9	0.002849864
2	0xbc8ab3ee	-0.0169315
3	0x3cc41d5a	0.023939777
4	0xb9d66868	-0.0004089505
5	0xbd1e5050	-0.03865081
6	0xbd078d52	-0.033093758
7	0xbbaa37c1	-0.0051946347
8	0xbd56624d	-0.05233984
9	0x3b0980c3	0.002098129
10	0xbc2e26f5	-0.010629405
11	0x3ced97f4	0.029003121
12	0x3ccca943	0.024983054
13	0x3d796876	0.060890637
14	0x3ab391d4	0.0013700076
15	0xbd79c423	-0.060978066
16	0x3d0bb3a5	0.03410687
17	0xbd82f6df	-0.06394743
18	0xbc4ca27c	-0.012489911
19	0xbcbfe783	-0.023425823
20	0xbd1a4f71	-0.037673417
21	0xbd0e9c9d	-0.034817327
22	0x3da77784	0.08177093
23	0x3d3e2d82	0.04643012
24	0x3ca2109b	0.019783309
25	0x3db3fc80	0.08788395
26	0xbdad4f8a	-0.084624365
27	0x3c17a08c	0.009254586
28	0x3d79b01b	0.060958963
29	0x3d5cdc01	0.05392075
30	0xbd920ab6	-0.07130949
31	0x3d10b3b3	0.035327625
32	0xbd60eea0	-0.05491507
33	0xbc0aa3f0	-0.008461937
34	0xbc5f3455	-0.013623317
35	0xbd9599ca	-0.073047236
36	0xbdb600fe	-0.08886908
37	0xbd67fd5b	-0.056638103
38	0x3d0f61a0	0.03500521
39	0x3d1481fd	0.03625678
40	0xbda6f53e	-0.08152245
41	0xbd1a53b1	-0.03767747
42	0xbb6186e9	-0.0034412688
43	0xbda70c18	-0.081566036
44	0x3d3f2f57	0.046676006
45	0x3d9fd83f	0.078049175
46	0x3ca89366	0.020578098
47	0xbd90b4be	-0.07065724
48	0x3cc6ee3d	0.024283523
49	0x3d143768	0.036185652
50	0x3d857a31	0.06517447
51	0xbd31e987	-0.0434356
52	0xbd98141d	-0.07425711
53	0x3d1c5684	0.038168445
54	0x3c35575c	0.011068191
55	0xbcc2a0f3	-0.023758387
56	0xbd2c24e2	-0.04202736
57	0xbd39093c	-0.045174822
58	0x3d968194	0.07348934
59	0xbca05192	-0.019570146
60	0x3d8cca3b	0.0687451
61	0x3d984cf7	0.07436555
62	0x3c6445f3	0.013932693
63	0x3c6a1a7b	0.01428854
64	0xbc14f5fa	-0.0090918485
65	0x3d64faff	0.05590343
66	0xbd9a4aa9	-0.075337715
67	0x3cfb8e30	0.030707449
68	0xbc9e5ac2	-0.019330386
69	0x3d3594f5	0.04433151
70	0xba93cbbf	-0.0011275931
71	0xbd193b00	-0.037409782
72	0xbc666c44	-0.0140638985
73	0x3d40b975	0.047051866
74	0xbd6f3b1b	-0.058405977
75	0xbd55fc13	-0.05224235
76	0xbcbe5989	-0.023236053
77	0xbd072fc2	-0.03300453
78	0x3d20f32c	0.039294407
79	0x3d68863b	0.056768637
80	0xbba46ca3	-0.0050178333
81	0x3db63856	0.08897464
82	0xbd2b3f9e	-0.041808717
83	0xbd6123f6	-0.054965936
84	0xbd11857d	-0.035527695
85	0xbd67e9ba	-0.056619383
86	0xbd869d9a	-0.06573029
87	0xbd9c3433	-0.07627144
88	0xbd9b55f5	-0.075847544
89	0x3c977ffd	0.018493647
90	0x3d47c81b	0.04877482
91	0x3db40f99	0.087920375
92	0x3d9f66af	0.07783257
93	0xbc278e19	-0.01022675
94	0x3c5b849a	0.013398314
95	0xbd43c4fd	-0.047795285
96	0x3d228ce0	0.03968513
97	0xbda4a299	-0.080388255
98	0x3d35c37d	0.044375885
99	0x3c544b82	0.012957456
100	0x3cb5b729	0.022182064
101	0x3cffac53	0.0312101
102	0xbd109069	-0.03529397
103	0x3d90eb3d	0.07076118
104	0x3d423a48	0.047418863
105	0x3d5827c6	0.052772306
106	0x3c8a011c	0.016846232
107	0x3d4dd4d3	0.050251793
108	0x3d80c8db	0.0628831
109	0x3d2d835e	0.04236161
110	0x3d942669	0.07233889
111	0xbc38d769	-0.0112818265
112	0x3d8166e9	0.06318457
113	0x3ca9a6af	0.020709364
114	0x3d4595e9	0.04823867
115	0x3dbb0f6a	0.091337994
116	0x3c791f2e	0.015205188
117	0xbce47529	-0.027887898
118	0xbc0f4a7a	-0.008745784
119	0x3ca6a459	0.020342039
120	0x3ca575dd	0.020197803
121	0xbcdfdca2	-0.027326886
122	0x3d994015	0.07482926
123	0x3d681a76	0.05666586
124	0xbd736bb2	-0.059428878
125	0xbc113a70	-0.00886403
126	0xbc5c2f62	-0.013439031
127	0xbd4f4bf3	-0.05060954
128	0x3c81474b	0.015781065
129	0xbce9e771	-0.028552743
130	0xbd2aae05	-0.041669864
131	0xbce92e02	-0.028464321
132	0xbce50d0c	-0.027960323
133	0x3da386b4	0.07984677
134	0x3d15e7ea	0.036598124
135	0x3db5ca57	0.08876484
136	0x3cbac111	0.02279714
137	0x3cc4f0e3	0.024040645
138	0x3d2489d8	0.04017052
139	0x3c9fdd2b	0.01951464
140	0xbd94d688	-0.07267481
141	0xbd438cf8	-0.04774186
142	0xbcce0ef5	-0.025153616
143	0xbb1aab70	-0.002360072
144	0x3d1a8346	0.03772285
145	0x3d1a72dd	0.0377072
146	0x3d8c7b4c	0.068594545
147	0x3c5cacb1	0.013468907
148	0xbcd97d00	-0.026548862
149	0xbd883dcf	-0.06652414
150	0xbd834324	-0.064092904
151	0xbd4950eb	-0.049149435
152	0x3cfe896b	0.031071385
153	0x3d32d122	0.043656476
154	0x3da682ec	0.0813044
155	0xbcc08e45	-0.02350534
156	0xbc2c03b7	-0.010498933
157	0xbcb2bf12	-0.021819625
158	0x3a938897	0.0011255917
159	0x3ccbc1e2	0.024872724
160	0x3b021f7e	0.0019855197
161	0x3c005590	0.0078329
162	0x3bebfb8a	0.0072016167
163	0x3cf83c9d	0.03030234
164	0xbcba0850	-0.022709042
165	0xbd619b98	-0.055080026
166	0x3ccfcc72	0.025366042
167	0xbbdd5487	-0.006754461
168	0xbd13b706	-0.036063217
169	0x3d27d581	0.040975098
170	0x3bac9514	0.005266795
171	0xbc0b86fa	-0.008516068
172	0xbd23ab6c	-0.039958403
173	0xbc1181da	-0.008881057
174	0xbda2e4cf	-0.07953798
175	0x3cc048b2	0.023472164
176	0xbaf2469c	-0.0018484178
177	0x3d4babf0	0.04972452
178	0x3c21a7e0	0.009866685
179	0x3b821e30	0.003970884
180	0x3ca1566d	0.019694531
181	0x3d8a7194	0.067599446
182	0xbd3ed9e2	-0.046594508
183	0x3d463271	0.04838795
184	0x3cd3109b	0.025764754
185	0xbd6dad10	-0.058026373
186	0x3cebc883	0.028782135
187	0xbd4c2cd9	-0.049847458
188	0xbd044df4	-0.032300904
189	0xbd1bf5c0	-0.038076162
190	0xbd76cba8	-0.060252815
191	0x3d969d6f	0.07354247
192	0xbd9bf1ce	-0.0761448
193	0x3d45bee7	0.04827776
194	0xbda86368	-0.08222085
195	0xbbe7be73	-0.007072264
196	0x3c1bd95c	0.009512272
197	0x3d70e21f	0.058809396
198	0xbd0402d0	-0.032229245
199	0x3cf0aded	0.02937981
200	0x3c8f9ee0	0.017531812
201	0x3d561ff2	0.05227656
202	0x3afb3112	0.0019164404
203	0x3cf38035	0.02972422
204	0xbd4cf0c0	-0.050034285
205	0xbd7e732c	-0.062121555
206	0x3d99384b	0.0748144
207	0xbd7d6752	-0.061866112
208	0xbc9a19f7	-0.01881121
209	0xbc7c6ea9	-0.015407243
210	0x3db8b6f8	0.090192735
211	0xbc66cd2d	-0.014087004
212	0xbd90ab3f	-0.070639126
213	0xbcd4f46b	-0.025995454
214	0x3d485f9d	0.04891931
215	0x3d03889b	0.0321127
216	0x3d8ec88b	0.06971844
217	0xbc6070da	-0.013698781
218	0x3d3b5b68	0.04574147
219	0xbdb3993f	-0.08769464
220	0x3d0b2e7b	0.033979874
221	0x3d3a1eee	0.045439653
222	0x3d77f7b5	0.060538966
223	0xbd602387	-0.05472138
224	0xbce835bd	-0.028345937
225	0x3c8efd4b	0.017454764
226	0xbd8657ec	-0.065597385
227	0xbd8a1e69	-0.067440815
228	0xbda49d78	-0.08037847
229	0x3bcb2cc1	0.0062004034
230	0x3d4eb546	0.050465845
231	0x3ce0be48	0.027434483
232	0x3a34e3ac	0.0006900381
233	0x3d112508	0.035435706
234	0xbd76792a	-0.060174145
235	0x3c5eccdb	0.013598646
236	0xbcbffc16	-0.023435634
237	0xbd3d796b	-0.04625837
238	0x3d93279d	0.0718529
239	0xbd941cdf	-0.07232069
240	0x3c0df441	0.008664192
241	0xbd9d515f	-0.07681536
242	0x3ab03c9c	0.0013445797
243	0xbd34e830	-0.044166744
244	0x3d079a8a	0.033106364
245	0xbd5c7f6e	-0.053832464
246	0x3d6843f5	0.056705434
247	0xbd8afb26	-0.06786184
248	0x3d470a65	0.048593897
249	0xbd845e3e	-0.06463288
250	0x3d2cb477	0.042164292
251	0xbd26b35d	-0.040698398
252	0x3b73affc	0.0037183752
253	0xbc619b0b	-0.013769875
254	0x3d7c1086	0.061539195
255	0x3ccb07f6	0.02478407

model.base_model.net.2.bias f4 [128]
0	0xbb659b26	-0.0035035103
1	0xbd2f1cff	-0.042752262
2	0xbd9348cd	-0.0719162
3	0xbd40c799	-0.04706535
4	0xbd4ee12d	-0.050507713
5	0x3da7af38	0.08187717
6	0xb9dc810c	-0.00042057817
7	0xbd5fad82	-0.05460883
8	0xbbdadf6a	-0.006679465
9	0xbbe1eb87	-0.006894532
10	0x3ca6e00e	0.02037051
11	0x3d05ba58	0.032648414
12	0x3d71b539	0.059010718
13	0xbd21e4e4	-0.039524928
14	0xbc72ed5f	-0.0148271015
15	0xbda2994b	-0.079393946
16	0xbce9001f	-0.02844244
17	0xbd96974a	-0.07353075
18	0xbc1da7c9	-0.009622523
19	0xbd5147ea	-0.051093973
20	0xbd099dd9	-0.0335978
21	0x3daf415c	0.08557388
22	0x3da8ef62	0.08248784
23	0x3bef45fc	0.007302044
24	0x3d495e10	0.04916197
25	0x3d61046b	0.054935854
26	0x3bf430d2	0.007452109
27	0x3c6b2222	0.0143514
28	0xbacaa1ee	-0.0015459636
29	0xbd964d45	-0.07338957
30	0x3d8794f0	0.066202044
31	0xbd8e517b	-0.06949135
32	0xbce3de1f	-0.027815877
33	0xbd9ec5b7	-0.07752555
34	0xbd5b3c06	-0.05352404
35	0x3dae24b2	0.08503093
36	0xbb8cecc5	-0.004300686
37	0x3ccc4a8f	0.024937896
38	0x3cd2da63	0.0257389
39	0x3d95f36d	0.073218204
40	0x3ca8016a	0.020508487
41	0x3b817ebc	0.0039518755
42	0xbd1371f0	-0.03599733
43	0x3c4c65f4	0.012475479
44	0x3cbb6356	0.022874516
45	0xbd68228d	-0.056673575
46	0xbd85c276	-0.06531231
47	0xbd24ce51	-0.04023582
48	0x3da36b1c	0.07979414
49	0x3d2089ae	0.0391938
50	0x3d564549	0.05231217
51	0x3d8007ca	0.06251486
52	0x39dd20b2	0.00042176765
53	0xbd807d5d	-0.06273911
54	0x3db655e0	0.08903098
55	0x3c8d5eea	0.017257173
56	0xbcdfb855	-0.027309576
57	0x3d024875	0.03180738
58	0xbd7833d1	-0.06059629
59	0xba816c7c	-0.000987425
60	0x3d9fd516	0.07804315
61	0x3d08ce6d	0.033399988
62	0xbda3f275	-0.080052294
63	0x3da3d235	0.07999078
64	0x3c8d87e6	0.017276715
65	0xbcdf3a8a	-0.027249593
66	0x3d87cd51	0.06630958
67	0x3d1290e0	0.035782695
68	0x3d6384aa	0.05554644
69	0x3d4332f0	0.047656
70	0xbd3a18cd	-0.045433808
71	0xbd757e39	-0.05993483
72	0x3d732c9d	0.05936872
73	0xbbd648dc	-0.0065394472
74	0x3d9a5b10	0.075369
75	0x3d237dea	0.039915003
76	0xbdafb216	-0.08578889
77	0x3d5833af	0.052783664
78	0x3d2cae80	0.042158604
79	0xbdac8097	-0.08422964
80	0x3a9a3a5b	0.0011766659
81	0xbd960f4c	-0.073271364
82	0x3d3d8cde	0.04627692
83	0x3d41055e	0.04712426
84	0x3cf6c6b3	0.030124044
85	0x3d73061a	0.05933199
86	0xbd3618a7	-0.044457104
87	0xbbd940bb	-0.006630031
88	0xbcaae803	-0.020862585
89	0x3d878b63	0.06618383
90	0x3d8257af	0.063643806
91	0xbcde6450	-0.027147442
92	0xbd93aad5	-0.07210318
93	0x3a5490ed	0.0008108754
94	0x3d96e009	0.0736695
95	0xbc953455	-0.01821343
96	0x3d16f5db	0.03685556
97	0xbd862dc7	-0.065517
98	0xbd6f2fde	-0.05839526
99	0xbd96d5e5	-0.07365016
100	0xbda15935	-0.07878343
101	0xbd181944	-0.03713347
102	0xbd2a6918	-0.04160413
103	0x3cff80bc	0.031189315
104	0x3d9b22d6	0.07575004
105	0x3beb8463	0.0071874126
106	0x3d016119	0.03158674
107	0xbd729312	-0.05922229
108	0xbd0f1b01	-0.034937862
109	0xbdb111de	-0.08645986
110	0x3db1880e	0.086685285
111	0x3c485c69	0.012229064
112	0xbca84cea	-0.020544488
113	0xbd9e323f	-0.077244274
114	0x3cabd9e7	0.020977927
115	0xbdba692b	-0.091020904
116	0x3d6e0156	0.058106743
117	0xbdb1f9ff	-0.08690261
118	0x3ca0dedc	0.019637518
119	0x3d575249	0.052568708
120	0xbd9a35a9	-0.07529766
121	0x3d7bf132	0.06150932
122	0x3da9f70e	0.08299075
123	0x3d6f3b9d	0.05840646
124	0x3dad6b0a	0.08467682
125	0xbd3af1f6	-0.04564091
126	0xbc3b0830	-0.011415526
127	0x3da1d8d0	0.07902682

model.base_model.net.4.weight f4 [128, 128]
0	0x3d2458d3	0.040123772
1	0xbd6c9a45	-0.05776431
2	0x3daf411b	0.0855734
3	0xbc890fde	-0.016731199
4	0xbcf62460	-0.030046642
5	0x3c6b0df2	0.014346587
6	0x3dab9c8c	0.08379468
7	0xbd3cfed4	-0.04614146
8	0x3c0d2065	0.0086136805
9	0xbc4a8cc8	-0.012362666
10	0xbcf44091	-0.029815944
11	0x3d2e16b9	0.04250214
12	0x3bdd7869	0.006758739
13	0xbd93cab2	-0.072163954
14	0xb9e93c25	-0.00044486034
15	0x3d6052a3	0.05476631
16	0xbd31610d	-0.043305445
17	0x3d9b64f1	0.075876124
18	0xbd962fab	-0.07333311
19	0x3cf46776	0.02983449
20	0x3d57a215	0.052644808
21	0x3d040705	0.032233257
22	0x3d13f126	0.03611865
23	0x3c4728e6	0.012155747
24	0xbc8f15a2	-0.01746637
25	0x3d8344f7	0.064096384
26	0xbc9b703a	-0.018974412
27	0x3d9b1499	0.07572288
28	0x3daf0d23	0.085474275
29	0xbda1c6f3	-0.07899275
30	0x3d9116a6	0.07084398
31	0x3cc8211d	0.024429852
32	0xbd7e49ff	-0.062082287
33	0xbd4f88db	-0.050667625
34	0xbc6f3436	-0.01459985
35	0x3da927d1	0.082595475
36	0x3d575299	0.052569006
37	0xbcb5fe76	-0.022216063
38	0xbd63481a	-0.055488683
39	0xbd66b2f2	-0.056323
40	0xbd35f5d7	-0.044423904
41	0xba4373c3	-0.00074559095
42	0xbda23d94	-0.07921901
43	0xbd9dad10	-0.07699025
44	0xbd60e40d	-0.054904986
45	0x3cb8e9e8	0.022572473
46	0x3cf797e2	0.03022379
47	0x3ce8c46e	0.028413977
48	0x3d999a90	0.075001836
49	0x3cba89b2	0.022770736
50	0xbd0552b4	-0.032549575
51	0x3d0ed9d2	0.0348757
52	0xbd1c4301	-0.038149837
53	0x3d9fb358	0.07797879
54	0xbd02c1b7	-0.031923022
55	0xbd5e7374	-0.054309323
56	0xbc659826	-0.014013326
57	0xbd5211a5	-0.05128636
58	0xbc2fade0	-0.010722607
59	0xbc86c95f	-0.016453443
60	0x3c453d42	0.012038531
61	0xbc2b28e6	-0.010446763
62	0xbd80e9fc	-0.06294629
63	0xbdaa111d	-0.08304045
64	0xbd7d8abc	-0.061899886
65	0xbda29df3	-0.07940283
66	0xbdb4421a	-0.0880167
67	0x3daba9ee	0.08382021
68	0x3d54c38d	0.051944304
69	0x3d2a6f0e	0.041609816
70	0x3d659c8e	0.056057505
71	0x3ccbea62	0.024892036
72	0xbce9eab8	-0.028554305
73	0xbc2400a4	-0.010009918
74	0xbd1aa863	-0.037758242
75	0x3d2d8114	0.042359427
76	0x3ca8bff1	0.020599337
77	0xbd9abe00	-0.07555771
78	0x3c7dca50	0.01549013
79	0xbd8f1c94	-0.06987873
80	0x3d840d19	0.06447811
81	0x3c0b9a8c	0.008520734
82	0xb91cfbd9	-0.0001497114
83	0xbd59701c	-0.05308543
84	0x3c3a36a0	0.011365563
85	0x3c585c3a	0.013205582
86	0x3cc5ad27	0.024130417
87	0xbd80b584	-0.06284621
88	0xbd1ef61b	-0.038808923
89	0xbd74f1b3	-0.059800815
90	0xbd5bdc1f	-0.05367672
91	0xbd534108	-0.05157569
92	0xbd964b81	-0.0733862
93	0x3db3acd2	0.08773197
94	0xbdace48f	-0.084420316
95	0xbcb16fe0	-0.021659791
96	0x3b6a193f	0.0035720614
97	0xbd17bfdb	-0.037048202
98	0xbcdc4144	-0.02688659
99	0x3d1bc905	0.038033504
100	0xbc9b097b	-0.01892542
101	0xbc4ec115	-0.0126192765
102	0x3da04258	0.07825154
103	0xbcf0d093	-0.029396331
104	0xbbc926aa	-0.0061386423
105	0x3d620ea4	0.055189744
106	0xbcb30445	-0.021852622
107	0xbd90081e	-0.07032798
108	0x3d8ba737	0.06819003
109	0xbd9f5eba	-0.077817395
110	0xbdae6f5c	-0.08517334
111	0xbd472ba8	-0.04862562
112	0x3c55bc9a	0.013045454
113	0x3d8e7f5f	0.06957888
114	0xbd8e992a	-0.069628075
115	0xbd3caf48	-0.0460656
116	0x3da81e37	0.08208888
117	0x3d8ff3f2	0.07028951
118	0x3d0f1f54	0.034941986
119	0xbd9730cf	-0.073823564
120	0x3d4ee11a	0.050507642
121	0xbc057cc2	-0.00814742
122	0xbd89586c	-0.06706318
123	0x3d8f37cc	0.06993064
124	0xbd7015fd	-0.05861472
125	0x3c62994c	0.013830494
126	0xbd410f51	-0.047133747
127	0x3d92eaf7	0.07173722
128	0x3bee6566	0.007275271
129	0xbcd1216d	-0.025528634
130	0x3d3b1804	0.0456772
131	0x3da0118d	0.078158475
132	0xbc31a0d7	-0.01084157
133	0x3d8284d4	0.06372991
134	0xbd116989	-0.035501037
135	0xbd528b3c	-0.051402315
136	0xbd31b955	-0.043389637
137	0xbdb755f0	-0.08951938
138	0x3d9bab9d	0.07601092
139	0x3cd7e855	0.026355902
140	0xbd6d0f6b	-0.05787603
141	0xbd92f488	-0.07175547
142	0x3d716ad5	0.058939774
143	0x3a98f250	0.0011668894
144	0xbd810740	-0.06300211
145	0xbc1349c2	-0.008989753
146	0xbd12ce99	-0.035841558
147	0x3c58fc63	0.013243767
148	0xbd282ebb	-0.04106019
149	0xbd180977	-0.0371184
150	0xbd424403	-0.047428142
151	0xbd239d86	-0.039945148
152	0x3bb66689	0.0055664224
153	0x3d401d89	0.046903167
154	0x3c98f26a	0.01867028
155	0x3d60fa32	0.054926105
156	0xbcc080c3	-0.023498898
157	0xbd087cf8	-0.033322304
158	0xbd6a2ccc	-0.057171628
159	0xbd93626f	-0.07196509
160	0xbd721353	-0.05910046
161	0xbcb98e06	-0.02265073
162	0x3da2b174	0.07944003
163	0xbdb0f1eb	-0.08639892
164	0x3d7f4a37	0.062326636
165	0x3d44d5c5	0.04805543
166	0x3d3982f4	0.045290902
167	0x3d4f3ee5	0.05059709
168	0x3d48e236	0.049043857
169	0x3da4ad67	0.08040886
170	0x3d11840e	0.035526328
171	0xbc82cac8	-0.015965834
172	0x3d1a9755	0.037741978
173	0xbc18e190	-0.009331122
174	0xbd404944	-0.04694487
175	0x3d0cef38	0.034407824
176	0x3dbdc130	0.09265363
177	0x3d88ebb0	0.06685579
178	0xbd0ab8e1	-0.03386772
179	0xbbd78e40	-0.006578237
180	0x3d19bb06	0.037531875
181	0x3d38e14e	0.045136742
182	0xbd94ac01	-0.0725937
183	0x3c8665f0	0.01640603
184	0xbbcda012	-0.0062751854
185	0x3dab013a	0.08349843
186	0x3ca8ab0c	0.020589374
187	0xbd33dad0	-0.043909848
188	0xbcc3d125	-0.023903439
189	0x3d9cabf4	0.07649985
190	0xbcf8334c	-0.030297898
191	0x3c96ff73	0.018432355
192	0x3da7bb5f	0.08190035
193	0xbd981ad1	-0.0742699
194	0xbc11478e	-0.008867158
195	0xbdac1624	-0.084026605
196	0xbcbba1ef	-0.022904364
197	0x3d1633df	0.036670562
198	0xbb845d0b	-0.004039412
199	0x3d26d2b6	0.040728293
200	0xbd663789	-0.056205306
201	0x3d32579a	0.043540575
202	0xbd2d73c8	-0.042346746
203	0x3d69e907	0.057106998
204	0xbcdedff7	-0.027206404
205	0x3d9af8b8	0.075669706
206	0x3c36248f	0.011117115
207	0x3cd6a8a2	0.026203457
208	0xbd91705f	-0.07101511
209	0x3c0c5c81	0.0085669765
210	0x3d8da4a5	0.06916169
211	0xbd93840a	-0.07202919
212	0x3d8594ca	0.0652252
213	0x3d143b2f	0.036189254
214	0xbd068ece	-0.032851033
215	0xbd7dfa6f	-0.06200641
216	0x3d515e5d	0.051115382
217	0xbcb7b9d8	-0.022427484
218	0x3d3e6145	0.046479482
219	0x3bda901f	0.0066700126
220	0x3da0fa95	0.07860295
221	0xbd6fe6ad	-0.0585696
222	0xbc0496e8	-0.0080926195
223	0x3d30e3ee	0.04318612
224	0xbd227336	-0.039660655
225	0xbce84b4a	-0.028356213
226	0xbcb64591	-0.022249969
227	0x3dac8366	0.084235
228	0x3d2c939a	0.04213295
229	0xbdafc05f	-0.08581614
230	0x3ca1cfa7	0.019752337
231	0x3d994bc1	0.07485152
232	0x3d24c9c0	0.040231466
233	0x3da9b463	0.08286359
234	0xbcb639ee	-0.02224442
235	0x3bb863c6	0.0056271283
236	0x3daa6dd0	0.08321726
237	0x3d9d8841	0.07692004
238	0xbcb2f60d	-0.021845842
239	0x3c7e7156	0.015529951
240	0x3bf9e9ff	0.0076267715
241	0x3d96a7a8	0.07356197
242	0xbd0b31fc	-0.033983216
243	0xbc746051	-0.014915542
244	0x3d16d100	0.03682041
245	0xbc2cbafc	-0.010542627
246	0xbd1a21b8	-0.037629813
247	0x3d9b24ad	0.07575355
248	0xbcf38f97	-0.029731555
249	0x3d530044	0.051513925
250	0xbc88a9bd	-0.0166825
251	0xbdaa5244	-0.08316472
252	0xbd67a54c	-0.056554124
253	0x3c957608	0.018244758
254	0x3d899124	0.067171365
255	0xbc71c4cb	-0.014756392

model.base_model.net.4.bias f4 [128]
0	0xbd1d5170	-0.038407743
1	0x3da80bc0	0.08205366
2	0xbab76944	-0.0013993164
3	0x3dad4c89	0.084618635
4	0xbcf16b63	-0.029470151
5	0x3d774978	0.0603728
6	0xbb218e00	-0.002465129
7	0xbd14816f	-0.03625625
8	0x3d8f2d9f	0.069911234
9	0xbd9853e3	-0.07437875
10	0xbb9f5b8c	-0.004863208
11	0x3c816616	0.015795749
12	0xbc82f63b	-0.015986552
13	0xbd352bca	-0.044231214
14	0xbcbeabad	-0.02327522
15	0x3d622dba	0.05521939
16	0xbc55a4a6	-0.0130397435
17	0xbd215727	-0.039389756
18	0xbd14966c	-0.036276266
19	0xbd8baa28	-0.06819564
20	0x3d6fc173	0.058534097
21	0xbda84d74	-0.08217898
22	0xbd28720d	-0.041124392
23	0x3ca026eb	0.019549808
24	0x3d9dd7ad	0.077071525
25	0xbd8f7b9c	-0.070059985
26	0x3c0dd515	0.00865676
27	0xbd881ef4	-0.06646529
28	0x3d8741e7	0.06604367
29	0x3d9018c4	0.07035974
30	0x3d6f28a8	0.058388382
31	0xbd27db86	-0.04098084
32	0xbd854608	-0.06507498
33	0xbd501b08	-0.05080703
34	0xbcd7be77	-0.026335938
35	0x3d2bbf27	0.041930344
36	0xbc90fc24	-0.017698355
37	0x3da5ba17	0.080921344
38	0xbda369e4	-0.079791814
39	0x3bfd4b86	0.0077299504
40	0xbd994a2e	-0.07484852
41	0xbda67cd5	-0.081292786
42	0xbd746490	-0.059666216
43	0x3bb76f35	0.0055979737
44	0xbdae4ebb	-0.085111104
45	0xbc207ad8	-0.009794913
46	0xbd2b8f41	-0.041884664
47	0xbd580118	-0.052735418
48	0x3da6d393	0.08145823
49	0xbcf9e373	-0.030503964
50	0xbda9ec7b	-0.08297058
51	0x3d6e126a	0.05812303
52	0xbdbba596	-0.091624424
53	0xbaa52946	-0.0012600801
54	0xbd93277b	-0.07185265
55	0x3d4515bd	0.048116434
56	0x3d077639	0.03307173
57	0xbc61473f	-0.013749897
58	0xbcc2ad67	-0.023764325
59	0xbd82a2c1	-0.06378699
60	0xbd858872	-0.065201655
61	0x3d1c6ceb	0.03818981
62	0xbd882664	-0.066479474
63	0xbd01bde9	-0.031675253
64	0x3d90217f	0.07037639
65	0xbdadd2af	-0.0848745
66	0x3987f151	0.00025929
67	0xbd05016b	-0.032472055
68	0x3d315ba1	0.043300275
69	0xbd05d3ec	-0.032672808
70	0x3d98810e	0.0744649
71	0x3ce8b89c	0.028408341
72	0xbd5ace0d	-0.05341916
73	0x3ca4a480	0.020097971
74	0xbbe02d04	-0.006841304
75	0xbbe4ba3a	-0.0069802077
76	0xbd568855	-0.05237611
77	0x3d2c24fa	0.04202745
78	0x3c986d80	0.018606901
79	0xbbe8a637	-0.0070998925
80	0xbd3d475b	-0.046210628
81	0x3dadb13f	0.08481073
82	0xbd985196	-0.07437436
83	0x3d125dfd	0.035734165
84	0xbda2717d	-0.079318024
85	0xbd8ffac4	-0.070302516
86	0x3ceaf0d4	0.028679289
87	0x3cb00e16	0.021491092
88	0xbc6a7618	-0.014310382
89	0x3d19863c	0.03748153
90	0xbc388b36	-0.011263659
91	0x3cd76eab	0.026297888
92	0xbd92d183	-0.071688674
93	0x3d22e549	0.039769445
94	0xbcb3a790	-0.021930486
95	0x3d780441	0.06055093
96	0xbd9da187	-0.076968245
97	0x3c25fe58	0.010131441
98	0xbd086c21	-0.033306245
99	0x3d16f033	0.036850166
100	0xbd8ad835	-0.067795195
101	0xbd951457	-0.0727927
102	0x3cfa6ae3	0.030568546
103	0xbadfacc0	-0.0017065033
104	0xbd7311b1	-0.059343044
105	0xbd81f84a	-0.063461855
106	0xbd96a89f	-0.07356381
107	0x3cb66194	0.022263326
108	0x3d0886eb	0.033331793
109	0xbd281145	-0.041032095
110	0x3d620427	0.05517974
111	0x3d54894f	0.05188876
112	0x3c1eb811	0.00968744
113	0xbd5db61a	-0.054128744
114	0xbd8a2a06	-0.067462966
115	0xbd1243b4	-0.035709098
116	0xbd6884c1	-0.05676723
117	0x3c9ba8d2	0.019001398
118	0x3d67fd19	0.056637857
119	0x3da11293	0.07864871
120	0xbd28fd96	-0.041257463
121	0xbd3ecaa2	-0.046579964
122	0x3c7925ac	0.015206736
123	0xbcad76e8	-0.021174863
124	0x3d647946	0.055779718
125	0xbda22c35	-0.07918588
126	0x3d29b829	0.041435394
127	0x3bb66bb0	0.0055670366

model.base_model.net.6.weight f4 [128, 128]
0	0x3d9f6b0d	0.0778409
1	0xbcfc36cb	-0.030787846
2	0x3cfc976f	0.030833928
3	0x3c85dab7	0.016339643
4	0xbd546be7	-0.051860716
5	0xbd856cc6	-0.065148875
6	0x3d5657eb	0.05232994
7	0xbd182d37	-0.037152495
8	0x3d7ce640	0.06174302
9	0x3c884453	0.016634142
10	0x3c3d534b	0.011555503
11	0x3d50acf3	0.050946187
12	0xbce9ebe4	-0.028554864
13	0xbcbcd9c6	-0.023053061
14	0x3d0919dd	0.03347193
15	0x3c84c0d1	0.016205223
16	0x3d326eb0	0.04356259
17	0x3d80baf8	0.062856615
18	0x3da1af38	0.078947484
19	0x3d5f780f	0.054557856
20	0xbbd02ed4	-0.0063532386
21	0xbd935ed9	-0.07195825
22	0xbce3ba90	-0.02779892
23	0xbc45b12d	-0.012066168
24	0x3b89a37f	0.0042003985
25	0xbd4f8035	-0.050659377
26	0xbd119660	-0.0355438
27	0x3d813993	0.063098095
28	0xbd59e6f3	-0.053198766
29	0x3b1f380a	0.0024294876
30	0x3c7e6d54	0.015528996
31	0x3c23db8c	0.0100010745
32	0x3c2d6d70	0.010585174
33	0x3dabe607	0.083934836
34	0x3d80412f	0.06262433
35	0x3d47446d	0.04864924
36	0xbcedeb98	-0.029043004
37	0xbd919ada	-0.07109614
38	0x3d81ee79	0.06344313
39	0xbd849a23	-0.06474712
40	0xbd26aa98	-0.040690035
41	0xbd34b8e5	-0.04412164
42	0x3a32b60f	0.000681729
43	0x3cae8203	0.021302229
44	0x3d15f585	0.0366111
45	0x3ca2217a	0.019791353
46	0xbd941e14	-0.072322994
47	0x3ce9141f	0.028451977
48	0xbd5d6bc4	-0.05405785
49	0x3d2ede72	0.04269261
50	0xbd8bab4d	-0.068197824
51	0x3c3e120e	0.011600984
52	0xbdacb22e	-0.084324226
53	0x3d8517d4	0.064986855
54	0x3d207ba9	0.03918043
55	0xbbac1293	-0.0052512377
56	0xbbb977d7	-0.005660038
57	0xbb02ef55	-0.0019979079
58	0xbd67be79	-0.056578133
59	0xbd6b8372	-0.057498403
60	0x3b745e97	0.0037287825
61	0x3d6c1418	0.05763635
62	0x3d329302	0.04359723
63	0x3d79d18b	0.06099085
64	0x3d863736	0.065534994
65	0x3d039e86	0.0321336
66	0xbd753c33	-0.059871864
67	0x3ccbd16d	0.024880135
68	0xbd4500a8	-0.04809633
69	0xbc3d768b	-0.011563907
70	0xbd53b006	-0.05168154
71	0x3d22ee12	0.039777823
72	0xbd3dded6	-0.04635509
73	0x3d49d694	0.049276903
74	0x3d29afc3	0.041427385
75	0x3d424c53	0.04743607
76	0x3d67dc9c	0.056606874
77	0x3c7e0850	0.015504912
78	0xbd19c717	-0.037543382
79	0x3d21ff56	0.039550148
80	0x3d9659f0	0.07341373
81	0x3d66cb68	0.056346327
82	0xbd659091	-0.056046072
83	0x3cfd212d	0.030899609
84	0xbcdb4bb9	-0.026769506
85	0x3d9cb5e1	0.07651878
86	0xbd07d519	-0.03316221
87	0xbc91a3ce	-0.017778303
88	0x3cfc9a30	0.030835241
89	0xbda8fed8	-0.082517326
90	0x3cab2c30	0.020895094
91	0x3d4c65b0	0.049901664
92	0xbc77b365	-0.015118455
93	0xbdac5c68	-0.084160626
94	0xbdaf4be9	-0.085594006
95	0xbd895154	-0.06704965
96	0xbd95c825	-0.07313565
97	0x3d2bc357	0.041934337
98	0xbca2664f	-0.019824175
99	0xbce1b8fb	-0.027554026
100	0x3d81ae9a	0.06332131
101	0x3c5c7cdd	0.013457504
102	0xbd894627	-0.067028336
103	0x3c9d9520	0.019236147
104	0x3d28c978	0.04120776
105	0xbd23cbbe	-0.039989226
106	0x3cb26dbb	0.02178084
107	0xbd18f884	-0.037346378
108	0xbd97fede	-0.07421659
109	0xbd64f7ae	-0.05590027
110	0xbd501076	-0.05079695
111	0x3d4691ca	0.04847888
112	0x3d9ab3f4	0.075538546
113	0xbd6b442d	-0.057438064
114	0x3d5d78de	0.054070346
115	0xbd08399f	-0.033258077
116	0xbc2d225f	-0.010567277
117	0x3c09d73c	0.008413132
118	0x3cc5a440	0.024126172
119	0x3c523d99	0.012832069
120	0xbdb203a2	-0.08692099
121	0x3cb88f2c	0.022529207
122	0xbdb21dd6	-0.08697097
123	0x3da88f13	0.08230414
124	0x3dac296f	0.0840634
125	0xbd9c7df9	-0.07641215
126	0x3d2c1b4a	0.042018212
127	0x3d691b64	0.056910887
128	0xbd6c4e90	-0.05769211
129	0x3cb5d44a	0.022195954
130	0xbd243473	-0.040089082
131	0xbd713124	-0.058884755
132	0xbd21f41f	-0.039539453
133	0xbd13be9e	-0.03607046
134	0xbd768c59	-0.06019244
135	0xbbc674ea	-0.0060564177
136	0x3db54862	0.088516966
137	0x3c8ef116	0.017448943
138	0xbbb0ed01	-0.005399347
139	0xbdaa6c06	-0.08321385
140	0x3d1fa402	0.03897477
141	0x3d9eb0c8	0.07748562
142	0xbc6471ff	-0.013943194
143	0x3db06b35	0.08614198
144	0x3db120ea	0.08648856
145	0x3cea40e0	0.028595388
146	0xbda45183	-0.080233596
147	0xbccd2718	-0.025043055
148	0xbc9c6169	-0.019089418
149	0xbaff9856	-0.0019500356
150	0xbd194768	-0.037421614
151	0xbcf32d59	-0.02968471
152	0xbcda1d6a	-0.026625354
153	0xbc362498	-0.011117123
154	0xbd910153	-0.07080331
155	0xbd57ad8b	-0.052655738
156	0x3cd4ec45	0.025991568
157	0x3d963193	0.07333674
158	0x3da8e7ea	0.08247359
159	0x3d6faccd	0.058514405
160	0xbdac27d3	-0.08406033
161	0xbc8fc6da	-0.017550875
162	0xbd01dd7c	-0.031705365
163	0x3d22c53a	0.03973887
164	0x3dadbf6c	0.084837765
165	0x3d7eaa7c	0.062174305
166	0x3d589da8	0.052884728
167	0xbd3cde40	-0.04611039
168	0x3d962053	0.07330384
169	0xbd82484c	-0.06361446
170	0xbd8bafe5	-0.068206586
171	0x3d212534	0.03934212
172	0x3d86675d	0.06562684
173	0x3d37a121	0.0448314
174	0xbdb9a11e	-0.09063934
175	0x3d3a70c8	0.045517713
176	0xbcd7a31f	-0.0263229
177	0x3c8af607	0.016963018
178	0xbd2f29ff	-0.04276466
179	0xbd330041	-0.043701414
180	0xbcdca10d	-0.026932264
181	0x3b087465	0.002082133
182	0x3d1d0ca5	0.038342137
183	0xbd2f6096	-0.04281672
184	0xbd079223	-0.03309835
185	0x3d3e74df	0.046498176
186	0xbd1993e1	-0.037494544
187	0xbd8939b2	-0.06700458
188	0xba3740b7	-0.0006990539
189	0x3d2c88db	0.042122703
190	0xbc694947	-0.014238662
191	0x3b102dd3	0.002199997
192	0x3da969de	0.08272146
193	0x3d14bae3	0.03631104
194	0x3b995385	0.0046791458
195	0x3d71b8e7	0.059014227
196	0xbc54fd0c	-0.012999784
197	0xbd3ff5f4	-0.04686542
198	0x3d078397	0.03308448
199	0xbd8222c0	-0.06354284
200	0x3cc44e0c	0.023962997
201	0x3d285deb	0.041105192
202	0x3d37487b	0.044746857
203	0x3c3ca3da	0.011513675
204	0x3d622b9c	0.05521737
205	0x3d5a77c1	0.053336862
206	0x3d4247f0	0.047431886
207	0xbd8aa58a	-0.06769855
208	0x3c646176	0.013939252
209	0x3d2bb741	0.04192281
210	0x3d8ce4fc	0.06879613
211	0x3da7c4cb	0.08191832
212	0xbdae177a	-0.085005715
213	0x3d986d60	0.074427366
214	0x3c935494	0.017984666
215	0xbd39f0bb	-0.045395594
216	0xbda4e9ce	-0.08052407
217	0x3d151fc4	0.036407247
218	0x3d83d913	0.06437888
219	0x3d7227df	0.059120055
220	0x3d55d3ae	0.052203827
221	0xbd87db95	-0.06633679
222	0xbdb1b55f	-0.08677172
223	0xbc7d50e0	-0.015461177
224	0xbd3a9a7d	-0.045557488
225	0xbd72b41e	-0.059253804
226	0xbdaa76ed	-0.083234645
227	0x3d0e07e7	0.034675505
228	0x3cc98d7c	0.024603598
229	0x3d22410c	0.039612815
230	0xbd3a0931	-0.04541892
231	0xbd6a383b	-0.05718253
232	0x3a2cc407	0.00065904896
233	0x3d45a44d	0.048252393
234	0x3d0e6b0b	0.034770053
235	0x3d019871	0.03163952
236	0xbcde483e	-0.027134057
237	0x3ca83ee0	0.020537794
238	0xbcd8c9ce	-0.026463415
239	0x3d7c1c15	0.06155022
240	0x3d80d167	0.0628994
241	0x3af46b60	0.0018647723
242	0xbc3df0e5	-0.011593078
243	0x3d9f460f	0.077770345
244	0xbd8087bd	-0.0627589
245	0xba17eb41	-0.00057952484
246	0x3c3a91d2	0.011387305
247	0xbcd7e855	-0.026355902
248	0x3a0637f2	0.0005120031
249	0xbd72df3f	-0.059294935
250	0x3aeb37ce	0.0017945708
251	0x3d45d533	0.048299026
252	0x3d80f250	0.062962174
253	0x3d7f6bc4	0.062358633
254	0x3d1caa2b	0.038248222
255	0x3db017ba	0.085982755

model.base_model.net.6.bias f4 [128]
0	0xbd4b969d	-0.049704183
1	0xbdabf0cc	-0.08395538
2	0xbcbbfae7	-0.022946788
3	0x3b9db0b3	0.004812324
4	0x3c226dc8	0.009913869
5	0xbb4fa4a0	-0.0031683818
6	0xbdbc3d20	-0.09191346
7	0xbced6be0	-0.028982103
8	0xbd5cdefa	-0.053923585
9	0xbc8ec101	-0.017426016
10	0xbd3da39a	-0.0462986
11	0xbbafbe18	-0.005363237
12	0xbca2a3cc	-0.019853495
13	0xbd9d955d	-0.076945044
14	0x3d27ea39	0.040994857
15	0x3cc523b2	0.024064872
16	0x3cc28c86	0.023748647
17	0x3cf116e0	0.029429853
18	0xbc002525	-0.007821356
19	0x3cad84d7	0.021181507
20	0xbdb938da	-0.09044047
21	0x3d7a1fbf	0.06106543
22	0x3d95b878	0.07310575
23	0xbd032eca	-0.032027043
24	0x3d955a29	0.07292587
25	0xbd001d22	-0.031277783
26	0x3d0d1093	0.034439635
27	0xbd1aa07c	-0.037750706
28	0xbd5b04c8	-0.053471357
29	0xbd38c24f	-0.045107182
30	0x3d83a113	0.06427207
31	0xbcf8f2a1	-0.030389132
32	0xbd8e1237	-0.06937068
33	0x3bd0b85c	0.0063696336
34	0xbd71cb33	-0.059031677
35	0xbd726834	-0.059181407
36	0xbd55dd77	-0.05221316
37	0xbd69729f	-0.056994077
38	0xbd6b9ab5	-0.057520587
39	0x3d1ad2f2	0.03779883
40	0xbd12339d	-0.035693754
41	0x3cb5eb4d	0.022206927
42	0x3da16ede	0.07882474
43	0x3ccddb5d	0.025129015
44	0x3db9613f	0.09051751
45	0x3d8d9d29	0.069147415
46	0x3c0bfe31	0.008544491
47	0x3d1bb026	0.038009785
48	0x3da665de	0.081248984
49	0xbd7869a4	-0.06064762
50	0xbd58ef94	-0.052962855
51	0x3d757852	0.0599292
52	0x3d2cd072	0.042190976
53	0x3ce4b772	0.027919505
54	0x3c972f7b	0.018455258
55	0xbd5c94d3	-0.053852867
56	0x3d156309	0.0364714
57	0xbb67654d	-0.0035308183
58	0x3bbaffe2	0.005706773
59	0x3da7c982	0.081927314
60	0x3d4b6ff8	0.04966733
61	0xbb3f0310	-0.0029146113
62	0xbcc69aac	-0.024243675
63	0xbd4f8e33	-0.05067272
64	0x3d28b76c	0.04119055
65	0x3db5503b	0.08853193
66	0xbd475c28	-0.04867187
67	0xbd71129b	-0.058855634
68	0x3d6c3362	0.05766619
69	0xbd9581ab	-0.07300123
70	0x3dace91d	0.084429
71	0x3c73845c	0.0148631
72	0x3da67ea5	0.08129624
73	0x3b4556d0	0.0030111559
74	0x3cf637da	0.030055929
75	0xbdaa914a	-0.08328493
76	0xbc90ea34	-0.017689802
77	0x3d8e9f6a	0.069639996
78	0xbcff2bd1	-0.031148823
79	0x3d9d5d47	0.07683807
80	0xbc4d7496	-0.012540003
81	0xbd462bb9	-0.04838154
82	0xbd446a8e	-0.04795318
83	0xbd937c74	-0.07201472
84	0x3cf8013a	0.030274022
85	0xbd4cd8b9	-0.05001137
86	0x3d079eda	0.033110477
87	0xbcdf2393	-0.027238643
88	0x3d4d5eb7	0.050139155
89	0x3d75104a	0.059829988
90	0xbd86ca7b	-0.06581589
91	0xbd589d9c	-0.052884683
92	0x3d69e165	0.05709972
93	0xbce703ba	-0.02820002
94	0xbd9855cb	-0.07438239
95	0xbd41082a	-0.047126926
96	0xbda81dfc	-0.08208844
97	0xbd69e2fe	-0.057101242
98	0x3b754689	0.0037426075
99	0x3d7dee29	0.061994705
100	0x3c8f8c6e	0.017523017
101	0x3c07f734	0.008298684
102	0xbb6ebdd2	-0.003642906
103	0xbd4bf93a	-0.049798228
104	0x3d1d9d49	0.038480077
105	0x3d8363e9	0.06415541
106	0x3cfc88fa	0.030827034
107	0x3d9cc5f4	0.07654944
108	0x3db91f83	0.090392135
109	0x3bd81c27	0.006595153
110	0xbd519775	-0.05116983
111	0x3d887ebd	0.066647984
112	0x3c4b9592	0.012425797
113	0xbc6336bd	-0.013868031
114	0xbc6d4bda	-0.014483416
115	0x3c04e679	0.00811159
116	0xbd32f3b3	-0.04368944
117	0x3d4f4368	0.050601393
118	0xbd913724	-0.07090595
119	0x3c33fa77	0.010985008
120	0xbdbaca9a	-0.091206744
121	0x3d1c4af3	0.038157415
122	0xbd20fe47	-0.039304998
123	0xbc304663	-0.010758969
124	0x3d940f92	0.07229532
125	0x3c832865	0.016010473
126	0x3aa8a573	0.001286669
127	0x3d07b6be	0.03313326

model.base_model.net.8.weight f4 [128, 128]
0	0x3bcf0229	0.006317396
1	0x3d69a2ff	0.05704021
2	0x3b9a2fee	0.0047054207
3	0x3d725bcd	0.05916958
4	0x3d6ed1a2	0.05830539
5	0xbc44889b	-0.01199546
6	0x3d96adb3	0.07357349
7	0x3c9464fd	0.018114561
8	0x3d847b49	0.06468827
9	0xbdb046bf	-0.08607244
10	0xbdac737a	-0.08420463
11	0x3cc1700a	0.023612995
12	0x3ce37fb7	0.02777086
13	0xbd05a14d	-0.03262453
14	0xbcb81210	-0.02246955
15	0x3cbf11a2	0.023323838
16	0x3da37ed7	0.07983177
17	0x3cacd39b	0.021096995
18	0x3d9a7e2a	0.07543595
19	0x3d9cb487	0.0765162
20	0x3cdad0f5	0.026710967
21	0x3bff8ead	0.0077989907
22	0xbcc46256	-0.023972671
23	0xbd82106e	-0.0635079
24	0x3d4aebae	0.049541168
25	0x39ff350a	0.00048676907
26	0xbd1551d2	-0.036454983
27	0xbcaee01d	-0.0213471
28	0xbd537954	-0.05162938
29	0xbbf44158	-0.0074540786
30	0x3d4e2ed7	0.05033764
31	0x3d92b26f	0.0716294
32	0xbd6b0f1d	-0.05738746
33	0x3c6dfcb2	0.014525579
34	0xbd0f97df	-0.035056945
35	0xbdaa2a67	-0.08308869
36	0x3d487603	0.04894067
37	0x3d91262c	0.07087359
38	0x3d990331	0.07471312
39	0x3d99e9ff	0.07515334
40	0xbd019952	-0.03164036
41	0x3c9c5946	0.019085538
42	0x3cf3bda1	0.029753508
43	0xbd7ad3cb	-0.061237138
44	0x3da1f3a1	0.07907797
45	0xbd9b2afb	-0.07576557
46	0x3b7f7c70	0.0038984083
47	0xbcd44b8e	-0.025914934
48	0x3d21e0b4	0.039520934
49	0x3d8b4ec1	0.068021305
50	0x3c09d298	0.008412026
51	0xbd23f394	-0.040027216
52	0x3d8da197	0.069155864
53	0xbdb11af8	-0.08647722
54	0xbbe247fb	-0.0069055534
55	0xbda30ad7	-0.07961052
56	0xbb1ca4e7	-0.0023902
57	0x3d82ee4d	0.063931085
58	0x3d26e0ad	0.04074161
59	0xbd2a712b	-0.04161183
60	0xbd350057	-0.044189777
61	0x3cef596f	0.02921745
62	0xbd5dae60	-0.054121375
63	0xbd9a0b65	-0.075217046
64	0x3d8e3670	0.06943977
65	0x3cd0a954	0.025471367
66	0xbd8a2b70	-0.06746566
67	0xbda5f744	-0.08103803
68	0x3cf94ea0	0.030433
69	0xbce05b87	-0.027387394
70	0xbd3f88a6	-0.046761177
71	0x3db3300c	0.087493986
72	0x3d331d45	0.043729085
73	0x3d8ac3fe	0.06775664
74	0x3c61375c	0.013746109
75	0xbb0d7f38	-0.002159072
76	0xbd64ea28	-0.05588737
77	0x3d100cbb	0.03516839
78	0xbcfe0e0a	-0.031012554
79	0xbc139f89	-0.009010204
80	0x3b311e2c	0.002702604
81	0x3d861142	0.065462604
82	0x3d06d9c7	0.032922532
83	0xbdb2225e	-0.08697961
84	0x3ae03df3	0.0017108306
85	0x3d84755e	0.064676985
86	0xbb9d7872	-0.004805618
87	0x3d9838d6	0.074327156
88	0xbd1aa94a	-0.037759103
89	0xbd844535	-0.06458513
90	0x3da1a1df	0.078922026
91	0xbd012b02	-0.031535156
92	0x3d85ef24	0.06539753
93	0x3d88d952	0.066820756
94	0xbd6f9480	-0.05849123
95	0xbda6da83	-0.081471466
96	0xbc2ee3b9	-0.0106744105
97	0xbd4ab76d	-0.049491335
98	0x3d83d2e1	0.06436706
99	0x3d325a25	0.043543
100	0x3d98b303	0.07456019
101	0xbd2a577d	-0.04158734
102	0x3c8c315d	0.017113382
103	0x3af5f085	0.0018763697
104	0xbd83f033	-0.06442299
105	0xbd3197e9	-0.043357763
106	0x3d26d8e2	0.04073418
107	0x3be102f0	0.0068668053
108	0x3da0ad9d	0.07845614
109	0x3bd5f025	0.0065288716
110	0x3cd37e93	0.025817191
111	0x3d00d962	0.031457312
112	0xbd75c197	-0.059999075
113	0xbd8782fc	-0.0661678
114	0xbd5d5a33	-0.0540411
115	0xbd0100d0	-0.031494915
116	0x3ce9857e	0.028506037
117	0xbd422fd8	-0.04740891
118	0xbd902841	-0.07038928
119	0xbcd9f65d	-0.026606733
120	0xbd9a5866	-0.07536392
121	0xbc01d8ae	-0.007925196
122	0xbdae9ba6	-0.08525781
123	0xbc344636	-0.011003068
124	0xbd8bb809	-0.06822211
125	0xbda645fb	-0.081188165
126	0x3d826053	0.06366029
127	0x3db0b3e0	0.086280584
128	0xbd6c7271	-0.057726327
129	0x3c93b26b	0.018029412
130	0xbd935b97	-0.07195204
131	0xbd6c7112	-0.05772502
132	0xbda93ca0	-0.082635164
133	0xbd7470f1	-0.05967802
134	0x3db82c91	0.08992875
135	0x3cba3c0b	0.022733709
136	0x3d32f446	0.04368999
137	0xbd4d2343	-0.050082456
138	0x3d222e7f	0.039595123
139	0x3cfa4da8	0.030554608
140	0x3cfabd60	0.03060788
141	0x3c26fe99	0.010192537
142	0xbd3fceea	-0.046828188
143	0x3cef2314	0.029191531
144	0x3d9059f6	0.07048409
145	0xbc9a2b2d	-0.018819416
146	0x3da1a100	0.078920364
147	0x3c321a8e	0.010870589
148	0x3ccc4f0c	0.024940036
149	0x3d6772e3	0.05650605
150	0xbc83aa87	-0.016072525
151	0x3cbe3bc6	0.023221862
152	0xbca74ebc	-0.020423286
153	0xbd8c933e	-0.06864022
154	0x3af4f5a2	0.0018688927
155	0x3ce8e0dc	0.028427534
156	0x3c119c5c	0.008887377
157	0x3cc95e44	0.024581082
158	0xbcc4221c	-0.023942046
159	0x3d98fdde	0.07470296
160	0xbd8f113d	-0.0698571
161	0x3b8ac7dd	0.0042352513
162	0x3c0534c7	0.008130259
163	0x3d148dbf	0.036267992
164	0xbcc89ec9	-0.024489777
165	0x3ca9ddb5	0.020735601
166	0xbd8cc124	-0.06872776
167	0x3ce56b0c	0.028005145
168	0xbcc3b369	-0.02388926
169	0x3d69df22	0.05709756
170	0x3d9520e1	0.07281662
171	0x3d96a232	0.07355155
172	0xbd623145	-0.05522277
173	0x3d198711	0.037482325
174	0xbd343d10	-0.044003546
175	0x3c58f9bb	0.013243134
176	0x3cf238f1	0.029568167
177	0xbd94137a	-0.07230277
178	0xbda2e1e5	-0.07953242
179	0x3b729bf9	0.0037019236
180	0x3be0c08b	0.0068588904
181	0xbd79ed5f	-0.06101739
182	0x3d1ef813	0.0388108
183	0x3d73788a	0.059441127
184	0xbc9b099b	-0.018925479
185	0xbd9ce611	-0.07661069
186	0x3ca147a7	0.019687487
187	0xbd569b50	-0.05239421
188	0xbc3d61e0	-0.01155898
189	0xbc89fb38	-0.016843423
190	0x3d4f6946	0.050637506
191	0x3ce0ee7b	0.027457466
192	0xbd871cea	-0.06597312
193	0xbda88f2b	-0.08230432
194	0xbd2d6fa6	-0.042342804
195	0xbda946a2	-0.08265425
196	0xbb9e94d8	-0.004839521
197	0xbd138df9	-0.036024068
198	0xbd0d82cf	-0.034548577
199	0xbdac40f6	-0.08410828
200	0x3d8b4def	0.06801974
201	0xbd6d479d	-0.057929624
202	0xbd0df398	-0.034656137
203	0x3d86f836	0.06590311
204	0xbc1ff69d	-0.009763387
205	0xbcc02e8d	-0.023459697
206	0x3d2d3f77	0.042296853
207	0xbd203061	-0.039108638
208	0x3d839d1f	0.06426453
209	0xbaeb9060	-0.0017972104
210	0x3d4cae9d	0.04997121
211	0x3c26a5e7	0.01017139
212	0xbd346551	-0.044041935
213	0xbd16043c	-0.036625132
214	0xb9067011	-0.00012820984
215	0xbca27064	-0.019828983
216	0x3d4e72b9	0.050402377
217	0x3d4a5c2f	0.04940432
218	0xbd2ffb1f	-0.042964097
219	0xbd3f1dd4	-0.046659306
220	0xbc97feae	-0.018554058
221	0x3d997f2c	0.07494959
222	0x3b79111a	0.0038004578
223	0x3d943ead	0.07238517
224	0x3cf7d4c2	0.030252818
225	0x3b702d77	0.0036648193
226	0xbd9b42fb	-0.07581135
227	0xbc091aee	-0.008368237
228	0xbd6110b5	-0.054947574
229	0xbd2de539	-0.042454932
230	0x3d479688	0.048727542
231	0xbd443e9e	-0.04791128
232	0xbd4b3ba2	-0.049617417
233	0x3d871ad6	0.065969154
234	0xbd28e0cc	-0.041230008
235	0xbd8fe469	-0.07025988
236	0xbce1f441	-0.02758229
237	0x3b0d6fe5	0.0021581587
238	0xbd929d64	-0.07158926
239	0xbdb65ecf	-0.08904802
240	0xbda4af83	-0.08041289
241	0x3b87591a	0.004130495
242	0xbbc4876e	-0.00599759
243	0xbda11b43	-0.07866528
244	0xbd5cf468	-0.05394402
245	0xbb3f2b44	-0.0029170075
246	0xbd97ff57	-0.07421749
247	0xbd425fed	-0.047454763
248	0xbce3c789	-0.027805107
249	0xbdb7ea40	-0.089802265
250	0xbc3d01ed	-0.011536104
251	0xbccecd63	-0.02524442
252	0x3c376073	0.011192429
253	0xb9e60f09	-0.0004388022
254	0x3d2172c1	0.03941608
255	0xbcfa393d	-0.030544871
