results/edm_swiss_roll/checkpoints/epoch=5-step=192-v2.ckpt (torch, 842170 bytes, 37 tensors)

model.time_embedding.frequencies f4 [4]
00000000: 0000 803f 971e 3e3d 6b31 0d3b 16b7 d138
1.0 0.04641589 0.0021544348 9.999999e-05

model.net.0.weight f4 [128, 10]
00000000: a774 873e 9fbd 923e ab2d 5bbd a655 9c3e
00000010: 6134 60bd 8462 9c3d 8d87 14be c449 473e
00000020: 7349 933e 4472 64be 702d 993e 9698 a23d
00000030: 3e45 7b3e 03f2 3b3d c815 1f3e 38db 2abd
00000040: 8ee2 803e 94ef 5f3d 070d 0fbe 1e52 b53d
00000050: 9cc8 12be 0235 64bc b178 15be 172f 4f3e
00000060: 9dc9 82be df12 16be 8069 ccbd 8d85 4dbe
00000070: e5fc 9d3c 2c52 a5be ac03 9c3e 55b4 92be
00000080: 1e29 883e 6af4 883d 5303 b7bd 5df7 533e
00000090: c087 763d a967 883e 6b4e 3a3d 79e4 b5bd
000000a0: 3dcd dd3d 4843 a4bd a6cc 083e 978f 8d3e
000000b0: ea01 353e 0915 13be e75b 403e 4a61 7d3d
000000c0: 9ed9 293e c4f6 3fbe aac3 acbe ae2f 11be
000000d0: 4ebd 5fbe a47c 8f3e ea04 e13d 4e43 173e
000000e0: f3cb d93d f5fd 693a e7fb 813e ce87 5fbe
000000f0: 56ec 603c 939e 74be 4189 e63d 832b cbbd
00000100: f276 d93d 3e2f 6dbd 4935 8a3e 7d0e 38be
00000110: 1541 39be 1144 39be 1c56 9b3e b5b3 043e
00000120: 40c4 9f3e 1ef3 84be 913b a0be 809d 7bbe
00000130: 4e16 56be 54dd 063e db4f ef3d e262 883e
00000140: 48b3 2dbe ddbd 74be fdf0 3c3e 8839 f1bd
00000150: b775 4e3e be4c 89bd afb0 403e 5921 74be
00000160: 0bf3 1bbe cf60 d43d 786f b73d 32b7 87bd
00000170: b9d4 283e 35e6 473e 6b70 7ebe 229d 3dbe
00000180: f1ab 903e 3cf9 e8bd e808 f4bd 7245 a0be
00000190: 7af1 4bbe 49ea cd3d 2723 f8bc 2b51 5fbe
000001a0: a236 933c 3a91 53be 9a4d 89be 6a29 32be
000001b0: 96a0 8dbe 6308 4ebe a700 ab3e 23e0 7e3d
000001c0: f536 f43d 74de 8dbe fb2e 44be c1f7 bcbd
000001d0: a814 6f3d cae3 89be d05e 02be 99b4 38be
000001e0: 7df6 a8bc d5a8 0dbe ad02 d2bb ea77 51be
000001f0: 9687 54be eb8b 34be ac88 d4bd 4ef7 7abe
00000200: 3a10 8a3e 219a 6ebd 2fcb 913e 03de f13d
00000210: fdac 81be 617a 693e 1f42 a2bd e867 e8bd
00000220: c0ca 84be dd5d 9fbe a3ae bf3d ad15 87bd
00000230: 6b45 e63d 7706 8ebe 8676 803e 43de 63be
00000240: 0b29 3abd a50b 983d b92a 2e3e 9c38 863e
00000250: 9b00 973e d3bd 79be 8915 b33d e730 18be
00000260: 6bc1 babc 5b6e 6dbe 7bac 953e cf1e 6bbe
00000270: d06b 323e c654 ee3d 912d dd3d 3cb5 29be
00000280: 3dba 9e3e e5e3 813d d414 843d e44f 88be
00000290: 6d07 133e 5c3a 21bd 361e 09be 05b0 903e
000002a0: 7ada a63d a8ed 27be e16a 39be 0990 9139
000002b0: 2921 4a3e 3b11 81bd f471 2abe 323b c5bd
000002c0: c327 70be 4497 ea3d 3b75 7c3e ad85 97be
000002d0: 2898 923d dc52 403e 00df 923d fb0a d5bd
000002e0: acbc 313e a5ca 323e c889 f83d 98e5 56bd
000002f0: 0724 a5bd d946 173d 1a5e 9fbd 6627 e3bd
00000300: 73dc 5d3e a357 8f3e a841 d0bc 239b 86bd
00000310: 9f7a f13b 06eb 83bc 7562 a13d c82c bb3d
00000320: 7183 9ebe 9814 11be f526 963e df13 113e
00000330: fb06 daba 8287 37be aa8b 35be 36b7 88be
00000340: 51d8 b1bd e6f7 fb3d 292b 633e e028 2f3e
00000350: 1c7a 8cbe 03f5 41be d508 49bd 09e1 9d3e
00000360: f96d 453d 55ba a2bd 9476 083e 98ae f1bd
00000370: 97d3 69be 1a5c 6c3e 676a eebd fd9f 1ebd
00000380: 1248 95be 9417 6d3e 916a 7e3e f550 fe3d
00000390: afa5 58be 1439 9bbe 34b9 8abe fc1e 853e
000003a0: ac24 363e d943 933e 503e 3c3e 7bd4 c23d
000003b0: 6fb9 393c 0b6f 67be 014e 83be e306 90be
000003c0: 32bc 123e 2b90 33be 11d1 3cbd 4819 31be
000003d0: dd56 49bd 8b97 5dbe 85a6 49be b1c2 ea3d
000003e0: 118b acbd 3bdf 513e 035e e6bd 83e7 82be
000003f0: ce99 1abd 57fc 10be c92e b0bd 4847 95be
0.26456186 0.28660294 -0.05351035 0.30534095 -0.054737452 0.07635978 -0.14504834 0.19461733
0.28766975 -0.22309214 0.2991748 0.0793926 0.24538133 0.045885097 0.15535653 -0.04171297
0.25172848 0.05467184 -0.13969813 0.08853553 -0.14334339 -0.013928654 -0.14596821 0.20232807
-0.25544444 -0.14655636 -0.0998106 -0.20070477 0.019285629 -0.32289255 0.3047155 -0.28653207
0.2659387 0.06687243 -0.08936181 0.2069983 0.060188055 0.26641586 0.04548494 -0.08881468
0.10830162 -0.080206454 0.13359317 0.27648613 0.17676511 -0.14363493 0.18785058 0.06186036
0.1658692 -0.18746477 -0.3374303 -0.14178345 -0.21849558 0.2802478 0.109872654 0.14771768
0.10634603 0.0008926087 0.253875 -0.21829149 0.013728222 -0.23888616 0.11256648 -0.099204086
0.1061839 -0.05790638 0.26993778 -0.17974277 -0.18091233 -0.18092372 0.30339134 0.12959178
0.31204414 -0.25966734 -0.31295446 -0.245718 -0.20906946 0.13170367 0.11685153 0.26637942
-0.16962922 -0.23900552 0.18451305 -0.11778551 0.20162092 -0.067040905 0.188174 -0.23840846
-0.15229432 0.10370027 0.08956808 -0.066267386 0.16487397 0.19521411 -0.24847572 -0.18516973
0.2825618 -0.11375663 -0.11915761 -0.31302983 -0.19916335 0.10054452 -0.0302902 -0.21808307
0.017970387 -0.20660868 -0.26817018 -0.1739861 -0.2766158 -0.20120387 0.33398935 0.062225472
0.11924545 -0.2770878 -0.19158547 -0.09226943 0.05836931 -0.26931602 -0.1273148 -0.18037643
-0.020625347 -0.13833936 -0.0064090104 -0.204559 -0.20754847 -0.176315 -0.103776306 -0.24508402
0.26965505 -0.058252458 0.2847533 0.118099235 -0.25327292 0.2280059 -0.07922768 -0.113479435
-0.25935936 -0.311263 0.09359481 -0.06595931 0.11243709 -0.27739307 0.25090426 -0.22252755
-0.045449298 0.07424096 0.17008485 0.26215065 0.2949265 -0.24388818 0.08744342 -0.14862405
-0.022797307 -0.23186629 0.29233155 -0.22960971 0.1742394 0.11637263 0.10799707 -0.16573042
0.31001464 0.063422956 0.06449285 -0.26623452 0.14358301 -0.039362296 -0.13390431 0.28259292
0.0814714 -0.16399252 -0.18107177 0.0002776387 0.19739212 -0.063021146 -0.16645032 -0.09630431
-0.23452668 0.11454633 0.24654095 -0.29594174 0.07157928 0.18781608 0.0717144 -0.10402485
0.17357129 0.17460115 0.12135655 -0.05246505 -0.08063512 0.0369328 -0.0778162 -0.11091499
0.21666126 0.2799655 -0.025421932 -0.06572559 0.007369354 -0.016103279 0.07880107 0.09139401
-0.30959657 -0.14168012 0.29326597 0.14167736 -0.001663416 -0.17922786 -0.17729059 -0.2670228
-0.08683837 0.12303142 0.22184433 0.17105436 -0.27436912 -0.18941121 -0.04908069 0.3083575
0.04820058 -0.07945696 0.13326484 -0.11800879 -0.22834621 0.23082009 -0.116413884 -0.038726795
-0.29156548 0.23153526 0.2484534 0.12417785 -0.21156953 -0.30316985 -0.27094424 0.26000202
0.17787427 0.287627 0.18383145 0.09513184 0.011335715 -0.22600953 -0.2564545 -0.28130254
0.14329603 -0.17535464 -0.04609782 -0.172948 -0.049155105 -0.2163984 -0.19692428 0.11462916
-0.08424962 0.20495312 -0.112484 -0.25567254 -0.037744336 -0.1415876 -0.086026736 -0.29155946

model.net.0.bias f4 [128]
00000000: a22e 61be 0596 91bd 85ea 26bd b405 29be
00000010: f2c5 69be e959 603e 2aa0 633e e230 91be
00000020: c603 dd3d ca04 f93d b0e2 993e de7f 443e
00000030: 1228 973e 5ca4 cdbd 6bd1 693e c160 863e
00000040: 3b47 93be 490f 81be 5570 893d f6a8 333e
00000050: d53f 10be b3a2 183d edc0 0a3c cb93 c13d
00000060: 9009 24be 7f12 3e3e 5ef4 5b3e d185 54be
00000070: 7811 013c e547 be3b f2cf d23d 0130 9a3e
00000080: d261 a23d 135a 78bd e9d4 933e 9935 f4bd
00000090: 3d8e a3bd d12e fa3c 9f5f 7cbe bc54 343d
000000a0: 007d 4cbe 1aec 163d 6ca1 b63c 48a7 413d
000000b0: 111c 87be fa9c 93be 78db 183e 9881 8e3e
000000c0: 07f8 8dbe 81dc f33d 165e 6cbe 72cc eb3c
000000d0: 761e 973e d182 733e 624e 65be 210e 463e
000000e0: 3e7f 1c3e a37b 0d3b 3b98 9e3e 4ced f2bd
000000f0: bfb1 85bd 19b4 26be 31d9 4a3d 7346 ce3d
00000100: fda7 133d 4953 2cbe 77b0 0bbe 6dbc d13d
00000110: f9d1 87be 0ebc 36bd 6d20 9f39 3411 02be
00000120: 344f f13d 67ce e93c ac04 673e b3d4 d6bc
00000130: d556 44be 2957 653e 0414 423d aeb5 b2bd
00000140: dc5f 53be 7b23 a63d ba72 95be c0bf a43d
00000150: 6d80 273e 6749 8cbe af2f 49be 86a5 66be
00000160: a88d 8d3e fcb0 8a3e bc28 043d 76eb 963e
00000170: 2c47 d3bd a929 97be e284 fe3d 371c f23d
00000180: 583f a33e 131f 423b 759a 7c3e 40de 3e3e
00000190: 7a47 6f3e 2988 9bbe a604 8b3e 7c9c 8ebe
000001a0: 84a1 923e 6998 b0bb 21a7 8ebe db2d c93d
000001b0: 4d0c 86bd e4b8 91be f335 e5bd 89e4 273d
000001c0: c669 803e 0ccf b0bd d776 3f3e 094a 1e3d
000001d0: e3d1 713c a4d4 873d 500e 5bbe 253d 83be
000001e0: 8655 bfbd b8f9 93be cf3d 12be f90d 913c
000001f0: 234d 4fbe a916 f6bd d3d8 4fbd fcc1 0dbd
-0.21990445 -0.07108692 -0.040751 -0.16506082 -0.22829416 0.21909298 0.22229066 -0.28357607
0.10791735 0.121591166 0.3005576 0.19189402 0.2952276 -0.10041115 0.22833793 0.26245692
-0.28765282 -0.25206974 0.06710879 0.17544922 -0.1408685 0.037264537 0.008468849 0.094520174
-0.16019273 0.18561743 0.21479937 -0.20754172 0.0078777 0.0058069103 0.10293569 0.3011475
0.07928814 -0.060632776 0.28873375 -0.119242854 -0.07986114 0.030539902 -0.24645852 0.04402612
-0.19969559 0.036846258 0.022293769 0.047278672 -0.263886 -0.288307 0.1492747 0.27833247
-0.27728292 0.11907292 -0.23082766 0.02878401 0.29515427 0.23780371 -0.22393182 0.19341327
0.15282914 0.0021588586 0.30975518 -0.11861667 -0.06528043 -0.1627964 0.049523536 0.10072031
0.036048878 -0.16828646 -0.13641535 0.102410175 -0.26527384 -0.044612937 0.00030351002 -0.12701875
0.11782685 0.028540803 0.22560376 -0.02622447 -0.19173749 0.2239653 0.04738237 -0.08726059
-0.20642036 0.08112236 -0.29189092 0.08044386 0.16357584 -0.27399752 -0.19647096 -0.2252408
0.27647138 0.27088153 0.03226541 0.29476517 -0.10316309 -0.29523972 0.12427689 0.11821788
0.31884265 0.0029620572 0.24668296 0.18639469 0.2336711 -0.3037732 0.27151984 -0.27853763
0.28638852 -0.0053892625 -0.27861884 0.09823199 -0.06545315 -0.28461373 -0.111919306 0.040989432
0.250807 -0.08633241 0.18697678 0.038644824 0.014759514 0.06632355 -0.21392179 -0.25632587
-0.09342484 -0.28901458 -0.1428139 0.017706858 -0.20244269 -0.12016041 -0.05074389 -0.034608826

model.net.2.weight f4 [128, 128]
00000000: fba2 92bd c38e 8ebc da8a 4cbc dd08 f13b
00000010: af94 8bbc e436 c3bc 4122 aabc 8387 cebc
00000020: 567c ffbc a9f6 f3bb b632 c6bb 4140 803c
00000030: 218e 023d 4aee 613d da9a 75b9 8720 82bd
00000040: 36d3 983c 0838 60bd 2a27 09bd 0b0b 87bc
00000050: 4653 d6bc 5fcb 69bd 747b c03d 1233 4e3d
00000060: f3fa 033c ea35 c53d 97f3 cabd 94d3 f73b
00000070: 1488 953d 8996 703d 4320 9abd d333 ad3c
00000080: 1929 4ebd ff04 d9bc e7b3 29bc 53ca bbbd
00000090: e84e a7bd 8612 a2bd 3517 f63c 0259 523d
000000a0: 561f a5bd d8d4 e9bc 1e3b 29ba c2f7 c9bd
000000b0: f2ca 413d 2993 bb3d ca03 983c 7e78 b6bd
000000c0: ef97 733c 9b4b b43c 2384 8b3d 460d 19bd
000000d0: ecf3 9abd 2f95 ea3c 468e b93c dd1d bbbc
000000e0: 13fe 37bd 7812 d7bc f672 823d e977 0cbd
000000f0: fad4 a43d ebaa 763d 0fe4 003d 8e95 af3c
00000100: a99d fbba 8104 253d 9fbf 69bd 5a02 ff3c
00000110: c4f8 a5bc ecf5 033d 5db4 a3bc a73a 1cbd
00000120: 2c21 50bc b50e 013d e4db 9dbd e0fc 90bd
00000130: 090e f9bb a411 67bd 1377 1c3d 7d05 823d
00000140: 9a73 613a 150f c33d 4f4f 61bd faab 87bd
00000150: 17ef 11bd 578a 76bd 48ce 81bd f237 b2bd
00000160: e509 c1bd 2cce b33c 54e9 183d f694 ce3d
00000170: 19d4 c23d 1dc3 b7bc 0e9a d53c f600 efbc
00000180: 68ea 573d 1483 b8bd 00f9 0f3d 198a 2b3c
00000190: 0aa9 383c c993 df3c ec35 8cbc d5ee 823d
000001a0: 4e64 703d 50f8 343d fcc3 033d d282 1e3d
000001b0: 214f a93d b2b8 953c 1727 b43d f650 bbba
000001c0: 3911 8f3d dc78 083d 5a7c 003d e5fb cc3d
000001d0: ac68 4d3c 7bfa dfbc 753e c7bc 11b6 af3c
000001e0: 2320 f43c 0289 38bd 18b6 b53d d0e5 243d
000001f0: 7813 5ebd aa6c 043c b4d8 a0bc 260d 5ebd
00000200: 4865 153d 659b d4bb a4ef 52bd 68cf d1bc
00000210: 998f d5bc 0bd9 873d 7b24 373c 623d e33d
00000220: 5d5d 00ba b2ed 883c 9af6 013d f912 e83c
00000230: 07a0 a5bd 65a8 49bd a666 bdbc 640d c13a
00000240: c53d 513d 0dd5 d23c 5008 bf3d 130b 303c
00000250: 174e 28bd 4f5c 2dbd 6951 88bd 9a21 65bd
00000260: 1570 a63c 0891 153d 1984 983d aafa 13bd
00000270: 079e c6bc 31f5 0fbd 0930 95bc 2c17 293d
00000280: e1e7 01bc f4c0 d53c 6c8a 063c 45bb 5d3d
00000290: 31c8 16bd 7535 02bd 1ab3 8e3c 2a18 ddbc
000002a0: 6514 29bd 5e1f d63c 52dc dcbb 9a9b 873b
000002b0: fcd2 19bd 4814 06bd 246a 88bd b9c3 333d
000002c0: 5d3a b63b 60fa 8b3d 6a19 d2b8 0303 babb
000002d0: 0e97 073d 7c08 563d 71db 56bd 8d7b 6d3d
000002e0: 100a ba3c 6d7c a5bd 040a ea3c b43e 03bd
000002f0: b444 d0bc bb71 31bd 8bb2 a1bd e6af 793d
00000300: 6346 cebd b39d 473d 46e8 c6bd 76f2 25bc
00000310: a308 583b 3f16 a13d 7519 d6bc d1f0 d43c
00000320: 252a 593c 351a 403d 79fe ab3c a098 4f3d
00000330: d3bc 8abd e657 18bd 9587 9f3d c585 80bd
00000340: cb68 e5b9 5293 42bc fc1a d83d f971 39bc
00000350: e063 92bd c622 a9bc 9c32 d03c f96a 673d
00000360: 8914 bb3d 1e2e f0bc 74d9 5c3d 13b5 9fbd
00000370: 5c38 a73c c9ad 393d ecc6 383d 8697 98bd
00000380: b0ea 12bd 2dbd 053d b5ae 7cbd cf33 82bd
00000390: fb77 b5bd 30f2 5fbc e4a2 ff3c f4d2 9f3c
000003a0: fbe5 fe3b 710b 0e3d 1c90 72bd 24af c03c
000003b0: a5c9 38bd 47b3 aebc f5a2 963d 6fc6 a7bd
000003c0: b5fb c03b 7bcd a4bd 87bd bd3b af8e 16bd
000003d0: fdd4 013d e6ea 46bd 682d 943d 2e11 94bd
000003e0: 82be 313d b1e2 73bd 7267 183d 80bd bcbc
000003f0: 3727 ccbb 4fc2 1ebd d810 873d 7a40 153d
-0.07159992 -0.017402058 -0.012484277 0.007355793 -0.017038671 -0.023829885 -0.020768287 -0.025211101
-0.031187218 -0.0074451757 -0.0060485257 0.015655639 0.031873826 0.05515889 -0.00023422707 -0.0635386
0.0186554 -0.054740936 -0.033484615 -0.016484758 -0.026162755 -0.057078715 0.09398547 0.050341673
0.008055436 0.09629424 -0.09909742 0.007563064 0.073013455 0.05873731 -0.07525685 0.021142876
-0.050332163 -0.02649164 -0.0103578335 -0.0916945 -0.08169347 -0.07913689 0.030040363 0.051354416
-0.080626175 -0.028543875 -0.00064556475 -0.09861709 0.047312684 0.09158928 0.018556494 -0.08909701
0.014867767 0.022008708 0.068123125 -0.037366174 -0.07566056 0.02863559 0.02265085 -0.022841388
-0.04492004 -0.026253924 0.06369583 -0.034294043 0.080484346 0.060221594 0.031467494 0.021433618
-0.0019196767 0.0402875 -0.05706751 0.031129051 -0.020260222 0.03221695 -0.019983465 -0.038141873
-0.012703221 0.031508166 -0.077079564 -0.07079482 -0.00760055 -0.056413308 0.038199496 0.06348703
0.0008600295 0.09524361 -0.055007275 -0.06624599 -0.035628404 -0.060190525 -0.06338173 -0.08702077
-0.09425715 0.021948896 0.037331894 0.10087006 0.09513111 -0.022431904 0.026074436 -0.029175263
0.05271378 -0.09009376 0.035149574 0.010469937 0.011270771 0.02729215 -0.017115556 0.0639321
0.058689408 0.04418212 0.032169327 0.03869898 0.08267046 0.018276546 0.08796518 -0.0014291096
0.06985707 0.033318385 0.03136859 0.100089826 0.012537163 -0.027341118 -0.024321774 0.02144912
0.02980048 -0.045052536 0.08872622 0.04025823 -0.054217786 0.008082548 -0.019634582 -0.054211758
0.036473542 -0.006488251 -0.05149807 -0.025611594 -0.02606945 0.066331945 0.011178131 0.11095692
-0.0004896725 0.016714904 0.03172932 0.02832936 -0.080871634 -0.04923286 -0.023120236 0.0014728722
0.0510843 0.025736356 0.09327757 0.010744828 -0.041090097 -0.04232436 -0.06656153 -0.055940248
0.020317117 0.036515266 0.07447071 -0.036127724 -0.024245275 -0.035145942 -0.018211382 0.041281864
-0.007928819 0.026092984 0.008211713 0.054133672 -0.03681201 -0.03178926 0.017419387 -0.026989061
-0.041279215 0.026138004 -0.0067401314 0.004138422 -0.037554726 -0.032734185 -0.0666087 0.043887828
0.0055611567 0.068348646 -0.00010018314 -0.0056766286 0.03310304 0.052254185 -0.05245537 0.057979155
0.022709876 -0.08080373 0.028569229 -0.03204222 -0.025423385 -0.043321352 -0.078953825 0.060958765
-0.10072019 0.048734378 -0.097122714 -0.010128608 0.0032964132 0.07865571 -0.026135186 0.025993736
0.013254677 0.046899993 0.020995365 0.050682664 -0.067742966 -0.0371932 0.07789532 -0.062755145
-0.0004375636 -0.011875944 0.10552022 -0.011318677 -0.07147956 -0.020646464 0.025414757 0.0564985
0.09134776 -0.029318865 0.053918317 -0.07798209 0.020412616 0.04533175 0.04511158 -0.07450776
-0.035868347 0.032651115 -0.06169005 -0.06357538 -0.08860775 -0.013668582 0.031205602 0.01950977
0.0077788807 0.03467888 -0.059219465 0.023521014 -0.04511418 -0.02132572 0.073553 -0.08192145
0.005889381 -0.08047005 0.0057904157 -0.036757167 0.031697262 -0.04856386 0.07235223 -0.07229839
0.043394573 -0.05954236 0.03720803 -0.02303958 -0.0062302607 -0.038759526 0.065950096 0.036438443

model.net.2.bias f4 [128]
00000000: a2da 7fbb 8b07 12bd 933b 89bd 1317 54bd
00000010: de8f 45bd 9354 b53d 1289 4c3b 040d 53bd
00000020: 04ae 27ba 513c cbbb 8bb1 d83c 3e01 0a3d
00000030: f739 7a3d 36d0 22bd 4a53 92bc d484 98bd
00000040: 1a53 d9bc 7bbf 97bd 2a70 0cbc 19de 43bd
00000050: 9e8f eabc 8d62 b23d 7e13 ae3d 1743 4c3c
00000060: a422 4d3d d498 663d 20f2 b53b 5d40 a53c
00000070: 7da1 2bba 2af7 8ebd 7964 953d fd64 87bd
00000080: 47f2 abbc 3173 99bd e811 55bd c9c6 bd3d
00000090: f87f c8bb 57c4 e73c 0eed d83c 67fc 983d
000000a0: bb9b be3c a8f8 a43a 17ca 09bd 56d2 783c
000000b0: 99d5 c83c 72ec 5cbd 0d97 73bd c25a 1fbd
000000c0: a989 a43d 3ade 273d 1dd1 4c3d d817 893d
000000d0: 9541 5a39 2e81 64bd edda ab3d 449c 9a3c
000000e0: 2aaa f0bc 145b 273d ebfc 84bd 5617 963b
000000f0: 01e3 a63d d675 083d 6d61 a2bd 8244 ab3d
00000100: c5e7 983c 428d d1bc 70e0 8d3d b00f 113d
00000110: 15ea 693d 2c92 493d d88e 32bd 1276 74bd
00000120: 235c 813d 4f5c 1dbc fb11 923d 75f3 3a3d
00000130: 6f5a a8bd 5f05 553d d630 413d 9493 a5bd
00000140: f0fd 773b 28e6 8dbd 5252 443d 2244 593d
00000150: 6ae3 033d 655a 723d eb6b 3fbd 58eb a3bb
00000160: 4099 9cbc 189a 883d 5194 8c3d 3b85 00bd
00000170: 46a9 8ebd 47be 063b 0c28 993d d444 cfbc
00000180: eab1 1c3d 2cde 7dbd e5a2 67bd 185c 94bd
00000190: a9eb 92bd ee70 13bd 2fc6 04bd 87f6 083d
000001a0: b37e a13d 8ac8 9d3c 1cbf 133d 62ac 5fbd
000001b0: ffc1 05bd 62da a5bd d51a a83d 3d08 6f3c
000001c0: 6175 9abc 9551 97bd e29c 9e3c 830e acbd
000001d0: 9e93 753d fd26 a6bd 24e0 8c3c 5a31 6c3d
000001e0: 42a5 8ebd c543 833d 6536 9a3d 0348 813d
000001f0: 46a3 a43d c85e 21bd 0d07 2cbc af15 ac3d
-0.0039040227 -0.035651725 -0.06700816 -0.051779818 -0.048232906 0.08854022 0.003120963 -0.051526085
-0.0006396475 -0.0062022586 0.026451847 0.03369259 0.061090436 -0.039749347 -0.017861981 -0.0744721
-0.026528884 -0.07409569 -0.008571664 -0.04781923 -0.028632935 0.08710203 0.084998116 0.012467167
0.050081864 0.056298092 0.005552545 0.020172292 -0.0006547196 -0.069807366 0.07294554 -0.06611059
-0.02098955 -0.07492674 -0.05201903 0.09266431 -0.0061187707 0.028291864 0.026480224 0.07470017
0.023267617 0.0012586312 -0.033639994 0.015186867 0.024515914 -0.05393643 -0.059470225 -0.038904913
0.08034069 0.040983416 0.050004113 0.06694001 0.00020814531 -0.055787258 0.08391366 0.018873341
-0.029378016 0.040858343 -0.06493553 0.0045804186 0.08148766 0.033315502 -0.07928739 0.08362676
0.018665204 -0.025580052 0.06927574 0.03541535 0.057108004 0.049211666 -0.043593258 -0.059682913
0.06316402 -0.009604528 0.07132336 0.045642335 -0.08220374 0.052007075 0.047165714 -0.08084789
0.0037840568 -0.069286644 0.04793007 0.053043492 0.0321993 0.05916824 -0.046733778 -0.0050024204
-0.019116044 0.06670016 0.068642266 -0.03137706 -0.0696588 0.0020560191 0.074783415 -0.025301374
0.03825561 -0.061979458 -0.056551833 -0.07244128 -0.07173855 -0.03599637 -0.032415565 0.03343823
0.07885494 0.019260664 0.036070928 -0.054607756 -0.032655712 -0.08098294 0.08208243 0.0145893665
-0.018854799 -0.073886074 0.019361917 -0.084012054 0.05995523 -0.08112905 0.017196722 0.057664253
-0.06965114 0.064094104 0.07529906 0.06312563 0.080389544 -0.03939703 -0.010499728 0.08402573

model.net.4.weight f4 [128, 128]
00000000: 3164 af3c 3c17 65bd 7a6a 9e3d 68f9 e5bc
00000010: cbe1 17bd 8ae1 8b3c 6447 b03d 91e1 62bd
00000020: db79 503c 1a5f aebb af0a 0ebc a298 3a3d
00000030: 39dc 5f3c 1eee b5bd 3a7d d23b 9f07 283d
00000040: 6e11 c2bc 7e7c 933d a766 b1bd c5d9 543c
00000050: 5296 813d cd87 153d 30f7 423d 6fff d1ba
00000060: c5d4 20bc bc69 8c3d a59e d8bc a447 883d
00000070: ec71 be3d d3c4 b3bd 2061 bb3d 58c5 953b
00000080: 7f9d 41bd 75f0 74bd c387 bdbc ab9e cb3d
00000090: ad10 563d 356f 17bc 0b1d 13bd bfa5 3abd
000000a0: 13f4 f8bc 48a4 7a3b 72aa 96bd 9a99 c8bd
000000b0: 7b0e 28bd 3815 2d3d 5d72 e43c c365 273d
000000c0: 4f4a a93d e22e 1d3d e409 01bd 659d 533d
000000d0: df13 22bd bb09 913d d5d6 3dbd 7862 41bd
000000e0: 6949 29bc 2e99 05bd fe4c 87bc 616c 9fbc
000000f0: 982a 1c3b 67dd 67bb e4a0 83bd d845 88bd
00000100: 7810 9fbd 4a8d d0bd 767f b5bd 0847 a83d
00000110: 9636 863d 878d 543d f5dc 883d d326 843c
00000120: f4b1 17bd e235 cabc a9da 20bd d7b5 f73c
00000130: 96c5 993c 0c97 bfbd 376f b53c 4739 87bd
00000140: 4c89 643d f581 363b 6596 333c a551 3fbd
00000150: a441 293c 3f29 ea3b 4469 5f3c 5610 93bd
00000160: dd8e 47bd c497 88bd 35dd 31bd 6209 50bd
00000170: 94ab 98bd 6aa6 d33d 90d7 d2bd d984 1dbd
00000180: 9c55 7d3c b76a 30bd 2ad2 17bd 7acd 203d
00000190: 18e5 0dbc 164a 67bc 4417 c93d 75ab 39bd
000001a0: 6d1d 763c f5d1 8d3d 786c 95bc 47ae b0bd
000001b0: 0420 9c3d a122 94bd 31e1 a4bd e20e 09bd
000001c0: 35f2 a33c c25b ac3d 5593 93bd 9b31 63bd
000001d0: 97dd 753d ee63 a23d 9cd3 d73c 0391 78bd
000001e0: 9883 753d 7a10 83bc 2acc 6dbd 6d05 943d
000001f0: 709b 80bd 7d2a b23b 2ffb 1cbd 63a6 ab3d
00000200: 0e80 a13c d6ec 34bd 8394 2c3d 47a4 943d
00000210: 4470 89bc aa24 583d 1e56 a9bc 00f1 61bd
00000220: 89f4 0dbd ca5d b9bd 099b c73d a375 e43c
00000230: 3cc7 4fbd 1016 73bd b51f 663d 242f dbbb
00000240: 36f7 2ebd afce 093c 822d 3ebd 26df d7bb
00000250: 6f01 ecbc c58b 00bd af6e 17bd 988c 50bd
00000260: 5b22 503c 8e40 653d 8ba4 07b9 7f15 093d
00000270: 6470 79bc 5cee 8ebc a63e 48bd df2e bebd
00000280: c2d4 8bbd 68bf f5bc 0c98 b13d 71b9 8dbd
00000290: d6fb a13d 510a 6e3d a5da 813d c6fd 723d
000002a0: 6de1 183d c8ee ac3d 88dc 5a3d 0ce8 1abd
000002b0: 8276 4b3d 7deb 3e3c 3a7e 53bd 8b0a 033d
000002c0: 9edf cb3d 119c 953d 09d0 00bd 3432 ce3b
000002d0: 517a 463c 780a 093d fe59 b8bd d7c5 c93c
000002e0: 6452 07bc 3996 d23d b0c5 853c a212 48bd
000002f0: 1bb6 0abd 17f2 ac3d a5ab 01bd 6b76 023d
00000300: 8bf2 913d 8732 c4bd cbd4 543c bb05 acbd
00000310: 08c2 13bc 825f 423d 0c6c de3b c2b1 323d
00000320: c761 41bd 1a9a 1b3d 3c8b 31bd 91e9 0d3d
00000330: 2f49 34bc 90ae b93d 6637 363c 389c f23c
00000340: 2c6c 92bd 0145 723a 3baa 963d 167a a9bd
00000350: dd89 b13d 37db 0a3d daf0 dbbc 64ca 91bd
00000360: 9cfe 783d a493 bcbc 502d 2f3d 9d31 813c
00000370: 2e47 b63d 3a02 49bd 97ec 993b bf94 143d
00000380: 76c1 dabc 9d12 f0bc 3d98 2abc 5cf9 dc3d
00000390: 8934 3b3d 52bc 93bd ff8e 2f3c d8b7 583d
000003a0: 3efc 653d 1ac6 c93d 70d8 13bd 47b6 13bc
000003b0: aee4 8a3d 02c6 9c3d 5555 05bd e5b6 193d
000003c0: 7ba8 513c 83de b23d d3a6 a2bc 1254 0ebb
000003d0: 435d ba3c 0692 13bc 4b1c 1fbd f919 b03d
000003e0: 9591 02bd a5cc 873d 7cf2 0dbc 0c96 97bd
000003f0: 9d67 61bd 1602 b03b b2a0 993d 9e84 143c
0.02141008 -0.05593036 0.077351525 -0.028073028 -0.037080567 0.017075319 0.08607367 -0.0553909
0.012724365 -0.0053213956 -0.008669539 0.04555572 0.013663345 -0.08883308 0.0064236196 0.041022893
-0.023689952 0.072014794 -0.086621575 0.012991373 0.063274994 0.036506463 0.047599018 -0.001602156
-0.009816353 0.06856105 -0.026442835 0.06654289 0.092990726 -0.087777756 0.091493845 0.0045706443
-0.04726934 -0.05979963 -0.023136025 0.09942373 0.052261997 -0.009242822 -0.03591637 -0.045568224
-0.030389821 0.0038244892 -0.073567286 -0.09794922 -0.041029435 0.042256564 0.027886564 0.040868532
0.08266126 0.03837479 -0.031503573 0.051663775 -0.03956973 0.07081934 -0.046347458 -0.047213048
-0.010332444 -0.032616787 -0.016516205 -0.019460859 0.0023829099 -0.0035379769 -0.06427172 -0.06653947
-0.07766813 -0.10183199 -0.08862202 0.08216673 0.0655338 0.051892783 0.06682769 0.016131794
-0.037034944 -0.024683896 -0.03927103 0.030238075 0.018770974 -0.09354982 0.022147758 -0.06602722
0.055795 0.0027848457 0.01096115 -0.04670872 0.010330591 0.00714603 0.013635937 -0.0718085
-0.04872023 -0.06669572 -0.04342385 -0.0507902 -0.07454601 0.10334475 -0.102950215 -0.03845677
0.015462305 -0.04307052 -0.037065662 0.039258458 -0.008660577 -0.014116785 0.09818891 -0.04532953
0.015021664 0.06924812 -0.018240198 -0.08626991 0.07623294 -0.072331674 -0.08050764 -0.03346146
0.020012954 0.08415939 -0.07205836 -0.05546723 0.060025778 0.07929216 0.02634602 -0.06068517
0.05993995 -0.015999068 -0.058056034 0.072275974 -0.06279647 0.005437194 -0.038325485 0.08381345
0.019714382 -0.044171177 0.04213382 0.07257896 -0.016777165 0.05276934 -0.020670947 -0.055161476
-0.034657035 -0.09051092 0.097463675 0.027888125 -0.050727114 -0.059347212 0.056182582 -0.006688969
-0.042716227 0.008411094 -0.04643012 -0.0065878807 -0.028809277 -0.031383295 -0.03697079 -0.05091533
0.0127035035 0.055969767 -0.000129359 0.033467766 -0.01522455 -0.017447643 -0.04888787 -0.09286284
-0.0682769 -0.029998496 0.08671579 -0.06920136 0.07909362 0.058115307 0.06340531 0.05932405
0.037324358 0.084439814 0.05343297 -0.037818953 0.049673565 0.0116528245 -0.05163405 0.031992476
0.09954761 0.07305158 -0.031448398 0.006292606 0.012114123 0.03345725 -0.0900154 0.02463047
-0.00825939 0.10282559 0.016329616 -0.048845895 -0.033865076 0.084446125 -0.031657834 0.031851213
0.071263395 -0.0957995 0.012990187 -0.083995305 -0.009018429 0.047454365 0.0067877825 0.043626554
-0.04721239 0.03798876 -0.043345675 0.034646574 -0.011003776 0.09066498 0.011121606 0.029615507
-0.071495384 0.000924185 0.07356688 -0.08275239 0.086688735 0.033900466 -0.026848245 -0.07118681
0.06078969 -0.02301962 0.042767823 0.015770728 0.08900295 -0.04907439 0.004697393 0.036274668
-0.026703577 -0.02930575 -0.010412273 0.10789749 0.0457044 -0.072136536 0.010715245 0.052909702
0.05614876 0.09852238 -0.036095083 -0.009015626 0.067818984 0.076549545 -0.032552082 0.037527937
0.0127965165 0.08733847 -0.019854939 -0.002171759 0.022749549 -0.009006983 -0.03884534 0.08598704
-0.03187712 0.0663083 -0.00866377 -0.07401666 -0.055030454 0.0053713424 0.07501353 0.0090648215

model.net.4.bias f4 [128]
00000000: 94c5 11bd d503 a93d 3ad4 3cbb a9f3 b43d
00000010: 47d5 d6bc 622f 7e3d e030 dc3a cb0e 11bd
00000020: dcff 903d f164 98bd a8d8 ccbb 7596 8b3c
00000030: 8c6b 70bc 660b 3abd 1021 b3bc a11a 683d
00000040: 01d9 15bc bc3b 17bd a29c 08bd 1e84 80bd
00000050: ac29 6f3d ed20 9fbd ed1c 22bd 0833 9e3c
00000060: a35b a83d 8163 90bd 46b2 3d3c 8640 82bd
00000070: be67 813d be14 923d 83f6 733d 6732 1ebd
00000080: 5b1f 7dbd 7bd9 53bd c089 ecbc dd47 323d
00000090: faf7 79bc 30ee a63d 9a76 a3bd 0989 043c
000000a0: c8c8 91bd a66e a4bd 5028 70bd d098 243c
000000b0: 197f aabd 884e f9bb 2b3e 28bd 6d2e 50bd
000000c0: ea5d a73d d8ea 0dbd 8afb adbd a498 723d
000000d0: 30d2 b5bd b626 66bb 6d0f 85bd 5de3 4b3d
000000e0: 0824 043d 7da4 54bc 0ec5 acbc 2b90 80bd
000000f0: 1cb5 84bd edf8 143d 62a2 85bd bcc2 edbc
00000100: 9e71 913d 6250 a3bd 17b4 5a3a 286c e3bc
00000110: 768a 2d3d f0f4 ecbc 4b30 993d a94c e53c
00000120: c881 59bd b031 a93c 33f0 11ba 298d 5bbb
00000130: d3b2 4ebd 2887 313d 78cb 873c f347 d5bb
00000140: 3a44 34bd 7d00 af3d 6940 96bd 20e6 113d
00000150: 0caa a2bd 66e2 8fbd 9410 0a3d 4b9f c03c
00000160: 51dd 87bc 262c 2a3d c261 eebb a120 e73c
00000170: 60aa 8ebd 0ba4 293d 2c39 a6bc cfeb 7c3d
00000180: 69c9 9abd c2e9 4b3c 900f dabc 61ed 1e3d
00000190: 1810 87bd 0bd5 94bd 80c8 fd3c ca8f 9cbb
000001a0: a31a 79bd 2c18 7abd 4947 93bd b4c7 b33c
000001b0: 4443 223d ab58 29bd 0e73 723d 66e2 583d
000001c0: 7a92 6f3c d77e 55bd b54e 89bd 40bb 01bd
000001d0: f88c 53bd 9817 a83c c5f7 7d3d 2664 a33d
000001e0: 7634 29bd dd4d 28bd b879 803c 343f a8bc
000001f0: c836 663d cdf6 9ebd d441 393d aec1 d13b
-0.035588816 0.08252684 -0.002881302 0.08835537 -0.026224745 0.062056907 0.0016799234 -0.0354145
0.07080051 -0.07441128 -0.0062514134 0.017039517 -0.014674079 -0.045421027 -0.021866351 0.05666602
-0.009145976 -0.0369222 -0.0333525 -0.06275199 0.05838935 -0.07769952 -0.039578367 0.019311443
0.08220603 -0.07050229 0.011578148 -0.06359963 0.063186154 0.071328625 0.059561264 -0.038622286
-0.06179748 -0.051721077 -0.028874278 0.043525565 -0.015256876 0.081508994 -0.07981606 0.008089312
-0.07118374 -0.08028917 -0.058632195 0.010046199 -0.08325023 -0.0076082386 -0.041074913 -0.050825525
0.081722096 -0.034647793 -0.08495243 0.0592276 -0.08877981 -0.0035118288 -0.06497083 0.049777377
0.032260925 -0.01297867 -0.021090057 -0.06277498 -0.06479856 0.036370207 -0.06525113 -0.02902352
0.07101749 -0.07974316 0.00083428755 -0.027761534 0.042368375 -0.028925389 0.07479914 0.027990656
-0.053102285 0.020653576 -0.00055671035 -0.0033500886 -0.05046351 0.043341786 0.016576514 -0.006508821
-0.04401038 0.08545015 -0.07336504 0.035619855 -0.0794259 -0.07025604 0.033707216 0.023513457
-0.016585024 0.04154601 -0.0072748372 0.0282138 -0.0696609 0.04141621 -0.020290934 0.061748322
-0.07557947 0.012445869 -0.026618749 0.0388006 -0.065948665 -0.07267197 0.030979395 -0.004777883
-0.06081642 -0.06105821 -0.07191331 0.021945812 0.03961493 -0.041344326 0.059191756 0.052950285
0.014622325 -0.052122917 -0.06704465 -0.031672716 -0.05164811 0.020519063 0.06200387 0.07978086
-0.041309796 -0.04108988 0.01568304 -0.02053795 0.056204587 -0.07761917 0.045228794 0.0064012622

model.net.6.weight f4 [128, 128]
00000000: cbe9 733d 54be 11bd b50f 533d 55b9 e23c
00000010: 5ebe 8fbd 5869 94bd be9e 3d3d 0a9b f8bc
00000020: 852f 6a3d 1dfa ae3c 534a 903c 962c 863d
00000030: ea4d 22bc 6668 a6bc f0d3 243d 0689 0d3c
00000040: 57dc 603d 5852 743d 8d87 b63d e97d 203d
00000050: 5cfa 9dbb 29f4 9bbd 20a8 f6bc 7278 7abc
00000060: d935 26b9 27f7 89bd 5f5e 9abc e1c6 9c3d
00000070: 690d 1abd 2511 1abb 012c 1f3c dc30 88ba
00000080: 9d2a ffbb 4362 b53d af5a 783d 1d18 2b3d
00000090: d017 c8bc a87a 95bd 3fd4 613d e999 7cbd
000000a0: f2a3 75bd 22e1 41bd cb13 34bc 3500 d13c
000000b0: a318 233d cea7 803c 7e08 8bbd 8999 093d
000000c0: dc3e 74bd fe6c 5a3d 9d52 85bd 7695 c03c
000000d0: 9302 aabd 3427 ae3d 2d06 cd3c 87f3 a6bc
000000e0: e732 043c 159a 203c e7ae 9bbd b7de 52bd
000000f0: 9de5 b43b dc66 703d b1c2 583d f374 823d
00000100: b8ea a23d 0139 aa3c 6b45 8bbd 22b9 ff3c
00000110: 2f2c 36bd 3120 a7bb 3428 84bd 16bb 3e3d
00000120: 8a9d 41bd be5b 433d bdc4 043d 6c08 6c3d
00000130: 5437 6d3d 3b69 ff3c b094 35bd dc14 423d
00000140: af84 aa3d a746 683d de27 81bd a157 293d
00000150: 38f5 ebbc b610 943d f778 fcbc ec8d b6bc
00000160: 2409 193d 6fc8 b9bd 68de d13c 86b3 603d
00000170: c789 f2bc d2f9 acbd 15ea c9bd 7700 9dbd
00000180: 5492 9ebd 4e83 3c3d 60f4 0abd 16e6 e0bc
00000190: 7b6e 893d 3895 073d a39a 85bd 49ff e43c
000001a0: 32a5 303d f19f 51bd a558 c23c e9ab 1fbd
000001b0: ab7a b1bd 0da8 85bd 4891 5fbd a6cd 883d
000001c0: 38b0 9c3d b2f8 91bd 971e 723d 9437 56bd
000001d0: cf0c 71bc 3127 b63c 85e1 563b 11d6 863c
000001e0: 77dd b2bd ac2b ae3c 69c6 d3bd 2027 cf3d
000001f0: abab 9e3d 695b bdbd 3e26 cd3c 1598 743d
00000200: 60d4 8ebd 3f8c 833c e527 b0bc 9819 83bd
00000210: 15b4 52bd 2389 4abd 5a2d 8dbd 8e5a 12bc
00000220: 5f01 a73d 79f6 cd3c ee71 f43b a9d7 8fbd
00000230: d680 663d 8d4d be3d f187 76ba 5414 a03d
00000240: 13bf ad3d f868 e23c c892 83bd 9138 26bd
00000250: dbaa 5cbc 6bb1 37bc 68f8 31bd 3357 05bd
00000260: 166e 24bd db99 f2bc d365 91bd b0e9 6bbd
00000270: 6380 1e3d d3a3 883d d4b8 9a3d 444e 913d
00000280: c61b c3bd e5d1 10bc b347 e9bc f922 d33c
00000290: 19a3 a83d b958 733d 00eb 6b3d 136e 15bd
000002a0: 2243 703d 1983 83bd 35e1 7bbd 8dbf a73c
000002b0: af2a 8a3d 7fbb 663d 858c adbd 3c89 4f3d
000002c0: cfec f8bc b10f c03c 4d53 1bbd 0617 2cbd
000002d0: 04a9 d8bc d107 b73c 425e f53c 3b8e 42bd
000002e0: ae45 a6bc 69c7 853d d21d 43bd 4596 48bd
000002f0: d5a9 683b bbcc 2d3d 6292 1ebc 82d6 7f3c
00000300: 6149 b63d 70e9 413d a385 29bb 3b9f 693d
00000310: 5086 9abb 4716 4bbd acea 273d 2917 5ebd
00000320: 2626 003d 3366 303d 46a3 f43c b46b 503b
00000330: 7422 5d3d 8786 873d 310b 733d e527 69bd
00000340: 5943 013d 4f05 d73c 4893 763d 3b98 c63d
00000350: ac1f a9bd 6817 ab3d 7e13 343c ae56 50bd
00000360: 5cb0 93bd d0aa fb3c 71df 783d 0af9 823d
00000370: 2d79 483d 3ffc 80bd 4598 d1bd 8f62 b7bc
00000380: 7d53 38bd 4859 88bd 9133 cdbd 6e2f 253d
00000390: c875 043d 6927 5f3d ffc6 4dbd 5041 5fbd
000003a0: c4b2 553c c676 013d 7524 1a3d b8ce 073d
000003b0: fece 24bd 15e5 9639 42a9 2dbd b857 9f3d
000003c0: 7b59 3a3d 750c b6bb 9ee7 53bb 4b16 6c3d
000003d0: 1920 95bd b9bf 803c 29ea c8bb 00b9 b2bc
000003e0: b36a 45bc 16ee 82bd 251f 63ba 71ec 6d3d
000003f0: dcfd 813d 48db 603d ef0b 903c c4af b83d
0.059549134 -0.0355819 0.05152865 0.027676264 -0.070187315 -0.07246655 0.046293966 -0.030347366
0.057174224 0.021359498 0.017613566 0.06551473 -0.0099062715 -0.020313453 0.04024118 0.008638626
0.054897632 0.05964884 0.08912573 0.039182577 -0.004821105 -0.07614929 -0.030109465 -0.015287505
-0.00015851053 -0.06736594 -0.018843828 0.07655121 -0.037610445 -0.0023508754 0.009715081 -0.0010390538
-0.0077870623 0.088566326 0.060633358 0.041771043 -0.024425417 -0.072987854 0.055134054 -0.061670218
-0.059970804 -0.047333844 -0.010991047 0.025512794 0.039818417 0.015705016 -0.06788729 0.03359369
-0.05963026 0.0533266 -0.06509898 0.023508769 -0.08301272 0.08503571 0.025027359 -0.020379795
0.008068777 0.009802361 -0.07601719 -0.05148193 0.005520536 0.058691844 0.052920047 0.063699625
0.07954925 0.020779135 -0.0680035 0.031216208 -0.04447573 -0.005100273 -0.06452981 0.046565138
-0.04726938 0.047694914 0.032414187 0.05762522 0.057914093 0.031178107 -0.044331253 0.047383174
0.08326089 0.056708004 -0.06306432 0.041343335 -0.028803453 0.0722975 -0.0308194 -0.02228447
0.037362233 -0.09071433 0.025618747 0.054858707 -0.029606713 -0.08446087 -0.09859101 -0.07666104
-0.077427536 0.04602366 -0.03392446 -0.027453464 0.067105256 0.03310129 -0.06523635 0.02795376
0.043126293 -0.051177923 0.02372391 -0.038982306 -0.08665975 -0.06526194 -0.05458191 0.06679849
0.076507986 -0.07127513 0.059111204 -0.052299097 -0.014712526 0.022235485 0.0032788229 0.016459497
-0.08733647 0.021261059 -0.10340578 0.101148844 0.07747587 -0.09245951 0.02504265 0.05971535
-0.06974101 0.016058085 -0.021503398 -0.06401366 -0.05144127 -0.04944719 -0.06893416 -0.008932723
0.081545584 0.025141941 0.0074598705 -0.07023556 0.05627521 0.092921354 -0.0009404412 0.07816377
0.0848371 0.027637944 -0.06424481 -0.04058129 -0.0134684695 -0.011211733 -0.04344979 -0.032553863
-0.04014405 -0.02961438 -0.070994996 -0.05759591 0.038696658 0.06671872 0.075547844 0.07095006
-0.09526782 -0.008839105 -0.028476572 0.025773512 0.082342334 0.059410784 0.05759716 -0.036481928
0.058657773 -0.06421489 -0.06149407 0.02047708 0.067464225 0.056331154 -0.084740676 0.050667986
-0.030386357 0.023444982 -0.03792124 -0.042014144 -0.02644778 0.022342594 0.029952172 -0.047498923
-0.020296898 0.06532175 -0.04763586 -0.048971433 0.0035501618 0.042431574 -0.009678455 0.0156151075
0.08900715 0.047341764 -0.0025867007 0.05703662 -0.0047157183 -0.049581792 0.040995285 -0.054221306
0.03128638 0.043066215 0.029863011 0.0031802477 0.053987935 0.06617456 0.059336845 -0.056922812
0.03155837 0.026247649 0.060199052 0.096970044 -0.08257994 0.08354074 0.010990975 -0.050863914
-0.07211372 0.030721098 0.060759965 0.06395157 0.048943687 -0.06298112 -0.10234121 -0.022385864
-0.045001496 -0.06657654 -0.10019601 0.040328436 0.032338887 0.054480944 -0.050238606 -0.054505646
0.013043109 0.03160741 0.037632424 0.033156127 -0.040236466 0.0002878091 -0.042397745 0.07780403
0.04549549 -0.005555684 -0.00323341 0.057638448 -0.07281513 0.01571642 -0.0061314297 -0.02181673
-0.012049365 -0.063930675 -0.00086640037 0.058086816 0.06347248 0.054896623 0.017583815 0.090179

model.net.6.bias f4 [128]
00000000: 20f4 48bd 0ab4 b1bd 2453 bbbc 961a bd3b
00000010: 8532 043c 6587 74ba c32d b2bd e155 d7bc
00000020: b906 58bd 16e1 99bc 3155 3fbd e64f a8bb
00000030: 1e5e 99bc 9fdc 9fbd 39e2 2d3d 6610 db3c
00000040: 6177 ab3c 968d 043d 07f0 36bb d310 a73c
00000050: f9a6 b5bd 18ed 783d 14e6 963d 51d0 07bd
00000060: de3f 923d 5006 ecbc 77ad 053d ca89 04bd
00000070: 9987 59bd 05be 2abd 8c94 7d3d 1f96 f8bc
00000080: a058 91bd 9785 123c edab 69bd 08ff 70bd
00000090: 2b83 54bd 5dc5 5cbd 56a6 5dbd 1d1f 0f3d
000000a0: 5f89 efbc 95c3 c63c 9efb 9b3d 6188 ce3c
000000b0: c5da ba3d 4dd5 953d 475c 223c 3d5b 1f3d
000000c0: 00cf a83d c68d 83bd 23a2 65bd 9d1f 7e3d
000000d0: b784 2c3d a4de d13c 33d1 883c 4219 5abd
000000e0: 56b6 163d 8659 a3bb a665 e63b f9d9 a83d
000000f0: 78d7 3f3d f21c 2abb dadc aebc 1fe2 56bd
00000100: fcec 1b3d e1d6 b33d aead 34bd 285c 7fbd
00000110: 1edd 633d 2e76 96bd 60c9 ac3d 1fde 493c
00000120: b634 a23d 494d e23b 7dd2 d83c ce0b a5bd
00000130: 843a 7abc 1bcd 8e3d 2d33 09bd 8dd6 9d3d
00000140: e648 61bc 9fe0 36bd 4d5a 3bbd a5f6 92bd
00000150: 8617 f53c 44a0 3cbd 4630 0c3d 0c4c ddbc
00000160: bebc 513d 34a8 763d e23a 88bd 50c6 4dbd
00000170: d31a 6a3d 6703 bfbc b38a 91bd 8c06 3ebd
00000180: f4f4 a5bd c42e 6dbd f991 963b 28c2 843d
00000190: 3b83 973c b9fb 023c 6804 8fbb 3e66 4cbd
000001a0: ea15 2a3d 0ef3 803d 75df 043d 3c69 9e3d
000001b0: ffba b33d 9d16 d83b 7973 3dbd 1584 823d
000001c0: f788 413c e54d 79bc 0c50 28bc 3007 163c
000001d0: a386 36bd 02d8 4d3d 6656 8fbd c43e 083c
000001e0: 5180 b7bd 2a85 1e3d 1fad 17bd bd18 27bc
000001f0: fc4d 933d e7ef 633c 7c16 a23b 0c47 033d
-0.04906094 -0.08676918 -0.022866793 0.0057709916 0.008068685 -0.00093280367 -0.087001346 -0.026286067
-0.052740786 -0.018784087 -0.046712104 -0.0051364778 -0.018721636 -0.07805752 0.04245207 0.026741218
0.020930948 0.03236159 -0.0027914064 0.020393765 -0.08869738 0.060772985 0.07368103 -0.03315765
0.07141088 -0.028811604 0.032636132 -0.03235797 -0.05310783 -0.041685123 0.061909243 -0.03034502
-0.07096982 0.008942983 -0.057048727 -0.058836967 -0.051882904 -0.053899158 -0.05411371 0.03494178
-0.029240308 0.024263183 0.076163515 0.025211515 0.09123758 0.073160745 0.009909696 0.03890537
0.08242607 -0.064235255 -0.05606283 0.062041868 0.042118754 0.025618859 0.016701316 -0.053246744
0.036794983 -0.0049850373 0.0070311604 0.082447 0.046836346 -0.0025957194 -0.021345545 -0.05246174
0.038067803 0.08781219 -0.044110946 -0.062343746 0.055630796 -0.0734676 0.08436847 0.012321024
0.0792021 0.0069061858 0.026467556 -0.08058892 -0.01527274 0.069727145 -0.03349607 0.07706938
-0.0137502905 -0.04464781 -0.045740414 -0.0717595 0.029918443 -0.04605128 0.034225725 -0.027013801
0.05120539 0.060219005 -0.06651856 -0.050237954 0.057154488 -0.023317052 -0.07106533 -0.046392962
-0.08103362 -0.057905927 0.004595038 0.06482345 0.018495193 0.007994586 -0.004364539 -0.049902193
0.041524805 0.06296359 0.032439668 0.077349156 0.08775901 0.0065944926 -0.0462527 0.06372849
0.01181244 -0.015216325 -0.010272991 0.009156987 -0.044561993 0.05025483 -0.06998901 0.008315746
-0.08960021 0.038701214 -0.037030336 -0.010198769 0.07192609 0.013912178 0.004946528 0.032050177

model.net.8.weight f4 [128, 128]
00000000: 63b0 2fbb 336a 573d 4c13 ef3b 698d 513d
00000010: 3866 753d defb 08bc 490c 9c3d d603 013d
00000020: 36fd 7a3d 416f a6bd 5aa3 c9bd 60f6 d83c
00000030: eb2b b13c 6c2b 16bd 410f 7ebc 8565 e73c
00000040: 2824 9e3d ef92 e73c 4f15 bf3d 13ea 913d
00000050: 2cb6 cb3c db1b 2c3c de44 b0bc 855a 8abd
00000060: 0692 4b3d 48f8 173b 8865 2dbd 4df2 12bb
00000070: a77b 64bd 5428 fc3a 6e59 4d3d 3ef2 833d
00000080: 0d8c 83bd 7e03 4b3c fd01 1ebd 31ac b2bd
00000090: 70db 1f3d 94f4 9b3d 8989 983d 4d00 7b3d
000000a0: bcf4 97bc 88b7 e83c 4515 e53c 367d 64bd
000000b0: e29a af3d cc23 8fbd cb9b a53c aeb8 04bd
000000c0: 239d 2c3d aae0 773d ab5d 1c3b 89ac 03bd
000000d0: 7464 6c3d 2e04 c8bd 5a2f c8bb 06e9 adbd
000000e0: f7ea 9939 dd06 433d 0c10 443d 26b0 16bd
000000f0: b28f 17bd eb8b 5d3c 766d 6fbd 2f30 98bd
00000100: bcd3 8b3d 1918 d23c 8451 6cbd a377 acbd
00000110: 3154 cc3c 5bb1 f2bc 3a82 34bd 701a c03d
00000120: 032b 203d f3f5 a03d 70cb 323b 14bc 37bb
00000130: fa32 4cbd 7620 133d 11cc 22bd 5ec2 55bb
00000140: 0f31 59bc 4ddf 503d e958 023d 9dcc b5bd
00000150: 41cc f33b 0aa3 9b3d 74bb a1bb 33d5 8b3d
00000160: 4707 f8bc b4a9 6ebd 1329 863d f45b f0bc
00000170: 2a1d 5d3d 6988 9d3d a26d 68bd 88e4 a2bd
00000180: e8b8 33bc 5a4e 5dbd 7b8b 913d 78a7 473d
00000190: 8817 ae3d 245e 6ebd d706 533b ce33 b23b
000001a0: a2d3 6ebd 3190 24bd 6f6e 433d 4241 5b3c
000001b0: e5df 9e3d 287a 3abb 2006 2c3d f9fc d83c
000001c0: 90b3 81bd b3e8 87bd 350d 16bd 2e73 11bd
000001d0: c792 a93c 1590 55bd cea5 9cbd 4fc6 2dbd
000001e0: c07e 9ebd 8992 05bc 71f5 afbd 7e4b 85bc
000001f0: 4bdb 8bbd d563 b0bd bb6c 873d b340 aa3d
00000200: b529 73bd e20b 503c edea b8bd 893d 39bd
00000210: 7e17 b4bd 91d4 41bd 6471 bf3d 98a2 2c3d
00000220: b708 313d c3c4 8dbd c895 953c 7661 313d
00000230: cdc3 053d 84ff 933a 0d09 25bd 0cae 4f3d
00000240: 2262 ac3d f81e 0f3b 8454 c13d 3863 e3ba
00000250: aafb d83c 85a7 703d 4f67 a2bc 68a2 a93c
00000260: 03f0 42bc 8d67 81bd 6f26 b139 b3c2 2f3d
00000270: 8c0b 5f3b d7bd 083d e977 debc bb44 9f3d
00000280: 7710 a2bd fd22 643c 3592 f53b 1dc5 213d
00000290: 8d0c 10bd 9bf7 c73c eb0f 85bd f3c9 683c
000002a0: c256 ecbc c2bb 843d 3e89 893d deb6 933d
000002b0: 9302 4abd 4021 393d 6ae0 bdbc 4038 e73c
000002c0: cb46 283d 7857 9cbd 0eff aebd 5b57 ae3c
000002d0: cba3 883c b4db 97bd 1557 f73c 3df1 6d3d
000002e0: 3ea0 bfbc 8b9b c4bd ec0a a73c d4dc 43bd
000002f0: 99a9 3ebc c366 edbc b90d 613d 2e70 823c
00000300: 24ef 8cbd 454c b0bd 76c1 09bd 391b a5bd
00000310: 3b23 2bb9 70ea 32bd 504c 0cbd 8ab8 b2bd
00000320: f9c8 793d e256 4fbd 1d94 36bd 698d 853d
00000330: 912d 933b 4495 edbc 1987 b83c 5c6c 17bd
00000340: 8cd9 2b3d 07cc c5bc d9b0 533d b579 383c
00000350: 7ce1 1fbd ca43 cabc 37b0 443c 5852 bcbc
00000360: d3e3 523d b348 723d a14f 84bd f609 37bd
00000370: 361b a5bc 108b b13d eae9 b33b d5ac 643d
00000380: 74f1 f43c 0fab 35b9 5f13 a0bd c6cc a7bb
00000390: cb0b 8dbd f6ab 83bd c86e 173d 91af 5fbd
000003a0: 8e29 1bbd 696a 7a3d f8b6 28bd ccce 8dbd
000003b0: 1e3a ebbc 708e f1bb b1e8 81bd b22a c1bd
000003c0: 3701 b0bd 3d83 2cbc e114 773b 1e9e 98bd
000003d0: a742 64bd 365f 99bb 6b6d 9dbd ae93 86bd
000003e0: 68e2 eebc ab09 ccbd c4d4 04bd 9e65 cabc
000003f0: 12bc 043c 10bc 24bc 47a5 5d3d 66c5 d1bc
-0.0026808016 0.052591514 0.0072960015 0.05116025 0.059911937 -0.008360831 0.07619531 0.0314978
0.061276637 -0.08126689 -0.0984561 0.026484668 0.021627387 -0.036662504 -0.0155065665 0.02824665
0.0772174 0.028268306 0.09330236 0.07124724 0.02486714 0.010504688 -0.021517213 -0.067555465
0.049699806 0.0023188759 -0.042333156 -0.0022422255 -0.055781987 0.0019238093 0.050134115 0.064426884
-0.06423197 0.012390969 -0.038576115 -0.08724249 0.03902763 0.07615009 0.07448108 0.061279584
-0.018549316 0.028407827 0.027964244 -0.055783473 0.085744634 -0.069892496 0.02021589 -0.032402687
0.042142045 0.06051699 0.0023859541 -0.032146964 0.057712987 -0.09766422 -0.0061091604 -0.08491711
0.00029357497 0.047613967 0.047866866 -0.036789082 -0.037002273 0.013522129 -0.058454 -0.07431065
0.068274945 0.025646256 -0.057694927 -0.084212564 0.02494249 -0.029625585 -0.044069506 0.093800426
0.03910352 0.07859411 0.0027281903 -0.0028035687 -0.049853303 0.03591963 -0.039745394 -0.0032617073
-0.013256325 0.050994206 0.031823073 -0.088769175 0.0074401204 0.075994566 -0.004935676 0.06827774
-0.030276908 -0.05826731 0.06550803 -0.029340722 0.05398289 0.07692034 -0.05674518 -0.07953745
-0.010969378 -0.0540298 0.07106682 0.048743695 0.08500582 -0.05819525 0.0032200122 0.0054383045
-0.058307298 -0.040176574 0.04771274 0.013382258 0.07757548 -0.0028454158 0.04199803 0.026487814
-0.06333077 -0.06636181 -0.03663369 -0.035510235 0.020699872 -0.05213936 -0.07648812 -0.04242545
-0.077390194 -0.0081526125 -0.08591736 -0.016271349 -0.06828936 -0.086127914 0.066125356 0.08313122
-0.059365947 0.012698146 -0.090291835 -0.0452247 -0.08793543 -0.04732186 0.093477994 0.04214725
0.0432212 -0.06922295 0.018259898 0.043305837 0.032657433 0.001129136 -0.040291835 0.050703093
0.08417155 0.0021838527 0.09439948 -0.0017348295 0.02648719 0.05875351 -0.019824652 0.020707324
-0.011898044 -0.06318579 0.00033788706 0.04291029 0.0034033982 0.03338417 -0.027156787 0.07776781
-0.07913297 0.0139243575 0.007494236 0.039494622 -0.03516822 0.02441006 -0.06497177 0.014208305
-0.028849963 0.064811245 0.0671563 0.072126135 -0.04931886 0.045197725 -0.023178298 0.028225064
0.04108314 -0.07633871 -0.085447416 0.021281889 0.016679665 -0.07414952 0.030192891 0.05809139
-0.02339184 -0.0959998 0.02039095 -0.04781802 -0.011637115 -0.028979665 0.054944728 0.015922632
-0.0688155 -0.08608297 -0.033631764 -0.08061833 -0.00016320955 -0.04368061 -0.034252465 -0.08726604
0.060982678 -0.050619967 -0.044574846 0.065211125 0.004491516 -0.02900184 0.022525357 -0.036968574
0.041955516 -0.02414514 0.051682327 0.011259486 -0.039033398 -0.024690527 0.0120049035 -0.022988483
0.0514868 0.059151363 -0.064605005 -0.044687234 -0.020154577 0.08669102 0.005490531 0.055828888
0.02990029 -0.0001732523 -0.07816195 -0.0051208464 -0.06887015 -0.06429283 0.036970884 -0.054610793
-0.037881427 0.061136637 -0.041190118 -0.06924209 -0.028714236 -0.007371716 -0.063432105 -0.094319716
-0.08593982 -0.0105293365 0.0037701654 -0.074520335 -0.055727627 -0.0046805395 -0.076868854 -0.065711364
-0.029160693 -0.099627815 -0.03242947 -0.024706658 0.00810148 -0.010054603 0.0541127 -0.025606822

model.net.8.bias f4 [128]
00000000: d496 88bd 5e31 ad3b fd9e 29bd 18a1 a43c
00000010: 63fa 9bbd 3caf 3f3d 5a55 863d 9bdd 963d
00000020: 4f2e 99bc 38a1 74bd 2ef6 443d 84f2 533d
00000030: 1270 1abd 8c24 4c3d 098e a83c 486a c9bc
00000040: b34c 513d 252e 443d c7c9 d33c f139 5bbd
00000050: 3283 80bc 8e18 a43d 906e 6dbb 82e0 a8bd
00000060: 0fa1 453a 8b4a 06bd ca10 0a3d 2807 36bd
00000070: b87b 9ebc b4f6 8bbd 20ff 9fbd 442f 64bd
00000080: f146 4fbd 36a9 a13c d960 1f3d 6e1c 6b3d
00000090: 1dd1 2fbd bb5d 62bd bc02 de3c dda6 3fbd
000000a0: b084 6bbd bdde 9a3c 6b1f 383d cf96 fd3b
000000b0: 2f90 97bd c855 c73c f10e 303d 666e 3dbc
000000c0: ec14 4bbd c9ec 5e3c 58dd 753c d232 39bd
000000d0: 79e6 07bd 8a9f 37bd 11ba a3bc dd25 083d
000000e0: 9cb1 22bd bea1 ea3b 9c40 2dbd f1c3 c1bc
000000f0: 6033 473c 9138 1a3d fb67 6d3d d902 8fbd
00000100: 7ec4 c0bb ed29 b2bc c400 823d 1be2 15bd
00000110: 88fb c4bc 71b9 5cbd f6ea 2e3d d91d d9bc
00000120: 8711 ac3b 29f4 eebc ab22 6bbd 19e3 93bd
00000130: daad 7039 9f23 6e3b d366 023b e5d5 983d
00000140: 087a 72bd 5e14 16bc f29c 243c a0c6 7e3d
00000150: 6100 563d be99 693d d66d a0bd b6ab d63c
00000160: 1ae6 94bd 1e90 f13c 70e3 92bd 6918 a23d
00000170: 7403 b03d ff9c 6e3c 51e0 653c 268b 93bd
00000180: f8f3 02bd c38c d33a 5104 56bc 42b9 acbd
00000190: 8736 4cbd b09b 3fbd fa3f 2d3d 2dc3 703c
000001a0: 4e8c 31bd 0fa5 483d 0b47 95bd 8447 8d3c
000001b0: 9e83 683d 9f7c 36bc 08e7 433c 0495 d2bc
000001c0: 0c2e 9abc 6ab2 3abd 6f5a 713c f4dd 20bd
000001d0: 1e9e c9bc 8c23 96bd ac00 313d 5901 9abd
000001e0: 8870 2cbd 8b64 283d daba a43d 7e6b 93bd
000001f0: f3cd b1bd c247 1a3d 6c71 f9bc 61d4 133d
-0.06669393 0.005285426 -0.04141139 0.020096347 -0.07616117 0.046797976 0.06559248 0.07366487
-0.01869884 -0.059724063 0.048086338 0.051744953 -0.037704535 0.04983954 0.02057554 -0.024586812
0.051098537 0.04789557 0.02585305 -0.053522054 -0.015687559 0.08012496 -0.003622923 -0.082459465
0.0007538953 -0.032785933 0.033707418 -0.04444042 -0.019346103 -0.06834164 -0.07812333 -0.05570914
-0.050604764 0.019734006 0.03891072 0.05740016 -0.042924035 -0.05526517 0.027100913 -0.046789993
-0.057499588 0.018905038 0.044951838 0.007738925 -0.07400548 0.024332896 0.042983 -0.011561966
-0.0495805 0.013606259 0.015006386 -0.04521448 -0.03317878 -0.044829883 -0.019986184 0.033239234
-0.039720163 0.0071603945 -0.042297944 -0.023653002 0.012158245 0.037651602 0.05796049 -0.06982965
-0.0058827987 -0.021748507 0.06347802 -0.036592584 -0.02404572 -0.05388779 0.042704545 -0.02650349
0.005251113 -0.029169159 -0.05740611 -0.0722105 0.00022952948 0.003633715 0.0019897714 0.07462672
-0.05919841 -0.009160129 0.010047184 0.062201142 0.052246455 0.057031386 -0.078334495 0.026204925
-0.07270451 0.029487666 -0.071722865 0.07914812 0.08594409 0.014563798 0.014030532 -0.07204275
-0.031970948 0.0016139973 -0.013062553 -0.084337726 -0.04985669 -0.046779335 0.04229734 0.014694971
-0.043346696 0.048985537 -0.07288941 0.017246015 0.056766145 -0.01113811 0.011956938 -0.025705822
-0.018820785 -0.045580305 0.014731034 -0.03927417 -0.024611529 -0.07330999 0.04321353 -0.07519788
-0.042099506 0.04111151 0.080434516 -0.07198237 -0.0868186 0.03766609 -0.030449592 0.036091212
