results/edm_swiss_roll/checkpoints/epoch=6-step=224.ckpt (torch, 842042 bytes, 37 tensors)

model.base_model.time_embedding.frequencies f4 [4]
000000 00 00 80 3f 97 1e 3e 3d 6b 31 0d 3b 16 b7 d1 38
       1.0 0.04641589 0.0021544348 9.999999e-05

model.base_model.net.0.weight f4 [128, 10]
000000 ef fb 7a 3e 4e a4 8b 3e 72 28 93 bd 8c d7 95 3e
       0.24510168 0.27273792 -0.07185449 0.29266012
000010 a5 be 8b bd 5c ff 82 3d f4 73 15 be 7d 5a 45 3e
       -0.06823472 0.06396362 -0.14595014 0.192728
000020 86 51 92 3e 20 62 66 be 5f 60 8a 3e 30 85 8c 3d
       0.28577822 -0.22498369 0.2702665 0.06861341
000030 d0 9d 7c 3e a7 c5 64 3d cf d9 25 3e ca a5 30 bd
       0.24669576 0.05585256 0.16196369 -0.04312686
000040 93 16 7f 3e 94 34 4d 3d 8f bc 13 be 14 f3 ab 3d
       0.24910955 0.05009897 -0.14427398 0.08395973
000050 4a 61 15 be 75 eb 20 bd 4f b7 fd bd b4 cc 5a 3e
       -0.14587894 -0.03928705 -0.12388479 0.2136715
000060 0a cf 7e be 39 3d 15 be 2b 04 bd bd 13 4e 46 be
       -0.24883667 -0.14574136 -0.092293106 -0.1936572
000070 12 ad d7 3c 2b b7 a1 be 7d c6 94 3e 96 4c 87 be
       0.026327644 -0.3158506 0.29057685 -0.26425618
000080 10 2d 7a 3e 87 fb 57 3d 7a 4b d2 bd 27 1a 48 3e
       0.24431252 0.05273011 -0.10268302 0.19541226
000090 6d 8b 57 3d 26 65 84 3e 68 3a 1a 3d 7f ee c5 bd
       0.0526232 0.2585842 0.037653357 -0.0966463
0000a0 af e7 c1 3d 21 33 a9 bd 3e f1 06 3e 6b ba 8f 3e
       0.09468018 -0.08261705 0.13177964 0.28071913
0000b0 33 38 39 3e a6 33 0e be c1 fc 36 3e 37 23 5a 3d
       0.18087845 -0.1388689 0.17869855 0.05325624
0000c0 84 0a 21 3e dd c5 48 be 46 82 a8 be 40 b1 01 be
       0.15726668 -0.19606729 -0.3291189 -0.12665272
0000d0 f9 5f 79 be ef 93 84 3e 9f f6 ba 3d df aa 06 3e
       -0.24353017 0.25894114 0.091290705 0.1315112
0000e0 f8 15 db 3d a6 e4 51 3a 9b ef 81 3e 54 a0 5f be
       0.106975496 0.00080067886 0.25378117 -0.21838504
0000f0 b1 e1 4e 3c e4 f6 61 be 28 65 c3 3d 42 0f e3 bd
       0.012627051 -0.22066838 0.095407784 -0.110868946
000100 ae c8 c3 3d e4 43 87 bd 5d 80 88 3e 54 7f 3b be
       0.09559761 -0.06604746 0.26660433 -0.1831029
000110 15 b2 3c be 11 b5 3c be 26 a5 94 3e 73 b9 d4 3d
       -0.18427308 -0.18428446 0.29032248 0.10386934
000120 26 d7 98 3e e9 ab 88 be 6d 44 a3 be ce ae 7e be
       0.29851645 -0.26693657 -0.31888142 -0.2487137
000130 c2 88 5d be 0b 7a 00 3e 6c 8b e2 3d ca 31 85 3e
       -0.216342 0.12546556 0.11061749 0.2601455
000140 67 9d 24 be 56 43 62 be eb 91 26 3e e6 56 08 be
       -0.16075669 -0.22095999 0.16266601 -0.13314399
000150 09 c5 40 3e 03 98 9a bd eb b6 31 3e be 04 81 be
       0.18825163 -0.07548525 0.17354934 -0.2519893
000160 42 da 29 be 5d 92 b8 3d 11 10 9f 3d 6a 75 a2 bd
       -0.16587165 0.090122916 0.07766736 -0.07932551
000170 ce 67 3e 3e f6 36 59 3e 5c c7 6d be 92 df 2d be
       0.18594286 0.21212372 -0.23220581 -0.16979817
000180 45 06 91 3e d3 ea e5 bd 53 fa f0 bd ca 81 9f be
       0.28325096 -0.1122643 -0.117664956 -0.3115371
000190 95 46 33 be 92 18 94 3d 74 e0 4a bd 11 3d 73 be
       -0.17507394 0.07231249 -0.04953046 -0.23753764
0001a0 94 80 17 3b ed cb 5d be e9 9b 8d be 9d 14 39 be
       0.002311741 -0.21659823 -0.27658013 -0.1807427
0001b0 cb 15 91 be c8 f2 54 be 61 20 a6 3e 29 c3 84 3d
       -0.2833694 -0.20795739 0.32446578 0.06482536
0001c0 ed 91 be 3d 33 2f 99 be a2 29 57 be 7d 0b d8 bd
       0.09305177 -0.29918823 -0.21011975 -0.10549066
0001d0 e7 49 68 3d 64 c4 8a be 04 20 04 be cd 75 3a be
       0.056711104 -0.2710296 -0.12902838 -0.18209
0001e0 1e 13 30 bc ef b7 f5 bd 52 4f a2 bc ab 01 59 be
       -0.010746745 -0.11997973 -0.019813213 -0.21192043
0001f0 76 29 5c be 3f 4a 3c be 45 1f d6 bd b2 7d 7c be
       -0.21500191 -0.18387698 -0.10455183 -0.24657324
000200 e7 4c 89 3e 67 b4 74 bd bf a8 8c 3e 15 3c c4 3d
       0.26816484 -0.059742358 0.27472493 0.09581772
000210 f9 36 8d be da d5 57 3e b4 37 bf bd 5c 36 fb bd
       -0.27581003 0.21077672 -0.093367964 -0.122662276
000220 f6 49 85 be 16 4c 9f be ae f6 bf 3d a4 cd 86 bd
       -0.2603299 -0.31112736 0.09373222 -0.065821916
000230 dd c8 e4 3d 4d bf 86 be 05 9c 71 3e 89 43 6c be
       0.11171124 -0.26317826 0.23594673 -0.23072638
000240 75 aa 59 bd dc b5 88 3d 49 4b 2a 3e e3 02 84 3e
       -0.053141076 0.06675312 0.16630282 0.25783452
000250 d8 ca 94 3e 53 29 7e be a9 22 8e 3d bb 74 0d be
       0.29061007 -0.24820451 0.06940205 -0.1381406
000260 ef 6c 05 bd 27 f1 6f be d7 be 94 3e 89 8b 6c be
       -0.03257459 -0.23431836 0.2905185 -0.23100103
000270 c7 1d 31 3e 01 39 ea 3d 3a 10 d9 3d de c3 2b be
       0.17296515 0.11436654 0.10598798 -0.16773936
000280 d8 51 95 3e b1 1b a0 3d 68 b4 30 3d 91 5f 8d be
       0.29164004 0.07817782 0.0431408 -0.27611974
000290 ee bf 09 3e 25 69 41 bd 20 b2 0b be f2 e4 8e 3e
       0.13452122 -0.047219414 -0.13642168 0.27909046
0002a0 aa ad 9f 3d 0d 84 2b be 0a cd 22 be 02 c5 c1 bc
       0.07796796 -0.16749592 -0.15898529 -0.023653511
0002b0 3e 7d 2a 3e 0f 69 ba bd d0 95 40 be 9a 3f e0 bd
       0.16649339 -0.091020696 -0.18807149 -0.10949631
0002c0 91 2d 78 be 89 ba dd 3d 1c 08 76 3e 3c bc 9a be
       -0.24236132 0.108265944 0.24026531 -0.30221736
0002d0 5c 73 a5 3d ff f6 24 3e 88 fd 59 3d bb cd ef bd
       0.08078644 0.16109847 0.053220302 -0.11709162
0002e0 ab 53 25 3e 6e 81 29 3e 0c 20 e8 3d 33 18 74 bd
       0.16145198 0.1655328 0.113342375 -0.05959339
0002f0 27 bc b3 bd 20 2d f4 3c 45 d3 8a bd 51 11 c7 bd
       -0.087761216 0.029806674 -0.06778578 -0.097201
000300 97 9f 51 3e 64 93 8c 3e 75 73 eb bc 80 65 8f bd
       0.20471035 0.274562 -0.028741578 -0.070017815
000310 7f a4 e2 3b 14 f4 8c bc 04 20 9f 3d 57 ea b8 3d
       0.006916582 -0.01720623 0.07769778 0.09029072
000320 32 9f 92 be f6 43 00 be a7 c5 82 3e 58 9f e6 3d
       -0.2863708 -0.12525925 0.25541422 0.11260861
000330 5c 91 ad bc 5a c4 43 be 2c 10 48 be 70 5b 91 be
       -0.021187477 -0.19117871 -0.19537419 -0.28390074
000340 5c 65 d4 bd dc 6a d9 3d 44 c3 59 3e 63 10 15 3e
       -0.10370895 0.10616085 0.21265894 0.14557032
000350 1e 9a 91 be 97 02 48 be 41 54 5f bd 93 05 9c 3e
       -0.28437895 -0.19532238 -0.05452371 0.30473003
000360 40 10 29 3d 8b 7c ae bd 5b 96 02 3e ff 6e fd bd
       0.041275263 -0.085198484 0.12752669 -0.123746864
000370 b8 2b 61 be b7 fb 6b 3e 1d 55 10 be b6 1c 76 bd
       -0.21989334 0.2304524 -0.14094968 -0.060085975
000380 10 61 9f be da 9b 59 3e 70 8e 7e 3e f4 22 fc 3d
       -0.3112874 0.21250859 0.24859023 0.12311354
000390 19 bd 59 be c6 c4 9b be d1 f9 86 be 53 1c 7f 3e
       -0.21263541 -0.30423564 -0.2636247 0.24913149
0003a0 d5 fb 20 3e d9 fa 8a 3e ae de 2b 3e 06 45 a4 3d
       0.15721066 0.27144507 0.16784164 0.08020978
0003b0 f5 b3 16 3c be 25 6b be 69 29 85 be 4b e2 91 be
       0.009198179 -0.22963616 -0.26008156 -0.2849296
0003c0 93 8f 06 3e 30 0b 26 be f9 43 9c bd 61 18 47 be
       0.13140707 -0.16215205 -0.07630152 -0.19442894
0003d0 32 73 87 bd d3 2e 65 be 89 78 50 be 69 58 e0 3d
       -0.06613769 -0.22381143 -0.2035848 0.10954363
0003e0 87 f3 b6 bd 00 ab 4c 3e 80 da e6 bd d0 4b 6b be
       -0.08933168 0.19987106 -0.11272144 -0.22978139
0003f0 50 14 4d bd 75 c7 16 be 76 1e bb bd 0d 32 99 be
       -0.0500682 -0.14724524 -0.09136669 -0.29920998

model.base_model.net.0.bias f4 [128]
000000 95 1e 63 be 70 f5 9a bd 23 12 0a bd f9 0a 31 be
       -0.22179635 -0.07566345 -0.033708703 -0.17289342
000010 1c 95 72 be ae 41 60 3e 8c 2f 60 3e 1e 62 94 be
       -0.23689693 0.21900055 0.21893138 -0.28981107
000020 6b 35 c1 3d 59 14 fc 3d 6a 6d 96 3e 5c be 42 3e
       0.09434017 0.123085685 0.2938035 0.19017929
000030 c1 64 96 3e fc 5b cd bd d2 65 65 3e 87 59 85 3e
       0.29373744 -0.1002731 0.22402123 0.26044866
000040 85 12 95 be e4 45 84 be c6 b0 75 3d 75 87 32 3e
       -0.29115692 -0.25834572 0.059983037 0.17434485
000050 da 85 21 be d5 21 01 3d 04 97 f2 3b ff 25 ba 3d
       -0.15773717 0.031526405 0.0074032564 0.090892784
000060 fe 3d 29 be 26 a2 3c 3e 0d b4 53 3e db f7 5b be
       -0.16527554 0.1842123 0.20674153 -0.21481268
000070 c2 6d b1 3b 33 54 da 3b a8 fc c6 3d 4f 0e 99 3e
       0.0054146955 0.0066628694 0.09716159 0.2989373
000080 56 f6 a9 3d 35 6d 86 bd 31 c6 8e 3e 83 a2 00 be
       0.08298938 -0.06563798 0.27885583 -0.12561993
000090 9c b4 b0 bd 7f d5 df 3c 5c ca 78 be a6 98 1d 3d
       -0.086281985 0.027323483 -0.24295944 0.038475655
0000a0 37 55 57 be a6 73 e9 3c 3c 6d d2 3c b3 ee 24 3d
       -0.210286 0.028497528 0.025686853 0.040266704
0000b0 3d 0b 89 be 40 57 96 be 3c 8e 15 3e e8 3d 8a 3e
       -0.26766387 -0.2936344 0.1460504 0.27000356
0000c0 f3 62 91 be d8 8d f9 3d 56 10 6e be 04 36 c4 3c
       -0.28395805 0.12185258 -0.23248419 0.023951538
0000d0 dd b7 99 3e 3c b8 78 3e 21 94 65 be 38 04 4c 3e
       0.3002309 0.2428903 -0.22419788 0.19923484
0000e0 a2 a8 2a 3e c0 03 a9 bb ac 0b 9b 3e ff f4 fd bd
       0.16665891 -0.0051579177 0.30282342 -0.12400245
0000f0 ab 41 8d bd 81 84 26 be c7 8a 53 3d 3b 15 aa 3d
       -0.06897291 -0.16261484 0.05164602 0.08304831
000100 cb 72 00 3d 3a 66 31 be 94 6c 0b be 26 e5 d4 3d
       0.031359475 -0.17324153 -0.13615638 0.10395269
000110 05 0b 8c be 59 14 31 bd 76 cd 86 bb 52 19 05 be
       -0.27352157 -0.043232296 -0.0041138483 -0.1299794
000120 1d 89 dc 3d f2 b4 98 3c aa 0a 69 3e 38 d9 ba bc
       0.1076834 0.018640969 0.22757974 -0.022808656
000130 eb d6 46 be 9a 0b 61 3e a3 4b 3f 3d bd 96 c3 bd
       -0.19417922 0.21977082 0.046702992 -0.095502354
000140 b6 f2 4e be e6 01 a6 3d e4 ae 96 be 8e 1d a8 3d
       -0.20209774 0.08105831 -0.29430306 0.08208762
000150 bd 8e 23 3e b3 05 8c be 3e e1 56 be 79 37 69 be
       0.15972419 -0.27348098 -0.2098436 -0.22775067
000160 d0 cb 8a 3e 2b 50 8b 3e 46 c9 c2 3c 8d 08 9a 3e
       0.27108622 0.272096 0.023777615 0.3008465
000170 36 16 e2 bd 93 ad 9c be 09 7a d8 3d c8 bb eb 3d
       -0.11039393 -0.30601177 0.10570151 0.11510426
000180 9a 3a a2 3e 0e 35 49 bb f2 64 79 3e 98 0f 46 3e
       0.31685334 -0.003070179 0.24354914 0.19341886
000190 ed 18 6a 3e 0b e9 9e be 61 63 89 3e 44 d9 87 be
       0.22861071 -0.31037173 0.26833633 -0.26532948
0001a0 8b 18 95 3e f7 ef 59 bc 7e 03 91 be 4c 1a b7 3d
       0.29120287 -0.013301841 -0.28322977 0.089405626
0001b0 47 81 8d bd 4d 11 91 be d0 40 ef bd d6 91 1c 3d
       -0.06909423 -0.28333512 -0.11682284 0.038225017
0001c0 ff 21 80 3e 1f 09 c5 bd 2c 58 3b 3e 69 ae 18 3d
       0.25025937 -0.0962088 0.18295354 0.037275705
0001d0 f7 06 a9 3b 62 2a 86 3d cd 2b 54 be c9 39 89 be
       0.005158301 0.06551053 -0.20719834 -0.268019
0001e0 26 7d bd bd c0 a5 98 be 7c cf 16 be 7b fe 73 3c
       -0.09252386 -0.29813957 -0.14727587 0.014892216
0001f0 e0 76 58 be 1a 8b 01 be cd ac 75 bd bf b0 ff bc
       -0.21139097 -0.1265072 -0.05997925 -0.031212209

model.base_model.net.2.weight f4 [128, 128]
000000 c3 c2 80 bd f9 3e b3 bb 2d e7 8e bc 0e 50 9b 3c
       -0.06287148 -0.0054701534 -0.017444218 0.018959071
000010 97 f2 9b bb b0 38 01 bd 58 1f 06 bd 91 23 67 bc
       -0.0047591436 -0.031548202 -0.032744735 -0.014107601
000020 05 3e 34 bd 7f 93 d3 b9 79 ec 32 bc 99 9a ba 3c
       -0.04400446 -0.0004035495 -0.010920637 0.022778796
000030 dc 51 da 3c 77 89 64 3d 06 9a 29 3b 93 08 77 bd
       0.026650362 0.05579516 0.0025879159 -0.06031091
000040 03 e9 d7 3c d4 8e 80 bd c7 27 96 bc 9c 64 91 bc
       0.026356226 -0.06277242 -0.018329514 -0.01774817
000050 6a d7 14 bd 4e 16 3b bd 78 0c b5 3d cb 1a 42 3d
       -0.036338247 -0.04567557 0.08840269 0.047388833
000060 c6 3b 51 3c 75 c1 bc 3d f6 29 b8 bd 86 e2 b5 3b
       0.012770599 0.092165865 -0.089923784 0.0055506853
000070 82 d6 83 3d cb 3b 50 3d 5a 48 9e bd 71 79 03 3d
       0.064373985 0.050838273 -0.07728644 0.032098237
000080 78 6f 63 bd a2 87 9b bc 1c cf 33 bc a9 e1 9b bd
       -0.055526227 -0.018985573 -0.010974672 -0.07611401
000090 77 2c b8 bd ce ca 85 bd ed 00 fd 3c 0c c8 1a 3d
       -0.08992856 -0.065328225 0.03088423 0.037788436
0000a0 fa 6a aa bd 0a 87 19 bd da ca d8 bb 45 3a ba bd
       -0.083211854 -0.0374823 -0.0066159787 -0.09093145
0000b0 cc ef 3e 3d cd a5 9b 3d 15 6d bf 3c 41 e6 a0 bd
       0.046615407 0.07599983 0.023367444 -0.078564174
0000c0 50 f4 b3 3c 49 bf 0d 3d 2e ad 81 3d 69 08 29 bd
       0.021967083 0.034606252 0.063318595 -0.041267786
0000d0 97 83 92 bd bf 5c 08 3d 6d 95 92 3c 0f 50 a9 bc
       -0.07154005 0.033291575 0.017893517 -0.020668058
0000e0 1c 37 3a bd 78 8f 2c bd 40 ea 8f 3d b4 84 e4 bc
       -0.045462713 -0.04212901 0.070271015 -0.027895309
0000f0 57 f1 95 3d 7a 28 89 3d 7c 4a 90 3c 22 7e 60 3c
       0.073214225 0.066971734 0.017613642 0.013701947
000100 52 c7 23 bc 36 cf 4d 3d 94 b0 88 bd ea 0e f5 3c
       -0.009996252 0.05024644 -0.066743046 0.029914338
000110 e9 e3 b3 bc de f8 32 3d 52 22 01 bc 74 36 20 bd
       -0.021959262 0.04369437 -0.007881718 -0.03911443
000120 2a 02 78 bc 43 1f 29 3d f9 28 81 bd af 6f 66 bd
       -0.015137235 0.04128958 -0.06306643 -0.056258854
000130 77 05 9c bc db 50 32 bd 48 eb 28 3d 9a 5e 72 3d
       -0.019045575 -0.04353414 0.041240007 0.05917225
000140 0e 54 32 bb 5c b6 c1 3d 17 6d 4a bd aa 4c 82 bd
       -0.0027210745 0.094586104 -0.049420442 -0.06362279
000150 be 6f 10 bd 0a a3 68 bd 29 aa 89 bd 4b 03 9a bd
       -0.035262816 -0.05679611 -0.067219086 -0.07520159
000160 1d 15 a5 bd a5 f6 80 3c 09 c0 32 3d 91 69 c4 3d
       -0.08060668 0.01574261 0.04364017 0.09590448
000170 78 bc b0 3d bf 97 8c bc 4f 04 7b 3c e6 73 1a bd
       0.086296976 -0.017162202 0.0153208515 -0.037708186
000180 48 f9 3c 3d 72 b6 a6 bd 31 a0 2d 3d 28 12 35 3c
       0.04613617 -0.081402674 0.0423891 0.011051692
000190 de 36 75 3c 46 66 db 3c 0f 68 e0 bc e1 9a 85 3d
       0.014966695 0.026782166 -0.027393369 0.065236814
0001a0 28 80 5e 3d 3c 0a 42 3d 4d 95 d5 3c df bc 34 3d
       0.054321438 0.04737304 0.026072169 0.044125434
0001b0 4d ba 91 3d 54 af 0f 3d 36 cb a2 3d cc 6d f1 bb
       0.07115612 0.035079315 0.07948916 -0.007367825
0001c0 c3 54 8a 3d 37 f0 e1 3c f5 d8 27 3d 50 d9 c8 3d
       0.06754448 0.027580364 0.04097839 0.09807074
0001d0 4f f6 50 3c 58 28 ce bc 5e 0d 86 bc fa 5d 9d 3c
       0.012754037 -0.025165722 -0.016363796 0.01920985
0001e0 59 66 d1 3c 95 9b 07 bd 23 bc ab 3d c0 4c 58 3d
       0.025561498 -0.03310736 0.083854936 0.05280757
0001f0 34 79 75 bd 4c 37 15 bc 6e 95 9a bc ee b3 48 bd
       -0.05993004 -0.009107422 -0.018870082 -0.04899972
000200 77 a7 9c 3c fe 00 dc bc 59 67 2b bd 94 74 d3 bc
       0.019122822 -0.026855942 -0.041846607 -0.025812425
000210 f3 07 dd bc 57 6e 9b 3d 3c 9e 14 3d 2a ad ba 3d
       -0.02698133 0.07589405 0.036283717 0.0911506
000220 93 ae 8e 3c 83 65 c2 3c b1 62 23 3d 6d ac ae 3c
       0.017417228 0.023730045 0.03988904 0.021322453
000230 86 e5 93 bd 43 61 3b bd bc 69 d0 bc a5 d1 01 bb
       -0.072215125 -0.045747053 -0.025441043 -0.0019808796
000240 4c 2b 27 3d 60 f2 14 3d db 7e 8e 3d d9 40 26 3c
       0.040812775 0.03636396 0.069577895 0.010147297
000250 ce c2 e7 bc 17 aa 7b bd 31 7c 8a bd ae d9 4d bd
       -0.028291132 -0.061441507 -0.06761969 -0.050256424
000260 f9 f9 14 3d 88 d3 2b 3d 29 b6 ac 3d 78 93 af bc
       0.036371205 0.04194978 0.08433182 -0.021432623
000270 15 93 35 bc 03 be 9f bc 1d 6a ef 3b 18 c7 da 3c
       -0.01108243 -0.019499784 0.007306351 0.026706263
000280 dc d0 be 3a 1e fd 62 3c 52 41 dd 3b d3 6d ed 3c
       0.0014558095 0.013854293 0.0067521716 0.028983032
000290 8e 05 b6 bc 96 f2 53 bd e2 58 e1 3c 85 68 07 bc
       -0.022219446 -0.05174502 0.027508203 -0.0082646655
0002a0 c3 2a 12 bd 4c 77 23 3d 8e 90 ef 3b 6f 70 10 bb
       -0.035685312 0.039908692 0.0073109334 -0.0022039672
0002b0 c5 f2 24 bd 33 f5 c0 bb 98 1a a5 bd 5c 62 cf 3c
       -0.040270586 -0.005888605 -0.08061713 0.025315456
0002c0 36 38 ff 38 5c c2 4c 3d 82 70 28 3c 34 96 5d 3b
       0.00012169818 0.049990043 0.01028073 0.0033811452
0002d0 e7 86 98 3c ff 62 93 3d 1d 60 4e bd dd ae 41 3d
       0.018619014 0.071966164 -0.05038463 0.047285903
0002e0 df c9 d6 3c c6 7f 71 bd 0c 90 00 3d b7 a9 3c bd
       0.026219307 -0.058959745 0.031387374 -0.04606029
0002f0 a3 bf 08 bd 9b b8 05 bd b6 6c 71 bd 3c 9f 95 3d
       -0.033385884 -0.032646757 -0.058941565 0.07305762
000300 b2 48 9b bd 1f b3 50 3d a6 c8 b1 bd 39 63 ff bb
       -0.07582225 0.050952073 -0.08680849 -0.0077938107
000310 82 d8 26 3c ca ed 70 3d 36 c9 e3 bc f4 92 f0 3c
       0.010183455 0.058820523 -0.027805906 0.029366948
000320 80 ce 8d 3c 4b 2b 6a 3d 4c b2 47 3b 3e 02 03 3d
       0.017310381 0.057170194 0.0030471263 0.03198456
000330 38 bd 55 bd 3d c3 67 bd 14 dc 97 3d f0 9f 82 bd
       -0.052182406 -0.056582678 0.074150234 -0.06378162
000340 c5 6f 96 bc bf 03 97 bc 92 6b be 3d 48 a8 06 bc
       -0.018363843 -0.018434403 0.09297861 -0.008218832
000350 87 7a 8e bd 06 e9 cb bc bc 54 48 3d 72 32 fa 3c
       -0.06956964 -0.024891388 0.048908934 0.030541632
000360 60 c2 90 3d d5 a5 41 bc b7 00 3f 3d 7d cd be bd
       0.07068324 -0.011819323 0.04663154 -0.093165375
000370 47 c5 f3 3c a5 ff 4b 3d f7 c8 72 3d d9 13 7d bd
       0.029757155 0.04980435 0.059273686 -0.061786506
000380 73 f6 00 bd ad a4 93 3c ce f6 83 bd 98 d1 88 bd
       -0.031485032 0.01802286 -0.06443559 -0.06680602
000390 8a b6 99 bd d5 bc 31 3c 2a c2 3b 3d bb c0 fa 3c
       -0.0750552 0.010848244 0.045839466 0.03060948
0003a0 1a 9e 57 bb a9 56 1b 3d 1b c5 88 bd d3 d3 7c 3c
       -0.0032900632 0.037924442 -0.0667822 0.015431362
0003b0 86 db e0 bc 0a ed 2c bd 76 7d 8b 3d ab b6 96 bd
       -0.027448427 -0.042218246 0.06811039 -0.0735906
0003c0 84 41 df 3b 66 d5 a4 bd 03 30 bc 3b 2d 51 45 bd
       0.00681323 -0.08048515 0.005743028 -0.04817312
0003d0 2d ef 08 3d f4 f2 5f bd 25 40 81 3d f4 35 8b bd
       0.03343122 -0.054675058 0.06311063 -0.067974
0003e0 d3 f4 3c 3d 46 06 7d bd 32 5d 13 3d a0 f3 20 bd
       0.04613192 -0.06177356 0.03597755 -0.03929484
0003f0 2d 3e 5d 3b 9b 10 4d bc e1 12 83 3d c4 b2 c7 3c
       0.0033758983 -0.012516166 0.06400085 0.024377234

model.base_model.net.2.bias f4 [128]
000000 4e bd aa ba d3 73 31 bd 2d 50 95 bd 5a 1a 3e bd
       -0.0013026388 -0.04332335 -0.07290683 -0.04641185
000010 1a cd 51 bd d6 5a ab 3d 81 04 e9 ba 17 6a 63 bd
       -0.05122099 0.08366935 -0.0017777832 -0.055521097
000020 bb bc 96 bb 17 85 f8 bb af 1f 9f 3c df 82 0d 3d
       -0.004600135 -0.007584225 0.019424288 0.034548637
000030 b8 45 78 3d 9d 8b 1a bd 44 6c 69 bc 06 27 a6 bd
       0.060613364 -0.0377308 -0.014247004 -0.08112912
000040 6e c9 f1 bc 6a 0f 94 bd c7 b4 34 bc ad 93 49 bd
       -0.029514994 -0.072295025 -0.011029429 -0.0492131
000050 65 85 0a bd 2e e7 b0 3d fe 6d ab 3d 61 5f cf 3b
       -0.03381862 0.08637844 0.08370589 0.0063285087
000060 51 8c 4d 3d 66 7e 5d 3d be 46 0a 3c ed c7 7b 3c
       0.050182644 0.05407562 0.008439718 0.01536749
000070 12 f3 fe b9 54 04 97 bd b2 d4 86 3d b6 b1 8f bd
       -0.00048627757 -0.073738724 0.06583537 -0.070163175
000080 a3 68 df bc c2 79 a0 bd 94 3e 58 bd 8a 59 ac 3d
       -0.027271574 -0.078357235 -0.052794054 0.08415516
000090 4e 5c 90 bb 52 c2 c5 3c d0 03 db 3c 66 ae 97 3d
       -0.004405535 0.02414051 0.026735216 0.07406311
0000a0 f7 6b b6 3c 9d 52 8a 3b 8c 6d 0b bd d1 b0 5d 3c
       0.022268279 0.004221274 -0.03404002 0.013530926
0000b0 b2 e4 c7 3c c3 67 64 bd 09 2e 86 bd c4 86 1e bd
       0.024401043 -0.055763017 -0.06551749 -0.03870274
0000c0 d5 0a a6 3d 12 98 28 3d be da 59 3d 45 2a 82 3d
       0.08107535 0.04116065 0.053187124 0.063557185
0000d0 3e 5f 04 3b 16 98 7e bd 0d 0f b9 3d bf f1 99 3c
       0.002019837 -0.06215676 0.09036074 0.018792031
0000e0 be 7e d2 bc 1c 7b 02 3d e9 f7 78 bd 93 9d a0 ba
       -0.025695201 0.031855687 -0.0607833 -0.0012253992
0000f0 09 a2 9e 3d 6a e7 0d 3d 1e c8 9f bd 57 fb a5 3d
       0.077457495 0.03464452 -0.07801841 0.0810458
000100 9d 5f 96 3c 30 85 e2 bc 53 9b 86 3d 52 25 0f 3d
       0.018356139 -0.0276514 0.065725945 0.0349477
000110 5f de 67 3d 17 7c 48 3d 87 56 33 bd 9a 56 6d bd
       0.056608554 0.048946466 -0.04378369 -0.057943918
000120 0b 80 6e 3d ce 86 b9 bb 89 20 9b 3d eb 7e 22 3d
       0.05822758 -0.005661822 0.07574565 0.03967182
000130 a0 69 ae bd e6 39 60 3d 31 71 2e 3d 18 8a ab bd
       -0.0851624 0.054742716 0.042588416 -0.08375949
000140 47 84 e9 38 5a 01 99 bd 76 94 44 3d 11 ca 41 3d
       0.00011134944 -0.07470961 0.047993146 0.047311846
000150 bb 7a fc 3c 35 ba 79 3d af a8 30 bd 97 12 c6 bb
       0.030820241 0.060968596 -0.04312962 -0.0060446966
000160 db ab a3 bc 4d 20 8b 3d 20 70 86 3d b4 5f db bc
       -0.019979408 0.0679327 0.06564355 -0.026779033
000170 16 6f 92 bd 73 a6 ec 3a e6 d3 9a 3d 55 d9 8a bc
       -0.07150094 0.0018054977 0.07559948 -0.016949335
000180 d6 fb 1b 3d 63 ec 88 bd d6 ea 69 bd 38 ff 94 bd
       0.038081966 -0.06685712 -0.057108723 -0.072752416
000190 b7 27 a1 bd 72 ba 16 bd 08 ad 24 bd 26 19 fc 3c
       -0.07868903 -0.0367989 -0.040204078 0.03077371
0001a0 26 f3 9a 3d 61 bb df 3b 93 08 00 3d 92 0f 71 bd
       0.07565908 0.006827757 0.031258177 -0.05885274
0001b0 e2 19 09 bd ab bf b1 bd 6f 56 b4 3d ee 4f 3a 3c
       -0.03347195 -0.08679136 0.088055484 0.011371596
0001c0 9e d1 9e bc 1e 2a 9d bd 82 5c b7 3c 39 4f bc bd
       -0.019387063 -0.07674049 0.022382978 -0.09194798
0001d0 e2 af 70 3d 67 69 b2 bd 36 3b a3 3c bf 09 55 3d
       0.058761485 -0.0871151 0.019925695 0.052011248
0001e0 ea d5 99 bd 53 68 78 3d 76 40 a8 3d 3e 2b 6d 3d
       -0.07511504 0.060646366 0.0821542 0.057902567
0001f0 6b 20 b0 3d 4c 70 3a bd b0 df 2a bc 2b 13 a0 3d
       0.08599933 -0.04551725 -0.010429308 0.07816156

model.base_model.net.4.weight f4 [128, 128]
000000 69 a9 00 3d 0b 75 56 bd a8 19 ae 3d 6d f7 ab bc
       0.031411562 -0.052357715 0.08500987 -0.020992005
000010 c1 75 ee bc f5 d1 99 3c 3e 45 af 3d 89 34 42 bd
       -0.029108884 0.018776873 0.08558129 -0.047413383
000020 9e 15 8a 3b 5e cb 35 bc 4d 09 05 bd 1c 1b 2a 3d
       0.0042140028 -0.01109585 -0.032479573 0.04152976
000030 6c 5b 9a 3b b9 a8 a3 bd ae bb 33 3b 0c 88 57 3d
       0.0047106054 -0.07991166 0.0027425098 0.05261998
000040 c3 14 2e bd a4 5e 8f 3d 04 c4 95 bd 85 34 e9 3c
       -0.04250027 0.07000473 -0.07312778 0.028467426
000050 19 08 56 3d 8f ba fa 3c 32 44 0c 3d 93 b5 4c 3c
       0.052253816 0.030606536 0.034244724 0.012494463
000060 8b e1 96 bc 56 1d 78 3d 09 fa 56 bc ad b9 a2 3d
       -0.018418094 0.060574852 -0.013121136 0.07945571
000070 88 75 aa 3d f5 08 b0 bd 92 56 96 3d 89 4b c5 3c
       0.083231986 -0.085954584 0.07340731 0.02408387
000080 7d 55 6e bd d5 92 51 bd 8c fc b2 bc 5c 37 aa 3d
       -0.058186997 -0.05116542 -0.02184894 0.0831134
000090 c4 52 55 3d b8 7a 9e bc c2 6f 77 bd 5f 51 68 bd
       0.052080885 -0.019345626 -0.060409315 -0.056718227
0000a0 c0 5b 25 bd e2 bb d8 ba 27 50 b4 bd 1c 1e 9d bd
       -0.040370703 -0.0016535486 -0.0880435 -0.076717585
0000b0 52 d8 6a bd 5f 97 b3 3c 24 e5 02 3d 7c 57 03 3d
       -0.057335205 0.021922765 0.031956807 0.032065853
0000c0 35 3d 99 3d ce b6 e4 3c 46 3d 05 bd f5 69 12 3d
       0.074823774 0.0279192 -0.032529138 0.03574558
0000d0 9c 11 0e bd b3 a1 a3 3d b9 3b ff bc c9 c1 6b bd
       -0.034684762 0.07989826 -0.031156408 -0.057557855
0000e0 47 ac 5d bc fa eb 65 bd 79 42 30 bc 61 bc 89 bc
       -0.013529844 -0.056133248 -0.010758036 -0.016813459
0000f0 83 e4 1c 3c 3c ee 43 bc 52 13 7b bd f3 9a aa bd
       0.009575966 -0.011958655 -0.061297722 -0.083303355
000100 39 61 84 bd fc c7 a2 bd 7d ed b4 bd af bb ab 3d
       -0.06463856 -0.079483 -0.0883436 0.08385407
000110 73 96 45 3d 16 95 26 3d 9e 0e 7b 3d 6c 78 93 3c
       0.048239183 0.040669523 0.061293237 0.018001758
000120 6c 35 11 bd 76 3e 58 bc 77 22 17 bd 17 da 49 3d
       -0.035451338 -0.013198486 -0.036898103 0.049280252
000130 0b 11 8d 3c a4 56 ab bd 1b 4d 94 3c e4 10 8f bd
       0.01722004 -0.08366135 0.018103173 -0.069856435
000140 b8 c0 80 3d 0c ef 2e 3c ae 2b 28 3a 22 e1 44 bd
       0.06286758 0.01067711 0.00064152 -0.048066266
000150 a2 8a 3d 3b a9 3d 5a 3c 3c a7 a9 3c ec f0 7a bd
       0.0028921743 0.013320365 0.020709626 -0.061264917
000160 e5 d3 28 bd f0 07 7d bd 14 cb 4e bd b1 10 5e bd
       -0.041217703 -0.061775148 -0.05048664 -0.054215137
000170 10 35 9e bd 70 30 ba 3d 43 e4 bb bd 78 01 c6 bc
       -0.077249646 0.0909127 -0.09174397 -0.024170622
000180 84 12 db b9 36 a8 18 bd 0f 6a 13 bd ba e7 ed 3c
       -0.0004178473 -0.037269793 -0.035989817 0.02904116
000190 d7 ea 83 bc d2 c1 8b bc c6 c9 ae 3d 13 ba a9 bc
       -0.016103191 -0.017060194 0.08534579 -0.02071861
0001a0 30 b9 19 bb 35 e7 3a 3d b1 8b 94 bc b0 31 8a bd
       -0.0023456328 0.045630652 -0.018133016 -0.067477584
0001b0 8c a8 9c 3d 53 49 9c bd b0 c4 aa bd 51 b4 65 bd
       0.07649335 -0.07631173 -0.083382964 -0.056080166
0001c0 63 b5 56 3c 21 0a 8d 3d 58 67 9d bd 16 bd 45 bd
       0.013104769 0.068866976 -0.07685727 -0.04827603
0001d0 18 81 a1 3d a8 0f 95 3d 2b f3 0a 3d 71 cf 96 bd
       0.07885951 0.07278377 0.03392331 -0.07363785
0001e0 d0 e1 61 3d 7d 35 64 bc 87 16 8d bd 84 62 85 3d
       0.055146992 -0.013928768 -0.068890624 0.06512931
0001f0 f7 c4 72 bd c1 87 91 3c 13 bf 43 bd 5d fe 88 3d
       -0.05926987 0.017764928 -0.047789644 0.06689141
000200 bc ee 64 3c b7 98 ed bc b0 05 38 3d 9e 25 a8 3d
       0.013972934 -0.029003484 0.0449273 0.082103
000210 d9 84 48 bc 6a b4 80 3d 30 59 1a bd 83 e0 53 bd
       -0.012238705 0.06284411 -0.037682712 -0.051727783
000220 b9 a1 24 bd 7a 72 bd bd 94 c2 92 3d 05 ae eb 3c
       -0.040193293 -0.0925035 0.07166019 0.028769502
000230 16 77 60 bd 7c a9 85 bd 20 9f 6f 3d a8 5e 22 3b
       -0.05480107 -0.06526467 0.058501363 0.0024775658
000240 64 20 85 bd 43 4f 7f bb cc 9d 13 bd e2 82 8a 3c
       -0.06500319 -0.0038957156 -0.03603916 0.016908113
000250 80 6d 33 bd 45 9f 10 bd 15 c5 35 bd c6 7b 25 bd
       -0.0438056 -0.03530814 -0.044377405 -0.040401243
000260 4b c3 e1 3b 22 84 45 3d 50 e9 8f 3c 2c 57 5b 3d
       0.006889736 0.048221715 0.017567307 0.05354993
000270 a8 af b3 bc 8d 91 03 bd fd 9d 79 bd 56 2f 8e bd
       -0.021934345 -0.03212123 -0.060941685 -0.06942622
000280 b8 31 84 bd a7 3d c6 bc 9e 1e a5 3d cc 50 b5 bd
       -0.064547956 -0.02419932 0.080624804 -0.088533014
000290 b3 4d 82 3d 59 12 3e 3d 60 2c 49 3d 27 27 50 3d
       0.06362476 0.046404216 0.049114585 0.05081859
0002a0 8e 4d 4d 3d 99 6e a6 3d 7b 47 2a 3d 3e d0 63 bc
       0.05012279 0.081265636 0.041572075 -0.013904629
0002b0 ae 6e 28 3d b9 a5 16 bc a1 99 46 bd ae 06 16 3d
       0.041121177 -0.009194785 -0.048486356 0.036627464
0002c0 18 8f c1 3d c5 87 88 3d 83 09 03 bd e4 09 0b bc
       0.09451121 0.06666521 -0.031991493 -0.008486245
0002d0 1b 24 21 3d 62 79 34 3d e3 6a 91 bd ad 4e 9c 3c
       0.039341073 0.044061072 -0.07100465 0.019080484
0002e0 21 34 2f bb ba 71 aa 3d a2 26 8c 3c 4c c2 39 bd
       -0.0026733952 0.08322473 0.017108265 -0.04535131
0002f0 3a 0a b2 bc cf 66 a1 3d b3 37 02 bd cf e1 92 3c
       -0.021733392 0.07880937 -0.0317914 0.01792994
000300 ed 91 af 3d 13 06 91 bd 58 48 50 bc bd 04 b1 bd
       0.08572755 -0.07081237 -0.012712561 -0.08643482
000310 06 7f 9f bc 82 c3 20 3d a9 dd a2 bb db 63 35 3d
       -0.01946975 0.03924895 -0.0049702716 0.044284683
000320 9d 97 5a bd a2 0a 3b 3d 4f c8 31 bd 55 e7 50 3d
       -0.053367246 0.045664437 -0.04340392 0.051001865
000330 36 46 e6 bc 92 dd aa 3d 35 47 3a 3c 9d ab cc 3c
       -0.028109651 0.083430424 0.011369516 0.024984175
000340 60 cb 93 bd 5a 04 d4 3b c5 68 8f 3d 07 d0 9b bd
       -0.07216525 0.0064702453 0.07002405 -0.076080374
000350 46 b0 93 3d 7a 5a 24 3d 24 da ee bc 32 a2 82 bd
       0.07211356 0.040125348 -0.029156752 -0.063785926
000360 78 fb 5b 3d b5 a0 9d bc cb d4 3b 3d 19 a5 14 3b
       0.053706616 -0.01924167 0.045857232 0.0022681414
000370 14 90 a1 3d 23 9a 73 bd 8e 3b 03 bb 79 18 3d 3d
       0.07888809 -0.059473168 -0.002002451 0.046165917
000380 a6 34 1d bd d2 08 f0 bc 75 1c 97 bc a0 3d b1 3d
       -0.038380288 -0.02930108 -0.018446187 0.08654332
000390 a5 a6 22 3d c2 21 af bd 9e ab 7b 3c 3b d7 8a 3d
       0.039709706 -0.08551361 0.015360741 0.06779333
0003a0 92 8b 0c 3d 59 bc b2 3d cf ab de bc 69 30 9c 3b
       0.034312792 0.08727331 -0.027181534 0.004766513
0003b0 8c 5f a1 3d 83 4f 98 3d bd c2 ab bc 97 ff 83 3c
       0.07879552 0.07437041 -0.020966882 0.016113086
0003c0 05 41 0a 3c c7 7d 90 3d f4 32 f0 bc 33 15 82 bc
       0.008438353 0.0705524 -0.029321171 -0.01587925
0003d0 8c 8e 28 3d e4 93 51 bc bb 06 14 bd 9d 2f 95 3d
       0.04115157 -0.0127916075 -0.03613923 0.07284472
0003e0 e0 26 03 bd 82 49 55 3d 1c f9 8f bc 4c 5b a6 bd
       -0.032019496 0.052072056 -0.01757484 -0.08122882
0003f0 dc 05 5d bd 9f 3e 80 3c 1e 0b 8b 3d 3c 0a 7b bc
       -0.053960666 0.01565486 0.0678923 -0.015322264

model.base_model.net.4.bias f4 [128]
000000 b1 c5 1c bd 4a 28 aa 3d 5b 68 a0 b8 bc 83 ac 3d
       -0.03827447 0.08308466 -7.648832e-05 0.08423564
000010 be e7 ee bc 7a a7 7d 3d 0d 8e 5c bb e1 d7 18 bd
       -0.029163238 0.061927296 -0.0033654005 -0.037315253
000020 8d 36 92 3d 6c a7 99 bd c8 5f a5 bb 0d 6e 73 3c
       0.07139311 -0.07502636 -0.0050468184 0.014857781
000030 d9 95 8a bc 30 fe 2e bd 9a 10 ca bc fc ae 5b 3d
       -0.016917156 -0.04272288 -0.02466612 0.053633675
000040 15 df 64 bc d5 73 25 bd 85 b3 17 bd 99 b1 8b bd
       -0.0139692025 -0.04039367 -0.037036438 -0.068209834
000050 5b 7c 75 3d 56 58 a8 bd 1e 82 2c bd 0a be a7 3c
       0.059933048 -0.08219974 -0.042116277 0.02047636
000060 f1 f7 9c 3d 1d d8 8d bd e0 91 02 3c aa b9 89 bd
       0.076644786 -0.06925986 0.00796935 -0.06724866
000070 73 8b 89 3d 48 fb 92 3d ef 42 74 3d b8 73 2c bd
       0.06716051 0.07176834 0.059634145 -0.042102545
000080 73 32 84 bd 7d 87 52 bd 5b 65 d1 bc e7 3f 32 3d
       -0.06454935 -0.051398743 -0.025561025 0.043517973
000090 c9 27 98 bc c6 9e a8 3d 3a 1e a2 bd 31 0a 13 3c
       -0.018573659 0.08233409 -0.079159215 0.008974598
0000a0 84 7a 99 bd 26 cb a3 bd da 14 71 bd 30 dd ab 3b
       -0.07494071 -0.07997732 -0.058857776 0.0052448735
0000b0 6e 65 b0 bd 5d 00 28 bc 30 fb 2b bd f4 b7 5c bd
       -0.08613096 -0.010253993 -0.041987598 -0.05388637
0000c0 42 02 a9 3d 74 3a ee bc e9 f0 aa bd 55 bf 6d 3d
       0.08252384 -0.029080607 -0.08346731 0.058043797
0000d0 8b b5 bc bd b8 d8 b0 b9 09 f8 94 bd 81 77 49 3d
       -0.09214314 -0.00033730804 -0.072738715 0.049186233
0000e0 9b b0 0c 3d 53 f3 74 bc 61 7f bc bc 88 2e 84 bd
       0.03434811 -0.014950591 -0.023009958 -0.06454188
0000f0 2f 15 88 bd 3e d3 20 3d 81 bc 8a bd 0e bc 05 bd
       -0.066446654 0.039263956 -0.067742355 -0.032650046
000100 db c8 8f 3d ca 08 b0 bd 9b b3 2c ba 40 56 07 bd
       0.07020732 -0.085954264 -0.00065880426 -0.03304124
000110 f3 ee 2f 3d 7e f7 06 bd e4 4f 9a 3d fb 4c f2 3c
       0.04295249 -0.03295087 0.07534769 0.029577723
000120 11 30 5f bd d0 e1 b0 3c c7 17 e8 bb a9 37 eb bb
       -0.0544892 0.02159205 -0.0070829126 -0.007178266
000130 f2 1e 5b bd f2 23 27 3d c8 93 9e 3c d3 ee 07 bc
       -0.05349631 0.040805764 0.019357577 -0.008296686
000140 c4 e0 42 bd ad c8 ac 3d 4b 50 95 bd 63 1c 10 3d
       -0.047577634 0.08436713 -0.07290705 0.03518332
000150 65 89 a4 bd 99 12 92 bd da 36 ea 3c ac e7 b6 3c
       -0.080340184 -0.071324535 0.028590608 0.022327267
000160 d7 e5 75 bc 54 f2 1d 3d e6 c8 44 bc f1 8e ce 3c
       -0.015008411 0.03856118 -0.012010789 0.025214644
000170 28 66 91 bd b9 e8 1f 3d 0c c4 b4 bc be 95 7b 3d
       -0.07099563 0.0390403 -0.022066139 0.061422102
000180 95 d3 9a bd 81 f0 34 3c 49 7f 0a bd 5c 15 1d 3d
       -0.07559887 0.011043669 -0.033812795 0.038350448
000190 e0 24 8d bd 2a 80 96 bd 7c de 03 3d ef 56 87 ba
       -0.06891799 -0.07348664 0.0321946 -0.0010325591
0001a0 f6 10 6f bd 23 c8 7f bd 2c b8 98 bd 65 16 c0 3c
       -0.058365785 -0.062446725 -0.07457003 0.023448179
0001b0 e7 27 06 3d 91 1d 23 bd c6 2f 60 3d 0a d5 4f 3d
       0.032752898 -0.03982312 0.05473306 0.05074028
0001c0 91 37 20 3c aa 44 5e bd bc 11 8c bd 5a 44 16 bd
       0.009778873 -0.054264702 -0.0683932 -0.03668628
0001d0 92 bf 69 bd ce 87 90 3c 27 37 6c 3d 5c 83 9f 3d
       -0.05706746 0.017642882 0.057669785 0.07788727
0001e0 92 35 23 bd 62 dd 3f bd 95 60 84 3c 09 8f b4 bc
       -0.03984601 -0.046841986 0.016159335 -0.02204086
0001f0 2b 88 62 3d c4 ec a1 bd 99 00 26 3d 2c 5d e5 3b
       0.05530564 -0.079064876 0.040527914 0.0069996323

model.base_model.net.6.weight f4 [128, 128]
000000 ac ef a1 3d 4b 02 04 bd f0 b2 e2 3c 45 47 72 3c
       0.07907042 -0.03222875 0.027673215 0.0147875
000010 c2 ed 50 bd 11 7b 89 bd 24 9a 57 3d 6f 07 17 bd
       -0.051007994 -0.06712926 0.052637234 -0.036872324
000020 93 29 75 3d 3a 0a 94 3c bb 39 44 3c 9f b4 51 3d
       0.0598541 0.018071283 0.011976655 0.051197644
000030 18 3d e2 bc 1d 25 b0 bc e4 d2 0e 3d ab cc 8f 3c
       -0.027617022 -0.021502072 0.03486909 0.017553648
000040 e0 06 42 3d 5e c4 86 3d 06 59 a5 3d b8 af 59 3d
       0.047369838 0.06580423 0.080736205 0.053146094
000050 ad 47 1b bc db c0 94 bd 02 43 c9 bc a4 4f 55 bc
       -0.009477538 -0.07263347 -0.024568085 -0.013019476
000060 51 1d 74 3b 6e a2 60 bd 38 e0 12 bd 79 cb 81 3d
       0.003724892 -0.054842405 -0.035858363 0.063376375
000070 fd 1f 60 bd dc 01 4e 39 7b c4 67 3c 38 b8 64 3c
       -0.054718006 0.00019646384 0.014145966 0.013959937
000080 df 1f 3c 3c ad a4 b2 3d a6 53 7e 3d 1d 55 35 3d
       0.011482208 0.08722816 0.062091492 0.044270623
000090 ea b6 e2 bc 25 19 95 bd b1 56 83 3d 01 b1 85 bd
       -0.02767511 -0.072801866 0.064130194 -0.065279014
0000a0 ca 73 1b bd 62 76 30 bd ea 6d 89 3b 3f 51 a9 3c
       -0.037952222 -0.04308165 0.004194011 0.020668624
0000b0 26 24 1c 3d 30 67 af 3c de cf 94 bd 21 db f8 3c
       0.03812041 0.021411508 -0.0726621 0.030377926
0000c0 28 cb 60 bd fe 41 1c 3d 00 04 89 bd b3 d9 4b 3c
       -0.054881245 0.038148873 -0.06690216 0.01244204
0000d0 f7 d4 aa bd 0f 0a 80 3d 7b 00 2b 3d 08 f6 8f bb
       -0.08341401 0.062519185 0.041748505 -0.004393343
0000e0 c8 97 da bb 5d 1e 37 ba e9 8b 65 bd 5e 3e 5c bd
       -0.0066709258 -0.00069854205 -0.05604163 -0.053770415
0000f0 45 52 c4 3b f2 e4 64 3d 99 fa 36 3d 64 be 80 3d
       0.0059912526 0.0558824 0.044672582 0.06286314
000100 e7 24 83 3d da 82 10 3d 9c 4c 74 bd 86 13 cd 3c
       0.06403523 0.03528104 -0.059643373 0.025033724
000110 40 2f 43 bd 57 21 39 bc 1f 17 54 bd a2 35 1b 3d
       -0.047652483 -0.011299453 -0.051779862 0.037892945
000120 ca 64 2f bd 68 55 3f 3d 83 93 2a 3d 41 fd 3d 3d
       -0.04282073 0.04671231 0.041644584 0.0463841
000130 2b c8 6d 3d 20 c3 7a 3c 6b 47 21 bd 42 f9 28 3d
       0.058052223 0.0153053105 -0.03937475 0.041253336
000140 16 f5 9a 3d 2b d6 61 3d c3 46 69 bd da 75 12 3d
       0.07566278 0.055135887 -0.05695225 0.035756923
000150 4f 4c cc bc f3 62 a7 3d 55 13 05 bd 77 45 9f bc
       -0.02493873 0.0817317 -0.03248914 -0.019442303
000160 03 99 04 3d 06 e4 ae bd c7 fc b9 3c 74 fe 51 3d
       0.032372486 -0.08539586 0.022703541 0.051268056
000170 b3 1d 79 bc 75 49 ac bd ea ec b6 bd 21 78 8a bd
       -0.015204835 -0.08412448 -0.089319065 -0.06761194
000180 91 37 94 bd c3 d5 26 3d f0 de 95 bc ae a3 f2 bc
       -0.07237161 0.040731203 -0.018294781 -0.029619064
000190 14 33 85 3d 4e ea 33 3c 60 bb 90 bd c1 8f 96 3c
       0.06503883 0.010981156 -0.07066989 0.018379094
0001a0 c0 9f 2b 3d 41 ec 31 bd 3f f5 c0 3c 31 8d 1d bd
       0.041900396 -0.0434382 0.023554442 -0.03846473
0001b0 16 b4 94 bd 57 42 71 bd 3a b3 4b bd af 66 4b 3d
       -0.07260911 -0.058901157 -0.04973147 0.049658474
0001c0 07 75 97 3d f3 10 6d bd 40 47 63 3d d7 47 f7 bc
       0.07395368 -0.057877492 0.05548787 -0.030185623
0001d0 d4 d3 16 bc 38 0e 4e 3c e7 b7 c1 3c f4 c8 6d 3c
       -0.009205777 0.012576632 0.023647262 0.014513243
0001e0 58 5b b7 bd 13 48 c1 3c 57 e3 b6 bd 1f f9 a7 3d
       -0.08952969 0.023593938 -0.089300804 0.08201813
0001f0 1f 81 ad 3d 8f 3c 99 bd ca eb 40 3d 2b de 60 3d
       0.084718935 -0.07482254 0.047099866 0.054899376
000200 c1 ca 6e bd 7a 46 b0 3c b7 1a 28 bd 66 6a 76 bd
       -0.05829883 0.02151798 -0.041041102 -0.060160063
000210 11 d6 24 bd c9 39 1b bd 2c 13 73 bd 03 aa f2 bb
       -0.040243212 -0.037896905 -0.059344456 -0.007405521
000220 48 8c b2 3d 14 02 95 3c 6c 3a a8 bb ec 6a a6 bd
       0.08718163 0.018189467 -0.0051339176 -0.081258625
000230 56 42 22 3d ba 2c a4 3d 22 ed 5a bc 36 40 b5 3d
       0.039614044 0.080163434 -0.013362201 0.08850138
000240 28 71 b7 3d 1f 43 fc 3c 0d 16 a1 bd 45 a8 e5 bc
       0.0895713 0.030793725 -0.07865534 -0.028034339
000250 9b f4 ad bc 24 20 8b bb 82 8b 11 bd 33 ed f2 bc
       -0.021234801 -0.004245775 -0.035533436 -0.029654121
000260 c6 f1 e0 bc e6 bb 85 bc 47 7f 95 bd 75 bc 5b bd
       -0.027459037 -0.016324949 -0.07299667 -0.053646524
000270 36 25 d6 3c 84 40 93 3d 9e 8a a7 3d ff 10 80 3d
       0.02614079 0.0719004 0.08180736 0.06253242
000280 56 97 a8 bd c8 bf 72 bc da cb fb bc 88 11 11 3d
       -0.0823199 -0.014816232 -0.030736852 0.03541711
000290 ed ba ad 3d 9d 5e 7c 3d 12 5a 59 3d 55 f9 35 bd
       0.08482919 0.061613668 0.053064413 -0.044427235
0002a0 a6 bc 98 3d a7 e5 81 bd e6 b8 84 bd 29 a8 17 3d
       0.07457857 -0.06342631 -0.06480579 0.037025604
0002b0 1b 6b 87 3d f9 47 3a 3d 5f 68 b7 bd de f9 3f 3d
       0.066122256 0.045478795 -0.08955454 0.04686915
0002c0 c6 b4 d5 bc 6a 0d 4c 3c 94 7e 2c bd 82 33 2d bd
       -0.026087176 0.01245437 -0.0421129 -0.04228545
0002d0 63 97 de bc af ce 10 3b ce aa 24 3d ee de 27 bd
       -0.027171796 0.002209585 0.040201955 -0.040984087
0002e0 4a d1 03 bd 7e 30 47 3d bb 78 1c bd a9 4f 7f bd
       -0.032182015 0.04863023 -0.038201075 -0.06233183
0002f0 c6 12 29 3a c9 bc 29 3d b0 0a 60 bc ac 16 73 3b
       0.0006449636 0.041439805 -0.013674423 0.003709237
000300 49 8f a8 3d 0a ee 23 3d db b0 9d 3b 57 f3 6c 3d
       0.082304545 0.040021934 0.0048123426 0.057849254
000310 8a f4 2f bc e6 d9 44 bd 94 7f 0e 3d 2a 80 82 bd
       -0.010739455 -0.048059367 0.034789637 -0.063721016
000320 fe ef df 3c d8 de 23 3d 36 f1 2f 3d ec 6c 0b 3c
       0.027336117 0.040007442 0.042954646 0.008509856
000330 b5 3a 63 3d 70 c6 54 3d d2 8f 42 3d 6a 70 88 bd
       0.05547591 0.051947057 0.04750044 -0.06662066
000340 c3 4c 86 3c fd 39 20 3d 31 37 88 3d c9 9a b3 3d
       0.016394025 0.039117802 0.06651152 0.08769757
000350 95 96 ac bd da 7c a3 3d e7 33 8d 3c 16 04 3d bd
       -0.08427159 0.07982798 0.017236663 -0.046146475
000360 7f 80 a2 bd 26 ac 0c 3d 42 f2 84 3d 87 30 74 3d
       -0.07934665 0.03434386 0.064915195 0.05961659
000370 ff a2 5d 3d 2b 16 85 bd 79 ea b9 bd 57 95 77 bc
       0.054110523 -0.06498369 -0.09077925 -0.015111289
000380 a0 a4 3a bd 18 d7 7e bd 52 0f ab bd 5f b4 0c 3d
       -0.045567155 -0.062216848 -0.083525315 0.034351703
000390 9e 1c d3 3c a3 bb 18 3d 0f 53 45 bd ad 9e 72 bd
       0.025770482 0.03728832 -0.048174914 -0.059233356
0003a0 80 f0 04 3b 15 c6 30 3d e2 7a 12 3d 6d b7 02 3d
       0.002028495 0.043157656 0.03576172 0.03191321
0003b0 58 5c db bc a5 d5 93 3c 74 8a d7 bc 8f 19 84 3d
       -0.026777431 0.01804621 -0.026311137 0.064501874
0003c0 9a c5 72 3d 24 ab 1e 3a f7 fc 2e bc fd 33 a3 3d
       0.05927048 0.00060527236 -0.010680429 0.079689
0003d0 e6 eb 80 bd e9 a4 51 3b ae 63 0b 3c 56 99 c4 bc
       -0.06294994 0.0031989163 0.008507652 -0.023998898
0003e0 0f ec a7 ba fe 41 73 bd 92 01 03 3a 72 a2 44 3d
       -0.001281144 -0.059389107 0.00049974874 0.048006482
0003f0 47 c0 84 3d 12 e6 81 3d 6c 79 2c 3d 13 7d ae 3d
       0.064819865 0.063427106 0.042107984 0.0851995

model.base_model.net.6.bias f4 [128]
000000 a1 b3 50 bd cc 0b ad bd d1 65 b4 bc 3e 10 84 3b
       -0.050952557 -0.08449516 -0.022021206 0.0040302565
000010 40 b5 31 3c 02 14 86 bb 10 6c bd bd f8 a7 f3 bc
       0.010846436 -0.0040917406 -0.09249127 -0.02974318
000020 68 ce 61 bd 3f 93 8c bc 2e 3d 3c bd 4d 21 d7 bb
       -0.055128485 -0.017160056 -0.045956783 -0.006565249
000030 84 63 ab bc a0 df 9b bd 6d 86 2d 3d 7f d7 c9 3c
       -0.020921476 -0.076110125 0.042364527 0.02463889
000040 26 5e bc 3c fa ab ec 3c 8d 9c 04 bc 4a c5 b6 3c
       0.022994112 0.028890599 -0.008093965 0.022310872
000050 73 74 bb bd 63 15 7f 3d 0e 61 98 3d 3e f9 04 bd
       -0.0915307 0.062276255 0.07440387 -0.03246426
000060 f7 49 94 3d af 10 04 bd 1f c9 0d 3d 67 41 1d bd
       0.0724067 -0.032242473 0.034615632 -0.03839245
000070 c2 a4 5f bd 6a e0 37 bd a5 55 85 3d 0b d4 01 bd
       -0.054600485 -0.044891752 0.06510476 -0.03169636
000080 55 50 8f bd 57 ac b5 3b cd 93 75 bd fc 5a 77 bd
       -0.06997744 0.005544226 -0.059955407 -0.060389504
000090 fc 99 5a bd 29 ea 6b bd 65 74 6b bd 79 71 1f 3d
       -0.053369507 -0.05759636 -0.05748405 0.038926575
0000a0 d1 b5 16 bd 3e 6b bd 3c 93 c3 a2 3d 82 73 d8 3c
       -0.036794487 0.023122426 0.07947459 0.026422266
0000b0 73 25 bc 3d 91 fb 8d 3d 06 b6 1d 3c 8f 8e 17 3d
       0.0918683 0.06932748 0.009625917 0.03700119
0000c0 1a 54 a4 3d d1 2d 78 bd c9 3f 5a bd 6a d0 71 3d
       0.080238536 -0.06059057 -0.053283487 0.05903665
0000d0 ec 15 2a 3d e8 22 e8 3c a3 4b 9e 3c 1b 68 61 bd
       0.041524813 0.028336957 0.019323176 -0.055030923
0000e0 5a 88 1a 3d 88 05 45 bb e0 0c e2 3b 60 86 aa 3d
       0.03772769 -0.0030063111 0.0068985075 0.08326411
0000f0 ad 97 4e 3d d0 ec 88 bb 46 00 cd bc 83 be 4d bd
       0.050437618 -0.004178621 -0.025024544 -0.050230514
000100 e6 1e 2c 3d 7c 88 b7 3d 87 ea 49 bd c1 36 73 bd
       0.042021655 0.08961579 -0.04929593 -0.05937839
000110 e2 66 6e 3d ba 6e 93 bd 13 9b af 3d 9e 49 7e 3c
       0.058203585 -0.07198854 0.085745 0.015520481
000120 a6 6c a8 3d 9d 8f 3b 3b 63 7d fc 3c 2b 72 aa bd
       0.08223848 0.0028619536 0.030821508 -0.08322557
000130 ca 75 98 bc dc 24 91 3d 7e 7d fb bc 6e b9 9f 3d
       -0.018610854 0.070871085 -0.030699488 0.0779904
000140 1a 93 5b bc 83 5d 4a bd 61 69 48 bd 8b 27 96 bd
       -0.013401771 -0.049405586 -0.048928622 -0.07331761
000150 a4 d9 00 3d 38 a0 4c bd 39 6f 03 3d b7 8d e9 bc
       0.03145756 -0.049957484 0.032088492 -0.028509958
000160 98 ef 52 3d e2 08 71 3d 30 e2 88 bd 24 70 58 bd
       0.051498026 0.058846362 -0.06683767 -0.05284132
000170 7d 18 67 3d 40 bd eb bc 94 88 98 bd 68 a9 3c bd
       0.05641984 -0.028776765 -0.07447925 -0.046059996
000180 bc 27 a6 bd a4 41 6e bd 8d 1f a6 3b bf 6d 80 3d
       -0.081130475 -0.05816807 0.005069679 0.062709324
000190 01 21 85 3c d3 c5 f9 3b 22 46 9a bb 2b 91 47 bd
       0.016251089 0.0076224594 -0.0047080675 -0.048722427
0001a0 66 da 1b 3d f1 32 85 3d 6c 29 03 3d 0b 58 9f 3d
       0.038050078 0.06503857 0.032021925 0.07780465
0001b0 f0 1e bb 3d a1 0f ad 3b fe 98 53 bd f9 c9 89 3d
       0.0913676 0.005281404 -0.051659577 0.06727976
0001c0 38 94 61 3c a8 f5 58 bc b3 30 7b bc 5c 9c e4 3b
       0.013768248 -0.013242163 -0.015331435 0.0069766473
0001d0 fa 6a 37 bd c4 f1 4a 3d a2 da 93 bd 98 61 34 3c
       -0.044779755 0.049546972 -0.07219435 0.011009596
0001e0 d0 e0 bc bd 19 5a 21 3d 86 1f 1f bd 35 c9 42 bc
       -0.09222567 0.039392564 -0.038848422 -0.011888792
0001f0 ce 6e 96 3d e7 a6 83 3c 9b 03 3a 3a f2 b6 04 3d
       0.07345353 0.016070796 0.0007095874 0.032401033

model.base_model.net.8.weight f4 [128, 128]
000000 51 9c b1 3b 1b 8a 66 3d b9 dc 1a 39 1e 0c 7b 3d
       0.0054202457 0.05628405 0.0001476881 0.061290853
000010 a6 5a 6f 3d 91 a9 2a bc 47 fb 97 3d 50 31 a3 3c
       0.05843606 -0.010416404 0.07420974 0.019920975
000020 60 27 84 3d e0 17 b7 bd 75 56 ba bd 8a e8 90 3c
       0.06452823 -0.08940101 -0.090985216 0.017689008
000030 64 76 e1 3c 47 7a 08 bd be 86 a7 bc 2e 88 00 3d
       0.027522273 -0.033319738 -0.020449992 0.03137987
000040 a6 c1 a1 3d 93 45 c9 3c 81 2f a4 3d 5d ca 99 3d
       0.07898264 0.024569308 0.08016873 0.07509301
000050 63 88 dc 3c 9a 45 0e 3c cd a9 c9 bc c6 42 81 bd
       0.026920503 0.0086835865 -0.0246171 -0.06311564
000060 6e 79 4c 3d b5 b6 ba 3a cd 9b 1a bd da 46 9c bc
       0.049920492 0.0014245125 -0.03774624 -0.019076753
000070 1f fd 57 bd ad 05 cf bb f1 42 4c 3d 21 f0 90 3d
       -0.05273163 -0.0063178153 0.049868528 0.07077051
000080 4c 60 72 bd d3 e1 7b 3c ba ba 12 bd 34 d4 a9 bd
       -0.059173867 0.015373665 -0.035822608 -0.08292428
000090 98 d7 3c 3d f6 69 93 3d 2a 71 9a 3d b2 09 96 3d
       0.046104044 0.07197945 0.075411156 0.07326068
0000a0 39 43 07 bd 5b 16 a4 3c 07 a5 ec 3c c0 6f 79 bd
       -0.033023093 0.020030191 0.028887285 -0.06089759
0000b0 8c be a6 3d c3 b6 95 bd 52 1f f3 3b c9 ba ce bc
       0.08141813 -0.0731025 0.007419505 -0.02523555
0000c0 e7 c6 28 3d 6a e3 87 3d c1 ab e9 3b 07 58 16 bd
       0.041205313 0.06635173 0.0071310704 -0.036705043
0000d0 72 22 90 3d 4e e0 b4 bd 00 9a 00 bc 09 6f a3 bd
       0.0703782 -0.08831845 -0.007849216 -0.07980163
0000e0 62 a7 31 bb 20 db 67 3d 09 28 29 3d 0f 60 23 bd
       -0.0027107825 0.05660546 0.041297946 -0.03988653
0000f0 c3 53 2f bd b5 a8 d1 3c 10 9f 5b bd 11 49 9a bd
       -0.04280449 0.025593141 -0.05361849 -0.075334676
000100 d7 5d 8e 3d 82 a3 c9 3c d1 c6 88 bd be c4 a4 bd
       0.06951492 0.0246141 -0.06678546 -0.08045338
000110 6b 69 fe 3c 8d 12 e0 bc e9 0a 3b bd 46 55 b3 3d
       0.031056127 -0.027352596 -0.0456647 0.08756499
000120 97 bd 2d 3d 63 8e 91 3d 26 71 3c 3c 13 2d 21 bb
       0.042417135 0.07107236 0.011501586 -0.0024593517
000130 2a 89 5b bd 7d 3f 0f 3d c1 5e 0c bd 78 75 00 bc
       -0.053597607 0.034972657 -0.034270052 -0.007840507
000140 36 1e 8d bb 70 9e 79 3d ea fb 06 3d 8c 84 b3 bd
       -0.00430658 0.060942113 0.032955088 -0.08765516
000150 d3 35 67 3b 65 4c 89 3d 8d 0e 75 bb 77 81 96 3d
       0.0035279884 0.06704024 -0.0037392706 0.07348912
000160 64 42 13 bd a9 b2 81 bd 48 2a 93 3d 03 09 00 bd
       -0.035951987 -0.06332905 0.07185799 -0.031258594
000170 cd 4b 80 3d 80 c5 8a 3d ce 1a 6e bd 40 90 ac bd
       0.06264458 0.067759514 -0.05813103 -0.08425951
000180 a1 33 36 bc 72 3a 4d bd 6a 1d 83 3d 32 d8 34 3d
       -0.011120708 -0.050104566 0.06402095 0.044151492
000190 2e ad 95 3d 11 4c 52 bd 85 f6 80 3c a7 88 14 3b
       0.07308422 -0.051342074 0.01574255 0.002266446
0001a0 99 49 7f bd 44 1a 33 bd 88 16 29 3d b4 de f7 3b
       -0.062326048 -0.04372622 0.041281253 0.00756439
0001b0 b4 61 a1 3d a0 a3 b6 3b 66 da d9 3c e7 d6 f8 3c
       0.078799635 0.005573705 0.026593398 0.03037591
0001c0 a9 dc 74 bd c6 19 84 bd 3e 21 56 bd 09 47 00 bd
       -0.05978075 -0.064502284 -0.052277796 -0.031317744
0001d0 9c 89 e5 3c 85 7f 46 bd d8 97 91 bd 8f d7 01 bd
       0.028019719 -0.048461456 -0.0710904 -0.031699713
0001e0 29 06 9c bd 16 54 1c bc 09 ad bb bd 13 f5 47 bc
       -0.076183625 -0.009541532 -0.09163863 -0.012204426
0001f0 c5 25 8b bd 8b 76 a9 bd e4 40 7d 3d ad 3a b2 3d
       -0.06794313 -0.082745634 0.061829463 0.08702598
000200 62 d3 68 bd a0 92 98 3c 14 29 99 bd 6a 0a 62 bd
       -0.056842215 0.018624604 -0.07478538 -0.055185713
000210 88 a5 ac bd cb b7 69 bd 93 1b bb 3d 80 f7 c4 3c
       -0.0843001 -0.057060044 0.09136119 0.024043798
000220 cd 1e 37 3d ff fc 54 bd 13 cd 11 3d 82 10 01 3d
       0.04470711 -0.05199909 0.035595965 0.031509884
000230 0e 8f 03 3d e5 e5 2d 3c 93 7f 41 bd 35 38 00 3d
       0.03211885 0.010613893 -0.047240805 0.031303603
000240 b5 a8 97 3d a1 f0 72 bc 5f 9f aa 3d c6 64 08 3c
       0.07405225 -0.014827878 0.08331179 0.0083248075
000250 e5 d1 d6 3c da 70 63 3d d3 90 91 bc 7f 03 cc 3c
       0.026223132 0.055527546 -0.017769253 0.02490401
000260 47 07 a4 bc f3 b6 88 bd c8 c0 9e b8 2d 9b 01 3d
       -0.020023001 -0.0667552 -7.5699354e-05 0.031642128
000270 97 e4 1f 3c ba 67 d8 3c 0e b4 ce bc 96 c1 9a 3d
       0.00975909 0.026416648 -0.025232341 0.07556455
000280 3e bc 8e bd 84 39 d6 3b c4 66 14 3c 12 8d 1a 3d
       -0.06969498 0.006537618 0.009057704 0.03773219
000290 84 fd c7 bc ea 3e b4 3c 08 c5 89 bd 9e 2e d1 3c
       -0.024412878 0.022002656 -0.06727034 0.025534924
0002a0 d9 59 bc bc d7 0d 68 3d 5f 78 92 3d 32 43 93 3d
       -0.022992061 0.056653824 0.07151865 0.07190551
0002b0 3e ec 62 bd ce de 1c 3d 7d af 2f bd 0c 10 82 3c
       -0.05540108 0.03829842 -0.042891968 0.015876792
0002c0 85 f0 f7 3c 63 ef 95 bd 77 8f a2 bd b0 b4 d1 3b
       0.030266056 -0.0732105 -0.0793752 0.0063997135
0002d0 c8 a7 e8 3b cd 7e 81 bd bd 9c 15 3d c1 04 78 3d
       0.007100079 -0.063230135 0.03652643 0.06055141
0002e0 bd 9d a5 bc 49 27 a0 bd 45 ad 9a 3c 2e 43 59 bd
       -0.020216817 -0.07819993 0.01888145 -0.053042583
0002f0 7b 61 3d bc 83 91 8e bc 52 a6 55 3d 35 e4 dd 3c
       -0.011558886 -0.01740337 0.05216057 0.027086357
000300 72 5e 8a bd d6 d9 ab bd 65 00 26 bd b8 8f a6 bd
       -0.06756295 -0.08391158 -0.04052772 -0.08132881
000310 48 a5 cc bb a5 a6 12 bd ac 8a 12 bd 27 4d ae bd
       -0.006245289 -0.035803456 -0.03577678 -0.085108094
000320 e4 19 87 3d f4 f9 6b bd 9b fe 16 bd 01 32 89 3d
       0.06596735 -0.05761142 -0.036863904 0.066989906
000330 43 ff ed bb b2 79 ce bc 3b 47 1f 3d 4b 5e 22 bd
       -0.0072630956 -0.025204513 0.03888629 -0.039640706
000340 05 33 78 3d 30 8a 40 bb 2a 89 52 3d 31 1c 3c 3c
       0.06059553 -0.0029379241 0.05140034 0.011481331
000350 fa 89 36 bd f1 1b 0b bd d1 66 70 ba 8e 37 9c bc
       -0.04456518 -0.033962194 -0.0009170594 -0.01906946
000360 88 25 4d 3d 47 51 4b 3d aa 67 34 bd f8 4e 3a bd
       0.05008462 0.04963806 -0.044044174 -0.045485467
000370 36 93 a2 bc c9 11 9e 3d 1b 33 a8 3b 78 95 8d 3d
       -0.019845586 0.07718236 0.0051330454 0.069132745
000380 6e 24 ff 3c 99 2d 8c 3b be be 9e bd 0a dc 16 bc
       0.0311453 0.0042778966 -0.07751225 -0.009207735
000390 f6 81 59 bd ea 34 43 bd 8c 29 46 3d 0b 5c 42 bd
       -0.053102456 -0.047657885 0.048379466 -0.04745106
0003a0 7a 6a 48 bd 01 cc 84 3d b9 10 2d bd 5e 5c 91 bd
       -0.04892967 0.06484223 -0.042252276 -0.07097696
0003b0 16 84 ec bc d1 b7 58 3b ac f3 8d bd d6 dc b9 bd
       -0.028871577 0.0033068547 -0.06931242 -0.09075324
0003c0 c7 ef a8 bd 02 c0 a3 3b de e6 6e bb c1 7f 9d bd
       -0.08248859 0.0049972543 -0.0036453526 -0.07690383
0003d0 40 fb 5c bd 5e 4c 94 bb 7b 7f 96 bd 12 ea 4c bd
       -0.05395055 -0.0045257052 -0.07348534 -0.050027914
0003e0 f5 aa dd bc 80 c6 bc bd 0f 5f 86 bc 7c 34 c6 bc
       -0.027059058 -0.09217548 -0.01640275 -0.024194948
0003f0 09 dd 21 3c a7 20 31 bb c2 28 26 3d 96 7a ff bc
       0.009879359 -0.002702752 0.040566213 -0.031186383
