results/edm_swiss_roll/checkpoints/epoch=2-step=96-v3.ckpt (torch, 842170 bytes, 37 tensors)

model.time_embedding.frequencies f4 [4]
000000 00 00 80 3f 97 1e 3e 3d 6b 31 0d 3b 16 b7 d1 38
       1.0 0.04641589 0.0021544348 9.999999e-05

model.net.0.weight f4 [128, 10]
000000 27 eb 80 3e de 26 8b 3e 4c e8 8d bd a4 ba 96 3e
       0.25179407 0.2717809 -0.06929073 0.2943927
000010 21 32 86 bd f6 86 87 3d 60 85 1a be 7e 4d 41 3e
       -0.0655253 0.06617539 -0.15089941 0.18877217
000020 63 4b 90 3e 5f 6e 6a be d6 cc 91 3e a1 ce 8a 3d
       0.28182516 -0.22893666 0.2847659 0.067776926
000030 7c 8f 6f 3e 9d ab 2b 3d 56 30 1b 3e 6b bb 38 bd
       0.23394579 0.04191171 0.15155157 -0.04510061
000040 69 db 7b 3e 35 58 48 3d bb f2 14 be c0 86 a9 3d
       0.24595417 0.048912246 -0.1454572 0.08277655
000050 17 dc 0e be 63 96 e0 bc 2f 6f 0d be b0 23 4e 3e
       -0.13951145 -0.02741546 -0.13811944 0.20130801
000060 e0 cf 83 be 4e 9f 18 be 08 91 c3 bd c6 1b 49 be
       -0.25744534 -0.1490452 -0.09549147 -0.19639501
000070 23 41 c1 3c e6 1d a3 be 63 02 97 3e 1c 08 8e be
       0.02359063 -0.31858748 0.29494008 -0.27740562
000080 da 24 82 3e f3 42 7f 3d c8 b5 be bd c5 5e 50 3e
       0.2541874 0.062319707 -0.09312016 0.20348652
000090 d7 d7 61 3d 7c d2 85 3e 8a a5 25 3d e9 38 c0 bd
       0.05513748 0.2613715 0.040441073 -0.09385855
0000a0 fb 97 c2 3d b9 48 a4 bd 8e a8 07 3e aa be 8f 3e
       0.09501644 -0.08021683 0.13247892 0.28075153
0000b0 40 92 39 3e 88 b9 0e be 43 bd 3c 3e 1e f7 6e 3d
       0.18122196 -0.13937962 0.18431573 0.058341138
0000c0 55 3f 26 3e 0c 91 43 be ff 98 a5 be 2d 80 02 be
       0.16235097 -0.190983 -0.3234329 -0.12744208
0000d0 36 f9 6d be 53 24 8a 3e b5 73 cf 3d a8 cb 0e 3e
       -0.23239598 0.26980838 0.10129491 0.13944876
0000e0 96 3e d5 3d dc fd b0 ba 14 d6 80 3e 7a d3 61 be
       0.10412328 -0.001350339 0.2516333 -0.22053328
0000f0 b3 e8 91 3c 97 fc 66 be 2b bf db 3d d4 33 cb bd
       0.017811155 -0.22557293 0.10729822 -0.09921995
000100 d7 1c da 3d ed 6f 6b bd 5d df 88 3e 9f b9 3a be
       0.10650032 -0.057479788 0.26732913 -0.18234871
000110 06 ec 3b be 02 ef 3b be 82 79 94 3e c5 80 eb 3d
       -0.18351755 -0.18352893 0.28998953 0.1149917
000120 2e 33 99 3e 49 94 88 be 08 88 a3 be 92 fb 80 be
       0.2992186 -0.26675633 -0.3193972 -0.25191933
000130 fa 34 5b be 84 c1 01 3e 7c 18 e5 3d 0c d5 85 3e
       -0.21406928 0.12671477 0.11186311 0.26139104
000140 b9 c8 24 be 05 92 65 be 84 08 33 3e fc a3 f7 bd
       -0.16092195 -0.22418983 0.17483717 -0.120918244
000150 74 86 4b 3e 8e 74 8e bd 76 79 3d 3e a2 58 77 be
       0.19875509 -0.06955825 0.18503365 -0.24154904
000160 1f 2a 1f be a5 f2 cd 3d 64 09 9c 3d 38 17 94 bd
       -0.15543412 0.100560464 0.076189786 -0.07230991
000170 e0 d7 37 3e 5e 27 53 3e 66 ac 73 be 1a ed 33 be
       0.17953444 0.20620486 -0.23796234 -0.17570916
000180 da 00 92 3e e5 9c e3 bd 11 ad ee bd 82 ee 9e be
       0.28516275 -0.1111391 -0.116541035 -0.31041342
000190 b0 dc 41 be db bf b4 3d 16 08 26 bd ad 5f 6a be
       -0.18931842 0.08825656 -0.040535055 -0.2288806
0001a0 37 ca 04 3c 9f dd 5c be 5a 81 89 be fa 9a 32 be
       0.008104852 -0.21568917 -0.268565 -0.17441931
0001b0 a5 d9 8d be 7a 7a 4e be 3c 12 a4 3e d5 f9 61 3d
       -0.27705112 -0.20163909 0.32045162 0.0551699
0001c0 da 44 d5 3d 7d cf 93 be d5 85 4e be 1c 5a cf bd
       0.10413523 -0.28869238 -0.2016824 -0.10124609
0001d0 66 e6 51 3d a9 89 8d be 5f aa 09 be 28 00 40 be
       0.051245116 -0.2764409 -0.13443898 -0.1875006
0001e0 9e 2e 1b bc 0a 39 fe bd 90 bf 6b bc 30 b1 53 be
       -0.009471564 -0.12413223 -0.014388934 -0.2067306
0001f0 b4 9b 56 be 1f 6b 36 be 90 1d d7 bd 66 43 7c be
       -0.20957834 -0.17814301 -0.105036855 -0.24635085
000200 47 6a 89 3e 99 c9 73 bd 59 d9 8d 3e 33 ed d6 3d
       0.26838896 -0.05951843 0.27704886 0.10494461
000210 59 8b 89 be 43 16 5f 3e 99 fc b3 bd a7 85 f8 bd
       -0.26864126 0.21785836 -0.087884136 -0.12134867
000220 d8 b8 86 be 7b 4b a1 be cc f7 b7 3d 86 cc 8e bd
       -0.263129 -0.315029 0.089828104 -0.069726035
000230 df 64 eb 3d 41 79 87 be e6 44 77 3e ca de 66 be
       0.11493849 -0.26459697 0.24147376 -0.22545925
000240 2a 91 44 bd 0a 37 93 3d fe 27 2a 3e 4f 37 84 3e
       -0.04799 0.07188232 0.16616818 0.25823447
000250 6a ff 94 3e 31 c0 7d be 6a fc 9c 3d fe 5a 0e be
       0.29101115 -0.24780346 0.07665332 -0.13901898
000260 86 84 f8 bc ce f3 6d be 14 a0 95 3e 46 c4 6a be
       -0.03033663 -0.23237535 0.29223692 -0.22926435
000270 ac fc 2d 3e 72 7a e5 3d a0 53 d4 3d 36 22 2e be
       0.16990918 0.11204995 0.10367513 -0.17005238
000280 57 12 98 3e c1 0a 80 3d 75 ed 49 3d 3b f0 8a be
       0.29701492 0.06252051 0.049298722 -0.27136406
000290 3f 26 0f 3e 78 42 2e bd 73 4b 10 be 47 1b 8d 3e
       0.13979433 -0.04254386 -0.14091282 0.27559873
0002a0 40 88 98 3d c3 16 2f be f4 24 2d be 3d 64 e6 bb
       0.074478626 -0.17098527 -0.16908628 -0.0070309923
0002b0 91 ae 3a 3e 06 5b 99 bd 0e d3 32 be ec d5 d4 bd
       0.18230654 -0.074880645 -0.17463323 -0.10392365
0002c0 64 3e 71 be ce 58 e8 3d 4f 56 7b 3e 24 15 98 be
       -0.23558956 0.11345063 0.24544643 -0.2970363
0002d0 01 3b 8b 3d 5d 17 31 3e 1b 20 66 3d 5a 34 ea bd
       0.067983635 0.17294069 0.056182962 -0.114357665
0002e0 21 3e 27 3e 43 07 29 3e 17 eb f0 3d ea 1e 66 bd
       0.16332294 0.16506676 0.1176359 -0.056181826
0002f0 76 c0 ac bd f9 0d 08 3d 82 c7 86 bd 4e f8 c4 bd
       -0.084351465 0.03321645 -0.06581022 -0.09617673
000300 42 22 53 3e db 2c 8d 3e 08 72 e0 bc 8e 34 8a bd
       0.20618537 0.27573285 -0.027398124 -0.06748305
000310 b4 e7 b8 3b b4 23 92 bc 3e d5 9d 3d 91 9f b7 3d
       0.0056428555 -0.01783929 0.07706688 0.08965982
000320 f5 ef 97 be 65 af 01 be 86 e9 8d 3e 24 bd 08 3e
       -0.2967526 -0.12664564 0.27717227 0.13353401
000330 33 93 b6 bb 87 2e 3b be 61 af 3d be d1 cb 8c be
       -0.0055717467 -0.18279468 -0.18523933 -0.2749925
000340 da 28 c2 bd 5d a7 eb 3d 14 db 55 3e 36 d0 1f 3e
       -0.09480448 0.115065314 0.20884353 0.1560677
000350 b9 db 91 be b6 7e 48 be 10 cf 62 bd 9c c8 9a 3e
       -0.28487948 -0.19579586 -0.05537325 0.30231178
000360 4c 23 36 3d 0e 5c aa bd c7 a5 04 3e 2c 50 f9 bd
       0.044467255 -0.08318339 0.12953864 -0.12173495
000370 14 de 5b be ab 61 67 3e 74 02 09 be ca de 5b bd
       -0.21471435 0.22595851 -0.13379842 -0.053679265
000380 8e 31 9c be e8 0e 60 3e 09 fd 79 3e b9 67 f5 3d
       -0.30506557 0.21880686 0.24412932 0.11982674
000390 03 1a 5d be 3c 73 9d be 99 0f 85 be bc 50 7b 3e
       -0.21591954 -0.3075198 -0.25988463 0.24542516
0003a0 7d 03 23 3e 18 fa 8a 3e 88 9e 2e 3e c4 3f aa 3d
       0.159193 0.2714393 0.17052662 0.083129436
0003b0 ab 10 73 3a 85 1f 72 be fe a5 88 be e0 5e 95 be
       0.0009272198 -0.23644836 -0.26689142 -0.29173946
0003c0 97 ca 08 3e bb f1 28 be 22 7b 5a bd 8a 09 30 be
       0.13358532 -0.16498463 -0.053340085 -0.17191139
0003d0 68 69 43 bd 6b f7 5b be 0a e9 4d be fe 42 e2 3d
       -0.047707945 -0.21481101 -0.20108429 0.11047934
0003e0 46 0a b5 bd a4 9f 4d 3e 1f d2 d2 bd ff a9 77 be
       -0.0883985 0.2008043 -0.10293984 -0.24185942
0003f0 a5 3a 40 bd ef 5f 14 be 7c 20 b5 bd 77 6e 96 be
       -0.046930928 -0.14489721 -0.088440865 -0.29381153

model.net.0.bias f4 [128]
000000 c4 2a 67 be 5c 61 9d bd e3 47 15 bd e7 2f 2e be
       -0.22574908 -0.076845855 -0.03644551 -0.17010461
000010 5a 60 6d be 42 0e 5e 3e 4a f5 60 3e bf be 93 be
       -0.23181286 0.21685126 0.2196857 -0.28856465
000020 8d 95 d6 3d 08 61 fe 3d 8d a9 99 3e 48 34 3d 3e
       0.10477743 0.12420851 0.3001217 0.18476975
000030 15 82 96 3e 4a 5b d5 bd fd ce 65 3e 58 2a 84 3e
       0.2939612 -0.10417803 0.22442241 0.25813556
000040 ee db 96 be b7 9e 81 be d0 d3 81 3d 48 e2 31 3e
       -0.29464668 -0.25316402 0.06339228 0.17371476
000050 76 67 18 be 3d 5f 09 3d cb f7 86 3b 02 34 ac 3d
       -0.14883217 0.033538092 0.0041188947 0.08408357
000060 16 49 28 be 44 6f 3b 3e 7c 77 57 3e f3 fb 59 be
       -0.1643413 0.18304163 0.21041673 -0.21287517
000070 b7 93 d2 3b b6 c8 bc 3b 64 38 cd 3d 81 7f 98 3e
       0.0064263004 0.0057612313 0.10020521 0.29784778
000080 02 88 b0 3d 86 9f 8a bd a7 08 90 3e 5b 12 fa bd
       0.086196914 -0.06768708 0.281316 -0.12210532
000090 05 3d ae bd 80 45 c7 3c 7e d8 7b be fe 5f 25 3d
       -0.08507732 0.024325132 -0.24594304 0.04037475
0000a0 d0 9d 55 be 48 94 0a 3d f4 12 cd 3c f6 28 30 3d
       -0.20860982 0.03383282 0.025033452 0.043007813
0000b0 02 c5 88 be c1 23 96 be 07 c9 12 3e c0 1b 8b 3e
       -0.26712805 -0.29324153 0.14334498 0.2716961
0000c0 40 49 8f be f7 29 ef 3d 0d a1 6d be 32 ad cc 3c
       -0.27985573 0.11677926 -0.23205967 0.02498493
0000d0 4b a8 96 3e d8 80 75 3e 25 6b 67 be 90 f3 46 3e
       0.29425272 0.23974931 -0.22599466 0.19428849
0000e0 75 f4 23 3e 24 e0 8d bb 60 e9 9c 3e b0 89 fe bd
       0.16011222 -0.004329698 0.306468 -0.124286056
0000f0 5f b8 8f bd 66 ce 28 be ec 16 49 3d 56 6b ba 3d
       -0.07017588 -0.16484985 0.049094126 0.09102504
000100 52 fa 01 3d 41 95 30 be 23 0a 0e be 57 dd dd 3d
       0.031732865 -0.17244436 -0.13871054 0.10833233
000110 fe b2 8a be 9c 11 49 bd 56 3d 32 bb c3 40 04 be
       -0.27089685 -0.04908906 -0.0027197204 -0.1291533
000120 6d 9c ec 3d 6d 6c ca 3c dd 11 63 3e 53 77 f1 bc
       0.11553273 0.024709905 0.22174783 -0.029475844
000130 0c 4c 46 be 38 e9 62 3e 63 68 3c 3d b7 a8 b9 bd
       -0.19364947 0.22159278 0.04599799 -0.09065383
000140 53 4e 55 be 4e 8f a1 3d d1 4c 99 be 23 29 a2 3d
       -0.2083066 0.07888661 -0.2994142 0.079180025
000150 98 ac 24 3e 76 7f 8c be ef ee 4d be 14 21 6a be
       0.16081464 -0.27440995 -0.20110677 -0.22864181
000160 43 fe 89 3e 51 8f 8a 3e 46 8c c3 3c c1 52 96 3e
       0.269518 0.27062467 0.023870599 0.2936001
000170 c1 eb d7 bd 2e 2b 9a be a6 70 f0 3d 0f c3 e6 3d
       -0.10543013 -0.30111068 0.11740236 0.11267673
000180 28 e1 a1 3e 7e 47 b8 b9 ab 98 7a 3e ee 40 42 3e
       0.31617093 -0.0003514848 0.244723 0.18970081
000190 41 d1 6e 3e 73 da 9d be 33 9a 88 3e bc af 8a be
       0.23322012 -0.30830726 0.26680145 -0.270872
0001a0 77 44 91 3e ce 9e 46 bc 2f 19 90 be 0d b7 bb 3d
       0.28372547 -0.012122823 -0.28144214 0.091657735
0001b0 19 b4 87 bd 45 eb 92 be 7f 12 e9 bd 5b 4a 1c 3d
       -0.06626148 -0.2869512 -0.11380481 0.03815685
0001c0 18 a4 7f 3e 60 b7 bd bd 4b 9e 3e 3e 80 7b 1a 3d
       0.2496494 -0.09263492 0.18615071 0.037715435
0001d0 d0 6c 2a 3c c7 04 82 3d d1 0f 59 be 57 24 85 be
       0.0104019195 0.063485675 -0.2119744 -0.26004288
0001e0 48 38 c3 bd dc 01 96 be 17 de 15 be f8 ad 6b 3c
       -0.09532219 -0.29298294 -0.14635502 0.014384739
0001f0 7e 7e 51 be a7 c3 ff bd 4a 03 63 bd c5 2b 0c bd
       -0.20458409 -0.124884896 -0.05542306 -0.03422143

model.net.2.weight f4 [128, 128]
000000 0b 7b 71 bd 0b 52 c0 bb 02 b1 59 bc 34 65 85 3c
       -0.058955234 -0.0058691553 -0.013286831 0.016283609
000010 f4 c9 b4 bb 56 81 0d bd e1 e7 c9 bc 20 4f 3e bc
       -0.0055172388 -0.034547172 -0.024646701 -0.011615545
000020 b7 7c 37 bd ab ed cf 39 c0 16 ef bb 6c 6f d0 3c
       -0.04479667 0.00039659193 -0.007296413 0.025443755
000030 54 cb e4 3c c0 b6 74 3d c2 d7 f6 38 e2 a2 80 bd
       0.027928986 0.059744596 0.00011770382 -0.062810674
000040 64 01 f6 3c 59 c5 6d bd 93 4a af bc 7d c6 b0 bc
       0.03002996 -0.058049534 -0.021397864 -0.021579022
000050 bb 00 fc bc 1f f2 30 bd 56 27 b1 3d 10 0c 49 3d
       -0.030762067 -0.043199655 0.08650081 0.04908377
000060 01 57 90 3c 5b e5 b9 3d a3 d9 b4 bd 62 d5 2e 3c
       0.017619612 0.09076949 -0.088305734 0.010670992
000070 76 0d 86 3d 70 b2 6c 3d c4 b5 8d bd 91 40 d9 3c
       0.06545536 0.05778736 -0.06919435 0.026520045
000080 52 57 51 bd 5b cb 5d bc 13 bb 51 bc 31 8e a7 bd
       -0.051108666 -0.013537253 -0.01280095 -0.08181418
000090 53 df ab bd a6 f6 8a bd 4b 43 0e 3d 34 db 38 3d
       -0.08392205 -0.06785326 0.034732144 0.045130923
0000a0 1d 36 a4 bd f8 a5 01 bd a0 6d a4 b8 aa 92 b0 bd
       -0.08018134 -0.03165242 -7.840549e-05 -0.08621724
0000b0 6e 0c 3f 3d 87 de ae 3d c3 fd 93 3c 98 8f 9b bd
       0.046642713 0.085385375 0.018065339 -0.07595748
0000c0 e6 cb 99 3c f6 91 e1 3c 27 60 8b 3d 86 38 24 bd
       0.018773984 0.02753542 0.06805449 -0.040092967
0000d0 9d f4 9d bd 0b 6e 0d 3d ac 60 66 3c cf 9a ce bc
       -0.07712672 0.034528773 0.014061134 -0.025220303
0000e0 f4 a1 2d bd 0f 90 16 bd d6 1a 8d 3d e0 81 ca bc
       -0.04239078 -0.03675848 0.06889884 -0.024720132
0000f0 35 19 92 3d cd b4 90 3d f0 be a5 3c 44 95 9c 3c
       0.07133714 0.07065735 0.020232648 0.019114144
000100 fa 58 0e bb fb d9 53 3d e7 a3 8d bd d1 67 01 3d
       -0.0021720515 0.051721554 -0.069160275 0.031593148
000110 dc 0d 97 bc b9 b2 15 3d d5 b5 28 bc 63 a7 16 bd
       -0.018439226 0.036547396 -0.010297258 -0.036780726
000120 40 6e 4f bc 08 cb 24 3d d6 2d 8d bd 68 9f 80 bd
       -0.012660563 0.04023269 -0.06893508 -0.06280404
000130 94 c5 6c bc b7 ef 2d bd 8c c2 1c 3d 8f 1f 75 3d
       -0.014451403 -0.042464938 0.03827147 0.05984455
000140 9d af c2 bb fa 32 b8 3d ba d0 3c bd 5e 0e 6d bd
       -0.005941345 0.08994098 -0.046097495 -0.05787503
000150 bf 99 11 bd 70 de 72 bd 23 1c 79 bd 12 d0 aa bd
       -0.035547014 -0.059294164 -0.06081785 -0.083404675
000160 88 64 b0 bd 06 fa b8 3c 73 59 3a 3d 1b dc b9 3d
       -0.08612925 0.022580158 0.04549546 0.09075185
000170 85 f4 ad 3d 20 23 56 bc 0a 50 aa 3c 0d fb 2d bd
       0.08493904 -0.013069898 0.020790119 -0.04247575
000180 6b a2 30 3d 1f b2 b1 bd f3 8f 22 3d c8 55 33 3c
       0.043123644 -0.08676552 0.039688062 0.010945745
000190 3c dc a4 3c 04 0f 04 3d 1d d7 f6 bc 50 96 8e 3d
       0.020124547 0.032240883 -0.03013187 0.069622636
0001a0 86 9b 4b 3d f2 83 50 3d 78 90 aa 3c 36 fe 3f 3d
       0.049708866 0.050907083 0.020820841 0.046873294
0001b0 6a d6 8e 3d b5 95 fa 3c 4a b8 9c 3d 48 dd fe bb
       0.0697449 0.030588964 0.07652338 -0.0077778436
0001c0 31 59 85 3d 80 e2 d4 3c cb 26 33 3d 6b 22 be 3d
       0.065111525 0.02598691 0.043738168 0.092839085
0001d0 89 fd 74 3c 22 0c eb bc 14 46 93 bc ae 52 b1 3c
       0.014953026 -0.028692309 -0.017977752 0.02164587
0001e0 a1 82 bb 3c 90 46 0c bd f4 63 a0 3d f5 73 40 3d
       0.022889437 -0.03424698 0.078315645 0.046985585
0001f0 6c 09 64 bd 7d 6a bd b8 3b 5b 7d bc f4 12 5e bd
       -0.055673048 -9.032057e-05 -0.015463646 -0.054217294
000200 44 27 b5 3c 7e 88 9e bc 58 b1 39 bd 6f 58 02 bd
       0.02211345 -0.019352194 -0.045335144 -0.031822618
000210 0b 3c 0b bd 85 26 9c 3d e4 15 d3 3c 42 80 c5 3d
       -0.03399281 0.076245345 0.025767274 0.09643604
000220 c8 ed 74 3c c9 d2 99 3c 21 de 19 3d 5d 23 b3 3c
       0.01494927 0.018777268 0.037565354 0.021867448
000230 6d ec 9c bd 00 f6 44 bd f5 4b d4 bc cd e6 17 bb
       -0.07662282 -0.048086166 -0.025915125 -0.002317834
000240 f6 53 28 3d 5f 61 08 3d d9 e1 a0 3d e4 84 47 3c
       0.041095696 0.033295985 0.07855577 0.01217768
000250 44 a6 03 bd 72 17 6a bd 8a 8f 78 bd c7 bf 4f bd
       -0.032140985 -0.057151265 -0.060683765 -0.050720003
000260 d0 94 c4 3c 7a 7d 26 3d cb d9 98 3d ca 71 f2 bc
       0.02399674 0.040647008 0.07463416 -0.029595274
000270 f5 e7 79 bc 72 70 e1 bc 43 d7 f0 bb ed af 02 3d
       -0.015253057 -0.027519438 -0.00734988 0.031906057
000280 15 89 e4 ba f7 bb 53 3c 31 2c d4 3b a6 30 26 3d
       -0.0017435873 0.012923232 0.0064749946 0.04057374
000290 8e 02 ea bc fe b1 37 bd d3 e5 ae 3c 80 a1 80 bc
       -0.028565671 -0.04484748 0.021349823 -0.01570201
0002a0 f7 89 18 bd de 35 0e 3d ea 6b 9a b9 bf 1c cb bb
       -0.03724095 0.03471934 -0.0002945357 -0.006198495
0002b0 72 05 17 bd 99 9e 9c bc d6 66 97 bd f3 4d f1 3c
       -0.036870427 -0.019118594 -0.07392661 0.029456114
0002c0 d6 f6 10 ba 88 ad 6d 3d 67 73 c3 3b 01 dc 14 ba
       -0.00055299455 0.05802682 0.0059646848 -0.0005678535
0002d0 ad c9 d5 3c 3a 6f 76 3d c8 ad 44 bd 7c 25 58 3d
       0.026097143 0.060164668 -0.048017293 0.052770123
0002e0 41 e1 d0 3c 9d 54 89 bd de de d0 3c 6d 4f 35 bd
       0.025498034 -0.06705592 0.025496896 -0.0442652
0002f0 7c 6d db bc 0d 2c 31 bd 6d 0b 87 bd 8f a6 8c 3d
       -0.026785605 -0.0432549 -0.06593976 0.06867706
000300 b6 29 b2 bd f6 0f 38 3d b4 7b ad bd 73 66 e1 bb
       -0.08699362 0.044937097 -0.0847086 -0.006878668
000310 ab 49 f3 3b e1 58 8b 3d df c6 09 bd 28 45 ed 3c
       0.0074245534 0.06804062 -0.033636924 0.02896364
000320 84 90 8b 3c e4 c0 3d 3d 58 1e 25 3c 13 dc 1f 3d
       0.017036684 0.046326533 0.010078035 0.03902824
000330 1d 6d 6a bd 74 fb 55 bd 88 e9 98 3d dc 94 73 bd
       -0.057232965 -0.052241758 0.074664176 -0.059468135
000340 39 c6 15 bc 19 d0 5d bc 22 4e c2 3d 5b de 62 bc
       -0.009141498 -0.013538384 0.09487559 -0.013846959
000350 7d 18 95 bd 0f 45 cd bc 9d f4 1b 3d cf cc 2e 3d
       -0.072800614 -0.025057344 0.03807508 0.04267579
000360 39 22 a3 3d d8 c5 ad bc 00 70 46 3d d2 d4 a4 bd
       0.07965512 -0.021212503 0.048446655 -0.08048405
000370 52 8c fe 3c 22 0a 34 3d f0 37 5f 3d 84 22 76 bd
       0.03107277 0.043954976 0.054496706 -0.06009151
000380 cc 89 f6 bc 41 39 c4 3c 83 a2 88 bd 98 55 82 bd
       -0.030095004 0.023953082 -0.06671622 -0.06363982
000390 92 84 af bd c3 0b 2e bb 8d c6 39 3d a8 6c bf 3c
       -0.08570208 -0.0026557303 0.04535537 0.023367241
0003a0 4b 15 c2 3b 68 10 0e 3d 9c c5 66 bd 1e 46 89 3c
       0.0059229485 0.034683615 -0.0563408 0.016757067
0003b0 62 d2 fb bc ca 42 11 bd 1f 0a 9e 3d 91 a0 9b bd
       -0.030739967 -0.035464086 0.07716774 -0.07598985
0003c0 b0 26 e9 3b cc f4 97 bd 4b fc 21 bb 65 ef 21 bd
       0.0071152076 -0.07419738 -0.0024717029 -0.039534945
0003d0 59 b2 08 3d dc 7d 56 bd ec 4c 85 3d ae 3a 8c bd
       0.03337321 -0.052366123 0.06508812 -0.0684713
0003e0 69 7e 3f 3d 95 36 8a bd bc 11 2c 3d 7a 00 08 bd
       0.046751413 -0.06748692 0.0420091 -0.03320358
0003f0 0f 7c 6b 39 55 70 c6 bc ce d1 82 3d 58 53 f5 3c
       0.00022457562 -0.024223486 0.06387673 0.029946968

model.net.2.bias f4 [128]
000000 a6 17 a3 bb 36 20 25 bd 91 f8 8b bd b9 7a 50 bd
       -0.0049771843 -0.040313922 -0.0683452 -0.050898287
000010 05 d9 4b bd 65 28 ac 3d a6 d0 52 3b 86 a9 56 bd
       -0.049767513 0.08406142 0.0032167821 -0.052407764
000020 16 a1 38 bb 8f f7 ab bb 42 13 ca 3c 31 1c ff 3c
       -0.0028172187 -0.005248017 0.024667386 0.031141372
000030 b9 7d 71 3d 16 73 26 bd 02 6f 8d bc c7 d9 9b bd
       0.05895779 -0.0406371 -0.017264847 -0.07609897
000040 28 64 e9 bc a9 75 98 bd 8f 23 11 bc 8c 0d 55 bd
       -0.028490141 -0.07444317 -0.0088585755 -0.052014872
000050 7d 48 fc bc 97 bc ad 3d d2 15 aa 3d bd 4f 24 3c
       -0.030796284 0.08483236 0.08304943 0.010028777
000060 06 db 46 3d 0b b3 68 3d 2a 65 8b 3b 10 e6 87 3c
       0.04854872 0.056811374 0.004254003 0.016589195
000070 9f 41 f6 ba 42 7e 8f bd 80 4c 8f 3d 3b b4 8a bd
       -0.0018787867 -0.07006504 0.06997013 -0.067726575
000080 0c e1 cf bc c7 2f 9c bd 2d 1c 57 bd 78 08 ba 3d
       -0.025375865 -0.076263 -0.052517105 0.090836465
000090 1a 43 9d bb 23 75 e2 3c a3 83 cc 3c f6 68 95 3d
       -0.004799259 0.027643746 0.024965113 0.0729541
0000a0 6c 6d a4 3c 38 57 36 3b 75 0f 12 bd be 31 5f 3c
       0.020071708 0.0027822983 -0.035659272 0.013622699
0000b0 cf 8e b8 3c c2 d9 67 bd 18 3d 81 bd 0f 76 28 bd
       0.022529034 -0.056604154 -0.06310481 -0.041128214
0000c0 2a d7 a1 3d 2f 16 1a 3d 13 16 4f 3d ec 4f 81 3d
       0.079023674 0.037618812 0.05055816 0.06314072
0000d0 2f 5f 64 bb 62 c7 73 bd d8 15 aa 3d c0 1e 8b 3c
       -0.0034846773 -0.05951632 0.083049476 0.016982436
0000e0 c4 c9 f8 bc 8f 42 18 3d 10 9e 82 bd 67 f3 c5 3a
       -0.030369647 0.03717285 -0.06377804 0.0015102447
0000f0 f3 65 a2 3d 95 73 05 3d a9 06 a5 bd fb 6a a5 3d
       0.079296015 0.03258093 -0.08057911 0.080770455
000100 b5 d4 8f 3c 2c a8 d5 bc 0c 03 8e 3d 68 00 15 3d
       0.017557481 -0.026081167 0.06934175 0.03637734
000110 8c c5 62 3d b6 8a 40 3d 67 42 3d bd cf 1e 7a bd
       0.055364177 0.047007285 -0.046205904 -0.061064538
000120 69 7d 80 3d 70 8a 07 bc 54 d4 95 3d 44 b8 2b 3d
       0.0627392 -0.008272752 0.07315889 0.041923776
000130 f9 30 ab bd ee 3a 54 3d e1 39 36 3d 54 25 aa bd
       -0.0835895 0.051814012 0.04448879 -0.08307901
000140 cd 59 53 3b 3b 8e 93 bd 42 fe 38 3d bf 08 46 3d
       0.003224957 -0.07204863 0.045164354 0.048348185
000150 37 50 fd 3c 9e 56 6d 3d 8e 51 3c bd 40 6f c0 bb
       0.030922038 0.057943933 -0.045976214 -0.005872637
000160 fa 5b a5 bc 6b 53 89 3d 79 d6 83 3d f8 c0 ef bc
       -0.02018546 0.06705364 0.06437392 -0.02926682
000170 b7 02 92 bd 74 e3 2a b9 f6 39 96 3d 41 84 ba bc
       -0.07129424 -0.00016297196 0.07335274 -0.022768142
000180 fa aa 15 3d ae 14 80 bd 09 8a 6a bd 72 0c 96 bd
       0.03654001 -0.06253944 -0.057260547 -0.073265925
000190 f0 9e 98 bd dd 19 13 bd 6e 3c 15 bd ad 98 00 3d
       -0.0745219 -0.035913337 -0.036434583 0.031395603
0001a0 15 b2 9c 3d b4 5d 7b 3c 78 c0 06 3d 30 d6 6a bd
       0.07651154 0.015342165 0.032898396 -0.05733317
0001b0 1f 9e 17 bd cb 30 ae bd c7 15 a2 3d 32 84 57 3c
       -0.03701603 -0.085054 0.0791431 0.013154076
0001c0 f6 48 ac bc 60 e7 9c bd 37 b5 9f 3c 19 6a ad bd
       -0.021030884 -0.07661319 0.01949559 -0.08467502
0001d0 0d 5c 72 3d 72 43 ad bd 12 2f 96 3c 72 73 60 3d
       0.059169818 -0.0846013 0.018332992 0.054797597
0001e0 80 2a 95 bd 05 8f 83 3d f4 55 a8 3d ca ad 7a 3d
       -0.07283497 0.06423763 0.08219519 0.061200894
0001f0 a7 bb a8 3d a3 a8 2e bd 42 09 42 bc ca cc a9 3d
       0.08238917 -0.042641293 -0.011843028 0.082910135

model.net.4.weight f4 [128, 128]
000000 e1 8f 09 3d 2d 98 6f bd 50 4a a9 3d 3e 52 ad bc
       0.03358448 -0.058494736 0.08266127 -0.02115738
000010 0e ed 07 bd 71 b6 66 3c fa e8 a7 3d 89 07 4c bd
       -0.033185057 0.014081583 0.08198734 -0.049811874
000020 63 67 31 3c 15 bd 01 bc 1c f2 95 bc e8 2d 2f 3d
       0.010827872 -0.007918616 -0.018303923 0.04276839
000030 2f aa 1b 3c 06 41 a3 bd 15 5e 8e 3a c0 1b 47 3d
       0.009501024 -0.079713866 0.0010861779 0.04861045
000040 3f a4 05 bd db ed 97 3d 9a 9e a2 bd 1c 27 b7 3c
       -0.03262734 0.07418414 -0.07940407 0.022357516
000050 1d 94 6d 3d 4c 12 0c 3d 19 ae 29 3d 50 9e b6 3b
       0.05800258 0.034197137 0.041425798 0.0055730715
000060 43 43 65 bc f5 78 89 3d a2 03 d1 bc 01 0a 8a 3d
       -0.013993087 0.06712524 -0.025514428 0.06740189
000070 65 bf b6 3d 99 e0 a4 bd 03 ab a5 3d 65 d7 8a 3c
       0.08923224 -0.08050651 0.080892585 0.016948411
000080 70 c4 6c bd ca 1f 5e bd c6 e9 84 bc 79 26 bb 3d
       -0.057804525 -0.054229535 -0.016224753 0.091381975
000090 77 ea 5a 3d 1d d6 88 bc 8e 0d 32 bd 6b d2 50 bd
       0.05344626 -0.01670366 -0.043469958 -0.05098192
0000a0 fe 26 23 bd 34 01 c7 3a 9f 90 98 bd 36 4d b4 bd
       -0.039832108 0.0015182854 -0.07449459 -0.08803789
0000b0 36 c7 43 bd ac 2f 09 3d b8 28 ec 3c 6c c6 03 3d
       -0.047797404 0.03349273 0.02882801 0.03217165
0000c0 01 c6 9f 3d 81 24 f8 3c 30 6c 03 bd 7b 2d 33 3d
       0.07801438 0.030290844 -0.032085598 0.043744545
0000d0 e1 cf 2c bd 01 56 97 3d f1 09 13 bd 75 12 52 bd
       -0.042190436 0.07389451 -0.035898153 -0.051287133
0000e0 55 8f 84 bc ed 0e 27 bd b9 73 3d bc d7 57 8a bc
       -0.016181627 -0.04078572 -0.011563235 -0.016887588
0000f0 84 42 1c 3c 39 61 fe bb f7 2c 83 bd 44 ee 97 bd
       0.009537343 -0.0077630547 -0.06405061 -0.074184924
000100 d5 40 8a bd 4f ed b8 bd 98 06 ab bd 85 9c b0 3d
       -0.06750647 -0.09029638 -0.08350867 0.08623604
000110 68 04 73 3d 3c ee 3c 3d e9 70 67 3d 85 b2 b4 3c
       0.059330374 0.046125636 0.056504164 0.022057781
000120 0a 79 eb bc be 64 50 bc 84 5f 21 bd e3 fb 17 3d
       -0.02874424 -0.012719331 -0.03939773 0.037105452
000130 01 7d b0 3c ed 6c a7 bd 66 8b 8d 3c f7 6a 8e bd
       0.021543982 -0.08175073 0.017278384 -0.06953996
000140 aa c8 7c 3d 61 64 cc 3b 10 1f 9a 3b 57 0e 54 bd
       0.061714806 0.006237552 0.00470341 -0.051771488
000150 73 f1 45 3c 46 ae b7 3b 38 2b 99 3c 27 f1 87 bd
       0.012081492 0.005605492 0.018697366 -0.06637793
000160 87 57 2a bd d0 72 7e bd fb f5 4a bd 2b b5 45 bd
       -0.04158738 -0.062121212 -0.04955099 -0.04826848
000170 e3 af 94 bd f1 5f c3 3d ba d6 bb bd 58 fe d3 bc
       -0.0726011 0.09539784 -0.09171815 -0.025878116
000180 49 47 2d 3c 8c 1a 20 bd 81 24 f4 bc a1 39 2d 3d
       0.010576078 -0.039087817 -0.029802563 0.042291287
000190 d1 fb 6f bc bb 36 2e bc e3 7b b2 3d 63 8a 1b bd
       -0.01464744 -0.010633166 0.08715036 -0.037973773
0001a0 61 27 8d 3b f4 a3 82 3d a6 2a 97 bc 18 c5 a0 bd
       0.004307673 0.06378928 -0.018452954 -0.07850093
0001b0 02 40 88 3d 8d 1e 99 bd 89 94 ac bd 23 c1 2c bd
       0.066528335 -0.0747653 -0.08426768 -0.042176377
0001c0 1a ff 81 3c 7b 3d 96 3d 5d c6 8b bd 1b dd 43 bd
       0.015868712 0.07335945 -0.06824944 -0.047818284
0001d0 57 4c 96 3d 80 70 96 3d 57 0a 06 3d 80 67 8b bd
       0.073387794 0.073456764 0.032724705 -0.068068504
0001e0 9f 59 5d 3d ac 2b 0d bc d2 5b 80 bd 20 56 94 3d
       0.054040547 -0.008616369 -0.06267513 0.072429895
0001f0 04 5b 7b bd e2 7f 19 3c db f3 2f bd 0a b8 a0 3d
       -0.061366096 0.009368869 -0.042957168 0.07847603
000200 fe 5c 38 3c 7f 1e fa bc f9 25 3c 3d 44 c3 9c 3d
       0.01125264 -0.03053212 0.04593465 0.076544315
000210 de c8 42 bc d8 de 69 3d 71 a3 0a bd 9b 20 52 bd
       -0.011888711 0.057097286 -0.033847276 -0.051300626
000220 a7 88 27 bd 43 b3 b2 bd 6b 33 b1 3d cf 63 cb 3c
       -0.040901806 -0.08725598 0.08652385 0.024827866
000230 b3 85 67 bd 5a 93 8b bd 7b 26 56 3d 73 56 b6 ba
       -0.05652399 -0.068152145 0.05228279 -0.0013911262
000240 ac 14 54 bd 33 2b cf bb 87 d7 21 bd 82 4e 73 3b
       -0.051777527 -0.0063222884 -0.039512184 0.0037125652
000250 74 16 12 bd de 93 14 bd 7c 68 35 bd 2e 98 32 bd
       -0.035665944 -0.03627383 -0.044289097 -0.04360216
000260 13 13 e8 3b 40 90 4b 3d a8 6a 34 3c e1 32 40 3d
       0.007082352 0.049698114 0.011011757 0.046923522
000270 9f 9b ac bc 81 cf c6 bc 08 8c 48 bd 72 e4 a3 bd
       -0.0210703 -0.024268867 -0.04896167 -0.08002557
000280 6e 74 78 bd 24 b0 bc bc 6c 61 ad 3d 52 af 9e bd
       -0.06065791 -0.02303321 0.084658474 -0.077482834
000290 14 55 8b 3d 74 2d 52 3d 2a d8 5a 3d ca ac 5a 3d
       0.06803337 0.05131288 0.053428806 0.05338744
0002a0 f2 31 22 3d 63 1b a5 3d 20 b9 2b 3d a9 81 dd bc
       0.039598413 0.08061864 0.041924596 -0.027039366
0002b0 6e e5 2b 3d b2 7e 0b 3b 0b 90 41 bd 36 e1 0d 3d
       0.041966848 0.0021285233 -0.04725651 0.034638606
0002c0 c5 39 c0 3d be 09 8b 3d b7 18 0e bd 2a 14 27 b9
       0.09386019 0.067889675 -0.03469154 -0.00015933873
0002d0 cf de d6 3c d2 13 2a 3d 97 bd a2 bd ae a9 97 3c
       0.02622929 0.04152281 -0.07946318 0.018513527
0002e0 52 ad 40 bc 4d bd be 3d 17 59 a7 3c da b8 33 bd
       -0.011760073 0.0931345 0.020428224 -0.04387746
0002f0 ad f1 d5 bc f6 a1 9f 3d 2e 8c f8 bc 62 0d ca 3c
       -0.026116217 0.077945635 -0.03034028 0.024664585
000300 03 61 9e 3d d2 b0 ac bd d0 22 60 3a d6 d4 a3 bd
       0.07733347 -0.08432163 0.00085501093 -0.079995796
000310 c8 e8 92 bc bc ce 23 3d df c0 62 bb 8a 4e 30 3d
       -0.017933264 0.03999208 -0.0034599823 0.04304365
000320 29 b1 5a bd be 6e 2c 3d 70 9e 2e bd bd bc 46 3d
       -0.05339161 0.0420978 -0.042631567 0.04851984
000330 a2 56 a8 bc de 1d a4 3d df 6a 26 3c d2 d4 e6 3c
       -0.020549122 0.08013509 0.010157316 0.028177653
000340 21 77 8b bd 63 bd d8 3b 71 6b 8f 3d ce de 96 bd
       -0.068098314 0.0066143735 0.07002915 -0.07366715
000350 d7 c6 97 3d 1b bf ea 3c 07 7e 06 bd ad 42 82 bd
       0.074109726 0.02865558 -0.032835033 -0.06360374
000360 dd ff 60 3d e9 b0 c3 bc 30 52 31 3d a7 c2 29 3c
       0.05493151 -0.023888068 0.04329127 0.01036135
000370 ad 4e ab 3d 72 32 62 bd 30 b3 8e bb 56 3e 26 3d
       0.083646156 -0.05522389 -0.004354857 0.040586792
000380 98 0b 0f bd 06 d9 e0 bc 88 6e 83 bc 41 56 c1 3d
       -0.034923166 -0.027447235 -0.016043916 0.0944028
000390 e5 22 2f 3d f4 1b a0 bd 31 2b 87 3c ea 77 86 3d
       0.042757887 -0.07817832 0.016500087 0.065658405
0003a0 9a bc 42 3d 24 c5 b6 3d c3 71 d4 bc de e3 93 39
       0.047543146 0.0892432 -0.025933152 0.000282078
0003b0 c5 6e a0 3d a4 9d a1 3d 33 09 e2 bc 77 ee d0 3c
       0.078336276 0.07891396 -0.027592277 0.025504334
0003c0 b2 95 07 3c 71 6f 9e 3d 8d 4f f3 bc 19 d8 10 bc
       0.008275436 0.077360995 -0.029701019 -0.008840584
0003d0 ef f8 f7 3c db 30 21 bc e5 2c 26 bd b6 30 a5 3d
       0.030270068 -0.009838308 -0.04057016 0.080659315
0003e0 a5 ba fa bc ec 08 79 3d 80 38 6c bc d8 63 a4 bd
       -0.030606577 0.060799524 -0.0144177675 -0.08026856
0003f0 ee c1 74 bd 9c 83 6c 3c 47 1c 8e 3d 36 dc 97 bb
       -0.05975526 0.014435675 0.06938987 -0.0046344055

model.net.4.bias f4 [128]
000000 a3 54 19 bd 93 1f a6 3d 78 bf 29 bb d0 f8 af 3d
       -0.03743423 0.08111491 -0.0025901478 0.08592379
000010 68 b2 e7 bc 0e af 74 3d 70 9c 88 ba de 9f 15 bd
       -0.028283313 0.059737258 -0.0010422599 -0.036529414
000020 f1 3e 8d 3d 0a d0 97 bd e4 e1 d0 bb 64 a9 8d 3c
       0.06896771 -0.07412727 -0.0063745845 0.017292686
000030 03 6d 70 bc b9 57 3c bd 0b 87 ad bc 85 a2 65 3d
       -0.014674428 -0.045982096 -0.021182558 0.056063194
000040 48 14 32 bc be ca 1b bd bd d0 0c bd ab 25 86 bd
       -0.010869093 -0.038035147 -0.034378756 -0.06550153
000050 72 37 6c 3d 6c 43 a5 bd 44 fd 23 bd 81 79 94 3c
       0.057670064 -0.080695 -0.040036455 0.018124344
000060 11 eb a2 3d 09 bb 93 bd 87 bf 22 3c 12 54 85 bd
       0.079549916 -0.072134085 0.009933359 -0.06510176
000070 6e 28 82 3d 58 2f 8e 3d 45 b8 6b 3d 88 61 1e bd
       0.063553676 0.06942624 0.05754878 -0.03866723
000080 e4 45 84 bd 26 5a 52 bd 50 05 e9 bc ef 91 2a 3d
       -0.06458643 -0.051355503 -0.028444916 0.04164308
000090 40 8e 85 bc 7a e9 a2 3d ec 78 a4 bd bc 7c ef 3b
       -0.016303182 0.07954688 -0.080308765 0.0073085707
0000a0 73 50 96 bd 36 71 a7 bd 05 c2 75 bd ee 53 fc 3b
       -0.07339563 -0.0817589 -0.059999485 0.007700435
0000b0 4f 5f ab bd ad 0a 04 bc 74 4f 2a bd 13 59 51 bd
       -0.08367788 -0.008059186 -0.04157968 -0.05111034
0000c0 47 ce a4 3d 1c 73 0c bd 99 19 ae bd 94 f3 6e 3d
       0.08047157 -0.034289464 -0.08500976 0.058337763
0000d0 78 79 b8 bd 41 f8 3f bb da ae 8a bd 2a 86 43 3d
       -0.09007543 -0.0029292258 -0.067716315 0.04773537
0000e0 7a 9a 02 3d 5a 17 49 bc ff 9a bc bc 31 6c 80 bd
       0.0318856 -0.012273634 -0.023023127 -0.06270636
0000f0 45 9c 82 bd b9 68 13 3d 5c 63 85 bd 1f 6c f6 bc
       -0.06377462 0.035988543 -0.06513092 -0.030080853
000100 e8 a7 90 3d 09 1e a4 bd e7 f6 82 3a 98 89 fa bc
       0.070632756 -0.08013541 0.0009991796 -0.030583188
000110 7f b7 31 3d e6 7b fc bc 2d fe 96 3d f3 8e de 3c
       0.043387886 -0.030820798 0.07372699 0.027167773
000120 1c b8 56 bd c0 2b a0 3c 19 9f 72 bb 67 45 b5 bb
       -0.052421674 0.019552112 -0.00370211 -0.005531955
000130 a8 cf 4f bd 78 1e 31 3d 80 15 8d 3c ec f0 bb bb
       -0.050735146 0.043241948 0.017222166 -0.0057355072
000140 45 bf 37 bd b7 1c aa 3d 80 94 9b bd 78 8b 15 3d
       -0.044860143 0.08306258 -0.075966835 0.03650996
000150 ab 4c a3 bd 9b 90 8d bd a4 50 fc 3c 54 a8 bd 3c
       -0.07973608 -0.06912347 0.030800171 0.023151554
000160 0f ff 7e bc 4d 82 20 3d 38 4a 21 bc d3 68 e2 3c
       -0.01556374 0.039186765 -0.009844355 0.027637875
000170 c6 55 93 bd 1b 52 29 3d d0 90 c4 bc 01 ca 75 3d
       -0.07194094 0.041338068 -0.023994833 0.0600071
000180 25 e2 9d bd 03 ed 20 3c b8 93 f6 bc db 78 1b 3d
       -0.07709149 0.009822133 -0.030099735 0.037957054
000190 98 3d 87 bd fa 8a 93 bd 3c 05 f4 3c 1b 46 c6 bb
       -0.06603545 -0.07204242 0.029787652 -0.0060508377
0001a0 b8 28 7a bd 40 67 82 bd a4 44 94 bd 6c ed a8 3c
       -0.06107399 -0.063673496 -0.07239655 0.020621024
0001b0 2f b2 16 3d 88 81 2f bd 35 1e 68 3d 81 b1 5c 3d
       0.036791023 -0.04284814 0.056669433 0.05388022
0001c0 ad e2 43 3c df 84 5a bd d2 7e 8a bd 24 57 0c bd
       0.011955899 -0.053349372 -0.0676247 -0.03426279
0001d0 18 4b 5f bd a2 1f ad 3c b3 d3 70 3d a5 82 a3 3d
       -0.054514974 0.021133248 0.058795642 0.07983903
0001e0 e4 f8 2e bd 61 d3 33 bd 3b 61 6b 3c 08 ad a7 bc
       -0.04271783 -0.04390276 0.014366443 -0.02046825
0001f0 2c 8c 66 3d 72 ce a1 bd 7b 34 2c 3d 13 34 a5 3b
       0.056286022 -0.079007044 0.042042237 0.005041608

model.net.6.weight f4 [128, 128]
000000 76 11 8e 3d 38 f4 01 bd 83 0a 26 3d fb 67 a1 3c
       0.06936924 -0.031727046 0.04053737 0.019702902
000010 8b eb 75 bd d9 6f 89 bd e0 bc 4f 3d 2c 20 0e bd
       -0.060039084 -0.06710786 0.050717235 -0.03469865
000020 be 69 79 3d f8 e1 8e 3c 22 74 52 3c 2e 39 61 3d
       0.06089186 0.017441735 0.012845071 0.05498617
000030 8c 42 91 bc 09 4d c0 bc ea 29 10 3d 22 8f 65 3c
       -0.017731927 -0.023474233 0.035196222 0.014011176
000040 de cf 43 3d 65 69 74 3d 4c 8b a8 3d e7 b6 4f 3d
       0.04780566 0.059670825 0.08229694 0.05071154
000050 c4 dd 5c bb 0f 5f 96 bd 6f 74 04 bd e3 5b 4f bc
       -0.0033701519 -0.0734235 -0.032337602 -0.012656185
000060 bf 81 62 3b ea 72 67 bd 2f c7 e1 bc d0 6d 92 3d
       0.0034562198 -0.056506075 -0.027560798 0.07149851
000070 17 3d 44 bd d9 c2 df 3a 71 8a 68 3c 9f 16 94 3b
       -0.047909822 0.0017071619 0.014193163 0.004519298
000080 05 ec 11 ba 8c 1c ac 3d 44 3a 7f 3d 3e ea 40 3d
       -0.00055664807 0.084038824 0.062311426 0.04709839
000090 de fb e3 bc 9a 6e 8e bd cb 24 7a 3d 00 b8 79 bd
       -0.02783006 -0.06954689 0.061070245 -0.06096649
0000a0 97 0f 48 bd 3f 91 3a bd 69 97 5d bb eb 85 bf 3c
       -0.048842993 -0.045548674 -0.0033812171 0.023379287
0000b0 13 0f 17 3d 8a 47 8d 3c e8 70 92 bd c1 e8 ef 3c
       0.03687961 0.017246027 -0.071504414 0.02928579
0000c0 ca e9 64 bd 8e 62 41 3d 1e 57 8b bd fe 6b 72 3c
       -0.05588702 0.04721313 -0.06803726 0.014796255
0000d0 1e a6 ad bd eb 65 98 3d 10 c1 0b 3d 23 df 60 bc
       -0.0847895 0.07441314 0.034119666 -0.013725075
0000e0 6f 29 06 ba 4f 08 29 3b 90 b1 8a bd 62 30 6b bd
       -0.00051178684 0.0025792306 -0.067721486 -0.05741919
0000f0 77 4a 31 3b 31 60 72 3d 2b 40 42 3d b3 d2 75 3d
       0.002705244 0.059173767 0.047424477 0.06001539
000100 08 f2 8e 3d 26 3e d2 3c 78 b3 81 bd 66 1d e1 3c
       0.069797575 0.0256644 -0.06333059 0.027479839
000110 28 0e 3f bd 6a d5 11 bc 9e c7 76 bd 3c 33 37 3d
       -0.04664436 -0.0089009795 -0.060248964 0.044726595
000120 88 b9 4b bd 30 1c 4e 3d 27 c4 15 3d 54 e3 5b 3d
       -0.049737483 0.05031985 0.03656402 0.053683594
000130 0c 84 66 3d 1c 82 bd 3c 44 65 26 bd d7 22 2e 3d
       0.056278273 0.02313333 -0.04062392 0.042513695
000140 b0 26 9d 3d f7 67 63 3d 3d 7e 6e bd 91 ae 00 3d
       0.07673395 0.05551907 -0.05822586 0.03141648
000150 07 ae ef bc 9d 2d 8f 3d 1a 0a 06 bd a3 ed 94 bc
       -0.029257787 0.06991122 -0.032724477 -0.01817972
000160 63 44 06 3d 95 b4 ae bd 88 a9 b5 3c 26 b9 50 3d
       0.032780062 -0.08530537 0.022175565 0.05095782
000170 50 b9 bd bc 0e bc ab bd 36 2c b2 bd 9d b7 91 bd
       -0.023159653 -0.08385478 -0.08699839 -0.071150996
000180 8e 22 99 bd 10 52 32 3d ec dd e9 bc 65 23 d3 bc
       -0.07477294 0.043535292 -0.028548203 -0.025773713
000190 6c 2a 82 3d b4 84 d1 3c 5c cf 81 bd 6c 15 bb 3c
       0.063557476 0.025575973 -0.06338379 0.022837363
0001a0 cb 27 27 3d ac eb 23 bd 77 8e ae 3c a5 4a 17 bd
       0.040809434 -0.040019676 0.021308167 -0.03693642
0001b0 d0 03 a7 bd 4f 66 6e bd 03 f8 4e bd 32 7c 62 3d
       -0.08155024 -0.058203038 -0.05052949 0.055294223
0001c0 d1 12 9e 3d d2 b8 78 bd eb c0 61 3d 62 8f 2d bd
       0.07718433 -0.060723133 0.05511562 -0.04237307
0001d0 b5 03 60 bc d3 09 6c 3c 30 6a 58 3c c6 c5 58 3c
       -0.013672759 0.014406639 0.013208911 0.013230747
0001e0 9f 32 a9 bd e5 93 ab 3c eb c4 c5 bd 64 3f bc 3d
       -0.08261608 0.020944545 -0.096567 0.09191778
0001f0 a2 55 a6 3d fb 5a a9 bd d7 42 0a 3d c4 54 78 3d
       0.08121802 -0.08269306 0.03375515 0.060627714
000200 a3 26 74 bd 35 0c 9a 3c 93 b4 0b bd 93 06 7f bd
       -0.05960716 0.018804649 -0.034107756 -0.06226213
000210 25 78 24 bd 01 73 2e bd 4b be 7f bd 4f 55 11 bc
       -0.04015364 -0.042590145 -0.062437337 -0.008870437
000220 63 67 af 3d a2 ca aa 3c f4 28 1d 38 b4 a6 a5 bd
       0.08564641 0.020848576 3.7469857e-05 -0.08088437
000230 4a 34 43 3d 70 0a ad 3d 39 b9 01 bc 31 30 ab 3d
       0.04765729 0.084492564 -0.007917696 0.08358801
000240 48 b5 a9 3d f6 8e f2 3c 86 31 94 bd 35 fa e4 bc
       0.0828653 0.029609185 -0.07236008 -0.02795134
000250 6b b8 88 bc bf 6b 8c bb c0 9e 28 bd 9b ff 00 bd
       -0.0166895 -0.0042853053 -0.04116702 -0.031493764
000260 ba 5e 08 bd 14 7e 88 bc 69 c7 97 bd 19 72 66 bd
       -0.033293463 -0.016661681 -0.07411081 -0.056261156
000270 71 ea e8 3c dd 75 8f 3d 7b 47 a2 3d ab 5c 82 3d
       0.028432103 0.070049025 0.0792379 0.06365331
000280 c1 78 b7 bd 2a da 6c bc 22 1f fd bc a3 ba 06 3d
       -0.08958579 -0.014456311 -0.030898634 0.032892834
000290 4a a2 a9 3d 74 1f 7a 3d 4f 2e 62 3d f7 93 2b bd
       0.08282907 0.061065152 0.055219945 -0.041889157
0002a0 7a 3a 90 3d 01 34 7e bd 3b 8f 83 bd b5 d3 f7 3c
       0.070424035 -0.062061314 -0.064238034 0.030252317
0002b0 c3 90 87 3d 11 64 4b 3d 30 27 b3 bd 63 d9 43 3d
       0.06619408 0.049655978 -0.08747709 0.047814738
0002c0 cf dd ea bc 32 60 98 3c d6 69 27 bd 59 4c 3a bd
       -0.02867022 0.018600557 -0.040872417 -0.045482967
0002d0 3c 38 d7 bc 27 a1 20 3c 04 2a 1f 3d a4 d1 2f bd
       -0.026271932 0.009804047 0.03885843 -0.04292454
0002e0 1c de f6 bc 63 0f 64 3d 5d b8 23 bd 34 da 71 bd
       -0.030135207 0.055678736 -0.039970744 -0.059045985
0002f0 96 4f 7e 3a db b0 27 3d 04 7e 4e bc 75 5b 02 3c
       0.000970119 0.040940147 -0.012603287 0.007956375
000300 a1 21 a9 3d 45 ce 27 3d 64 2a d4 39 b3 2a 6b 3d
       0.08258367 0.0409682 0.00040467374 0.057413768
000310 04 d8 34 bc 30 dd 47 bd 96 81 22 3d 19 be 77 bd
       -0.01103783 -0.048794925 0.039674364 -0.060484026
000320 1c 5c e4 3c 93 8e 2e 3d 9d a3 23 3d 31 49 f0 3b
       0.027875952 0.042616438 0.039950956 0.007332944
000330 c9 8a 63 3d 50 1d 72 3d bf aa 60 3d 3a 4b 7b bd
       0.055552278 0.059109986 0.054850336 -0.06135104
000340 40 55 b7 3c 89 05 12 3d e8 85 89 3d 30 88 ae 3d
       0.022379518 0.03564981 0.06714994 0.085220695
000350 96 7f ad bd 73 0f 9e 3d 65 6d 78 3c d7 ef 3f bd
       -0.08471601 0.077177905 0.0151628 -0.04685959
000360 e7 c0 9e bd 63 b8 11 3d 09 9a 7e 3d ac 75 7a 3d
       -0.07751637 0.035576236 0.062158618 0.061147377
000370 fe 42 56 3d 9e 7c 86 bd 7c 7e b8 bd e6 5d 97 bc
       0.052309982 -0.065667376 -0.090085 -0.018477391
000380 1c 92 33 bd e7 eb 7e bd cd 96 b6 bd d6 b6 18 3d
       -0.043840513 -0.062236693 -0.08915482 0.03728374
000390 c0 24 ea 3c 41 43 41 3d 59 0a 3f bd 76 db 6b bd
       0.028581977 0.04718328 -0.046640728 -0.05758234
0003a0 06 4e bd 3b aa d4 35 3d 67 b0 15 3d 8e ba 02 3d
       0.0057771234 0.044392265 0.036545184 0.031916194
0003b0 ec 3a fc bc bd 77 2b 3c 84 00 05 bd 5d 78 86 3d
       -0.030789815 0.01046556 -0.032471195 0.06565926
0003c0 ba 3c 69 3d e9 82 86 3b 0a 4f 06 bc 5c 3a 90 3d
       0.05694268 0.004104961 -0.008197555 0.07042381
0003d0 24 84 87 bd a4 d2 d0 3b cf 6f c3 3b 4f cd d9 bc
       -0.06617001 0.0063727666 0.0059642564 -0.026587157
0003e0 48 22 97 bb ab a3 78 bd c9 7a 2c 3b 77 a8 4f 3d
       -0.004612241 -0.06070296 0.0026318303 0.05069777
0003f0 b1 b8 7e 3d 95 d0 7f 3d 98 aa f2 3c b8 54 b3 3d
       0.062187854 0.06245478 0.029622361 0.08756393

model.net.6.bias f4 [128]
000000 79 04 47 bd 85 7b af bd 84 81 c2 bc b8 47 bc 3b
       -0.04858825 -0.08568481 -0.023743398 0.005745854
000010 56 bd 05 3c f3 29 fe ba 19 77 b6 bd bf 01 e3 bc
       0.008162817 -0.0019391164 -0.08909435 -0.027710794
000020 19 06 57 bd 0e 35 9a bc fa 43 3e bd e5 ce 9d bb
       -0.05249605 -0.018824127 -0.046451546 -0.0048159235
000030 fe 25 99 bc 8f cb 9f bd d4 d3 26 3d da d4 cb 3c
       -0.018694874 -0.078024976 0.04072936 0.024881769
000040 2e c6 af 3c d3 2a fc 3c 1b 0c 9a bb cc 59 a5 3c
       0.021456804 0.030782139 -0.00470115 0.02018442
000050 4e 78 b6 bd 10 7d 75 3d e4 21 94 3d 01 76 09 bd
       -0.08909665 0.059933722 0.072330266 -0.033559803
000060 59 e2 93 3d 23 f6 f4 bc 33 6c 0a 3d 07 c7 0b bd
       0.07220907 -0.029902523 0.033794593 -0.034125354
000070 d7 5e 56 bd 05 19 35 bd f5 35 7e 3d 4c 4e f2 bc
       -0.05233654 -0.044213314 0.062063176 -0.02957835
000080 d6 b2 8f bd 86 15 ff 3b 28 12 6c bd d3 35 6e bd
       -0.07016532 0.007784548 -0.057634503 -0.0581568
000090 1d a9 51 bd 4c e8 5f bd eb 25 65 bd 15 33 11 3d
       -0.05118667 -0.054664895 -0.055944365 0.035449106
0000a0 46 87 fc bc c7 5c b9 3c 1b 4b 9c 3d c4 a6 c5 3c
       -0.030826222 0.022627247 0.07631513 0.024127372
0000b0 c3 52 b7 3d 85 18 93 3d c6 45 06 3c 9d d1 1e 3d
       0.089513324 0.07182411 0.008195346 0.03877412
0000c0 70 45 a8 3d c6 0d 82 bd 96 bd 62 bd 9a 97 79 3d
       0.08216369 -0.06350283 -0.055356584 0.060935594
0000d0 1c 86 2e 3d 12 5f d9 3c 0f 33 88 3c ca e8 57 bd
       0.042608365 0.02653459 0.01662591 -0.05271224
0000e0 6a aa 11 3d 54 d3 94 bb 20 94 b2 3b 72 3d a6 3d
       0.03556291 -0.004541794 0.005449787 0.081171885
0000f0 69 5f 41 3d 8f 04 d4 ba 11 20 b4 bc 36 fa 54 bd
       0.04721013 -0.0016175675 -0.021987947 -0.051996432
000100 fa ca 1d 3d 00 3e b3 3d bc 8e 3b bd e2 23 7c bd
       0.03852365 0.0875206 -0.04579042 -0.061557658
000110 9a 0c 65 3d 3a 85 97 bd a4 9e aa 3d e8 da 4d 3c
       0.05592022 -0.07398458 0.083310395 0.012564398
000120 ff e1 a1 3d 54 54 ad 3b f7 38 e1 3c 5d aa a7 bd
       0.079044335 0.0052895937 0.027492983 -0.08186791
000130 42 76 87 bc 55 b2 8c 3d 58 a9 07 bd f8 2e 9b 3d
       -0.016535882 0.06869952 -0.033120483 0.07577318
000140 e3 e8 50 bc df 19 35 bd 18 98 3e bd b5 43 91 bd
       -0.012750837 -0.044214126 -0.046531767 -0.07092992
000150 ed 46 ed 3c f1 59 45 bd 6c 27 0b 3d db 64 d7 bc
       0.028964484 -0.048181478 0.033973143 -0.026293209
000160 5b ad 49 3d 05 ce 76 3d f2 4e 86 bd b5 d8 53 bd
       0.04923759 0.06025507 -0.065580264 -0.05172034
000170 4e f6 6b 3d a6 99 cf bc 12 ce 94 bd 1d ec 43 bd
       0.05760794 -0.02534182 -0.07265867 -0.047832597
000180 a4 f7 a8 bd c0 8e 69 bd 73 11 39 3b 48 d3 81 3d
       -0.08250359 -0.057020903 0.002823916 0.06339127
000190 d2 78 8e 3c 90 76 07 3c b9 47 62 bb 5f 3a 4f bd
       0.017391596 0.008268014 -0.0034527613 -0.050592776
0001a0 86 e2 1f 3d 51 02 80 3d 7e 8c fc 3c 7e 44 9b 3d
       0.03903439 0.06250442 0.03082871 0.07581423
0001b0 71 aa b3 3d 83 0c 00 3c a4 e1 44 bd 6d 8e 83 3d
       0.087727435 0.007815483 -0.04806675 0.0642365
0001c0 4d 25 39 3c e1 36 76 bc e4 7c 48 bc fb 99 17 3c
       0.011300397 -0.015027733 -0.0122368075 0.00925302
0001d0 60 8e 32 bd 50 0d 52 3d 3a 4b 8e bd 77 80 10 3c
       -0.04359281 0.051282227 -0.06947942 0.008819691
0001e0 8d 24 b8 bd f1 f0 18 3d 84 21 1e bd 0d dd 1d bc
       -0.089913465 0.037339155 -0.03860618 -0.009635222
0001f0 9f df 91 3d 63 b7 70 3c 7b c2 59 3b 72 87 07 3d
       0.071227305 0.01469216 0.0033227492 0.033088155

model.net.8.weight f4 [128, 128]
000000 68 c8 03 3b 35 5b 64 3d ec 75 f3 3b 3d d8 58 3d
       0.0020108465 0.055751044 0.007429829 0.052940596
000010 9c 11 74 3d 1e 25 1c bc 90 92 96 3d f0 75 ae 3c
       0.059587106 -0.009530334 0.07352173 0.021296471
000020 8d b5 81 3d f3 35 a6 bd 3a 1b b4 bd 9b 38 e0 3c
       0.06333456 -0.08115759 -0.087942556 0.027370742
000030 79 38 ca 3c d2 97 09 bd 98 02 a6 bc ef 1f bc 3c
       0.024685131 -0.033592053 -0.020264909 0.022964446
000040 e7 63 a3 3d 35 89 ba 3c 04 0c a9 3d a2 5a 99 3d
       0.07978039 0.022770504 0.08254245 0.0748799
000050 cf 08 d3 3c 12 1c 0f 3c ae 54 bc bc 00 d3 83 bd
       0.025761036 0.00873472 -0.022989597 -0.064367294
000060 df 23 52 3d cb b4 7b 3a 5f ad 17 bd d6 b9 55 bc
       0.05130374 0.00096018304 -0.037030574 -0.013044795
000070 29 71 59 bd 44 db da bb af 94 51 3d 11 27 8c 3d
       -0.053086434 -0.0066789705 0.051167186 0.06843389
000080 51 dc 71 bd 4e b8 5c 3c 7e 3b 16 bd b3 39 ae bd
       -0.059048 0.013471676 -0.03667783 -0.08507099
000090 56 1f 3a 3d 21 55 91 3d 86 62 96 3d d9 26 8f 3d
       0.04544004 0.07096315 0.073430106 0.069898315
0000a0 aa d1 e6 bc 6f f1 b6 3c 61 e0 f7 3c 37 cf 71 bd
       -0.028176147 0.022331921 0.03025836 -0.059035506
0000b0 87 c5 a6 3d 1c 28 98 bd 67 01 27 3c 3f 4b ef bc
       0.08143144 -0.07429525 0.010193205 -0.029210685
0000c0 f2 3f 26 3d c1 b1 85 3d cc 94 de 3b 1e 34 1b bd
       0.040588327 0.065280445 0.0067926403 -0.0378915
0000d0 f0 55 85 3d 74 8b b3 bd 4d fb b2 bb 3c ed a7 bd
       0.06510532 -0.08766833 -0.0054620863 -0.08199546
0000e0 56 21 99 ba 1e d7 73 3d 39 a9 32 3d 1b b5 24 bd
       -0.0011682909 0.059531324 0.043618415 -0.040211778
0000f0 3c 21 20 bd 4e cd ac 3c 7b 9f 68 bd 9d 99 99 bd
       -0.039094195 0.02109399 -0.056792717 -0.075000025
000100 29 82 8f 3d 0f 59 d6 3c 3b 77 86 bd 07 9d a8 bd
       0.07007248 0.026165513 -0.0656571 -0.082330756
000110 77 9b f5 3c e8 2d e7 bc ec 6b 3d bd 11 57 ba 3d
       0.029981358 -0.028220132 -0.0462455 0.09098638
000120 4c f5 2e 3d ac ce 92 3d 60 fc 4c 3c a9 ff 41 bb
       0.042714402 0.07168326 0.012511343 -0.0029601848
000130 01 58 5a bd 3c de 10 3d 88 84 08 bd 37 b3 da bb
       -0.053306583 0.03536819 -0.033329517 -0.006674196
000140 d6 ba 9b b8 e2 94 7d 3d f6 ef 03 3d 3e a4 b2 bd
       -7.425777e-05 0.061909564 0.032211266 -0.08722733
000150 7e 0a 70 3b ad c3 88 3d 77 1e 90 bb d7 07 94 3d
       0.0036627348 0.06677947 -0.004398163 0.07228058
000160 07 d0 0d bd 1d 4d 7f bd f7 0e 9d 3d 6e 9f 02 bd
       -0.03462222 -0.0623294 0.0766887 -0.031890325
000170 f3 0a 82 3d 1d 96 8e 3d c9 53 71 bd 29 d1 a4 bd
       0.06349745 0.069622256 -0.058917794 -0.08047707
000180 2d ef 3c bc 1d f1 4f bd 84 74 8a 3d 5d ca 39 3d
       -0.011531633 -0.050767053 0.06760505 0.045359004
000190 4a 14 a4 3d c9 21 42 bd d6 9d 3a 3c 9a dd da 3a
       0.08011682 -0.0473955 0.01139017 0.0016698122
0001a0 b7 63 81 bd 45 6d 28 bd 08 a5 33 3d d7 ed 1e 3c
       -0.06317847 -0.041119833 0.043858558 0.00970026
0001b0 5e cd a0 3d 58 d0 5a 3b c2 06 00 3d 79 de 00 3d
       0.07851671 0.0033388343 0.031256445 0.031462166
0001c0 25 9d 83 bd ed 9e 86 bd 44 83 47 bd 80 9d 08 bd
       -0.06426457 -0.065732814 -0.04870917 -0.03335333
0001d0 cd 18 d0 3c 11 8b 42 bd 39 3e 95 bd 45 b0 f9 bc
       0.025402451 -0.047495905 -0.07287259 -0.03047956
0001e0 e4 7b 9c bd 9b c2 f7 bb 97 a4 ae bd de ea 5e bc
       -0.07640818 -0.0075610406 -0.08527487 -0.013605801
0001f0 8b a4 8a bd ad 92 a5 bd 2e 55 81 3d bd 90 b0 3d
       -0.06769665 -0.08084617 0.06315075 0.08621357
000200 1b d4 72 bd 3d aa 84 3c 6f f3 a0 bd fc 44 58 bd
       -0.05928431 0.016194457 -0.07858931 -0.052800164
000210 d8 95 a7 bd b1 38 65 bd ca 3a b7 3d 29 0b ec 3c
       -0.08182877 -0.05596227 0.0894676 0.028813915
000220 0f bb 2d 3d e8 7c 66 bd 45 f3 02 3d 43 23 07 3d
       0.04241472 -0.056271464 0.03197028 0.032992613
000230 6b 1a f5 3c 25 f0 fc 3b 11 f0 32 bd b9 9c 14 3d
       0.029919824 0.007719057 -0.043685976 0.036282275
000240 e4 18 9a 3d 99 31 3d bc 06 04 aa 3d 14 fc fb 3b
       0.07524279 -0.0115474695 0.08301549 0.007689962
000250 c1 86 c7 3c 15 ee 70 3d 2b 7c 86 bc 29 24 b5 3c
       0.024356248 0.058820803 -0.01641663 0.022111969
000260 77 73 8d bc c7 51 8c bd 32 21 3a 3b 4a af 03 3d
       -0.017266972 -0.06851535 0.0028401134 0.03214959
000270 18 77 8e 3b 09 dd ca 3c c5 47 be bc 1c c5 99 3d
       0.004347693 0.0247636 -0.023227582 0.07508299
000280 22 28 95 bd 4a da da 3b 96 b6 d3 3b 3f 3b 16 3d
       -0.07283045 0.006678854 0.006460975 0.036677595
000290 3e b6 f4 bc 71 92 a2 3c d2 b8 8d bd e1 27 cd 3c
       -0.029872056 0.01984522 -0.06920017 0.02504343
0002a0 31 ff ed bc 70 7e 73 3d 1e 8a 95 3d 26 fd 97 3d
       -0.029052349 0.059446752 0.073017344 0.07421331
0002b0 53 65 55 bd 4e 7e 21 3d bb c4 0d bd b8 b8 9d 3c
       -0.052098583 0.039427094 -0.034611445 0.01925312
0002c0 32 70 03 3d 75 d9 95 bd e6 db a6 bd 88 1d 13 3c
       0.03208942 -0.07316867 -0.08147411 0.008979209
0002d0 58 91 1f 3c f9 8d 80 bd a7 bb 1a 3d 17 5f 6c 3d
       0.0097392425 -0.06277079 0.037776615 0.057707872
0002e0 64 5e 9b bc 6a d9 a8 bd cd db a9 3c a4 98 4d bd
       -0.018965907 -0.082445934 0.020734692 -0.050194398
0002f0 db d1 d0 bb a2 1b be bc 89 0b 4f 3d 31 e0 d1 3c
       -0.006372673 -0.023206536 0.05054811 0.025619598
000300 7d 2e 84 bd 10 2a a8 bd 17 68 2c bd 73 bb a8 bd
       -0.064541794 -0.08211148 -0.042091455 -0.08238878
000310 89 36 1b bb 04 41 19 bd 72 fe 06 bd 40 2b ab bd
       -0.0023683629 -0.03741552 -0.0329575 -0.08357859
000320 f4 df 89 3d ad cf 66 bd 18 4d 0d bd 1a b8 83 3d
       0.06732169 -0.0563504 -0.03449735 0.06431599
000330 a3 e1 b6 bb 69 c8 c4 bc 95 27 0f 3d 3c 49 18 bd
       -0.005581097 -0.024021344 0.034949858 -0.037179217
000340 30 87 65 3d 62 5d 26 bc 5d 26 49 3d b5 85 17 3c
       0.056037128 -0.0101541 0.04910885 0.009248187
000350 83 bd 27 bd f6 c0 0e bd 57 b9 56 3b 42 3b b1 bc
       -0.040952217 -0.03485199 0.003276428 -0.021634702
000360 6d 51 53 3d 60 95 55 3d ba 5d 50 bd 7b ae 43 bd
       0.051591326 0.05214441 -0.050870635 -0.04777382
000370 ba 25 92 bc 1b 50 9d 3d d8 63 38 3b db f5 88 3d
       -0.017840255 0.076812945 0.0028135683 0.06687518
000380 a3 2d ef 3c f2 b2 f4 3a 66 12 9b bd 6b 1e e6 bb
       0.029196566 0.0018669053 -0.075718686 -0.007022669
000390 50 8c 6c bd d2 fb 53 bd 09 9f 35 3d 17 f8 4a bd
       -0.057751 -0.051753826 0.04434112 -0.049553003
0003a0 bb bb 3f bd 4b 9d 87 3d cb 36 25 bd f6 03 8d bd
       -0.046809893 0.06621798 -0.040335458 -0.06885521
0003b0 93 53 d5 bc 20 9b 21 bb f5 b9 91 bd 67 e3 b4 bd
       -0.026040828 -0.0024659112 -0.071155466 -0.08832436
0003c0 4b 78 a2 bd da db 19 3b 34 b2 03 bc 39 67 a0 bd
       -0.079331 0.002347699 -0.008038092 -0.07832188
0003d0 e4 40 5d bd 84 65 14 bb bb 6c 9b bd 24 5d 54 bd
       -0.054016963 -0.0022643516 -0.07589098 -0.05184664
0003e0 f4 ba f2 bc 8b 9e bc bd 8e 13 a5 bc e6 11 e2 bc
       -0.029630162 -0.09209927 -0.020150926 -0.027596425
0003f0 ff 9f 46 3c 0b c8 a0 ba 9e 91 29 3d d0 66 e8 bc
       0.012123107 -0.0012266649 0.041398637 -0.028369337
