results/edm_swiss_roll/checkpoints/epoch=3-step=128-v2.ckpt (torch, 842170 bytes, 37 tensors)

model.time_embedding.frequencies f4 [4]
00000000: 0000 803f 971e 3e3d 6b31 0d3b 16b7 d138
1.0 0.04641589 0.0021544348 9.999999e-05

model.net.0.weight f4 [128, 10]
00000000: 59c7 823e 6599 8d3e 16ad 85bd 7a17 983e
00000010: e4b6 80bd 5360 8c3d 54ab 19be 6427 423e
00000020: 56b8 903e 7b94 69be 92dc 933e df19 903d
00000030: 7e77 723e e36c 323d dde2 1c3e d4e8 32bd
00000040: ba5b 7d3e a258 4e3d 9972 13be fe86 ac3d
00000050: 9fb9 0fbe a64b b5bc 73b2 12be f1c1 4a3e
00000060: 46b3 84be e080 19be 6069 cabd 398b 4cbe
00000070: 2ac8 a53c 76d5 a4be cfca 983e 7a3e 90be
00000080: afbc 843e 3ab0 883d e78c b6bd ee33 543e
00000090: cfc0 6c3d 2b30 873e d092 303d 48c2 babd
000000a0: 0bad ca3d b3aa a4bd ca94 083e 0686 8f3e
000000b0: 77f0 383e 7b51 0fbe f133 3e3e 71d0 743d
000000c0: a1b5 273e c01a 42be c7aa a7be d164 06be
000000d0: 82fb 68be fead 8c3e fcd5 d73d d6c8 123e
000000e0: 43df d63d ccd1 0eba 9b3f 813e 6600 61be
000000f0: e75d 883c deeb 6bbe e4a1 e43d 811b c3bd
00000100: a4af e13d 3b32 5dbd 0b35 8a3e 4c0c 38be
00000110: c03e 39be bc41 39be 4d5d 963e 2803 f53d
00000120: 9951 9a3e 5c4e 88be a05e a3be 18d7 80be
00000130: 2b9e 5abe 9857 023e 9544 e63d 1320 863e
00000140: cfd8 26be 2fe5 6abe 8a32 383e 23ba edbd
00000150: 615e 503e 4293 85bd d840 403e bd8e 74be
00000160: 3460 1cbe 7a86 d33d ee04 a43d 8e9d 8ebd
00000170: 5578 333e 5efe 4e3e 36c2 77be c17a 37be
00000180: efd7 913e 5744 e4bd 7f54 efbd 5918 9fbe
00000190: 0d51 45be bd53 be3d 2d16 27bd cc8d 69be
000001a0: 7018 173c 58e5 5bbe df35 8abe ad03 34be
000001b0: f08d 8ebe 10e3 4fbe c809 a63e f279 633d
000001c0: 8cf9 de3d add1 91be c01b 4bbe 2bd8 c9bd
000001d0: c083 5a3d 9175 8cbe 3c82 07be 05d8 3dbe
000001e0: 8ea4 52bc 7607 04be 7657 22bc 3c38 4fbe
000001f0: d529 52be 0d3c 32be c162 d4bd 76e3 7abe
00000200: 421a 8a3e d849 6ebd 9940 8f3e f41c e13d
00000210: 0c71 87be 44b7 613e b842 afbd 33a4 f4bd
00000220: 99a1 86be 5234 a1be b254 b83d 9f6f 8ebd
00000230: a047 e83d 5b0f 8abe cf4f 7c3e 1925 62be
00000240: bb83 32bd 60c5 9b3d 9c18 2d3e d7b0 853e
00000250: e978 963e 35cd 7abe 62cb a33d ad44 13be
00000260: ed47 d0bc 70bc 69be 748e 973e 8799 67be
00000270: 38a2 303e e3c7 ea3d f9a0 d93d 887b 2bbe
00000280: 42f5 993e f2ee 783d 4fa7 5d3d b957 89be
00000290: b5d5 113e fa6e 25bd 0801 0ebe 9c40 8e3e
000002a0: 651d 9d3d 30cc 2cbe 6017 31be 9edb 60bb
000002b0: 2645 3e3e 3871 92bd 04aa 30be 071d d1bd
000002c0: 34e9 71be 6007 e73d 7ead 7a3e 8b69 98be
000002d0: ce02 8a3d 1c4b 363e 6e96 723d 2000 e6bd
000002e0: b39b 293e 0f10 2b3e 6c6b ef3d 331d 69bd
000002f0: 8a3f aebd d20f 053d e222 8ebd a4ea cebd
00000300: b618 583e 9399 8f3e bb0c c6bc eb1f 84bd
00000310: 178a e23b dfa4 87bc c074 a03d 133f ba3d
00000320: 32bf 99be b34a 06be 989f 903e b89e 0d3e
00000330: ee38 2dbb f37e 38be d0d1 3abe 475a 8bbe
00000340: 5d63 bcbd da6c f13d 1fa1 593e 89b9 243e
00000350: 875c 91be 0b7c 48be f565 62bd 5ad6 9a3e
00000360: a767 363d ba3a aabd 6eb6 043e dd2e f9bd
00000370: 1f20 60be 6806 693e 0fcb 03be 2e71 47bd
00000380: 5cf8 99be 761a 643e 9a4c 7a3e 660c f63d
00000390: b9c7 5cbe 164a 9dbe a9d1 86be a732 803e
000003a0: 43cf 283e d58a 8d3e df3e 323e 1c37 b03d
000003b0: eae5 353b fe36 70be deb1 87be c06a 94be
000003c0: b45f 0c3e 698e 2dbe a438 47bd a88a 2cbe
000003d0: b9c0 37bd f859 59be da34 4bbe d3ad e73d
000003e0: a29f afbd f454 503e eac8 d8bd 4cb1 7cbe
000003f0: 53a6 2cbd acaa 0fbe b4d8 acbd 1c77 94be
0.25542715 0.27656093 -0.06527154 0.2970541 -0.062848836 0.0685431 -0.15006763 0.18960339
0.28265637 -0.22810547 0.2887922 0.070361845 0.23678395 0.043560874 0.15320916 -0.043679073
0.24742022 0.050377496 -0.14399184 0.08424185 -0.14035653 -0.022130799 -0.14325885 0.19800545
-0.25918025 -0.14990568 -0.0988338 -0.19974984 0.020237047 -0.32194108 0.2984223 -0.28172666
0.25925204 0.066742375 -0.08913594 0.20722935 0.057801064 0.26403937 0.04310876 -0.091190875
0.098962866 -0.08040371 0.13338009 0.2803194 0.1806048 -0.13995926 0.18574502 0.059769098
0.1637788 -0.18955517 -0.3274748 -0.13124396 -0.22752193 0.27476496 0.10538861 0.14334425
0.104918025 -0.0005448132 0.2524384 -0.21972808 0.016646339 -0.23039195 0.11163691 -0.0952673
0.11019829 -0.05400298 0.26993594 -0.17973441 -0.18090343 -0.18091482 0.29368058 0.11963493
0.3014038 -0.26622283 -0.3190813 -0.25164104 -0.21349399 0.12728727 0.1124355 0.26196346
-0.16293643 -0.22938989 0.17988029 -0.116077684 0.20348503 -0.06522228 0.18774736 -0.23882575
-0.15271074 0.10328384 0.08008753 -0.06963645 0.17526372 0.20214221 -0.2419518 -0.1791792
0.28485057 -0.11145847 -0.11686038 -0.31073263 -0.192692 0.092933156 -0.040792633 -0.22807997
0.009222135 -0.21474206 -0.26994225 -0.17579527 -0.27842665 -0.20301461 0.32429338 0.055536218
0.10887441 -0.28480282 -0.19834805 -0.09855684 0.053348303 -0.27433446 -0.13233274 -0.18539436
-0.012856616 -0.12893471 -0.009908548 -0.20236295 -0.2052377 -0.1740572 -0.10370398 -0.24500832
0.26973158 -0.05817589 0.27978972 0.109918505 -0.26453435 0.22042567 -0.085576475 -0.11945381
-0.26295164 -0.3148523 0.09000529 -0.06954884 0.113417864 -0.2696484 0.2463982 -0.22084464
-0.04358266 0.07606006 0.16903919 0.2611148 0.29389122 -0.24492343 0.079977766 -0.14381666
-0.025424922 -0.2282579 0.2960087 -0.2261716 0.17249382 0.114639066 0.10626406 -0.16746342
0.3006993 0.06077475 0.054114636 -0.2682474 0.14241679 -0.04038904 -0.13867581 0.27783668
0.07671622 -0.16874766 -0.17294073 -0.003431059 0.18581066 -0.07150501 -0.17252356 -0.10210615
-0.23624116 0.112807035 0.24480245 -0.29768023 0.06738816 0.1780209 0.059225492 -0.112304926
0.16563301 0.16705345 0.11690411 -0.056912612 -0.08508213 0.03248579 -0.06940247 -0.10103348
0.21103176 0.28046855 -0.024175992 -0.064514 0.0069134342 -0.016558109 0.07834768 0.09094062
-0.30028683 -0.13114433 0.2824676 0.13830078 -0.0026431638 -0.18017177 -0.182441 -0.27217314
-0.091986395 0.1178834 0.21252869 0.16086401 -0.28390905 -0.19578569 -0.055273015 0.30241662
0.044532444 -0.083119825 0.12960216 -0.121671416 -0.21887253 0.2275635 -0.1287043 -0.04869192
-0.30072296 0.22275719 0.24443284 0.120140836 -0.21560563 -0.30720586 -0.26331833 0.25038645
0.16485314 0.27644983 0.17406796 0.08604261 0.0027755448 -0.23458478 -0.2650289 -0.28987694
0.13708383 -0.16948856 -0.048638 -0.16849768 -0.04486153 -0.21225727 -0.1984438 0.11312451
-0.085753694 0.20344907 -0.10585196 -0.24677008 -0.042150807 -0.1402995 -0.0843977 -0.28997123

model.net.0.bias f4 [128]
00000000: e350 66be 0261 9abd 8004 23bd 9474 2bbe
00000010: 0cea 6bbe 57e1 5e3e 90a2 633e b573 93be
00000020: 3829 dc3d 84b9 fd3d 53f5 983e 635c 3f3e
00000030: 0832 973e 45fe d4bd 08c2 683e b17d 853e
00000040: 91b6 95be 1ef3 81be d854 803d 1a32 333e
00000050: e384 15be 2ba2 093d ad3f 913b 6e04 b03d
00000060: c293 25be 43ae 3d3e cf8b 593e 0b9b 56be
00000070: 5ff7 f83b 9c14 e23b 16cd d03d 6b72 993e
00000080: 0809 ab3d 76b4 86bd 6893 903e bc7c fabd
00000090: 92da a8bd d67d d33c dc93 7cbe ea7f 2f3d
000000a0: a948 54be c0d3 0d3d 8ec0 bf3c dcc2 343d
000000b0: 473c 89be bfcd 94be 1633 133e 40c4 8b3e
000000c0: 6e33 8ebe f819 ef3d 6420 6ebe ef52 e43c
000000d0: 98ff 953e bb7c 753e f14c 66be c12e 463e
000000e0: 8dfc 223e ec56 0abb fe4e 9e3e ad40 fcbd
000000f0: ca84 8fbd 702a 28be c296 4a3d c7a9 c13d
00000100: 534d 0d3d eac9 2dbe 74aa 0dbe bd5a de3d
00000110: 85f0 89be 672e 48bd 7bee a6b9 88cf 04be
00000120: 796c ea3d 226f de3c 1a9e 633e a0c4 f0bc
00000130: aad2 45be 4862 623e 6783 423d 8b4c bbbd
00000140: 65c2 56be 3ce3 a43d 4b98 98be 53b2 a03d
00000150: 1759 273e 78ab 8bbe de7a 4abe 69aa 6abe
00000160: 412b 8b3e 4a1a 8b3e 8d13 d63c 92aa 953e
00000170: 71e8 d8bd a4f2 98be c551 f33d b13f ea3d
00000180: 90b6 a23e 468e 333a 9acb 7c3e 4f25 3f3e
00000190: 7672 703e d63f 9cbe c4c5 893e d362 8bbe
000001a0: ecd5 903e 4dfe 2ebc bd80 90be 47a4 bd3d
000001b0: 89a3 87bd 6f54 93be e919 eabd ea8a 233d
000001c0: 6ea7 803e 6f0d bcbd 6944 3f3e f276 153d
000001d0: bd00 2f3c fff7 853d 25e6 5bbe 3541 85be
000001e0: e963 c0bd 19fa 94be 46f7 15be 9545 803c
000001f0: fb61 51be 8318 f9bd af47 63bd f1b1 07bd
-0.22491793 -0.07538034 -0.039799213 -0.1674369 -0.230385 0.21765648 0.22229981 -0.28799215
0.10750049 0.123889 0.29874668 0.18687586 0.29530358 -0.104000606 0.22730267 0.26072457
-0.2924085 -0.25380796 0.06266183 0.17499581 -0.14601474 0.03360192 0.0044326396 0.08594595
-0.16169646 0.18523507 0.21244739 -0.20957582 0.0075978483 0.0068994295 0.10195367 0.29970106
0.08351332 -0.06577389 0.28237462 -0.122308224 -0.08244814 0.02581684 -0.24665779 0.042846598
-0.20730843 0.03462577 0.023407247 0.044131145 -0.268038 -0.29063222 0.14374956 0.27298164
-0.27773613 0.11674875 -0.23254544 0.027871577 0.29296565 0.23973362 -0.22490288 0.19353773
0.15916653 -0.0021108938 0.3091964 -0.123170234 -0.070077494 -0.16422439 0.04946018 0.094562106
0.03449757 -0.16971555 -0.13834554 0.10857151 -0.26941314 -0.048872378 -0.0003183967 -0.12969792
0.11446471 0.027152602 0.2222828 -0.029390633 -0.19318643 0.22107804 0.047488596 -0.09145459
-0.20972593 0.08051154 -0.2980369 0.07846513 0.16342579 -0.27279258 -0.19773433 -0.22916569
0.27181438 0.27168494 0.02613237 0.29231697 -0.1059121 -0.2987262 0.11880831 0.114379294
0.3177991 0.00068495085 0.24687043 0.18666576 0.23481163 -0.30517453 0.26908696 -0.27223834
0.2828821 -0.010680747 -0.2822322 0.09259849 -0.06622989 -0.28775355 -0.11430723 0.0399274
0.2512774 -0.0918225 0.1867844 0.03649039 0.010681328 0.06541442 -0.21474512 -0.26026312
-0.09394056 -0.2909706 -0.14645109 0.01565818 -0.20447533 -0.12162878 -0.055488285 -0.033128683

model.net.2.weight f4 [128, 128]
00000000: fe12 80bd 960b 1abc f93f 4fbc 0e04 573c
00000010: c885 17bc a351 01bd 1429 c7bc 6b8f 80bc
00000020: a2fa 26bd 2bbe dfba 7f10 d6bb 3e3b bb3c
00000030: d913 e93c eaec 703d d7ac 05ba 3404 82bd
00000040: 031d dc3c 776e 68bd 20a7 ccbc 1f97 a8bc
00000050: 541f efbc 5ee3 41bd 9b89 b63d 881a 4c3d
00000060: 7644 703c 4235 bc3d 63dd bbbd 2fac 233c
00000070: 5e9b 893d fcec 6e3d 09fd 91bd 1b3e ca3c
00000080: 60b5 4ebd 1fa6 8dbc e2aa 4cbc b460 adbd
00000090: 2405 aabd c0f0 91bd 7dd1 093d 4346 403d
000000a0: 6aa0 a3bd 2f10 fabc d295 1139 7c01 b8bd
000000b0: df4f 423d 0e0f b23d 8b80 933c 5a52 a3bd
000000c0: 1ee4 8c3c 0134 d33c 2726 8c3d a491 23bd
000000d0: efa2 9dbd 1b2a 023d 1b6d 853c 41b5 cbbc
000000e0: 9df1 2ebd a93b 0abd 5db3 883d 8bb6 ddbc
000000f0: 9397 973d 2b47 8a3d ad30 c13c 7064 a43c
00000100: 50eb 53bb 285f 453d d9eb 85bd 1cbb 023d
00000110: d613 98bc c116 103d d924 5fbc 6b5c 16bd
00000120: 3067 48bc 7fa0 173d bc6e 92bd 938b 85bd
00000130: 1930 49bc a7ee 3ebd 78d2 1a3d 339d 7b3d
00000140: d246 62bb f7a3 ba3d f484 45bd 5bf6 75bd
00000150: 68de 13bd 7be0 75bd 2a3b 80bd 66a1 abbd
00000160: 6d91 b5bd 7315 ba3c 9b45 323d 4354 c03d
00000170: beb6 b43d 8445 80bc 05c7 b83c 2df5 1dbd
00000180: ec4f 3b3d da34 b4bd 2bfe 1a3d ef8c 3a3c
00000190: 06dc 8f3c 07f8 f33c ee50 d7bc 248b 8b3d
000001a0: 9b61 563d 9de4 493d e91f c73c 6cf1 373d
000001b0: c8c4 963d 96fe dc3c 4d15 a43d 5772 d1bb
000001c0: aa42 873d eee3 e93c 2d19 243d f72c c23d
000001d0: 526d 713c ba13 ebbc a5c2 9ebc 6958 b43c
000001e0: 52da c83c 9ff8 1abd 397b a63d cc7d 373d
000001f0: d5d4 60bd c7b4 073b f656 84bc 218d 5fbd
00000200: 7c80 d73c 1ba9 81bc ae4c 3ebd eb1e f7bc
00000210: cd27 02bd 26ea 953d ae49 b13c 4a23 ce3d
00000220: f72b 2a3c b57c 9c3c b897 153d e6c1 c53c
00000230: 6bae 9fbd c82c 43bd a10b d2bc 85c3 eeba
00000240: 81d8 343d 1cda 013d 3fc4 a93d a308 383c
00000250: e5ca 0bbd 6d24 58bd 7149 7ebd b65b 53bd
00000260: 0978 c63c 783c 203d ad25 9b3d 90d5 fabc
00000270: 80e1 91bc fd88 edbc 4cb9 1fbc 4dc7 0b3d
00000280: 34ca 3cbb 02e9 883c ebc6 cc3b daa2 353d
00000290: 45ff f7bc 25d9 28bd 0ce4 ac3c 4e57 97bc
000002a0: 2ba5 1abd 5bac 063d 0e9e bfba 8a1e 49bb
000002b0: c7b8 16bd 78ff babc fcc2 94bd b1e9 093d
000002c0: 3ef5 363a 87ca 773d bd5b a13b 27d2 06bb
000002d0: 4bf3 df3c 18e1 723d 6c40 4cbd 0e12 5b3d
000002e0: 6596 d03c 390d 91bd 7544 d63c 9bc5 27bd
000002f0: 7e0e e2bc b082 2cbd 3f1b 8ebd b678 893d
00000300: 5293 b9bd 2015 403d f15c b4bd e65b ebbb
00000310: b2ba e43b 3a9b 903d d673 01bd cd4f eb3c
00000320: 3da7 873c 8786 403d 591e 523c 6d24 2c3d
00000330: 40e7 74bd 61a3 43bd 7291 993d 1617 76bd
00000340: 5ed3 ffbb 015e 63bc 1f2e c83d 696e 4abc
00000350: fb3d 95bd 2686 c7bc 2840 0f3d ba82 3e3d
00000360: 7c61 a93d 7c5b bbbc 4c4d 4e3d bc4a a6bd
00000370: 2cc3 e73c 2e88 393d 7564 563d 45ae 83bd
00000380: 9e51 04bd f1ed d33c a28b 86bd 0982 81bd
00000390: c1cd aebd 47db a0bb 7cf1 283d efbc be3c
000003a0: b51d ab3b 495e 113d a7e7 6ebd bcf8 9a3c
000003b0: 5d99 0ebd c082 00bd fcd8 993d 7e90 9fbd
000003c0: 5117 cb3b d8fd 9abd ae94 0b39 c116 23bd
000003d0: bf22 093d c3f0 54bd 8211 8a3d 5a32 8dbd
000003e0: 9f61 393d 2a8f 85bd 2a22 233d a5a3 fbbc
000003f0: 7832 80ba 4b8c e8bc bad7 843d ff1e ff3c
-0.062536225 -0.009402176 -0.01264953 0.013123525 -0.0092482045 -0.031571995 -0.02431158 -0.015693387
-0.040766366 -0.0017070224 -0.006532728 0.022855397 0.028451847 0.05881969 -0.00050993025 -0.06348458
0.026869303 -0.056745972 -0.024982035 -0.020579873 -0.029189743 -0.047335975 0.08912965 0.04982999
0.01466476 0.091898456 -0.091730855 0.009989782 0.06719087 0.058331475 -0.07128341 0.024687817
-0.05046594 -0.017291127 -0.0124919135 -0.0846571 -0.08301762 -0.071259975 0.03364705 0.046942007
-0.07989581 -0.030525295 0.0001388409 -0.08984658 0.047439452 0.08694278 0.01800563 -0.07974692
0.017198619 0.025781633 0.068432145 -0.039933816 -0.07697093 0.031778436 0.016287377 -0.024866702
-0.04271089 -0.033748303 0.06674836 -0.027064582 0.07401957 0.067518555 0.02358278 0.020067424
-0.0032336302 0.04818645 -0.06539125 0.031916723 -0.018564146 0.03517795 -0.013619625 -0.03670923
-0.012231633 0.037018295 -0.07150027 -0.06520762 -0.012279534 -0.046614315 0.037798375 0.061429214
-0.0034527075 0.09113305 -0.048222497 -0.060049396 -0.036100775 -0.060028534 -0.06261285 -0.08380394
-0.088656284 0.022715306 0.043523412 0.09391072 0.08823918 -0.015658148 0.022555837 -0.038563896
0.045730516 -0.08799143 0.03784005 0.01138614 0.01756097 0.029781355 -0.026283707 0.06813648
0.052339178 0.04929029 0.024307208 0.044907972 0.07361752 0.026976865 0.08011875 -0.006391804
0.06604512 0.028551068 0.040063072 0.094812326 0.014735537 -0.02869593 -0.019379923 0.022014813
0.024518166 -0.03783476 0.081289716 0.044797704 -0.054890472 0.0020707117 -0.016154747 -0.05457795
0.026306383 -0.015827706 -0.046459846 -0.03016611 -0.03177624 0.07320051 0.021641579 0.100653246
0.010386459 0.019102434 0.036521643 0.02414031 -0.077969395 -0.04765013 -0.02564031 -0.0018216228
0.044151787 0.031702146 0.08289384 0.011232528 -0.034129042 -0.052769113 -0.062081758 -0.051601134
0.02422716 0.039120167 0.075755455 -0.030619413 -0.017807722 -0.028995985 -0.009748768 0.034125615
-0.0028807046 0.01671267 0.006249299 0.04434476 -0.03027309 -0.04122271 0.021104835 -0.018474247
-0.037755173 0.032879215 -0.0014619248 -0.0030688369 -0.03679731 -0.022826895 -0.07263753 0.03367013
0.0006979293 0.06049588 0.004924266 -0.0020572038 0.02733769 0.059296697 -0.049866125 0.053484015
0.025462339 -0.070826 0.02615569 -0.040959936 -0.027594801 -0.04211682 -0.069387905 0.06712477
-0.09061302 0.046895146 -0.0880679 -0.007182586 0.0069802636 0.07060857 -0.03160461 0.028724575
0.016559238 0.047003295 0.012824618 0.042026926 -0.05979085 -0.047763232 0.074984446 -0.06008061
-0.0078071794 -0.013877393 0.09774422 -0.012355425 -0.072872125 -0.02435596 0.034973294 0.04651139
0.08270547 -0.022870772 0.050366685 -0.08119723 0.028291307 0.045295887 0.052341897 -0.06429724
-0.0323044 0.025870295 -0.065696016 -0.0632363 -0.08535338 -0.0049089524 0.041245922 0.02328345
0.005222047 0.035490308 -0.05832639 0.018917434 -0.034814227 -0.031374693 0.075120896 -0.077912316
0.006197848 -0.07567948 0.0001331146 -0.03981662 0.033480402 -0.05198742 0.067416206 -0.068943694
0.045259114 -0.06521447 0.039827503 -0.03071768 -0.0009780666 -0.02838721 0.06486459 0.03114271

model.net.2.bias f4 [128]
00000000: 718e a5bb 0196 22bd 3cd1 8dbd a677 56bd
00000010: 202d 50bd 7f5d ae3d 9a0f 973b 4fb4 5bbd
00000020: b3bd b3ba 26c7 cdbb b6c6 dd3c 71cf 093d
00000030: 8e22 7b3d e854 24bd c9d0 82bc 6741 9dbd
00000040: 1c9f d8bc 2eef 95bd b8b1 24bc ad35 57bd
00000050: 0c24 efbc 9a10 b13d dee0 ae3d 3c5b 123c
00000060: 967f 4e3d 3754 693d 6d06 833b 64d9 8a3c
00000070: 4219 aab8 2e48 90bd 7a1b 913d cfa5 8dbd
00000080: 2a52 c7bc f90f 9fbd c2f8 58bd 253b be3d
00000090: 6f47 9dbb 1bc4 f03c 803b de3c 2dd8 993d
000000a0: 04d1 af3c 4155 443b 68ea 0bbd a9bc 453c
000000b0: 0497 ca3c db49 5dbd ef7f 80bd 136c 25bd
000000c0: 13f6 a53d 2ae9 213d 37f0 4f3d a7af 853d
000000d0: 06ea 52bb 8773 72bd b85a a63d a503 9f3c
000000e0: 72da ecbc 53f4 243d 4a1c 86bd bf91 813a
000000f0: 175a a03d ee53 0c3d a3c3 a1bd 2fca a93d
00000100: c958 873c ca67 e3bc 9702 8e3d e541 0d3d
00000110: 12f2 6b3d 1994 4a3d cc37 33bd 263a 7abd
00000120: fa29 803d dc70 1ebc 0e60 973d c7cd 293d
00000130: 66c2 a9bd 36c0 543d fbf5 3a3d fe3e a7bd
00000140: a385 f93a 1c86 95bd 804b 3f3d fe98 483d
00000150: 8efc 023d a4e3 733d 635f 3abd 35b1 f6bb
00000160: b12e a5bc cd00 883d ccd4 863d 69bf f6bc
00000170: c6b7 90bd 50dd e13a 3ba3 973d 430e c8bc
00000180: 4112 1c3d d6ad 81bd 8662 69bd 3631 95bd
00000190: d58a 95bd 4b19 15bd 4090 0fbd 5ae2 fa3c
000001a0: 6bda a03d 0571 953c 8cf0 053d 201b 6fbd
000001b0: e2ef 12bd cdcf acbd ad8a a23d 98bf 7d3c
000001c0: 6e24 9abc 8e8b 97bd 6402 a23c de8c adbd
000001d0: 1dbe 6f3d ead6 aabd 5fea 923c 2a04 693d
000001e0: b7c7 93bd 851d 823d 4fcb a53d c055 7d3d
000001f0: 7cca a83d dadd 2fbd 4d2e 21bc fdcf ab3d
-0.0050523807 -0.039693836 -0.06924674 -0.0523602 -0.050824285 0.08513927 0.004610014 -0.053638753
-0.0013713151 -0.006279844 0.027072292 0.033645097 0.06131225 -0.040120035 -0.015968697 -0.0767849
-0.026443057 -0.073210105 -0.010052137 -0.052541424 -0.029191993 0.086457446 0.08538984 0.008932885
0.050414644 0.05696508 0.0039985687 0.016949363 -8.110936e-05 -0.07045017 0.07085319 -0.06916391
-0.024331171 -0.077667184 -0.05297161 0.09288625 -0.0047997753 0.029390385 0.027127981 0.075119354
0.021461971 0.0029958042 -0.034159094 0.012068906 0.024730213 -0.054025512 -0.062744014 -0.04038627
0.081035756 0.039529003 0.050766196 0.06527644 -0.0032182946 -0.059192207 0.08122772 0.019410918
-0.028912757 0.04027207 -0.065483645 0.0009885355 0.07829683 0.03425973 -0.07898643 0.082905166
0.016521828 -0.027759451 0.06934088 0.03448667 0.057603903 0.049457643 -0.043754384 -0.06109061
0.062580064 -0.009670462 0.07391368 0.04145601 -0.08289032 0.05194112 0.04564474 -0.08166312
0.0019037019 -0.0730097 0.04670286 0.04897403 0.031979136 0.059543267 -0.045501124 -0.007528449
-0.020163866 0.06640778 0.065835565 -0.030120568 -0.07066302 0.0017232094 0.074041806 -0.024420863
0.038103346 -0.06331985 -0.056978725 -0.07284777 -0.07301871 -0.036401074 -0.035049677 0.030625511
0.0785416 0.018242368 0.032700107 -0.058375478 -0.0358733 -0.08438072 0.079366066 0.015487574
-0.0188162 -0.07399665 0.01977653 -0.08474134 0.058530916 -0.08341773 0.017934022 0.056888737
-0.07215827 0.06353287 0.08095419 0.061849356 0.08241746 -0.042936184 -0.009837699 0.0838928

model.net.4.weight f4 [128, 128]
00000000: 1598 f53c 38de 69bd b109 a43d ad99 c6bc
00000010: d2fc 10bd acbe 833c 5823 a63d 3018 57bd
00000020: 4bd4 4a3c 99b6 01bc bd99 64bc 43b8 363d
00000030: 7454 413c 9e18 a8bd 828c 6b3b eca3 393d
00000040: 8a41 ebbc 1d3d 943d 8105 a9bd 194d 993c
00000050: cf9d 6d3d a50f 133d f013 363d ae11 1a3b
00000060: 141e 3fbc 237a 8c3d c353 dbbc 5185 893d
00000070: 2f47 bb3d 24cf aabd 7b80 ad3d 3ad1 5c3c
00000080: ef9c 62bd 60fe 68bd 0d30 9cbc 9d81 c23d
00000090: 1893 553d 9669 5bbc fb5f 23bd c76d 45bd
000000a0: 2543 14bd 8634 583b f435 98bd d7ab bcbd
000000b0: 9894 36bd c941 193d bb59 e13c e086 113d
000000c0: 39bf a43d 2a50 0a3d 64ef fbbc e374 413d
000000d0: 3977 26bd 5b7a 933d a211 19bd 8fee 48bd
000000e0: cb59 5fbc 9fd7 16bd 9f29 64bc 33bf 97bc
000000f0: 4b52 163c 2508 b4bb 2aea 85bd 75d0 90bd
00000100: 95d1 8dbd 96be c1bd ba9e acbd 976a ac3d
00000110: 67ae 7f3d 00b1 483d 3774 6e3d ad24 9e3c
00000120: e76d f7bc c500 78bc d858 27bd 1fe1 123d
00000130: 28e4 a13c 9140 aebd 162d a13c 91ae 8fbd
00000140: 0278 713d 64ba 8c3b 39ac f93b ef06 50bd
00000150: 8d18 383c 23a3 d83b 4c5c 923c ce32 8dbd
00000160: c670 35bd abcf 7ebd 7f4e 3fbd 5b29 4bbd
00000170: f60f 98bd 5e7f ca3d de4d c2bd feac ecbc
00000180: 835a 583c d51b 29bd 1e61 06bd a4cb 273d
00000190: 1d27 41bc cedc 4cbc 290b ba3d 95df 27bd
000001a0: 386e 0a3c b27b 883d fe38 98bc 25c8 a7bd
000001b0: 2c51 8d3d bfe8 99bd 3f22 a8bd d35d 1cbd
000001c0: c4dd 943c 56b1 9a3d e28f 8dbd b0c2 4fbd
000001d0: 7fb3 8e3d 86d9 9b3d baff 033d bad0 84bd
000001e0: 67b8 683d 1206 3ebc 7607 77bd 8f4e 963d
000001f0: 4bfb 78bd 85c5 ef3b b5b4 25bd db3f a33d
00000200: 3447 6a3c 968b 0ebd 3b95 323d 84fb 973d
00000210: f26f 6ebc fdf6 673d 688e 00bd a2e0 5bbd
00000220: 7dfc 1abd d2fb b6bd 321a ba3d ebb8 dc3c
00000230: 8841 5bbd f7ca 84bd d9ba 5d3d bcd6 88bb
00000240: b853 42bd 3417 08bb a43c 2fbd 0668 20b8
00000250: 7aea 10bd d4b3 09bd b183 26bd 19d4 40bd
00000260: 225a 243c d2c7 573d 014c f03b f74a 2e3d
00000270: f4bb 93bc 9855 b6bc 5093 48bd c22c abbd
00000280: 88e6 81bd d8f4 d6bc c787 ad3d 4283 96bd
00000290: 2a84 903d 56c8 5f3d 01ef 6c3d 3177 673d
000002a0: d2ac 1d3d a3ce a93d 2b9e 3c3d eba8 00bd
000002b0: 5325 3b3d c0a8 d33b 403f 4bbd c5fd 0b3d
000002c0: f446 c63d 7568 913d 914f 05bd a6ad 5a3b
000002d0: ed6a b43c 7878 1c3d 8ea4 a6bd 76d4 b03c
000002e0: d106 1ebc 998e c73d dbc6 933c 22f7 3dbd
000002f0: 3673 d9bc cd13 a63d 5fbb 03bd 0cb9 e83c
00000300: 1bf5 9d3d 07bf b4bd 0ad3 a03b 3a73 a8bd
00000310: 2460 65bc c4b2 323d ad84 12bb cac9 2d3d
00000320: 9bd8 4fbd 4d12 2e3d 3483 35bd f543 343d
00000330: fc29 98bc e250 ab3d 603b 3e3c 124b de3c
00000340: 11ad 8fbd a834 773b 2141 943d 3d1b 9dbd
00000350: a082 a03d 277f fc3c 91ea f6bc 1b40 89bd
00000360: cb00 663d ff2e b6bc fe25 343d 5043 353c
00000370: 2b78 ac3d 809c 54bd f7d4 95ba 38ca 263d
00000380: 65c7 ffbc 442a efbc e971 6fbc 64be c93d
00000390: 07d3 373d 06a6 9dbd 53de 6a3c 37d2 7a3d
000003a0: 851e 503d fbfd be3d 15ee f2bc 99ce 70bb
000003b0: 53da 993d d0c3 9d3d 3e21 e7bc 2e6d f73c
000003c0: 9959 323c afc0 a13d 26c7 d4bc e959 ebbb
000003d0: 5b85 ef3c fd2e 0abc 1b6c 20bd 3f28 ab3d
000003e0: 67df f5bc e8fc 7f3d 9564 41bc d86a 9ebd
000003f0: cc8d 6bbd b395 303c b836 943d 57b5 74b9
0.029979745 -0.05709669 0.08009661 -0.0242432 -0.03539736 0.01608213 0.0811221 -0.0525133
0.012379716 -0.00791707 -0.01395267 0.04460932 0.01179992 -0.0820782 0.0035941903 0.045322344
-0.028717775 0.07238219 -0.08253003 0.01871352 0.058011826 0.03590359 0.044452608 0.0023509073
-0.011664886 0.06859233 -0.02677334 0.06714881 0.091444366 -0.0834029 0.08471771 0.013477618
-0.055325445 -0.056883216 -0.019065881 0.09497378 0.052142233 -0.013391873 -0.039886456 -0.048200395
-0.036196847 0.003299029 -0.07432166 -0.09212463 -0.044575304 0.037416253 0.027508607 0.035529017
0.08044285 0.033767857 -0.030753799 0.047230612 -0.040641043 0.07201072 -0.03737033 -0.049055632
-0.013632248 -0.036826726 -0.013925939 -0.018523788 0.009174894 -0.005494135 -0.06538804 -0.0707101
-0.0692474 -0.094601795 -0.08428712 0.08418768 0.062422182 0.048996925 0.0582163 0.019304598
-0.030203773 -0.015136902 -0.040856212 0.035859223 0.019762114 -0.08508409 0.019674819 -0.07015718
0.05895234 0.0042946804 0.0076194075 -0.050787862 0.011236322 0.0066112443 0.017866276 -0.06894456
-0.044297002 -0.062209766 -0.04670572 -0.049599987 -0.07424919 0.098875746 -0.09487508 -0.028891083
0.013205173 -0.04128631 -0.032807462 0.04096569 -0.0117891105 -0.012503816 0.0908416 -0.04098471
0.00844913 0.06664218 -0.018581863 -0.081924714 0.06900248 -0.07515096 -0.08209657 -0.038175415
0.018172152 0.075533554 -0.06912209 -0.050722778 0.0696783 0.07609849 0.0322263 -0.06485124
0.056816485 -0.011598127 -0.06030985 0.073392026 -0.060786527 0.0073172473 -0.04045554 0.07971164
0.014299203 -0.03480109 0.04359935 0.0742102 -0.014553057 0.05663203 -0.03138581 -0.053681023
-0.037838448 -0.0893475 0.090870276 0.026943645 -0.053529292 -0.06484025 0.05413327 -0.004175989
-0.04744312 -0.0020765783 -0.04278244 -3.8243852e-05 -0.035379864 -0.033618763 -0.040652934 -0.047077272
0.010031255 0.052680798 0.007333279 0.04255196 -0.018033959 -0.022257611 -0.048968613 -0.08358146
-0.063427985 -0.026239797 0.08473163 -0.07349254 0.07056458 0.054634415 0.05784512 0.056510154
0.038494892 0.08291366 0.04604928 -0.031411093 0.045689892 0.0064593256 -0.049620867 0.03417756
0.09681502 0.07100002 -0.032546584 0.0033367663 0.022023642 0.038200825 -0.08136855 0.021585684
-0.00964518 0.09743995 0.018039158 -0.046378262 -0.026544195 0.081092454 -0.032161113 0.02840855
0.07712766 -0.08825498 0.0049079703 -0.08225103 -0.0139999725 0.043627515 -0.0022356913 0.04242877
-0.05074368 0.04249792 -0.04431458 0.04401012 -0.018574707 0.083650365 0.011610836 0.027135406
-0.07015432 0.0037720595 0.07238985 -0.07671211 0.07837415 0.03082235 -0.030141147 -0.0670168
0.0561531 -0.022239206 0.043981545 0.011063412 0.08421358 -0.051907063 -0.0011431266 0.040720195
-0.031223008 -0.029194959 -0.014614561 0.09850767 0.044878986 -0.07697682 0.014335233 0.061235633
0.050810356 0.09325787 -0.029654542 -0.0036744236 0.07512345 0.07703364 -0.028214093 0.030203428
0.01088562 0.078980796 -0.025973868 -0.007182349 0.029238394 -0.008434054 -0.039165597 0.08357286
-0.030013753 0.06249705 -0.011803766 -0.077352226 -0.057508275 0.010777879 0.07236999 -0.00023337208

model.net.4.bias f4 [128]
00000000: 5e6e 12bd e3ad a93d 83f8 44bb da20 af3d
00000010: 3a2d dcbc 865e 7a3d 17ee 8fb9 7698 1bbd
00000020: 37bf 903d c669 9abd 23a3 e8bb 63e8 863c
00000030: 352c 83bc dc55 3dbd eeca b6bc e0ae 6a3d
00000040: bb48 43bc 33f6 1dbd 899d 10bd 2a45 84bd
00000050: 60b5 703d c6c7 a3bd aef1 28bd 6ca6 9c3c
00000060: f90f a53d 1085 92bd f685 103c b50a 87bd
00000070: 0d6e 803d c338 923d adaa 733d 8b91 1ebd
00000080: 3d05 7fbd c1fa 55bd 8fb5 e7bc 2c5f 303d
00000090: 769c 8ebc 0412 a73d 51b9 a1bd b663 0c3c
000000a0: 2889 93bd 45ae a4bd 496e 6fbd 279f f23b
000000b0: 9019 aebd ae8b e6bb 043d 30bd 8c2a 58bd
000000c0: b696 a73d e9c6 14bd 86f0 afbd d6ed 673d
000000d0: 4ab1 b9bd e1ec 5ebb 8a87 88bd 3e38 4c3d
000000e0: 6831 013d 6cba 5bbc 9cd1 adbc d783 81bd
000000f0: b7e0 85bd 5509 153d b8f0 88bd 378d f9bc
00000100: b29e 8d3d b5b2 a1bd 1cee 0b3b f2d1 fcbc
00000110: aa96 2f3d b35d 00bd 4635 993d b80d e23c
00000120: 2f62 5dbd 4fa7 ac3c 23a6 4bbb fe2f c3bb
00000130: 0237 54bd 16e9 2b3d 5e8e 8e3c 4032 f4bb
00000140: a6a8 39bd 2a9a a93d 0186 99bd bd45 133d
00000150: e44d a4bd 6d89 8fbd e710 fe3c a850 c83c
00000160: 8b14 8abc f837 273d f9e0 27bc fa2e d73c
00000170: a293 8ebd c26f 2a3d 5885 bfbc c039 7e3d
00000180: 8b65 9abd 9597 1c3c 08be f1bc a1a2 1f3d
00000190: 22c9 8abd b7ea 96bd 27dd fd3c cea6 f7bb
000001a0: eaab 7abd a50c 80bd 4294 96bd d959 b53c
000001b0: 42da 193d 44d6 2bbd fb76 6a3d 0fff 573d
000001c0: deb9 493c f018 55bd c377 8cbd 6c17 09bd
000001d0: 5117 5ebd 6c73 a43c af76 753d e0ac a23d
000001e0: 6b6c 29bd d17a 32bd a62f 853c fa50 b4bc
000001f0: 71c4 663d 5fd6 9dbd 15f1 2d3d 0864 e73b
-0.035749786 0.082851194 -0.003005535 0.08551188 -0.026877034 0.0611253 -0.00027452476 -0.037987195
0.07067721 -0.07539706 -0.0070995255 0.016468232 -0.01601229 -0.04622446 -0.022313561 0.05729568
-0.011919196 -0.038564872 -0.035306487 -0.064585045 0.058766723 -0.07997088 -0.04124611 0.019122325
0.08059687 -0.07154286 0.008821001 -0.06593839 0.062709905 0.07139733 0.05948894 -0.03871302
-0.062260855 -0.05224109 -0.028284816 0.043059513 -0.01740859 0.08157733 -0.078966744 0.008568695
-0.07203895 -0.08041052 -0.058454785 0.0074042263 -0.085009694 -0.007035694 -0.04302694 -0.05277495
0.08183043 -0.036322508 -0.08590798 0.056623302 -0.09067018 -0.0034015703 -0.06666477 0.049858324
0.031541258 -0.013411146 -0.021218114 -0.063239746 -0.065370016 0.036385853 -0.066865385 -0.030462844
0.06915034 -0.07895414 0.002135164 -0.030861828 0.042868294 -0.03133936 0.07480864 0.027594432
-0.054048713 0.021075873 -0.0031074367 -0.005956649 -0.051810272 0.041970335 0.01740187 -0.0074522793
-0.04532685 0.082813576 -0.07496262 0.03595518 -0.08022669 -0.07008634 0.031013919 0.024452522
-0.016855499 0.04082486 -0.010246509 0.026267517 -0.069617525 0.041610487 -0.023379013 0.062066793
-0.07538899 0.009557624 -0.02950956 0.038973454 -0.06776644 -0.07368987 0.030989243 -0.0075577265
-0.061199106 -0.06252412 -0.07352497 0.02213757 0.037561662 -0.041952386 0.057242375 0.052733477
0.012312381 -0.052025735 -0.0685878 -0.033469602 -0.054221455 0.020074569 0.05992764 0.079431295
-0.04136316 -0.043574158 0.016258072 -0.022011269 0.056339685 -0.07706904 0.042466242 0.007061485

model.net.6.weight f4 [128, 128]
00000000: e0c6 853d 4c8f 0bbd da48 353d 68dc aa3c
00000010: 9f54 83bd f315 8fbd de44 463d 20eb 03bd
00000020: c529 703d 0579 a13c 88f5 783c 52a2 6a3d
00000030: 8980 66bc c19e b0bc a6d6 1a3d df5e 3b3c
00000040: 1d7f 523d 8605 793d 0cd2 ae3d ae0d 423d
00000050: 3d9b 9cbb 520a 96bd dcf6 fcbc c7a0 6fbc
00000060: d501 ac3a 53e2 75bd 076a c0bc f233 983d
00000070: 9d53 3bbd 1ae0 34ba c3b6 3e3c b06d 7c3b
00000080: f0d4 89bb d02b b13d 7bbf 783d 937b 353d
00000090: cc66 d2bc 7770 92bd 8e0f 793d 8ecd 7dbd
000000a0: 9629 56bd 2e33 37bd 6830 8fbb 8b6b c03c
000000b0: e739 1f3d 86ca 943c 88d8 8dbd e497 013d
000000c0: ad86 6ebd 2a4b 4e3d 2d4d 87bd a116 943c
000000d0: e84a aabd 1269 9f3d 5f87 053d 8391 8cbc
000000e0: 98c9 913a d9df be3b e5ce 92bd 85bc 60bd
000000f0: d9da 973b 503e 6d3d b805 4e3d 9b5a 7e3d
00000100: a04a 923d 6e3a c33c ccab 86bd 4f9f f33c
00000110: 2cea 40bd 3b06 d9bb 6ce2 80bd ae4b 363d
00000120: 86ff 44bd 7e5c 463d 84ef 113d 1a4f 653d
00000130: 8bb9 6c3d a991 db3c 9394 2fbd 5764 393d
00000140: 4956 a33d 3e09 633d 303f 6fbd 4bcf 0a3d
00000150: 22de e5bc 593e 923d f3fb ffbc 726c a7bc
00000160: 39bc 103d dc99 b4bd 8a02 c73c c34e 5a3d
00000170: 1008 dabc 6f2f aebd b0c8 b7bd a7c4 97bd
00000180: 8fdb 97bd 8471 383d 0226 f6bc 53f1 debc
00000190: c29c 863d c386 ef3c 0b1c 85bd f6d4 d13c
000001a0: 108a 2d3d be3d 30bd 6dd6 bd3c a31c 1ebd
000001b0: aae8 a8bd ee46 7bbd c321 57bd d9ec 703d
000001c0: 0fbc 9c3d f5d2 82bd 5e6f 6b3d e5d9 3bbd
000001d0: 589f 59bc cc63 933c c699 213c 42d3 513c
000001e0: 25be adbd 3665 b43c b434 cdbd 1eaa c43d
000001f0: 91ba a13d b10b b1bd 06d9 f93c 8702 743d
00000200: 2eb5 81bd a2c9 8d3c 26ad f8bc 97ba 80bd
00000210: 2192 34bd 9102 39bd 4a43 84bd 6309 0bbc
00000220: 31c4 ab3d 9571 b93c ed18 253b 0195 a0bd
00000230: cbf8 503d 7c9c b23d 2afa afbb ea28 a73d
00000240: 4afc ab3d 97d2 f43c 724c 8ebd 84af 00bd
00000250: cf77 86bc e31e b7bb b9f5 29bd 4f48 05bd
00000260: 1a78 12bd ce35 a7bc fa85 94bd a50c 66bd
00000270: d462 fc3c 3b2e 8c3d 5bce 9e3d 67e4 853d
00000280: 47fb bcbd 514a 4abc 3c1f fdbc ef10 f73c
00000290: 2a46 aa3d 6475 763d 2047 653d 327c 26bd
000002a0: 1f5e 893d fc08 7dbd c19d 81bd 92e8 e03c
000002b0: 4571 893d 67b3 523d 29e7 afbd 50c9 493d
000002c0: 9ab0 f4bc 6f08 aa3c a6d9 21bd 6ab3 34bd
000002d0: 7d4d d2bc 62ab 5c3c 6f9a 183d e9da 38bd
000002e0: 6375 e4bc ffc5 713d 7751 31bd d70a 65bd
000002f0: fa6f 103b 794a 263d d425 35bc eca4 2b3c
00000300: 360d ab3d bd11 2f3d 23fb b4ba 40f1 6c3d
00000310: 8fee 25bc 729c 46bd 28e5 213d 72d5 72bd
00000320: a744 f03c 3dd7 2c3d 6a00 193d ee7e d33b
00000330: ad45 643d 4118 7e3d c11b 643d 5007 73bd
00000340: 84ae d13c 4f34 073d 902c 873d a9a9 b43d
00000350: 28b2 abbd 09f1 a13d ef97 6c3c ec91 46bd
00000360: 355e 9abd 8f9a 093d 2d26 7f3d a835 803d
00000370: e4f5 4e3d f983 86bd 3fd7 bdbd 3620 a7bc
00000380: fcb9 31bd 0343 81bd a8c8 bcbd 5526 1a3d
00000390: 5312 f83c 63e7 4d3d b9f5 44bd 7cbb 65bd
000003a0: afa1 023c 9ad3 273d c0cd 193d 59e2 013d
000003b0: c227 07bd a349 e73b 0d28 11bd 5a7d 8d3d
000003c0: 7500 5c3d bab0 e13a 4fe5 c9bb 2c3e 883d
000003d0: ab6e 8abd 2647 1f3c 6b2f 193b 7f23 d8bc
000003e0: 2548 e8bb 6eea 79bd c4ac 3e3a 6159 5c3d
000003f0: a660 7c3d f663 743d fe30 d43c d7c4 b33d
0.06532073 -0.034072205 0.04425893 0.020857051 -0.064126246 -0.06986608 0.04840552 -0.032206655
0.058633585 0.019711027 0.015195258 0.057283707 -0.014068731 -0.021560075 0.03780236 0.011436193
0.051390756 0.060796283 0.08536157 0.047376327 -0.004779248 -0.07326187 -0.03087943 -0.014625735
0.0013123105 -0.060030293 -0.023488058 0.07431783 -0.045734037 -0.0006899849 0.0116402535 0.0038517527
-0.0042062923 0.08650935 0.060729485 0.044307303 -0.025683783 -0.07150357 0.06080585 -0.06196361
-0.052285753 -0.044726543 -0.004369784 0.02348878 0.03887358 0.018162977 -0.06926066 0.031638995
-0.058233906 0.05036465 -0.06606517 0.018077197 -0.083150685 0.077837124 0.032599803 -0.01715923
0.0011122702 0.0058250246 -0.07168368 -0.054867286 0.004634243 0.057920754 0.050298423 0.062098127
0.0714314 0.023831572 -0.065757364 0.02973905 -0.047098324 -0.006623057 -0.062931865 0.044505768
-0.04809525 0.04842805 0.03562881 0.05598364 0.057794135 0.026802855 -0.0428663 0.045261707
0.07975442 0.055428736 -0.05840987 0.033889096 -0.028060023 0.07140798 -0.031248068 -0.020437453
0.035335753 -0.08818409 0.024293203 0.05329777 -0.026615173 -0.08505141 -0.08973825 -0.07410555
-0.07414924 0.045030132 -0.03004742 -0.027214682 0.06572868 0.029239064 -0.064994894 0.025614243
0.042367995 -0.043027632 0.023173535 -0.03860153 -0.08247502 -0.06134694 -0.052522432 0.058819626
0.07653057 -0.06387893 0.057479255 -0.045862097 -0.013282619 0.017991923 0.009863323 0.012806715
-0.08483533 0.022020917 -0.10019818 0.0960276 0.07896913 -0.08644808 0.030498993 0.059572723
-0.063333854 0.01730806 -0.030356001 -0.06285589 -0.044084672 -0.045168463 -0.06458147 -0.008486125
0.0838703 0.022637168 0.002519186 -0.0784092 0.051018517 0.08721253 -0.005370398 0.081621006
0.0839773 0.029885573 -0.069481745 -0.031417385 -0.016414551 -0.005588399 -0.041494105 -0.032539662
-0.03575907 -0.020411398 -0.072521165 -0.056164403 0.030808844 0.06844755 0.07754203 0.06537705
-0.09227615 -0.01234682 -0.030898683 0.030159442 0.08314164 0.060170546 0.055976033 -0.040645786
0.06707405 -0.061776146 -0.06328917 0.027454648 0.067110576 0.051440623 -0.08589012 0.049264252
-0.029869366 0.020755975 -0.039514206 -0.044116415 -0.025671715 0.013468595 0.037256654 -0.045130644
-0.027888006 0.059026714 -0.04329058 -0.05591854 0.00220394 0.040598366 -0.011056382 0.010476332
0.08352129 0.042741526 -0.0013807755 0.05784726 -0.010127678 -0.04848904 0.03952518 -0.05928559
0.029329611 0.042197455 0.03735391 0.00645434 0.05573051 0.06203485 0.05569053 -0.059333146
0.02559591 0.03300887 0.066002965 0.088214226 -0.0838359 0.07907302 0.014440521 -0.048479006
-0.075375 0.033594664 0.062292267 0.06260234 0.05052747 -0.065681405 -0.092695706 -0.020401102
-0.04339026 -0.063116096 -0.0921796 0.037634213 0.030282175 0.050269496 -0.048085902 -0.056087002
0.007973119 0.040973283 0.037549734 0.031710003 -0.0329969 0.0070583387 -0.035438586 0.069086745
0.053711373 0.0017218806 -0.006161369 0.06652483 -0.067593895 0.009721553 0.002337421 -0.026384113
-0.0070886784 -0.061014585 0.0007273669 0.053796176 0.06161561 0.059665643 0.025902268 0.087777786

model.net.6.bias f4 [128]
00000000: 3e76 4cbd bb62 b1bd e0b4 b6bc 620f 8e3b
00000010: 7dc5 0d3c 687d 28bb 36f6 b5bd 6fdf e3bc
00000020: 7579 5dbd 4340 95bc dcb9 3dbd 2649 cebb
00000030: ef0f a4bc 0a0e 9fbd 1414 2c3d 0c78 ca3c
00000040: afe7 a03c 6a6a fb3c 2304 7dbb ddfa ab3c
00000050: 8e3f b9bd de5e 7b3d 73dd 973d fc57 0cbd
00000060: 9eb1 913d e37b f9bc 9219 063d a00b 08bd
00000070: 273a 5cbd efb5 30bd 293b 7f3d c950 ffbc
00000080: 1f97 91bd 071d ed3b 990e 6fbd a14f 74bd
00000090: 049d 56bd c18c 5ebd 1233 62bd fbee 103d
000000a0: d072 f0bc 7255 c33c 2124 9c3d e15b d33c
000000b0: a0b7 ba3d 20aa 943d 98e1 163c e6e6 183d
000000c0: 03c2 a53d aed0 83bd 9443 66bd 8b38 763d
000000d0: 51b0 283d 3b2c d63c 0fe5 8a3c dded 5dbd
000000e0: 9b59 183d c3a5 96bb fb48 e13b 4212 a93d
000000f0: 4ed8 443d 8ecc 43bb d220 babc 0c3d 53bd
00000100: 5c97 1d3d 2a4e b53d dc63 39bd c047 80bd
00000110: 2be8 603d a563 95bd c1f2 ad3d 2395 5b3c
00000120: 622c a23d 6135 ca3b bf9a de3c 94fc a5bd
00000130: 04bc 8bbc bbdc 8f3d 6a94 07bd 248c 9e3d
00000140: bb6d 5abc f754 36bd c0f9 41bd 7691 94bd
00000150: 5826 fa3c 18f0 41bd 58ef 053d fc84 e2bc
00000160: 1a17 513d 671e 723d 2ae8 87bd b74b 50bd
00000170: 7a23 673d 867e ccbc 610e 93bd f5a8 3dbd
00000180: 9b62 a6bd d148 6ebd c1ba 983b 7b1b 843d
00000190: 165f 9f3c 1daf f93b 2d03 95bb 1859 49bd
000001a0: 0dbf 1e3d c191 813d bf54 043d 1a75 9e3d
000001b0: d306 b43d d4a3 d13b 0eb1 40bd 91df 823d
000001c0: 48ea 513c 5959 6abc ee3a 37bc 824a 003c
000001d0: c3c0 37bd 5aa9 4c3d 955b 91bd e167 083c
000001e0: 2f06 babd b378 1f3d c7a0 16bd f0dc 35bc
000001f0: 8878 943d baa6 653c 7cba 4d3b c9d7 013d
-0.049917452 -0.086614095 -0.022303045 0.00433533 0.008653042 -0.0025709514 -0.08884852 -0.027816502
-0.05407091 -0.018219119 -0.046319827 -0.006295341 -0.020027129 -0.077663496 0.042011335 0.024715446
0.019641725 0.03069039 -0.0038607202 0.020993644 -0.09045325 0.06136977 0.07415285 -0.034263596
0.07113956 -0.030454582 0.03273923 -0.03321421 -0.053766396 -0.043142255 0.06231228 -0.031166451
-0.07108902 0.0072361263 -0.05836353 -0.059646253 -0.052395836 -0.054333452 -0.055224486 0.03538416
-0.029351622 0.023844454 0.076240785 0.025800647 0.09117055 0.07259011 0.009209059 0.037329577
0.080936454 -0.06436287 -0.05621679 0.060112517 0.041183773 0.026144138 0.016954927 -0.054181922
0.03719483 -0.004597397 0.006875155 0.082554355 0.048057847 -0.0029876563 -0.022720728 -0.05157189
0.038474426 0.08852799 -0.04526125 -0.06263685 0.054908913 -0.07294396 0.08493567 0.013402256
0.079186216 0.006170914 0.027173398 -0.08104816 -0.017057426 0.07024523 -0.033100523 0.077415735
-0.013331826 -0.044514623 -0.04735732 -0.07254307 0.030535862 -0.047348112 0.03269896 -0.027651303
0.051047422 0.059111025 -0.06636079 -0.050853457 0.056430317 -0.024962675 -0.07180477 -0.046303708
-0.08124276 -0.058174912 0.0046609347 0.06450554 0.01945452 0.007619752 -0.0045474977 -0.049157232
0.03875642 0.063266285 0.032307383 0.07737179 0.08790364 0.0063977037 -0.047043853 0.06390298
0.012812205 -0.014303529 -0.0111834835 0.007830264 -0.044861566 0.049966194 -0.07097546 0.008325548
-0.09083211 0.038933467 -0.036774423 -0.011100039 0.07249552 0.0140168015 0.003139167 0.03169993

model.net.8.weight f4 [128, 128]
00000000: 09d0 11b9 1bda 5e3d 6c41 033c cba6 533d
00000010: 6705 783d 27f2 1fbc c189 963d 9904 c33c
00000020: 7846 7e3d 0b31 a4bd 3265 babd 1cbb d93c
00000030: 949c bc3c b852 0ebd 7ce8 95bc 193f c73c
00000040: 0720 a03d 0896 c63c f9d2 b03d b9cc 983d
00000050: d29d cb3c a350 223c beac b3bc c47e 86bd
00000060: f18e 543d 4fe5 373a 8efe 19bd bbfe 16bc
00000070: 467b 5fbd 604d a7bb c790 533d 5339 883d
00000080: 4ca0 79bd 17f4 4b3c 8179 1bbd 52f1 b0bd
00000090: 6fa7 2f3d 2e49 923d d135 953d db74 8b3d
000000a0: f9c3 cabc 66ab c93c 8639 f93c 8f1e 6bbd
000000b0: 48b2 aa3d 62c6 94bd bc85 5f3c e5a9 febc
000000c0: c564 293d aec6 813d 5936 a63b 9bfe 13bd
000000d0: 7463 7d3d 9f18 b8bd 34a6 9fbb 1d18 abbd
000000e0: 00d5 b3b8 c748 643d fa83 3a3d 6264 1ebd
000000f0: 9f81 19bd d95d 933c 49ed 6dbd 00e0 98bd
00000100: de5e 903d acda da3c 0875 83bd 4fe7 aabd
00000110: faec f03c 6848 edbc 984d 38bd aed4 bd3d
00000120: 3ea3 2d3d 9536 983d 08a5 2c3c faf1 70bb
00000130: f754 58bd 3bfe 133d 28fe 0ebd 7bf5 a2bb
00000140: a7df 7dbb 91c6 713d 05bd 003d edb1 b4bd
00000150: bcd3 b13b 1907 8d3d 29d1 8bbb 3957 903d
00000160: 5080 05bd aad0 78bd bd97 963d b060 03bd
00000170: 23e5 783d a295 913d 2a1e 72bd 01d6 a2bd
00000180: 4f78 47bc b2e6 55bd 4802 8e3d effd 3f3d
00000190: 6bac a93d 5011 51bd 79b1 083c c0c5 113b
000001a0: b6fe 7cbd c7f0 23bd 9d49 3b3d 31f0 3b3c
000001b0: 7ac6 a13d b848 773a cb76 0e3d b36a fd3c
000001c0: 6a26 82bd 0d4f 85bd 8ab6 36bd ac27 0ebd
000001d0: a70e c03c 76a0 44bd 81cc 98bd 40bc 0abd
000001e0: c28f 9ebd 537e e8bb d26e aebd 6b11 79bc
000001f0: e75e 89bd b9e1 a6bd 21c5 803d a655 b03d
00000200: 8fca 71bd 432d 823c d06f a8bd 31c5 4ebd
00000210: cdba aabd aece 5abd 3aab b93d bc9e 053d
00000220: 1596 2f3d bf21 76bd 7b80 e53c d8d0 133d
00000230: 8fb5 fc3c efc3 de3b 5dd3 30bd 5147 263d
00000240: 2d94 9f3d 5ed3 f0bb aa1d b13d 0aee a83b
00000250: b584 ce3c 84c7 6f3d e4e4 8fbc 231d b73c
00000260: ca2e 85bc 6823 89bd 3ce2 043b ec1a 113d
00000270: ac55 883b 4b98 dc3c 3365 c7bc 7c7b 9b3d
00000280: 3772 97bd 96bd 0e3c b10c e13b d882 1a3d
00000290: 5d6f febc 35a3 ab3c bd58 8bbd 063a b53c
000002a0: 77f8 edbc cf37 773d 7262 923d cf4c 963d
000002b0: 508b 53bd b92f 253d 34b7 00bd 9f65 b43c
000002c0: 6e85 0a3d 8b77 96bd afdf a7bd f54f 4a3c
000002d0: 05b2 363c a9d0 86bd fc0f 123d cac3 6d3d
000002e0: 32e4 a5bc 248c b0bd 2a8e a63c 44d4 4cbd
000002f0: d8d5 efbb c946 cabc d11e 543d 84f9 c53c
00000300: e033 86bd 03a7 aabd db95 23bd e8f1 a6bd
00000310: 176a 14bb 463f 1cbd fa71 09bd aee7 acbd
00000320: b626 863d 0858 62bd c627 17bd b6c6 843d
00000330: d56f 30bb cc37 d1bc 0aa7 ff3c 44c1 18bd
00000340: 3b42 543d d16e 64bc 4ed6 4c3d dd47 253c
00000350: 8598 26bd 6146 03bd 92f9 9d3b 80a3 b1bc
00000360: e75d 523d fb86 5a3d 5258 60bd a24c 40bd
00000370: 64a1 98bc 7ae4 a23d 2c68 733b 1301 823d
00000380: 9e1e f33c 5c07 ef3a cde1 9cbd 8709 e7bb
00000390: 102b 79bd 7960 63bd 7c69 2e3d 9ee5 4cbd
000003a0: 3a5d 39bd b8e7 843d 6122 27bd b7c8 8dbd
000003b0: 7d0e dcbc b6eb 63bb 8c01 8dbd fd0e b8bd
000003c0: 548d a6bd 5c38 13ba ff5a 9abb 4ae9 9dbd
000003d0: c105 5dbd 6295 53bb bb5d 9bbd 4255 64bd
000003e0: ee34 f0bc 3c14 c1bd 90f7 c4bc ee11 dcbc
000003f0: 0901 353c 10d6 6abb ab7e 373d 56c2 e6bc
-0.00013905777 0.05440722 0.008011203 0.051672738 0.060552027 -0.009762323 0.07350493 0.023805903
0.062078923 -0.08017167 -0.09101333 0.026578479 0.023023881 -0.034746855 -0.018299334 0.02432208
0.07818609 0.024241462 0.0863399 0.07460923 0.024855528 0.009906921 -0.021932956 -0.065671474
0.051894132 0.00070150656 -0.037596278 -0.009216006 -0.054560922 -0.0051056594 0.051651742 0.06651559
-0.060943887 0.012448332 -0.037957672 -0.08639778 0.042884286 0.07142864 0.07285655 0.06809398
-0.02475165 0.024617862 0.030422937 -0.05740219 0.08334786 -0.07264401 0.013642725 -0.031086871
0.041355867 0.06336723 0.0050723967 -0.036131483 0.061862424 -0.08989071 -0.004872108 -0.083542086
-8.5750595e-05 0.05573347 0.04553602 -0.03866995 -0.037477132 0.017989086 -0.05808762 -0.074645996
0.070493445 0.026715599 -0.06418806 -0.083449 0.029409874 -0.02896519 -0.044995874 0.09269081
0.042392008 0.07432286 0.010537393 -0.0036765323 -0.052815404 0.036131125 -0.03491035 -0.004973111
-0.0038738044 0.05902726 0.031430263 -0.08822999 0.005426852 0.068861194 -0.004266877 0.070478864
-0.03259307 -0.060745873 0.073531605 -0.03207463 0.060765397 0.07108618 -0.059110798 -0.07950974
-0.01217468 -0.05222196 0.06934029 0.04687303 0.08284839 -0.0510419 0.008343094 0.0022243112
-0.06176635 -0.040024545 0.0457245 0.01147084 0.078991845 0.0009433138 0.03478126 0.030934667
-0.06354983 -0.06509218 -0.044607677 -0.034705803 0.023444487 -0.04800459 -0.07460881 -0.033870935
-0.077422634 -0.007095137 -0.08517231 -0.015201907 -0.06707554 -0.08148522 0.06287599 0.08610086
-0.059031066 0.015890723 -0.082244515 -0.050481025 -0.08336411 -0.05341976 0.09065862 0.032622084
0.04286774 -0.060090777 0.028015366 0.03608784 0.030848293 0.0067982594 -0.04317032 0.040595356
0.07791934 -0.0073494157 0.08648236 0.0051553296 0.025209764 0.058539882 -0.017565198 0.02235276
-0.016257662 -0.06696206 0.0020276448 0.035426065 0.0041606035 0.026928088 -0.024340248 0.07591912
-0.07394832 0.008712193 0.006867968 0.03772244 -0.031058962 0.020951847 -0.06804035 0.022122394
-0.029049141 0.060355958 0.07147683 0.07338869 -0.05164653 0.040328715 -0.031424716 0.022021113
0.033818655 -0.0734702 -0.08196961 0.012348165 0.011150842 -0.065827675 0.035659775 0.058048047
-0.020250414 -0.0862048 0.020331461 -0.05000712 -0.0073191933 -0.024691956 0.0517872 0.02416683
-0.06552863 -0.08332636 -0.039937835 -0.08151609 -0.0022646242 -0.03814628 -0.033555962 -0.08442627
0.06550352 -0.055259734 -0.036903165 0.064832136 -0.0026922126 -0.025539301 0.03120758 -0.037293687
0.051820975 -0.013942436 0.050009064 0.010087934 -0.040672798 -0.03204954 0.004821011 -0.021684408
0.051359084 0.053351384 -0.05477173 -0.046948083 -0.018631645 0.07953735 0.0037140949 0.06347861
0.029677685 0.0018236446 -0.076602556 -0.0070506963 -0.060832083 -0.055511925 0.042581066 -0.050023668
-0.045254923 0.06489509 -0.04080427 -0.06923049 -0.026862377 -0.0034777946 -0.06885061 -0.08987234
-0.08132425 -0.0005616003 -0.0047105546 -0.07710512 -0.053960565 -0.0032285084 -0.07586237 -0.05574537
-0.029322114 -0.094276875 -0.024043828 -0.026864018 0.01104761 -0.0035833158 0.044798534 -0.028168838

model.net.8.bias f4 [128]
00000000: 9915 89bd 0424 8b3b 48bf 2cbd 17bd a83c
00000010: a918 9dbd b49d 403d 664f 853d 6e34 953d
00000020: a490 a2bc 6f65 73bd 18b1 463d e672 523d
00000030: 9794 18bd dcd4 4d3d 455c ac3c 1511 c9bc
00000040: 5033 4f3d 2bd6 453d 8e18 d33c 581e 5cbd
00000050: 8c36 87bc 10fa a33d 33e2 88bb 9536 a9bd
00000060: a4a3 813a 8a7c 05bd 2c94 093d f23c 35bd
00000070: fbd6 9cbc d557 8abd c38e a0bd 6930 63bd
00000080: c92d 50bd 1d63 a43c 279e 1e3d b23c 6d3d
00000090: f419 2fbd a282 62bd 1b56 d63c 6635 40bd
000000a0: 16b3 69bd 4064 9b3c d149 363d 909a e63b
000000b0: a9c1 96bd a559 c53c 05b5 2f3d f2a8 4fbc
000000c0: 9a88 4ebd d1cc 613c 1385 643c 074d 3cbd
000000d0: 1392 0cbd b7cc 37bd ee40 a0bc 3569 033d
000000e0: 430c 25bd 83aa cf3b c40e 2cbd 8be2 c4bc
000000f0: 2e4e 453c ef84 173d c1fd 683d 9084 8ebd
00000100: d859 e7bb f363 afbc 75f4 813d 2a6f 14bd
00000110: 2d7c c1bc 38a6 5abd 8253 303d 1b01 e0bc
00000120: 30b0 bb3b 9a80 ecbc aaa3 6ebd ab64 94bd
00000130: 713d ea39 7576 633b 6ef5 903a c850 973d
00000140: ad4d 71bd 2916 10bc 54ef 2c3c 4dae 7e3d
00000150: baf6 563d 879c 6b3d db1b a1bd 4c3d cd3c
00000160: 049a 95bd 127c f03c a41f 92bd 3d3e a23d
00000170: c13e ae3d f115 6e3c bb2a 6c3c ad4d 92bd
00000180: 80e7 05bd e1e8 c03a 2fac 58bc a9dc adbd
00000190: 10f7 4abd 5567 42bd 1b08 2a3d d875 693c
000001a0: 8a02 2fbd ac9f 493d e74d 95bd 996f 8e3c
000001b0: d95e 653d 5e33 2dbc 49ae 463c 834d d0bc
000001c0: e65e a2bc a8dc 3bbd e9d1 6e3c ebaa 23bd
000001d0: 7837 d1bc 01e4 95bd b4c9 313d cbd7 99bd
000001e0: 6107 2bbd ebfd 293d ad90 a23d 6ee3 93bd
000001f0: 35f0 b2bd 7080 183d 3137 f4bc b685 0f3d
-0.066935726 0.0042462368 -0.042174608 0.020597978 -0.07670719 0.047025397 0.06509285 0.07285391
-0.01984436 -0.059422906 0.048508734 0.051379107 -0.03725108 0.050251827 0.021040091 -0.024544278
0.050586045 0.04829995 0.025768545 -0.053739876 -0.016505502 0.0800668 -0.0041773557 -0.08262364
0.0009890688 -0.032589473 0.033588573 -0.044247575 -0.01914548 -0.06755034 -0.0783973 -0.05546609
-0.050824914 0.020066792 0.038725045 0.05791921 -0.04274936 -0.055300362 0.026164105 -0.046925925
-0.057055555 0.018968701 0.04450399 0.0070374683 -0.073611565 0.024090597 0.042897243 -0.012674557
-0.050423242 0.013781742 0.013947743 -0.045971896 -0.034318995 -0.044872966 -0.01956221 0.032082755
-0.040294897 0.0063374653 -0.04200627 -0.024033805 0.012042565 0.03699201 0.056882624 -0.06958878
-0.0070602708 -0.021409964 0.063454546 -0.036238827 -0.023618782 -0.053381175 0.04304839 -0.027344277
0.0057277903 -0.028869916 -0.05826155 -0.072457634 0.00044677735 0.0034708057 0.0011059472 0.07388455
-0.058911968 -0.008794346 0.010555107 0.062177945 0.05248139 0.057522323 -0.07866641 0.025053643
-0.07304767 0.029356036 -0.07134941 0.07922027 0.08508063 0.014531598 0.014414485 -0.07143722
-0.03269148 0.0014717841 -0.0132246455 -0.08489353 -0.049552023 -0.047461826 0.041511636 0.014249288
-0.04272703 0.04922454 -0.07290249 0.017387198 0.055998657 -0.010571329 0.012126514 -0.025427585
-0.019820642 -0.04586473 0.014576414 -0.039957922 -0.025539145 -0.07318879 0.04340525 -0.07511862
-0.041755084 0.04150192 0.07937751 -0.07221113 -0.08737222 0.037231863 -0.029811474 0.035039626
