results/edm_swiss_roll/checkpoints/epoch=48-step=1568-v2.ckpt (torch, 387594 bytes, 49 tensors)

model.time_embedding.frequencies f4 [32]
1.0 0.74296397 0.55199546 0.4101127 0.30469894 0.22638032 0.16819243 0.12496091
0.092841454 0.06897784 0.05124805 0.03807546 0.028288694 0.021017475 0.015615228 0.011601552
0.008619536 0.0064040045 0.0047579426 0.00353498 0.0026263627 0.0019512939 0.0014497404 0.001077105
0.00080025016 0.0005945571 0.00044173427 0.00032819266 0.00024383534 0.00018116088 0.000134596 9.999999e-05
00000000: 0000 803f e332 3e3f 934f 0d3f 4bfa d13e
00000010: 8001 9c3e 3ed0 673e a33a 2c3e 81eb ff3d
00000020: a923 be3d 4144 8d3d 7ae9 513d 03f5 1b3d
00000030: b1bd e73c d72c ac3c 03d7 7f3c 7014 3e3c
00000040: f438 0d3c afd8 d13b 84e8 9b3b 1fab 673b
00000050: 0e1f 2c3b 8fc2 ff3a 3705 be3a a52d 8d3a
00000060: e1c7 513a 0ddc 1b3a 9298 e739 4611 ac39
00000070: 0dae 7f39 01f6 3d39 5722 0d39 16b7 d138

model.net.0.weight f4 [64, 66]
0.18933696 0.12972076 -0.032389577 0.10730431 -0.03440292 0.015230742 -0.069946446 0.061283432
0.09808147 -0.10121935 0.095344 0.01195588 0.08044669 0.0064979214 0.04943174 -0.027122032
0.085226275 0.00852578 -0.0672137 0.021473095 -0.066839494 -0.024867084 -0.06084149 0.070282206
-0.10918983 -0.06962896 -0.048664104 -0.08915972 -0.0049885055 -0.13993733 0.09080515 -0.12709008
0.07008672 -0.0070925793 -0.022750514 0.09302118 0.03595393 0.11604244 0.029907791 -0.022485692
0.049323425 -0.017194126 0.067942 0.12600972 0.08724747 -0.037732657 0.087128356 0.038090084
0.07857321 -0.05896424 -0.105789125 -0.031498317 -0.07835471 0.11706064 0.0515133 0.067045346
0.054988086 0.013917818 0.1123916 -0.071398996 0.023809364 -0.0679557 0.054014534 -0.026331482
0.05377626 -0.009585943 0.19322363 -0.08090297 -0.18654633 -0.18760876 -0.0036780364 -0.053193737
0.041279055 -0.1472811 -0.15716584 -0.1187052 -0.09521234 0.03954866 0.03511645 0.095078334
-0.06948775 -0.08895966 0.060997427 -0.05332491 0.072002776 -0.030880691 0.06998969 -0.0945278
-0.0592271 0.04244505 0.033231713 -0.021727297 0.085498996 0.09826026 -0.07237517 -0.04668547
0.13349684 -0.01935465 -0.020288637 -0.09489024 -0.09314589 0.007482782 -0.040106717 -0.11338847
-0.021316519 -0.108211696 -0.12845594 -0.091612004 -0.13133161 -0.1018289 0.09970958 1.17535e-05
0.01476384 -0.13792823 -0.10393828 -0.06405136 -0.0038233707 -0.13137673 -0.07609925 -0.09675199
-0.022719191 -0.06886274 -0.031589653 -0.106469594 -0.10754855 -0.09487089 -0.065193 -0.12021291
0.08014941 -0.04748849 0.08284842 0.015293868 -0.21245451 0.050277244 -0.0099307485 -0.035863303
-0.10022648 -0.12676512 0.024367496 -0.043853257 0.027516091 -0.12191326 0.07017429 -0.11026199
-0.041114062 0.007160245 0.045410506 0.081150845 0.09377459 -0.11606543 0.012417385 -0.07159627
-0.032234434 -0.11098357 0.09315938 -0.1094746 0.046506077 0.023801597 0.02026364 -0.08651379
0.09158874 0.0062996084 -0.005323302 -0.13018818 0.029308671 -0.04154925 -0.035738744 0.12621538
0.047684614 -0.048079226 -0.042448994 0.013824093 0.08831392 -0.011984837 -0.050845213 -0.022814527
-0.07265569 0.06317789 0.11454258 -0.096627444 0.047839105 0.08283567 0.04156593 -0.024591075
0.08349106 0.08393036 0.06527124 -0.0023861057 -0.013351161 0.032412056 -0.002501047 -0.017437788
0.097924516 0.1250283 0.0070578447 -0.008316238 0.021039791 0.0118939895 -0.067846045 0.037008014
-0.09571139 -0.0325341 0.113053836 0.05636562 0.0011593164 -0.066902176 -0.06962751 -0.10658261
-0.038427714 0.042281486 0.07842957 0.05596887 -0.110384874 -0.076106675 -0.02177037 0.11666943
0.015490251 -0.03398413 0.049156316 -0.048218194 -0.08043435 0.089771464 -0.055222455 -0.023019722
-0.11980347 0.086087905 0.09791832 0.050385937 -0.07955039 -0.11467585 -0.09282306 0.099024236
0.059624135 0.10408852 0.06494621 0.031589355 -0.0007973235 -0.09321476 -0.10506477 -0.11473874
0.050780505 -0.060045023 -0.02438424 -0.07045246 -0.022043906 -0.08625019 -0.08004452 0.041216478
-0.036196742 0.07637514 -0.039103277 -0.08991041 -0.021332527 -0.05928277 -0.037273314 -0.11679728
00000000: 8ce1 413e 85d5 043e efaa 04bd 5dc2 db3d
00000010: 14ea 0cbd 5d8a 793c 1540 8fbd 5604 7b3d
00000020: f0de c83d 174c cfbd b743 c33d 98e2 433c
00000030: 3cc1 a43d 84ec d43b f078 4a3d 062f debc
00000040: 1d8b ae3d b7af 0b3c 56a7 89bd 58e8 af3c
00000050: 25e3 88bd 0eb6 cbbc ed34 79bd 1ef0 8f3d
00000060: eb9e dfbd a199 8ebd 0354 47bd 5f99 b6bd
00000070: 9e76 a3bb bb4b 0fbe 0df8 b93d e723 02be
00000080: a089 8f3d de68 e8bb 495f babc e381 be3d
00000090: 6e44 133d a9a7 ed3d 2f01 f53c ea33 b8bc
000000a0: 5c07 4a3d b2da 8cbc 2d25 8b3d b108 013e
000000b0: cdae b23d 8f8d 1abd 5a70 b23d 5904 1c3d
000000c0: feea a03d 7d84 71bd f8a7 d8bd 6104 01bd
000000d0: 6f78 a0bd 7dbd ef3d 9cff 523d 124f 893d
000000e0: 303b 613d 8f07 643c 912d e63d a339 92bd
000000f0: db0b c33c 5c2c 8bbd 583e 5d3d 1fb5 d7bc
00000100: 7f44 5c3d 5c0e 1dbc 6adc 453e 75b0 a5bd
00000110: 0006 3fbe 831c 40be 360b 71bb ade1 59bd
00000120: 3a14 293d dbd0 16be 15f0 20be b61b f3bd
00000130: b0fe c2bd c7fd 213d 44d6 0f3d 6eb8 c23d
00000140: 984f 8ebd 7b30 b6bd 70d8 793d 396b 5abd
00000150: 3176 933d 81f9 fcbc c156 8f3d cb97 c1bd
00000160: 1e98 72bd dcda 2d3d fa1d 083d 72fd b1bc
00000170: 191a af3d ad3c c93d 6f39 94bd 4339 3fbd
00000180: 65b3 083e a58d 9ebc 5b34 a6bc d055 c2bd
00000190: 46c3 bebd 2032 f53b f146 24bd 3738 e8bd
000001a0: fb9f aebc 189e ddbd f489 03be 139f bbbd
000001b0: cb7b 06be ac8b d0bd 8934 cc3d e630 4537
000001c0: 08e4 713c 0f3d 0dbe 98dd d4bd 5c2d 83bd
000001d0: 8491 7abb 9f87 06be ecd9 9bbd e825 c6bd
000001e0: 991d babc e907 8dbd 2764 01bd bb0c dabd
000001f0: 6a42 dcbd ab4b c2bd e883 85bd 3032 f6bd
00000200: 6025 a43d 4a83 42bd 6fac a93d 2293 7a3c
00000210: ad8d 59be 83ef 4d3d 94b4 22bc 66e5 12bd
00000220: 8a43 cdbd b7ce 01be 589e c73c 799f 33bd
00000230: 6d69 e13c a9ad f9bd 8ab7 8f3d 0ad1 e1bd
00000240: 3867 28bd 7da0 ea3b 5e00 3a3d 6a32 a63d
00000250: e40c c03d b6b3 edbd 4a72 4b3c 11a1 92bd
00000260: 4108 04bd 5b4b e3bd 58ca be3d 3834 e0bd
00000270: 287d 3e3d 91fb c23c efff a53c 242e b1bd
00000280: e192 bb3d f26c ce3b 186f aebb 0d50 05be
00000290: bd18 f03c 8c2f 2abd ca62 12bd 9b3e 013e
000002a0: f150 433d b9ee 44bd ffde 2dbd 737e 623c
000002b0: eedd b43d 0d5c 44bc 1243 50bd 88e5 babc
000002c0: 82cc 94bd 6963 813d 4d95 ea3d 9ce4 c5bd
000002d0: f0f2 433d bfa5 a93d 0941 2a3d 3973 c9bc
000002e0: 5cfd aa3d aee3 ab3d eeac 853d 3660 1cbb
000002f0: d4be 5abc 81c2 043d 9be8 23bb b1d9 8ebc
00000300: a68c c83d 6b07 003e 7e45 e73b d540 08bc
00000310: a45b ac3c 02df 423c def2 8abd b795 173d
00000320: 5504 c4bd 7a42 05bd c588 e73d a3df 663d
00000330: 34f4 973a 0204 89bd de98 8ebd fc47 dabd
00000340: 6166 1dbd 5a2f 2d3d af9f a03d 9d3f 653d
00000350: 7711 e2bd d1dd 9bbd c657 b2bc 62f0 ee3d
00000360: d2ca 7d3c f132 0bbd 2258 493d 7180 45bd
00000370: c4ba a4bd 1ada b73d f130 62bd db93 bcbc
00000380: 865b f5bd db4e b03d 6689 c83d 7c61 4e3d
00000390: 51eb a2bd 2cdb eabd 041a bebd 38cd ca3d
000003a0: 7038 743d 5d2c d53d 8502 853d d763 013d
000003b0: 7903 51ba 61e7 bebd 332c d7bd 25fc eabd
000003c0: 38ff 4f3d c5f1 75bd 75c1 c7bc 6149 90bd
000003d0: 6c95 b4bc f1a3 b0bd 62ee a3bd 9cd2 283d
000003e0: 0943 14bd 926a 9c3d c22a 20bd f322 b8bd
000003f0: 8dc1 aebc 7dd2 72bd e7ab 18bd 6a33 efbd

model.net.0.bias f4 [64]
-0.067260556 -0.1201933 0.10820521 0.0138333365 0.0046302886 -0.101721466 0.114421055 -0.07230187
0.058510788 0.00089790585 0.010966763 0.059899766 -0.019268606 -0.019579682 0.11459633 -0.0915162
0.0647154 -0.027857583 -0.027154533 0.08865495 0.03032464 -0.096133925 0.12592211 -0.04520665
0.1171009 -0.03096758 0.13212526 0.049655125 0.008938905 0.06366445 0.007542198 -0.0628126
0.0740636 0.09924592 -0.010398989 0.12343485 0.022743747 -0.08845047 -0.06262321 0.09513143
-0.03869644 0.081327796 -0.105706304 0.019629965 -0.073397644 0.054255754 0.1079886 0.07269277
-0.034594413 -0.10846059 -0.052918497 -0.027801696 0.1255872 -0.053736452 0.06434314 0.06795646
0.04763747 -0.1202894 -0.000539557 -0.031676717 0.09271089 -0.0036004425 0.002042646 0.117273
00000000: e7bf 89bd e827 f6bd b19a dd3d 38a5 623c
00000010: adb9 973b 5853 d0bd 9655 ea3d 0113 94bd
00000020: 02a9 6f3d 7161 6b3a f0ad 333c 7559 753d
00000030: 32d9 9dbc 9265 a0bc 7bb1 ea3d d86c bbbd
00000040: 8289 843d 9635 e4bc 2f73 debc ba90 b53d
00000050: 616b f83c dde1 c4bd baf1 003e 9c2a 39bd
00000060: 99d2 ef3d b9af fdbc d84b 073e 2c63 4b3d
00000070: 7c74 123c 8262 823d 8b24 f73b e4a3 80bd
00000080: a8ae 973d 7241 cb3d 8560 2abc 69cb fc3d
00000090: 1851 ba3c 8525 b5bd 9940 80bd 44d4 c23d
000000a0: 2980 1ebd 308f a63d 8c7c d8bd 05cf a03c
000000b0: 8151 96bd 483b 5e3d 2129 dd3d f2df 943d
000000c0: dfb2 0dbd 9620 debd 11c1 58bd 62c0 e3bc
000000d0: ee99 003e c11a 5cbd 56c6 833d c22c 8b3d
000000e0: 821f 433d 4a5a f6bd 0f71 0dba 72bf 01bd
000000f0: 35df bd3d 67f5 6bbb eadd 053b d42c f03d

model.net.2.weight f4 [64, 64]
0.07319944 0.047542334 -0.08394461 0.07524248 0.018849352 0.021238979 -0.05802926 -0.05561572
-0.001255248 -0.008915053 -0.15892607 -0.0742491 0.11088288 0.048823275 0.026508208 -0.008070639
-0.045976233 0.117106035 0.017467244 -0.05116179 0.045909975 -0.1619759 0.0005798369 0.0768056
-0.08181142 0.08058606 -0.08705746 -0.08156959 -0.004791916 0.04047576 0.06384988 -0.08606966
0.059450135 -0.053026877 0.116662584 0.08888286 -0.14821446 0.11018899 -0.005897554 -0.0021073308
-0.037693523 0.14244343 -0.0330827 -0.19626506 -0.020373018 0.15130375 -0.12824099 -0.13031118
-0.074431546 -0.09658091 -0.1318814 0.017777285 0.12442882 0.03720397 0.00615346 0.0062215487
0.049294688 0.06298618 -0.06348557 0.09340415 -0.054279 0.14115433 -0.07229795 0.0676966
-0.023164734 0.04803695 0.07195072 -0.103303865 0.025159413 0.05048826 0.012338975 -0.10237036
-0.10044613 -0.015028876 0.03191898 -0.0014803263 -0.02213355 -0.059413455 0.0697836 0.0042220843
-0.06225814 -0.026072145 -0.08195391 -0.023937872 -0.08605153 0.05783796 -0.09944782 0.0046003424
0.12939481 -0.084727935 -0.06368482 -0.046966568 0.008374791 0.08528101 -0.09658839 0.042424895
0.056939837 -0.05781077 -0.026263457 -0.0526076 0.05320695 0.051350627 -0.010338408 -0.08981099
0.14577541 -0.111676365 0.005199557 0.11213962 0.11315959 0.109109074 0.051804755 0.1132855
-0.11307859 -0.01233687 0.005388425 0.064761154 -0.14137262 0.10197517 0.12887101 0.07228069
-0.023732005 0.102330305 -0.1413536 -0.042593878 0.037393745 0.010378503 0.047401235 -0.107455075
0.10911924 -0.11597503 -0.07870745 -0.0044821543 -0.077033885 -0.10358177 -0.11234413 0.065194555
0.032806944 -0.08707506 0.0010169954 -0.12321479 -0.1921703 -0.054960217 -0.12170823 0.14976789
-0.05591357 -0.048725992 -0.08279903 0.040891163 -0.013125194 -0.06531944 0.09619972 0.11151078
-0.04816928 0.055315293 -0.025700234 -7.95504e-05 0.0347272 -0.010360759 0.14676365 0.2107517
-0.0684944 -0.053888753 -0.13397835 0.038806275 -0.10236465 -0.114126906 -0.08372231 -0.13985139
-0.105346225 0.102425985 0.05158693 0.12770538 -0.08897223 -0.065634176 -0.043358542 -0.022715183
-0.09166588 0.09155749 -0.13963778 -0.0042536273 0.14173354 0.022391137 0.0779978 -0.093432285
-0.030511389 -0.07158622 0.007531697 -0.055105656 -0.09485587 -0.10512117 -0.021313438 0.05224219
-0.039025936 -0.12264995 0.14329267 0.08451203 -0.09153296 -0.007623849 0.1610487 -0.15514119
-0.121574365 0.11543339 0.0453698 0.030823532 -0.09174005 0.00058143924 0.07085114 -0.025400909
-0.037267853 -0.11915419 -0.023557128 0.10131937 -0.089733586 0.031246014 0.088367395 -0.08539085
0.0075943954 -0.0377275 -0.05372567 0.0599018 -0.15662202 0.110991575 -0.062565506 -0.028128445
-0.0064912466 0.12723164 -0.09688558 -0.11669393 -0.022009216 -0.109394155 -0.06362307 0.08758897
-0.038334027 -0.076843 -0.051834777 0.0031400162 -0.024163952 -0.0962724 0.082727045 0.10533104
-0.029243343 0.07472776 0.06859184 0.13772178 -0.061417602 0.18100591 0.15248333 0.039887063
0.06920889 -0.08888563 -0.104775496 0.040180422 0.022756344 0.09088131 -0.02212365 -0.041613832
00000000: 97e9 953d c0bb 423d 27eb abbd bb18 9a3d
00000010: f569 9a3c 5efd ad3c 17b0 6dbd 4fcd 63bd
00000020: 2287 a4ba 7110 12bc 84bd 22be ea0f 98bd
00000030: 9016 e33d eafa 473d be27 d93c b73a 04bc
00000040: 9351 3cbd 4ad5 ef3d 7717 8f3c 068f 51bd
00000050: 190c 3c3d 03dd 25be 3200 183a 414c 9d3d
00000060: bf8c a7bd 4e0a a53d 2e4b b2bd f50d a7bd
00000070: 8105 9dbb e9c9 253d bac3 823d 4a45 b0bd
00000080: fc81 733d b632 59bd cbec ee3d 3808 b63d
00000090: 88c5 17be c4aa e13d 4540 c1bb 251b 0abb
000000a0: 8664 1abd b1dc 113e ba81 07bd b5f9 48be
000000b0: 51e5 a6bc 5fef 1a3e 9b51 03be 4b70 05be
000000c0: 916f 98bd 36cc c5bd eb0b 07be aba1 913c
000000d0: 8ad4 fe3d 3163 183d f7a2 c93b 22de cb3b
000000e0: 3ae9 493d e6fe 803d b904 82bd ad4a bf3d
000000f0: a853 5ebd c38a 103e f310 94bd 84a4 8a3d
00000100: f8c3 bdbc 65c2 443d e65a 933d fa90 d3bd
00000110: 1d1b ce3c c7cc 4e3d 6a29 4a3c 8da7 d1bd
00000120: b3b6 cdbd ad3b 76bc 7abd 023d 8207 c2ba
00000130: 6b51 b5bc 865b 73bd b4ea 8e3d 6959 8a3b
00000140: 6402 7fbd 4095 d5bc 74d7 a7bd 5b19 c4bc
00000150: c93b b0bd 7fe7 6c3d 4cab cbbd 78be 963b
00000160: 1380 043e d785 adbd 306d 82bd 0460 40bd
00000170: 6b36 093c cfa7 ae3d 22d0 c5bd bac5 2d3d
00000180: bf39 693d fcca 6cbd 7626 d7bc 117b 57bd
00000190: 88ef 593d 0955 523d 6d62 29bc d3ee b7bd
000001a0: 2646 153e 94b6 e4bd 0c61 aa3b 75a9 e53d
000001b0: 37c0 e73d 9474 df3d 3931 543d 3a02 e83d
000001c0: bf95 e7bd 9520 4abc 6391 b03b 7fa1 843d
000001d0: fcc3 10be 5cd8 d03d c3f6 033e e607 943d
000001e0: 9f69 c2bc 8d92 d13d 00bf 10be eb76 2ebd
000001f0: 2f2a 193d 990a 2a3c cc27 423d 6811 dcbd
00000200: e879 df3d 5184 edbd 5f31 a1bd 09df 92bb
00000210: f1c3 9dbd ae22 d4bd ae14 e6bd b984 853d
00000220: 9360 063d 6954 b2bd b44c 853a 0958 fcbd
00000230: 4bc8 44be f71d 61bd 2a42 f9bd c15c 193e
00000240: a105 65bd e894 47bd 8a92 a9bd 7e7d 273d
00000250: 0e0b 57bc 33c6 85bd 5c04 c53d c45f e43d
00000260: 274d 45bd 4a92 623d 4c89 d2bc 4cd4 a6b8
00000270: 1c3e 0e3d 2cc0 29bc 3649 163e 4bcf 573e
00000280: cb46 8cbd 74ba 5cbd 9f31 09be 54f3 1e3d
00000290: 8fa4 d1bd 5ebb e9bd 9a76 abbd 3435 0fbe
000002a0: c3bf d7bd b7c4 d13d d14c 533d 33c5 023e
000002b0: 1337 b6bd 366b 86bd ba98 31bd 3115 babc
000002c0: 52bb bbbd 7e82 bb3d 35fd 0ebe 0362 8bbb
000002d0: 9922 113e 9e6d b73c 50bd 9f3d 6d59 bfbd
000002e0: 05f3 f9bc cc9b 92bd 74cc f63b 78b6 61bd
000002f0: cb43 c2bd c549 d7bd 8599 aebc e8fb 553d
00000300: a9d9 1fbd e62f fbbd 50bb 123e a514 ad3d
00000310: a275 bbbd 7bd1 f9bb f3e9 243e 55dd 1ebe
00000320: fbfb f8bd 5768 ec3d afd5 393d a281 fc3c
00000330: 35e2 bbbd ba6b 183a 671a 913d 9115 d0bc
00000340: 2da6 18bd 1d07 f4bd e1fa c0bc 8880 cf3d
00000350: 3ec6 b7bd a4f7 ff3c f7f9 b43d 66e1 aebd
00000360: 68da f83b 2788 1abd 730f 5cbd 975b 753d
00000370: 8661 20be 8d4f e33d 5822 80bd a06d e6bc
00000380: 86b4 d4bb 0349 023e f26b c6bd 3afd eebd
00000390: ac4c b4bc 0b0a e0bd d04c 82bd d961 b33d
000003a0: 2404 1dbd dd5f 9dbd b450 54bd bbc8 4d3b
000003b0: 7bf3 c5bc 772a c5bd cc6c a93d cdb7 d73d
000003c0: bc8f efbc de0a 993d e179 8c3d f006 0d3e
000003d0: 0691 7bbd 9d59 393e 9724 1c3e 9e60 233d
000003e0: 64bd 8d3d ab09 b6bd 8994 d6bd 3a94 243d
000003f0: 836b ba3c fb1f ba3d a83c b5bc 4473 2abd

model.net.2.bias f4 [64]
0.12835076 0.047403872 0.11304746 0.054635055 0.019536028 0.06584369 0.07495381 -0.001259815
-0.004171435 -0.0002038959 0.09550519 0.07157671 -0.010401427 0.12348386 0.13282666 0.10922655
0.033881128 0.02217003 -0.07763342 0.10337202 -0.07945609 -0.12002861 0.05571796 -0.10728457
0.05188312 -0.047093246 0.0036813398 -0.042582713 0.107101426 -0.08771294 0.03421853 0.014865864
-0.107096605 0.12840827 -0.012017212 -0.09207834 -0.11401961 0.06697043 0.110129625 -0.0109103285
-0.0290967 -0.0845861 0.090259 -0.027089173 -0.05682962 0.055977754 0.12179676 0.0754863
0.042787757 0.11873357 0.020354193 0.040357746 0.00038419032 -0.10499207 0.03318988 -0.058734465
0.08393676 -0.07734742 -0.09337039 -0.02525394 0.096749045 -0.08310229 -0.033747245 -0.0009972253
00000000: 626e 033e 902a 423d 6d85 e73d 02c9 5f3d
00000010: 050a a03c 0ed9 863d 6281 993d 6020 a5ba
00000020: 88b0 88bb e4cc 55b9 3a98 c33d cf96 923d
00000030: bf6a 2abc 1be5 fc3d b603 083e 2bb2 df3d
00000040: f0c6 0a3d ec9d b53c 45fe 9ebd b6b4 d33d
00000050: e0b9 a2bd 8fd1 f5bd 8438 643d 03b8 dbbd
00000060: 6583 543d d9e4 40bd a242 713b 366b 2ebd
00000070: fe57 db3d d8a2 b3bd bb28 0c3d f48f 733c
00000080: 7755 dbbd 757d 033e d7e3 44bc 9293 bcbd
00000090: 1d83 e9bd cb27 893d a48b e13d 3cc1 32bc
000000a0: 345c eebc 7a3b adbd b6d9 b83d 1dea ddbc
000000b0: 2dc6 68bd ee48 653d 9470 f93d 9098 9a3d
000000c0: 3742 2f3d 962a f33d d6bd a63c 2a4e 253d
000000d0: 276d c939 1506 d7bd 1df2 073d 8d93 70bd
000000e0: 09e7 ab3d 5368 9ebd fa38 bfbd 5ae1 cebc
000000f0: 5d24 c63d 8931 aabd 8d3a 0abd 54b5 82ba

model.net.4.weight f4 [64, 64]
-0.104666896 0.052729234 0.06758292 0.12530525 0.039808694 -0.11360036 -0.12845533 -0.12262433
-0.05786424 -0.14571121 0.018602539 -0.06283541 0.008127988 -0.0739595 -0.0532385 -0.0815031
0.020174386 -0.19315943 -0.06830175 0.055649236 -0.050579604 -0.022310533 0.06402393 -0.01977964
0.076378234 0.08900242 -0.06001166 -0.023522265 0.0066749477 -0.014068468 0.08648212 -0.03732224
0.109523974 0.0861164 -0.068132475 -0.13723187 0.091099806 -0.04247354 -0.05858482 -0.025240151
-0.044012196 0.10485478 -0.09204655 0.1253275 -0.08186394 -0.05359512 0.10948407 0.01379461
-0.008928624 -0.021947881 -0.12815763 0.025173122 0.032372598 0.061700657 0.123305745 -0.021809272
0.017286208 0.084019504 -0.057843514 -0.022972582 -0.08605326 0.022832602 -0.020943712 0.053263392
0.021982357 -0.08768427 0.077958524 -0.12566411 0.0033097132 0.12419093 0.050287098 0.06562191
-0.0061697206 0.1105123 -0.07404388 -0.007046394 -0.046837237 -0.09820665 -0.0489197 -0.03760576
0.15167183 0.16011348 -0.07605115 -0.14221404 0.13988678 0.033178493 0.0836419 0.060451176
-0.10695007 -0.1290577 0.04141927 -0.18015672 -0.05495873 0.060486574 -0.056454062 0.051574554
0.054287367 -0.07139219 -0.051080298 -0.01293778 -0.1720339 -0.07256081 0.11793714 0.053667113
0.11313391 -0.10783166 0.049110524 -0.13254853 -0.015793405 -0.0018899678 -0.07645421 0.06126365
0.07578884 0.0715682 0.17109019 0.01153283 0.017068433 0.06672259 0.07430343 -0.11706355
0.048218526 -0.00029112052 0.02763399 -0.090494305 -0.004098259 -0.04183341 0.04222614 0.10954887
0.03255021 -0.12851499 0.056398645 -0.021837117 -0.122587815 0.07626893 -0.0118251415 0.12986642
0.07569445 0.116138615 0.020569362 0.15691909 0.029600026 -0.084396966 0.13466375 0.1655831
0.11258954 0.18941766 0.061975908 0.002380217 0.106267944 -0.10568348 0.03491655 -0.0043201214
-0.026836041 -0.1755633 -0.02789096 -0.0059391297 0.004719236 -0.0373269 -0.10811381 0.07355303
-0.12648936 -0.011424645 0.02344124 0.096795924 -0.1722241 -0.034561332 -0.025808183 0.049817663
-0.04169796 -0.14434464 0.058947377 -0.020377655 0.08734765 0.08125188 0.08114225 -0.008862456
0.12921913 0.07509041 -0.06330324 0.044225972 0.051387317 -0.03742293 -0.09085267 0.11544504
0.15870783 -0.075071335 0.013382897 -0.06810549 0.14169295 -0.04214272 -0.10175932 -0.05306817
0.08611458 0.06633965 0.055570804 -0.00815254 -0.17425533 -0.05288949 -0.030481858 0.0028612183
-0.07614301 -0.020967737 -0.003815458 -0.03622593 0.08332022 0.035810716 0.05293203 0.1050355
-0.058396235 0.026911432 -0.017155854 -0.16647968 0.102580704 -0.11062912 0.12547268 0.176332
-0.032247756 -0.12474103 0.04879521 -0.134036 0.05650377 0.086511575 0.08978994 0.05350455
-0.03597555 0.010296726 -0.10843471 0.0799485 -0.16145128 -0.042689357 -0.0013795203 0.14512788
0.003262563 0.04591986 0.014336527 -0.06565771 -0.1409914 0.069466524 0.0075358315 -0.1693564
0.056709655 0.07882933 0.029160295 0.05312431 0.1014806 -0.029046943 0.07000565 0.112115264
0.055378586 -0.072266966 0.09754721 -0.050962232 0.14630339 -0.08158949 -0.09056783 0.06780517
00000000: 995b d6bd 9cfa 573d ea68 8a3d 0550 003e
00000010: 710e 233d 4ea7 e8bd cb89 03be 7722 fbbd
00000020: 0e03 6dbd 5235 15be 5a64 983c daaf 80bd
00000030: 412b 053c 1478 97bd 9d10 5abd 19eb a6bd
00000040: c144 a53c 96cb 45be cae1 8bbd 74f0 633d
00000050: 8f2c 4fbd 94c4 b6bc fa1e 833d e908 a2bc
00000060: 316c 9c3d e746 b63d c9ce 75bd c4b1 c0bc
00000070: 85b9 da3b 6e7f 66bc 8a1d b13d 35df 18bd
00000080: 1b4e e03d cc5d b03d 0a89 8bbd 8386 0cbe
00000090: 8992 ba3d bcf8 2dbd a3f6 6fbd 6fc4 cebc
000000a0: 2246 34bd 1abe d63d e782 bcbd da55 003e
000000b0: 48a8 a7bd 8e86 5bbd 2f39 e03d ca02 623c
000000c0: 5d49 12bc 0bcc b3bc c13b 03be dd37 ce3c
000000d0: 2199 043d d4b9 7c3d b987 fc3d 5ca9 b2bc
000000e0: ce9b 8d3c 6b12 ac3d 52ed 6cbd ff30 bcbc
000000f0: b13c b0bd 700b bb3c 2692 abbc b72a 5a3d
00000100: 5814 b43c d093 b3bd b8a8 9f3d 18ae 00be
00000110: c6e7 583b d057 fe3d d8f9 4d3d c864 863d
00000120: 5e2b cabb 4654 e23d 51a4 97bd 70e5 e6bb
00000130: 67d8 3fbd 9120 c9bd 0660 48bd 7f08 1abd
00000140: dc4f 1b3e caf4 233e b5c0 9bbd 8fa0 11be
00000150: 7b3e 0f3e 2ce6 073d 724c ab3d a79b 773d
00000160: a308 dbbd b427 04be 41a7 293d 017b 38be
00000170: 681c 61bd c5c0 773d 603c 67bd d73f 533d
00000180: 6e5c 5e3d 1236 92bd 9339 51bd fbf8 53bc
00000190: a829 30be c39a 94bd 0789 f13d 0cd2 5b3d
000001a0: c0b2 e73d d8d6 dcbd 1e28 493d cdba 07be
000001b0: 2c61 81bc ccb8 f7ba 0694 9cbd 98ef 7a3d
000001c0: 2e37 9b3d 5992 923d 4432 2f3e 32f4 3c3c
000001d0: 19d3 8b3c daa5 883d 662c 983d 04bf efbd
000001e0: ca80 453d 89a1 98b9 ad60 e23c 1455 b9bd
000001f0: b04a 86bb 8259 2bbd 51f5 2c3d 285b e03d
00000200: 5e53 053d 6f99 03be 4402 673d c1e3 b2bc
00000210: 520f fbbd e332 9c3d 3dbe 41bc b4fb 043e
00000220: b105 9b3d 15da ed3d 1481 a83c 66af 203e
00000230: c17b f23c 51d8 acbd 4be5 093e 9e8e 293e
00000240: 5895 e63d b4f6 413e 73da 7d3d 6afd 1b3b
00000250: 02a3 d93d 9570 d8bd a804 0f3d ce8f 8dbb
00000260: 42d7 dbbc dec6 33be 957b e4bc 089d c2bb
00000270: d2a3 9a3b 17e4 18bd c66a ddbd f9a2 963d
00000280: 6d86 01be 6f2e 3bbc d807 c03c f13c c63d
00000290: 845b 30be 2f90 0dbd af6b d3bc 9b0d 4c3d
000002a0: 7bcb 2abd 15cf 13be ce72 713d 0aef a6bc
000002b0: 53e3 b23d 6367 a63d e82d a63d d633 11bc
000002c0: 0552 043e 00c9 993d 21a5 81bd 4b26 353d
000002d0: 827b 523d c948 19bd f710 babd 736e ec3d
000002e0: 4e84 223e 00bf 99bd f043 5b3c e47a 8bbd
000002f0: f517 113e d89d 2cbd 3167 d0bd 025e 59bd
00000300: d75c b03d 15dd 873d 369e 633d 3b92 05bc
00000310: fd6f 32be a6a2 58bd 17b5 f9bc 4783 3b3b
00000320: def0 9bbd 88c4 abbc c30c 7abb a461 14bd
00000330: cba3 aa3d 42ae 123d 42cf 583d da1c d73d
00000340: e430 6fbd 5d75 dc3c 6f8a 8cbc a679 2abe
00000350: d515 d23d 8591 e2bd e97b 003e 6090 343e
00000360: 3916 04bd 3a78 ffbd 7cdd 473d bc40 09be
00000370: 7f70 673d fb2c b13d cae3 b73d 9627 5b3d
00000380: 195b 13bd 99b3 283c 0413 debd 0abc a33d
00000390: 7c53 25be 09db 2ebd 05d1 b4ba 679c 143e
000003a0: b9d0 553b 7716 3c3d c1e3 6a3c 8d77 86bd
000003b0: 0d60 10be 7744 8e3d 23ef f63b c46b 2dbe
000003c0: 6248 683d 4671 a13d 92e1 ee3c e098 593d
000003d0: 10d5 cf3d dbf3 edbc 1f5f 8f3d b09c e53d
000003e0: a8d4 623d b400 94bd d5c6 c73d c6bd 50bd
000003f0: 8ed0 153e 6418 a7bd a07b b9bd 70dd 8a3d

model.net.4.bias f4 [64]
0.09038846 0.096304305 0.044750366 0.11299849 -0.039634593 -0.06928063 -0.08769016 -0.0085746795
-0.0020581444 -0.05420578 -0.030102428 -0.029124493 0.1306885 -0.0036816539 0.10398375 0.028008211
0.05449614 0.081741795 -0.10721462 -0.04774043 -0.08107242 0.13203627 0.05172518 -0.038771324
-0.08188664 0.080883265 0.041713905 -0.05131573 -0.08240142 -0.056443084 0.04155818 -0.10431806
-0.03320889 0.08998407 0.073938526 0.024181811 0.026740542 0.042837303 0.067513645 0.10737725
0.043010302 0.08368071 0.09551987 -0.08933813 -0.06707854 0.074375376 0.04159804 -0.05962455
0.04701054 -0.10713119 -0.040622275 0.07879505 0.011464243 -0.08313817 0.07593599 0.01620371
-0.015445221 -0.10401897 -0.030336266 0.032504175 -0.053621553 0.029533062 -0.09748629 0.113709636
00000000: 961d b93d 313b c53d 294c 373d c16b e73d
00000010: e257 22bd 01e3 8dbd e696 b3bd d07c 0cbc
00000020: efe1 06bb e106 5ebd 5e99 f6bc 7d96 eebc
00000030: 35d3 053e e747 71bb 6ff5 d43d 7a71 e53c
00000040: 5837 5f3d 3e68 a73d 5793 dbbd 788b 43bd
00000050: 4c09 a6bd 8434 073e c8dd 533d aece 1ebd
00000060: 2fb4 a7bd 20a6 a53d 33dc 2a3d 7130 52bd
00000070: 13c2 a8bd dd30 67bd e938 2a3d b5a4 d5bd
00000080: 0c06 08bd 9149 b83d 156d 973d ef18 c63c
00000090: fb0e db3c 2b76 2f3d 9844 8a3d 9be8 db3d
000000a0: 922b 303d cb60 ab3d ec9f c33d e9f6 b6bd
000000b0: 7960 89bd 1e52 983d b562 2a3d df38 74bd
000000c0: 208e 403d 9967 dbbd 8b63 26bd 4d5f a13d
000000d0: 85d4 3b3c 5844 aabd 5484 9b3d a5bd 843c
000000e0: f40d 7dbc e607 d5bd c383 f8bc 1923 053d
000000f0: 46a2 5bbd 52ef f13c e4a6 c7bd 99e0 e83d

model.net.6.weight f4 [64, 64]
0.1370798 0.040966872 -0.059136443 -0.15407242 -0.081490904 0.0011359985 -0.15111205 0.1520961
0.059650306 0.11938816 -0.09009122 -0.024510007 0.030924613 -0.038077258 -0.10801532 0.11312355
0.08308561 -0.023319274 0.105380125 -0.110382296 -0.17009169 0.00094819244 0.07840911 0.09376709
-0.124735855 0.056220785 0.06744004 0.026431339 0.09272989 -0.020346459 0.020682888 -0.016112022
-0.08206599 -0.10804227 -0.04983814 -0.13173269 0.08864695 0.08135523 -0.13340767 -0.060970698
0.12618403 -0.0072443676 -0.04826406 -0.07145698 -0.005921478 0.025238188 0.050322637 0.017128926
-0.04972868 -0.08329567 -0.038963623 0.09716649 0.052080564 -0.022848185 0.063240305 0.10779907
-0.0062113074 -0.06667268 -0.050618045 0.14525072 -0.045172423 -0.11455668 0.013119038 -0.030322397
-0.06366016 -0.1350504 -0.015847707 -0.11258809 0.07968534 0.013094749 -0.09363459 -0.020874467
-0.008162991 0.13817853 -0.050725017 -0.07411805 0.03078296 0.0012553663 -0.14472795 -0.028557565
0.14375101 -0.082392804 0.045403562 -0.04001847 -0.16706637 -0.15187456 0.05569263 0.06639153
-0.021658882 0.0058549787 0.06256928 0.10833017 0.11609707 0.048848268 0.068756804 0.046283532
0.01892883 -0.13409357 0.018687805 -0.01854914 0.09372312 0.01935893 0.08801512 0.048950482
0.00983125 0.056920525 -0.09931967 -0.0030286186 0.13303576 0.0013817347 0.009197046 -0.041797306
-0.019054376 -0.04979603 -0.10519493 0.1362583 0.028381575 -0.012078899 -0.014993399 -0.07818185
-0.04409385 0.018368956 -0.09553641 -0.07803972 -0.017094757 0.044524316 -0.127446 0.14946824
0.14674173 -0.056423735 -0.033757932 -0.033767853 0.09054326 0.011525537 -0.0068647857 -0.0022132103
0.010459553 -0.054284263 0.014808146 0.01168527 0.02912126 -0.008821784 -0.13464542 0.093032405
0.08590255 0.07353917 0.0663674 0.03195594 0.002468787 0.039874293 0.041428294 -0.065426275
-0.002548726 -0.042611014 0.04025484 0.052566525 -0.093103185 -0.10837266 -0.08045499 -0.025170932
0.019974547 -0.00024132157 0.06744953 -0.13375558 0.059570022 0.1454623 -0.10849728 -0.06974559
0.06137099 0.0051205936 -0.01146966 -0.06559748 0.021254703 -0.14253753 0.114292115 -0.1245721
-0.15355101 -0.06189664 -0.028939476 0.12952438 0.034409825 -0.08521414 -0.062530264 0.05155571
-0.071718894 -0.08649833 -0.033314835 0.049234487 0.08199134 -0.10353302 -0.07172693 0.105342485
-0.051133968 -0.037136577 0.05344739 0.05420747 -0.13291885 -0.056445844 -0.012239841 0.12963603
-0.030890463 -0.09437435 0.008791044 0.11125139 -0.05640619 -0.15285185 -0.029132955 0.11923255
-0.07559944 0.010892448 0.054014996 0.004963118 -0.12812251 -0.068444245 -0.12051374 0.025320891
-0.11325602 -0.033598147 -0.035845377 -0.07323203 0.12641247 -0.020033833 0.07572445 0.087566674
0.028133972 -0.063567095 -0.07554073 -0.11882158 -0.083687514 -0.05225329 -0.05659838 0.14082564
-0.08835928 -0.023760276 -0.1472626 -0.09006866 0.113773376 -0.14083195 -0.077449255 -0.11639214
-0.0065959655 -0.02981003 -0.11749983 0.11478429 0.033235695 -0.14541794 -0.013889096 0.07533837
-0.030554129 -0.12838662 -0.056244433 -0.010178362 0.06266389 -0.1324448 0.07318248 0.057919636
00000000: a65e 0c3e e1cc 273d 0e39 72bd 29c5 1dbe
00000010: b4e4 a6bd c9e5 943a 1ebd 1abe 14bf 1b3e
00000020: e153 743d c881 f43d bf81 b8bd 36c9 c8bc
00000030: 9d55 fd3c e6f6 1bbd 2337 ddbd 52ad e73d
00000040: ca28 aa3d 1008 bfbc 89d1 d73d 1d10 e2bd
00000050: 842c 2ebe 1e90 783a f594 a03d f608 c03d
00000060: 8375 ffbd c447 663d 011e 8a3d 8986 d83c
00000070: 2be9 bd3d 9ead a6bc 296f a93c 5cfd 83bc
00000080: 3712 a8bd 4445 ddbd 1423 4cbd efe4 06be
00000090: 888c b53d 929d a63d 059c 08be 69bc 79bd
000000a0: 6336 013e 2962 edbb 89b0 45bd 0a58 92bd
000000b0: f508 c2bb 51c0 ce3c 1c1f 4e3d f651 8c3c
000000c0: 4db0 4bbd ec96 aabd 5298 1fbd 3aff c63d
000000d0: 6e52 553d 1e2c bbbc 2284 813d c2c5 dc3d
000000e0: 3988 cbbb b08b 88bd de54 4fbd 9bbc 143e
000000f0: b806 39bd b19c eabd 3cf1 563c ad66 f8bc
00000100: 4260 82bd a74a 0abe 0dd3 81bc 9694 e6bd
00000110: 1132 a33d 5c8b 563c 7ec3 bfbd ee00 abbc
00000120: 11be 05bc ac7e 0d3e 09c5 4fbd 34cb 97bd
00000130: 8c2c fc3c 1a8b a43a 9033 14be 8ef1 e9bc
00000140: 7733 133e 8fbd a8bd 16f9 393d 68ea 23bd
00000150: 7213 2bbe 0185 1bbe f51d 643d 48f8 873d
00000160: f86d b1bc 1fdb bf3b 5324 803d 35dc dd3d
00000170: 4dc4 ed3d 1f15 483d 5ed0 8c3d cd93 3d3d
00000180: a210 9b3c d34f 09be 2b17 993c 5ef4 97bc
00000190: e8f1 bf3d 9e96 9e3c 4541 b43d 4d80 483d
000001a0: 4013 213c 7f25 693d 1c68 cbbd ca7b 46bb
000001b0: 873a 083e 531b b53a 35af 163c a733 2bbd
000001c0: ec17 9cbc ecf6 4bbd 7170 d7bd 4c87 0b3e
000001d0: 7a80 e83c 93e6 45bc e0a6 75bc ce1d a0bd
000001e0: c19b 34bd 7e7a 963c 98a8 c3bd 4ad3 9fbd
000001f0: 4e0a 8cbc 215f 363d 3481 02be 340e 193e
00000200: 7743 163e 931c 67bd c245 0abd 2950 0abd
00000210: bf6e b93d 9bd5 3c3c fff1 e0bb 820b 11bb
00000220: 8c5e 2b3c 2d59 5ebd de9d 723c 9373 3f3c
00000230: b58f ee3c 3e89 10bc 7de0 09be c687 be3d
00000240: aded af3d b49b 963d a2eb 873d 3be4 023d
00000250: 5fcb 213b 3a53 233d b7b0 293d 36fe 85bd
00000260: 8708 27bb e388 2ebd 42e2 243d ff4f 573d
00000270: e2ac bebd 7cf2 ddbd 96c5 a4bd 4533 cebc
00000280: a9a1 a33c 440b 7db9 fb22 8a3d 39f7 08be
00000290: b2ff 733d 12f4 143e d233 debd c7d6 8ebd
000002a0: 2660 7b3d a7ca a73b 3eeb 3bbc f957 86bd
000002b0: 581e ae3c 5cf5 11be fc11 ea3d a81f ffbd
000002c0: 7a3c 1dbe 5587 7dbd 7b12 edbc 0aa2 043e
000002d0: 51f1 0c3d c084 aebd de0f 80bd 152c 533d
000002e0: 5be1 92bd 0926 b1bd 2375 08bd 1aaa 493d
000002f0: 13eb a73d 1f09 d4bd 92e5 92bd cdbd d73d
00000300: da71 51bd 861c 18bd a7eb 5a3d a708 5e3d
00000310: e11b 08be c233 67bd 9d89 48bc 4fbf 043e
00000320: ff0d fdbc 5747 c1bd 5008 103c c5d7 e33d
00000330: 2d0a 67bd 3285 1cbe 3ca8 eebc 3230 f43d
00000340: e1d3 9abd 3d76 323c d43e 5d3d a7a1 a23b
00000350: 8c32 03be 7f2c 8cbd e8cf f6bd c26d cf3c
00000360: c6f2 e7bd 369e 09bd 9ad2 12bd adfa 95bd
00000370: 4572 013e fe1d a4bc 6c15 9b3d 2856 b33d
00000380: 3779 e63c 772f 82bd 19b5 9abd bb58 f3bd
00000390: 5c64 abbd 8c07 56bd b4d3 67bd 9934 103e
000003a0: b6f5 b4bd e9a4 c2bc 02cc 16be eb75 b8bd
000003b0: 0402 e93d 4036 10be b79d 9ebd 015f eebd
000003c0: f822 d8bb 2a34 f4bc c0a3 f0bd 0714 eb3d
000003d0: 2722 083d 71e8 14be 178f 63bc 014b 9a3d
000003e0: a74c fabc c877 03be 9060 66bd 25c3 26bc
000003f0: ed55 803d 9c9f 07be b2e0 953d 243d 6d3d

model.net.6.bias f4 [64]
-0.059237946 -0.030311253 -0.014457508 -0.056532767 0.014561755 -0.02113054 -0.06351726 -0.09029811
-0.070621386 -0.018452281 0.10400766 -0.0012027946 -0.059136387 -0.088791244 0.041322418 0.10144886
-0.07647806 0.10308741 0.11490694 0.038026325 0.0775262 0.04576034 -0.1058391 -0.045262106
-0.017001417 -0.056885175 0.004759089 0.030025268 0.01291223 0.07525338 -0.07167228 0.12113326
-0.046668906 0.11267976 0.10812137 -0.108982734 -0.10986825 0.09798621 0.10065547 -0.0038513376
0.033119623 0.016590275 -0.03135027 0.073734894 0.043412954 -0.11231604 -0.021194303 -0.0815089
0.05718761 -0.12249454 -0.10742314 -0.097253285 -0.021228459 -0.100928046 -0.01443187 -0.06579044
0.089094535 0.11770142 0.054545388 -0.02478485 0.059420522 -0.09932605 -0.05773417 -0.012719784
00000000: 7da3 72bd 4e4f f8bc 2fdf 6cbc e78e 67bd
00000010: 6d94 6e3c f419 adbc 5615 82bd 37ee b8bd
00000020: f2a1 90bd 3d29 97bc f801 d53d 17a7 9dba
00000030: ff38 72bd 2fd8 b5bd b241 293d 6bc4 cf3d
00000040: 87a0 9cbd 7e1f d33d 5454 eb3d 7ec1 1b3d
00000050: 0ec6 9e3d 326f 3b3d 2cc2 d8bd c264 39bd
00000060: 8e46 8bbc 6e00 69bd 22f2 9b3b 8df7 f53c
00000070: d18d 533c 721e 9a3d ebc8 92bd b714 f83d
00000080: e527 3fbd a5c4 e63d bd6e dd3d 5732 dfbd
00000090: 9b02 e1bd feac c83d 7424 ce3d b966 7cbb
000000a0: 71a8 073d 54e8 873c 2469 00bd 5202 973d
000000b0: c8d1 313d f405 e6bd ad9f adbc 23ee a6bd
000000c0: 8e3d 6a3d 6bde fabd aa00 dcbd bb2c c7bd
000000d0: 4ee7 adbc 5db3 cebd a673 6cbc 23bd 86bd
000000e0: 3277 b63d 710d f13d fc6a 5f3d 9909 cbbc
000000f0: ef62 733d 756b cbbd aa7a 6cbd a466 50bc

model.net.8.weight f4 [64, 64]
-0.15105645 0.08628353 0.04417975 0.031180026 0.09483974 0.07713045 -0.07699622 0.080771595
-0.075475745 0.01895123 -0.07608794 0.11628553 -0.04709647 -0.08426307 0.06229732 -0.052063372
0.03793997 -0.10153933 -0.053914547 0.15093553 0.016373515 0.03510505 -0.089354165 0.06052708
0.06688791 0.071451835 -0.045043863 0.041719854 0.098762736 -0.015160586 0.1647628 0.061904415
0.025677878 -0.13815467 -0.04540588 -0.005260582 -0.07325278 0.06691562 0.023862123 -0.107630156
-0.08070811 -0.060238384 -0.019511843 0.016136883 0.14541882 -0.024920823 0.046128478 -0.15193161
0.025889289 -0.050016545 -0.019431364 0.16072065 0.042580403 -0.07008719 -0.15606089 -0.09271356
0.07055714 0.08710198 0.014912488 0.05910225 -0.04921244 0.050091896 -0.08136363 -0.014170636
-0.033198487 -0.042379893 -0.13903227 -0.030217823 0.09704949 0.06741752 -0.063578464 0.12011572
-0.062441565 -0.053855985 0.13397063 0.007844718 0.00938386 -0.050913546 0.05808544 -0.03306584
-0.030073415 0.02246174 -0.0638523 0.08380437 0.05689265 0.07372695 -0.057843253 -0.06125564
-0.1762606 -0.06585628 -0.0024063417 0.105713636 0.15376666 -0.046657447 0.029552467 0.05007945
-0.064448036 -0.13197072 0.051800117 -0.08467788 -0.11981121 0.029898347 -0.12562875 -0.14224008
-0.110856555 0.02145236 0.0007361496 -0.09233602 -0.090426706 -0.07395385 0.081381775 -0.06058672
-0.063226566 -0.074325524 0.13057752 0.06263683 -0.05444757 0.13354237 -0.029443089 -0.015335864
0.14993793 0.014173089 -0.07064287 0.062068786 0.066293895 -0.07046957 0.053109296 -0.011521106
-0.10386221 0.11260343 -0.07611684 -0.04184706 -0.06799433 0.013291408 -0.014156081 0.04989584
0.09580309 -0.1588211 -0.15277736 -0.16216478 0.056669742 -0.032146584 -0.031507198 -0.115944706
-0.017994396 0.033828624 0.06217957 0.05934969 0.13279353 -0.12165112 -0.02110335 -0.07243911
-0.018937072 -0.042164132 0.028895797 -0.10236733 -0.12258085 -0.009526377 0.0023304203 0.02550523
0.10417166 -0.08668042 0.050629966 0.07884334 0.08517531 -0.14603117 -0.054885518 0.019493913
0.016657313 0.028045693 0.11529876 0.0034985857 -0.083114795 0.063906275 -0.0840842 -0.057093743
-0.024502775 -0.018997926 0.031637724 -0.06968135 0.019794537 -0.0066913264 0.0001600451 -0.04147053
0.039419137 0.034356922 -0.0056901556 -0.059595924 -0.08068781 0.044694442 0.08194716 -0.08963538
0.06961133 -0.012372018 -0.0015040004 -0.05237245 -0.015056981 -0.018120771 0.03130917 -0.16412716
-0.008657099 -0.11817674 -0.124186695 -0.1574502 -0.048479274 0.018420499 0.04003436 0.028218187
-0.07485811 -0.090804346 -0.038220715 -0.11577692 0.005273144 0.011541126 0.012663954 -0.113836184
0.12882598 0.06698776 -0.07440096 -0.12448228 -0.0023742372 0.055343658 -0.07125125 -0.031018406
0.0142144 -0.04834419 -0.047308616 0.035847213 0.015974315 0.038371477 0.14079735 0.0034500547
0.051335864 0.07370958 -0.076726094 0.12415034 0.07642433 -0.050938405 0.09819068 -0.058043037
-0.07048506 0.09087002 0.025830436 -0.045394085 -0.09535489 0.045679286 0.033564787 -0.07672747
-0.014035985 0.07842993 0.07232408 -0.05142093 -0.015563595 -0.07691488 0.09046935 0.022289587
00000000: 8bae 1abe 6bb5 b03d d3f5 343d 416d ff3c
00000010: 563b c23d 92f6 9d3d 32b0 9dbd 946b a53d
00000020: 0793 9abd 9c3f 9b3c fed3 9bbd 1c27 ee3d
00000030: 3ae8 40bd 1e92 acbd 7a2b 7f3d 6740 55bd
00000040: f166 1b3d daf3 cfbd 80d5 5cbd d88e 1a3e
00000050: c021 863c 50ca 0f3d 51ff b6bd 3eeb 773d
00000060: 87fc 883d 5755 923d ea7f 38bd 70e2 2a3d
00000070: 1e44 ca3d 1b64 78bc 94b7 283e 7c8f 7d3d
00000080: 6a5a d23c 6b78 0dbe 84fb 39bd f660 acbb
00000090: 8e05 96bd 0e0b 893d 807a c33c 336d dcbd
000000a0: 4b4a a5bd 86bc 76bd 4dd7 9fbc 7f31 843c
000000b0: ace8 143e c126 ccbc 37f1 3c3d f693 1bbe
000000c0: c615 d43c 26de 4cbd 862e 9fbc f493 243e
000000d0: ca68 2e3d df89 8fbd 6dce 1fbe 9be0 bdbd
000000e0: 4380 903d 8662 b23d 8253 743c 3315 723d
000000f0: fc92 49bd 292d 4d3d faa1 a6bd f52b 68bc
00000100: 23fb 07bd 8a96 2dbd 7a5e 0ebe 5e8b f7bc
00000110: e2c1 c63d 3212 8a3d 6d35 82bd 3bff f53d
00000120: bac2 7fbd 1898 5cbd 992f 093e 2287 003c
00000130: c3be 193c b98a 50bd 00eb 6d3d 0c70 07bd
00000140: 865c f6bc af01 b83c ffc4 82bd a0a1 ab3d
00000150: 4408 693d 28fe 963d 0ced 6cbd 32e7 7abd
00000160: a97d 34be a8df 86bd b7b3 1dbb 6480 d83d
00000170: 0275 1d3e e11b 3fbd 0418 f23c 1c20 4d3d
00000180: 55fd 83bd 5523 07be 5c2c 543d 996b adbd
00000190: 945f f5bd 61ed f43c d3a4 00be 62a7 11be
000001a0: c308 e3bd dcbc af3c 2afa 403a ab1a bdbd
000001b0: a331 b9bd 1e75 97bd 7dab a63d c829 78bd
000001c0: ee7c 81bd fb37 98bd 1db6 053e bd47 803d
000001d0: 6a04 5fbd 55bf 083e a232 f1bc 4743 7bbc
000001e0: 5489 193e 3e36 683c 36ad 90bd d73b 7e3d
000001f0: 18c5 873d 5a52 90bd 2289 593d 05c3 3cbc
00000200: b6b5 d4bd a19c e63d 25e3 9bbd d367 2bbd
00000210: 9c40 8bbd 35c4 593c e8ee 67bc 955f 4c3d
00000220: 6934 c43d 00a2 22be ab71 1cbe 860e 26be
00000230: 881e 683d 23ac 03bd b10d 01bd 6b74 edbd
00000240: fc68 93bc e28f 0a3d 01b0 7e3d a918 733d
00000250: 07fb 073e 3924 f9bd efe0 acbc f55a 94bd
00000260: eb21 9bbc 4cb4 2cbd e1b6 ec3c f6a5 d1bd
00000270: ab0b fbbd 8514 1cbc f7b9 183b 58f0 d03c
00000280: f457 d53d 8185 b1bd 5e61 4f3d 9e78 a13d
00000290: 6570 ae3d 3289 15be a3cf 60bd b3b1 9f3c
000002a0: eb74 883c 15c0 e53c c221 ec3d 8748 653b
000002b0: 1738 aabd 4be1 823d 5634 acbd 21db 69bd
000002c0: 0bba c8bc 8aa1 9bbc 8f96 013d 18b5 8ebd
000002d0: 2728 a23c ea42 dbbb c8d1 2739 01dd 29bd
000002e0: f675 213d d8b9 0c3d 7c74 babb db1a 74bd
000002f0: a73f a5bd 8511 373d ead3 a73d c192 b7bd
00000300: 6390 8e3d 01b4 4abc e121 c5ba 7e84 56bd
00000310: 8eb1 76bc 0372 94bc 0b3e 003d f310 28be
00000320: 81d6 0dbc a606 f2bd 9855 febd a03a 21be
00000330: 3492 46bd 96e6 963c 12fb 233d d429 e73c
00000340: 354f 99bd a1f7 b9bd 538d 1cbd 731c edbd
00000350: 57ca ac3b fe16 3d3c 797c 4f3c f222 e9bd
00000360: f5ea 033e e130 893d 885f 98bd 91f0 febd
00000370: 1799 1bbb 08b0 623d 2dec 91bd 501a febc
00000380: 84e3 683c 8f04 46bd aec6 41bd 87d4 123d
00000390: 91dc 823c 692b 1d3d 2e2d 103e 501a 623b
000003a0: 8e45 523d 0cf5 963d 9222 9dbd 8942 fe3d
000003b0: 5c84 9c3d caa4 50bd 3218 c93d 89be 6dbd
000003c0: 795a 90bd 101a ba3d 5a9a d33c 26ef 39bd
000003d0: 6d49 c3bd 341a 3b3d 3b7b 093d 4b23 9dbd
000003e0: 30f7 65bc df9f a03d a61e 943d c19e 52bd
000003f0: 73fe 7ebc 8c85 9dbd ff47 b93d a798 b63c

model.net.8.bias f4 [64]
-0.051225387 0.035442125 0.09645507 -0.011535106 -0.015557618 0.114472024 0.12068512 0.07926123
0.01166852 0.010947303 -0.06771574 0.11445059 0.076514974 0.106785275 -0.073646225 0.030629616
0.03596367 -0.028232435 -0.017713008 0.030979726 -0.038333666 0.11801731 -0.099366814 -0.0067200526
-0.052352756 0.10497644 -0.03915675 -0.031803057 0.118155904 -0.10621389 -0.04562627 0.11064529
0.096591264 -0.02459926 -0.016714958 -0.062426023 0.034696035 0.04754871 0.090155326 0.0526582
0.06935839 -0.01829674 -0.078047425 0.07312988 0.013920504 -0.07904719 0.0078103533 0.12729713
0.00048417976 -0.092240565 0.071412295 0.10167458 -0.07750338 -0.1065094 -0.08168603 0.06814718
-0.04431793 -0.11417915 0.0066212765 -0.048567098 -0.035097912 -0.040123757 -0.040722918 -0.08151763
00000000: b6d1 51bd c32b 113d 3c8a c53d befd 3cbc
00000010: 61e5 7ebc 4f70 ea3d c329 f73d b653 a23d
00000020: 522d 3f3c 515c 333c 8dae 8abd 1265 ea3d
00000030: e2b3 9c3d 3db2 da3d d5d3 96bd f6ea fa3c
00000040: a44e 133d b547 e7bc df1a 91bc 32c9 fd3c
00000050: c303 1dbd 0fb3 f13d d480 cbbd e333 dcbb
00000060: d86f 56bd e3fd d63d d462 20bd ec43 02bd
00000070: b9fb f13d ab86 d9bd 9de2 3abd ff99 e23d
00000080: a4d1 c53d 6384 c9bc cfed 88bc 6eb2 7fbd
00000090: 6e1d 0e3d 70c2 423d 5ba3 b83d 20b0 573d
000000a0: c60b 8e3d 0be3 95bc 54d7 9fbd 1ec5 953d
000000b0: d312 643c 7ee3 a1bd feed ff3b 2e5a 023e
000000c0: 82d9 fd39 9fe8 bcbd 9c40 923d c33a d03d
000000d0: 18ba 9ebd 9a21 dabd 014b a7bd c090 8b3d
000000e0: b886 35bd c2d6 e9bd 4bf7 d83b 4bee 46bd
000000f0: d4c2 0fbd cf58 24bd 13cd 26bd b7f2 a6bd

model.net.10.weight f4 [64, 64]
-0.07600776 -0.104943566 0.0071945516 -0.060724955 -0.022599101 0.1033971 -0.067091055 0.008488495
-0.0583237 -0.07801141 -0.06855448 0.019699587 0.019444665 -0.0045986203 -0.07189635 -0.072007
-0.07920093 0.05461118 0.037115727 -0.06901936 0.035448 -0.06434057 -0.027639978 -0.14910814
-0.0014584945 0.01683385 0.08191084 0.06997662 0.039085124 -0.009782048 0.090542935 -0.12691852
-0.041555874 -0.064883314 0.06533327 0.022310067 0.092462815 -0.112921275 0.020988643 -0.12645012
0.0444131 -0.03871477 -0.059161127 -0.0032487735 0.022398908 0.11936524 0.1192042 -0.00014532826
0.012131371 0.008936837 -0.049384087 -0.07621983 -0.09016983 -0.025631564 -0.054250717 0.1329569
-0.098069586 0.025576059 -0.04522405 0.081960976 0.04900841 0.018225063 0.019437619 -0.020458365
-0.06105285 -0.073663495 -0.109520614 -0.0035546527 -0.06137708 0.10935742 0.107714236 -0.078726746
-0.0070236684 -0.13164225 0.073374055 0.085685566 -0.0588568 -0.10068415 -0.030649325 0.11124659
0.060527515 -0.0655904 -0.013157918 -0.112695955 0.1208692 0.044204686 -0.054288417 0.02964542
0.015274452 -0.08918199 -0.11476892 0.09498716 -0.112101026 0.09635327 -0.040304787 0.055142205
0.040553734 0.054501027 -0.05979811 0.063961186 0.009765131 -0.021082288 -0.018711997 -0.008218437
0.059114646 0.08708258 -0.044960007 -0.012454105 -0.022500543 -0.040127993 0.058990907 0.10556404
0.037295654 -0.033740293 0.058778282 0.11459732 0.04319512 0.10381571 0.043188524 -0.015453092
0.022955965 0.040532377 0.047575794 -0.049465727 -0.0892026 -0.13019073 -0.08253413 0.08019276
-0.077259585 -0.14122303 0.11951614 -0.08147045 0.012041342 0.12421614 -0.089473955 0.025308734
0.08059325 0.05794658 0.12354489 -0.046048127 0.1106669 0.029836418 -0.030620376 0.14224862
-0.011647224 0.08742994 -0.1457738 -0.006491386 -0.14788412 0.027679674 0.03017667 0.02315025
0.098021366 -0.08736109 0.09472189 -0.08358453 0.074732035 0.091599934 -0.038628336 -4.5165776e-05
0.04345212 -0.15046203 0.07911925 0.049355544 0.07688123 -0.037031054 -0.019105004 -0.0071175527
0.10950979 -0.06791892 0.081015244 0.042534318 0.013961503 -0.07809301 0.12148571 0.058572233
-0.07237287 0.02203664 -0.07381291 -0.039378773 0.14833365 0.01464266 0.015863676 0.10954875
0.03328674 0.061421245 0.08810009 -0.13875121 -0.038808726 0.053486478 0.03876104 0.044597268
-0.12427133 -0.09171905 -0.012439586 0.09585521 -0.032209042 0.13163517 -0.11009958 0.018608063
0.07191403 -0.09201263 0.025454048 -0.05462505 0.093191 -0.082185455 -0.12742324 -0.009508026
0.011428474 -0.004122586 -0.14223714 -0.059918877 -0.090442315 0.12537473 -0.0015727874 0.014116161
0.15475234 -0.11212841 0.07405436 0.04913842 0.08017682 0.02511057 0.04045367 -0.14959167
0.098519795 -0.13619678 0.11236525 -0.059647106 -0.0078052054 -0.03237622 0.06760253 -0.14663208
0.11766274 0.16018003 0.060460664 0.09155175 0.12774813 0.021648057 0.105267614 -0.0065546134
-0.0048359805 -0.06787697 -0.06118131 -0.032966234 -0.047546048 -0.111043245 -0.03407688 0.07115002
-0.04563589 0.055413723 0.092512794 -0.07359464 0.11304115 -0.1299162 -0.05025604 0.141064
00000000: f5a9 9bbd a7ec d6bd 46c0 eb3b bbba 78bd
00000010: c021 b9bc dcc1 d33d 0967 89bd 5413 0b3c
00000020: d5e4 6ebd 72c4 9fbd 4b66 8cbd 0761 a13c
00000030: 6b4a 9f3c 06b0 96bb 653e 93bd 6878 93bd
00000040: 1934 a2bd f9af 5f3d a906 183d 065a 8dbd
00000050: ec31 113d fdc4 83bd 3c6d e2bc ceaf 18be
00000060: f42a bfba 24e7 893c dfc0 a73d e74f 8f3d
00000070: b917 203d e244 20bc 936e b93d eef6 01be
00000080: 7e36 2abd 8be1 84bd 73cd 853d 9ac3 b63c
00000090: 255d bd3d 4543 e7bd 60f0 ab3c 247c 01be
000000a0: 83ea 353d 6193 1ebd f052 72bd 60e9 54bb
000000b0: ea7d b73c c375 f43d 5521 f43d 4263 18b9
000000c0: a8c2 463c d06b 123c f846 4abd 2419 9cbd
000000d0: f6aa b8bd 49f9 d1bc 0036 5ebd db25 083e
000000e0: b5d8 c8bd e284 d13c da3c 39bd 28db a73d
000000f0: 0bbd 483d ba4c 953c a43b 9f3c 4d98 a7bc
00000100: 8e12 7abd e3dc 96bd 584c e0bd 2df5 68bb
00000110: 8866 7bbd c8f6 df3d 4899 dc3d 7d3b a1bd
00000120: cd26 e6bb 3acd 06be 2345 963d ea7b af3d
00000130: d413 71bd 7e33 cebd 4b14 fbbc 41d5 e33d
00000140: b3eb 773d 4254 86bd 4f94 57bc 23cd e6bd
00000150: 458a f73d f90f 353d 885d 5ebd f4da f23c
00000160: b241 7a3c 0ca5 b6bd f80b ebbd a188 c23d
00000170: 3995 e5bd dd54 c53d a216 25bd cbdc 613d
00000180: ac1b 263d 783c 5f3d ddee 74bd 15fe 823d
00000190: eefd 1f3c c3b4 acbc e749 99bc a0a6 06bc
000001a0: 3322 723d 5a58 b23d fc27 38bd 4d0c 4cbc
000001b0: 0f53 b8bc 405d 24bd 73a0 713d f631 d83d
000001c0: 54c3 183d 4333 0abd 7fc1 703d 00b2 ea3d
000001d0: 5eed 303d 559d d43d 73e6 303d f72e 7dbc
000001e0: 260e bc3c 4705 263d d6de 423d 939c 4abd
000001f0: daaf b6bd b850 05be a707 a9bd 1a3c a43d
00000200: 463a 9ebd c59c 10be e1c4 f43d fbd9 a6bd
00000210: 0d49 453c 0865 fe3d 1f3e b7bd 4354 cf3c
00000220: 130e a53d 6559 6d3d 1a05 fd3d f69c 3cbd
00000230: 54a5 e23d 816b f43c 95d7 fabc 9fa9 113e
00000240: 00d4 3ebc 780e b33d ba45 15be b1b5 d4bb
00000250: ef6e 17be 7cc0 e23c 1035 f73c 98a5 bd3c
00000260: 6dbf c83d 5fea b2bd 8dfd c13d 5e2e abbd
00000270: 1c0d 993d bf98 bb3d bf38 1ebd 6270 3db8
00000280: dafa 313d b812 1abe 4609 a23d 0a29 4a3d
00000290: e873 9d3d e0ad 17bd 1982 9cbc 5c3a e9bb
000002a0: ab46 e03d 1319 8bbd 52eb a53d 7738 2e3d
000002b0: cabe 643c 3aef 9fbd 80cd f83d 70e9 6f3d
000002c0: 3a38 94bd 2f86 b43c 392b 97bd a34b 21bd
000002d0: c7e4 173e c4e7 6f3c 8af4 813c 185b e03d
000002e0: ad57 083d d894 7b3d d26d b43d cc14 0ebe
000002f0: e6f5 1ebd a314 5b3d e5c3 1e3d a0ab 363d
00000300: f881 febd 33d7 bbbd 68cf 4bbc bd4f c43d
00000310: a1ed 03bd 5fcb 063e e37b e1bd f06f 983c
00000320: aa47 933d 1e71 bcbd 0285 d03c 84be 5fbd
00000330: ecda be3d d950 a8bd 3d7b 02be 8dc7 1bbc
00000340: 7f3e 3b3c c216 87bb 9da6 11be 7f6d 75bd
00000350: d239 b9bd 3c62 003e fd25 ceba 7847 673c
00000360: 6677 1e3e 94a3 e5bd d0a9 973d 5e45 493d
00000370: bf33 a43d afb4 cd3c bfb2 253d 8f2e 19be
00000380: bfc4 c93d 2b77 0bbe c11f e63d 8650 74bd
00000390: cfc2 ffbb ed9c 04bd 3273 8a3d b826 16be
000003a0: 2af9 f03d 3c06 243e 9aa5 773d 7c7f bb3d
000003b0: 68d0 023e 4457 b13c 8c96 d73d 15c8 d6bb
000003c0: 2577 9ebb 1503 8bbd 4199 7abd 9a07 07bd
000003d0: a5bf 42bd a46a e3bd 3394 0bbd 1ab7 913d
000003e0: b3ec 3abd 80f9 623d 5977 bd3d c9b8 96bd
000003f0: 1e82 e73d c108 05be 47d9 4dbd 1573 103e

model.net.10.bias f4 [64]
-0.022830268 -0.1271337 -0.07188877 -0.056633804 0.106602274 -0.09257812 0.073719844 -0.013699241
0.08794375 -0.0551982 0.0031717017 -0.026714012 0.0947701 -0.09806816 0.028741732 0.12707765
0.12064084 -0.006126258 0.020155517 0.11307549 0.119521365 -0.010800512 -0.0056777457 0.06518481
-0.09099228 -0.038254283 0.001182382 -0.0930931 -0.053385984 -0.113157436 -0.053525086 -0.122672655
0.062542014 -0.044647157 -0.03355284 0.05988555 -0.10369698 -0.028993003 -0.061394032 -0.054004736
0.069698684 0.049973402 -0.061846204 -0.047775842 -0.06874004 -0.003648545 0.0106323 0.0010818803
-0.011836446 0.006359152 0.0263562 -0.012117655 -0.042653475 0.033218127 0.09474662 0.04169039
-0.0933127 -0.044381067 -0.11070948 0.09629144 -0.09504672 -0.066927694 0.056009367 0.07929387
00000000: 8b06 bbbc 562f 02be 6b3a 93bd d9f8 67bd
00000010: 4b52 da3d 9999 bdbd 6efa 963d c872 60bc
00000020: da1b b43d 8217 62bd 53dc 4f3b 58d7 dabc
00000030: d416 c23d f6d7 c8bd c873 eb3c a520 023e
00000040: 8b12 f73d c7be c8bb 2f1d a53c 1f94 e73d
00000050: 9ec7 f43d a1f4 30bc 620c babb 9d7f 853d
00000060: 295a babd 86b0 1cbd 28fa 9a3a 98a7 bebd
00000070: 43ab 5abd 16bf e7bd 1f3d 5bbd cd3b fbbd
00000080: 0716 803d f0df 36bd b46e 09bd 8d4a 753d
00000090: 155f d4bd bc82 edbc 4f78 7bbd 1234 5dbd
000000a0: 2fbe 8e3d e9b0 4c3d 7252 7dbd 9ab0 43bd
000000b0: 94c7 8cbd 6d1c 6fbb 1933 2e3c e1cd 8d3a
000000c0: a7ed 41bc 6f60 d03b f5e8 d73c 2189 46bc
000000d0: 69b5 2ebd bb0f 083d 840a c23d 8bc3 2a3d
000000e0: bb1a bfbd ecc8 35bd a7bb e2bd 7234 c53d
000000f0: dba7 c2bd 6311 89bd 146a 653d d364 a23d
