results/edm_swiss_roll/checkpoints/epoch=48-step=1568.ckpt (torch, 842042 bytes, 37 tensors)

model.base_model.time_embedding.frequencies f4 [4]
000000 00 00 80 3f 97 1e 3e 3d 6b 31 0d 3b 16 b7 d1 38
       1.0 0.04641589 0.0021544348 9.999999e-05

model.base_model.net.0.weight f4 [128, 10]
000000 5b ef 7a 3e ca 14 98 3e e7 42 a9 bd 4d d6 90 3e
       0.2450537 0.2970336 -0.08264714 0.282885
000010 cd fa 9e bd 2f 2d 70 3d cd db 08 be 0a 1b 51 3e
       -0.0776268 0.05863684 -0.13365097 0.20420471
000020 b6 31 98 3e ce a1 5a be a9 23 87 3e d5 25 85 3d
       0.29725426 -0.21350786 0.26394394 0.065013565
000030 96 f8 8e 3e 40 a3 b4 3d 86 da 44 3e b2 8e ed bc
       0.2792403 0.088202 0.19223985 -0.028998706
000040 4c d4 85 3e 11 88 6b 3d e7 2b 0c be 56 14 bb 3d
       0.26138532 0.05750281 -0.13688622 0.09134738
000050 37 9b 2d be dd 50 11 bd 0a 9f 16 be c2 5c 44 3e
       -0.16953741 -0.035477508 -0.14709106 0.1917601
000060 97 4a 86 be 0d 0f 17 be f8 0c cb bd cd 06 4a be
       -0.26228783 -0.14751835 -0.09914583 -0.19729157
000070 27 fd b9 3c 23 92 a3 be 8d 3b c6 3e 04 be a4 be
       0.02270372 -0.3194743 0.3871731 -0.3217622
000080 3a 55 57 3e 03 23 a3 3c 9c 2a 07 be 66 a6 3e 3e
       0.21028605 0.019914156 -0.13199848 0.18618163
000090 4b 1b 9a 3d 12 2e 90 3e a2 7e 78 3d 61 cc 96 bd
       0.07524737 0.2816015 0.06066764 -0.07363201
0000a0 9d 95 d6 3d f0 54 bd bd 98 e6 08 3e a7 9c 90 3e
       0.10477755 -0.09244716 0.13369215 0.28244516
0000b0 cc e3 3a 3e df 8e 0d be fd de 3d 3e 46 67 71 3d
       0.1825096 -0.13824032 0.18542095 0.05893638
0000c0 65 db 26 3e fc f4 42 be 25 93 ba be d0 bc fe bd
       0.1629463 -0.19038767 -0.36440387 -0.12438357
0000d0 59 50 77 be 8f f2 85 3e 8d 4f c0 3d f6 91 08 3e
       -0.24151744 0.2616162 0.09390173 0.1333693
0000e0 37 d2 dd 3d 11 19 a7 3a 6b 2d 82 3e c6 24 5f be
       0.10831111 0.0012748559 0.25425276 -0.21791372
0000f0 17 2c aa 3c fb 96 79 be e0 c1 9c 3d af 1d 04 be
       0.020772977 -0.24374 0.07654166 -0.12901948
000100 94 52 a3 3d 77 a4 90 bd 9c 7f 86 3e 0a 8d 3d be
       0.07974735 -0.07062619 0.26269233 -0.18510833
000110 fe bd 3e be fa c0 3e be 89 9e a3 3e c7 74 ed 3d
       -0.18627164 -0.18628302 0.3195689 0.11594539
000120 24 83 8e 3e 3e 82 92 be 82 9b ac be b2 eb 83 be
       0.27834427 -0.28614992 -0.33712393 -0.2576576
000130 49 8a 55 be 9c 1c 09 3e 3e d0 f3 3d 04 83 89 3e
       -0.20853533 0.1338982 0.119049534 0.2685777
000140 27 e3 43 be 7c b1 60 be 53 37 2d 3e 7d fb 00 be
       -0.1912962 -0.21942705 0.16915636 -0.12595935
000150 04 de 47 3e 18 c7 92 bd ff 41 32 3e e8 68 81 be
       0.19518286 -0.0716688 0.17407988 -0.2527535
000160 40 a2 2a be 4e 02 b7 3d f9 cf c9 3d bd e0 a8 bd
       -0.16663456 0.089359865 0.09854121 -0.082459904
000170 6b 24 36 3e 42 74 50 3e 63 df 75 be a5 fb 30 be
       0.1778733 0.20356849 -0.24010997 -0.17283495
000180 7a a4 92 3e 7a 30 de bd 0f 3e e9 bd c2 92 9d be
       0.2864111 -0.1084909 -0.1138879 -0.3077603
000190 84 cd 51 be a2 da 7e 3d ba 5f b7 bd 7e bc 8d be
       -0.20488554 0.062220223 -0.08953805 -0.2768287
0001a0 18 46 f5 bc ba 94 65 be 79 73 8d be 17 8b 32 be
       -0.02994065 -0.22420016 -0.2762716 -0.17435871
0001b0 25 cf 8d be 73 65 4e be 3f 2d e0 3e 87 53 a6 3d
       -0.276971 -0.20155887 0.4378452 0.081214
0001c0 26 d9 99 3d 06 b2 a1 be 7a 1d 66 be b2 90 e1 bd
       0.07512121 -0.31581134 -0.22472182 -0.110139266
0001d0 db 9f ba 3d e9 58 73 be 9c e3 c3 bd 97 47 18 be
       0.09112521 -0.23764385 -0.095648974 -0.1487106
0001e0 c2 91 b2 bc 63 4c fa bd 37 9c af bc f4 1d 5a be
       -0.021798018 -0.12221601 -0.021436794 -0.21300489
0001f0 46 39 5d be dd c0 3c be 1a 25 db bd 60 f9 7e be
       -0.2160388 -0.18432947 -0.10700436 -0.24899817
000200 ff 0e 88 3e dd a2 7e bd db 80 9d 3e f9 66 f0 3d
       0.2657394 -0.062167037 0.3076237 0.117383905
000210 8e aa 9e be b5 2f 36 3e 28 20 fe bd 28 38 0b be
       -0.30989498 0.17791636 -0.12408477 -0.1359564
000220 eb 3c 7b be 16 5e 96 be 69 b2 e3 3d c6 23 46 bd
       -0.24534957 -0.29368657 0.111180134 -0.04837396
000230 a9 88 e0 3d 97 f0 89 be 44 69 85 3e cd 6f 53 be
       0.10963566 -0.26941368 0.26056874 -0.20648117
000240 cf 2c f4 bc 2d 95 a3 3d 66 16 2c 3e 51 78 83 3e
       -0.029806523 0.079874374 0.1680542 0.25677732
000250 77 3f 94 3e 26 40 7f be 82 34 85 3d 70 5e 1d be
       0.2895467 -0.24926814 0.06504156 -0.15368056
000260 8a f2 81 bb 97 f5 52 be e7 26 a2 3e cc 25 62 be
       -0.0039656805 -0.20601498 0.31670305 -0.22084731
000270 f9 4b 2f 3e bd 44 df 3d 5a 17 ce 3d 48 40 31 be
       0.17118825 0.10901783 0.10063048 -0.17309678
000280 30 95 bd 3e 6b 13 ae 3d d8 54 d2 3c 6f 67 95 be
       0.37027884 0.084997974 0.025675222 -0.29180476
000290 75 f6 f6 3d 48 c6 53 bd a4 80 e6 bd cd 79 9a 3e
       0.12058727 -0.051702768 -0.11255005 0.30171052
0002a0 9c ff cd 3d 13 5b 14 be 08 81 3c be 25 f0 04 bd
       0.10058519 -0.14487867 -0.18408597 -0.032455582
0002b0 07 1f 10 3e 3b 31 ed bd f7 74 56 be 8a f8 eb bd
       0.14074336 -0.115816556 -0.20943056 -0.115220144
0002c0 d1 c4 74 be 16 66 e9 3d 5c df 7b 3e 90 d0 97 be
       -0.23903205 0.113964245 0.24596924 -0.29651308
0002d0 e7 c9 a9 3d 28 53 28 3e 54 61 5f 3d 74 59 ec bd
       0.08290463 0.16437972 0.05453618 -0.11540499
0002e0 ee ff 26 3e 29 1d 2a 3e 0d 30 f3 3d a0 76 63 bd
       0.16308567 0.16612686 0.11874399 -0.05553305
0002f0 3a 6c ab bd 70 b6 0a 3d 36 58 af bd 81 75 bb bd
       -0.08370252 0.033865392 -0.08561747 -0.091532715
000300 5c 28 68 3e c9 ad 97 3e 3b d0 02 bc 80 9c 71 bd
       0.22671646 0.29624775 -0.007984216 -0.05898714
000310 99 7e fd 3b 0a be 9a bc 87 ab 9b 3d da 75 b5 3d
       0.007736039 -0.018889446 0.076010756 0.08860369
000320 f5 eb 98 be 7a 67 09 be c8 da 6c 3e d4 6f b8 3d
       -0.2986752 -0.1341838 0.23130333 0.090057045
000330 7d 5f 22 bd 58 69 48 be 29 ef 3c be 10 9b 8b be
       -0.039641846 -0.19571435 -0.18450607 -0.2726674
000340 dc 63 bd bd 5c 6c f0 3d 9d 62 76 3e 19 18 2b 3e
       -0.09247562 0.11739418 0.24061055 0.16708411
000350 84 14 a1 be bf 27 66 be 28 f0 a9 bd 7a 34 93 3e
       -0.31460965 -0.224761 -0.08297759 0.28750974
000360 ab a6 47 3d 13 b8 99 bd 04 f9 0c 3e 90 a9 e8 bd
       0.04874293 -0.075058125 0.13766867 -0.113604665
000370 3f 37 79 be 2e f5 5e 3e 4d 21 02 be a0 2d 3b bd
       -0.24337481 0.21773216 -0.12708016 -0.04569781
000380 18 70 98 be e3 0b 60 3e d1 2b 82 3e eb 56 01 3e
       -0.2977302 0.21879534 0.25424054 0.12630813
000390 c2 79 56 be 0c 23 9a be 83 aa 97 be 37 b4 8b 3e
       -0.20944884 -0.30104864 -0.29622278 0.2728593
0003a0 b2 a5 38 3e 54 30 97 3e 3b 67 3e 3e 66 e9 aa 3d
       0.18031958 0.2952906 0.18594067 0.083452985
0003b0 ec 43 07 3d 4c 0e 58 be f9 3e 77 be 65 58 88 be
       0.03302376 -0.21099204 -0.24145116 -0.2662994
0003c0 0e 61 1f 3e fb 46 32 be 65 90 e6 bd 55 1d 6b be
       0.15564367 -0.1740989 -0.1125801 -0.22960408
0003d0 fb 7d ca bd 86 b4 73 be ac c3 4e be 69 d5 eb 3d
       -0.0988731 -0.23799333 -0.2019183 0.11515314
0003e0 9c 70 ab bd 5e 6c 52 3e 9a 2a fa bd c0 20 71 be
       -0.08371088 0.20549151 -0.12215157 -0.2354765
0003f0 b3 4b fc bc bf a7 02 be 80 62 94 bd 4b cf 93 be
       -0.030797815 -0.12759303 -0.0724535 -0.2886909

model.base_model.net.0.bias f4 [128]
000000 e7 5d 57 be e6 d1 8b bd e4 e7 18 bd b0 79 19 be
       -0.21031915 -0.06827144 -0.037330523 -0.14987826
000010 16 c4 6c be 50 bd 60 3e f5 23 5e 3e b5 10 90 be
       -0.23121676 0.21947217 0.21693404 -0.28137746
000020 4d a4 bf 3d de e7 01 3e b2 b3 99 3e cb ec 64 3e
       0.0935751 0.12686107 0.3001991 0.22355954
000030 47 27 95 3e 06 a0 a9 bd 77 4f 64 3e 27 9b 82 3e
       0.2913153 -0.08282475 0.22295938 0.25508997
000040 11 7e 89 be 9c 5a 81 be 90 27 83 3d 80 cd 30 3e
       -0.26853994 -0.25264442 0.0640403 0.17265892
000050 c1 04 16 be 55 ad 2a 3d 8a 8b 2d 3c 99 4d e0 3d
       -0.14650251 0.04166921 0.010592351 0.109523006
000060 6c 7c 23 be d7 ba 39 3e 98 5d 56 3e d6 57 5b be
       -0.15965432 0.1813768 0.2093414 -0.21420226
000070 d3 44 87 3b 8e fc 88 3c fc d7 d0 3d 1e 45 98 3e
       0.0041280775 0.01672199 0.10197446 0.29740232
000080 a5 f0 ab 3d db 9b 63 bd 68 df 8e 3e 29 e1 fc bd
       0.08395509 -0.055568557 0.2790482 -0.123476334
000090 ae be a5 bd 20 df 13 3d 5f 93 6f be 97 bb 33 3d
       -0.0809301 0.03610146 -0.23396061 0.04388007
0000a0 a1 43 4a be ad 44 13 3d e1 ad 03 3d 15 b5 3f 3d
       -0.19752361 0.035954166 0.032148246 0.046803553
0000b0 02 35 87 be fe 5c 94 be 92 ab 0d 3e 21 38 91 3e
       -0.2640763 -0.28977197 0.1383498 0.28363135
0000c0 92 26 8f be 8f d1 f9 3d 29 93 67 be 9c b6 c8 3c
       -0.27959114 0.12198173 -0.22614731 0.024501137
0000d0 fb b2 97 3e df a2 78 3e 4c 2e 67 be df de 45 3e
       0.2962874 0.2428088 -0.22576255 0.193233
0000e0 88 9b 3c 3e c2 28 74 3a 85 7a 9a 3e 72 6f e5 bd
       0.18418705 0.0009313935 0.301716 -0.11202897
0000f0 73 0e 91 bd 0b 3a 1f be ce 2c 5e 3d 06 8d c2 3d
       -0.07082834 -0.15549485 0.054241948 0.09499554
000100 f4 64 21 3d 76 ae 29 be d3 48 0a be 9b b3 cd 3d
       0.039402917 -0.16570458 -0.13504343 0.10044023
000110 98 19 81 be f1 69 3a bd 98 3d 00 3b 87 2d 02 be
       -0.2521484 -0.04551119 0.0019567963 -0.1271268
000120 a5 61 ea 3d 9c 2b b0 3c 26 da 6a 3e 2d 64 b9 bc
       0.114444055 0.02150517 0.2293478 -0.022630775
000130 8a f1 42 be 1d 5e 68 3e ff 81 3b 3d 5f 2c c0 bd
       -0.19037452 0.22692151 0.04577827 -0.09383463
000140 6d 61 4b be 10 83 a2 3d a4 4d 8f be 5c 5c be 3d
       -0.19861384 0.079351544 -0.27988923 0.0929496
000150 17 a8 20 3e 68 cc 8d be 85 d3 53 be a7 0b 69 be
       0.15689121 -0.27695012 -0.20686157 -0.22758351
000160 53 6f 8a 3e 64 2f 8e 3e 9d ae d5 3c d7 52 98 3e
       0.2703806 0.2777053 0.026084239 0.29750702
000170 2e b4 d1 bd 33 91 98 be 67 78 f0 3d e0 a6 f0 3d
       -0.10239445 -0.29798278 0.11741715 0.11750579
000180 65 fd a1 3e c2 e1 ae ba 06 65 76 3e 83 87 4a 3e
       0.31638637 -0.0013342428 0.24061975 0.19778256
000190 f9 31 70 3e f3 3f 9b be 16 d1 8a 3e c6 7f 85 be
       0.23456563 -0.30322227 0.27112645 -0.26074046
0001a0 5d 2d 95 3e ef 43 5a bb 9a ec 90 be c6 0a d3 3d
       0.29136172 -0.0033304652 -0.28305513 0.10304789
0001b0 60 93 8b bd 07 da 8e be 31 f8 e7 bd 80 f8 0e 3d
       -0.06815219 -0.27900717 -0.11326636 0.034904957
0001c0 fb 12 7e 3e 80 5f af bd e2 94 3f 3e 69 de 12 3d
       0.24811928 -0.08563137 0.18709138 0.035856638
0001d0 4f 2d 41 3c 43 bc 7c 3d 2b d8 4b be 36 05 87 be
       0.011790588 0.061702978 -0.1990668 -0.26371163
0001e0 3d 63 c1 bd 24 56 92 be cd e2 13 be 28 91 86 3c
       -0.09442756 -0.28581345 -0.14441986 0.016426638
0001f0 02 26 4f be f6 df 00 be a6 4b 4a bd 9b 1f 18 bd
       -0.20229343 -0.12585434 -0.04938855 -0.037139516

model.base_model.net.2.weight f4 [128, 128]
000000 cf db bd bd c2 1d dc bc a2 9c 78 bc e5 fd 92 3b
       -0.09270441 -0.026869658 -0.015174063 0.004485833
000010 0e 72 06 bc d3 cd be bc e3 43 08 bd ed 26 16 bd
       -0.008205904 -0.023291504 -0.033267867 -0.036658216
000020 57 e1 04 bd 09 e4 d7 39 5d cc 0e bc 3c 42 0e 3c
       -0.032441463 0.00041177895 -0.008715716 0.008682784
000030 b9 bd ca 3c 05 70 48 3d e3 54 f8 39 de 9e 82 bd
       0.02474867 0.048934955 0.00047365492 -0.06377958
000040 f4 3a 04 3c c8 c4 67 bd 62 62 1b bd 35 7f 20 bc
       0.008070696 -0.05658415 -0.037935622 -0.0097959535
000050 94 98 0d bd f8 c5 a1 bd b1 41 c2 3d a1 09 47 3d
       -0.034569338 -0.07899088 0.09485186 0.048593167
000060 fd b4 2e bb f3 5e c2 3d 61 e5 cb bd 4e 89 9b ba
       -0.002665817 0.094907664 -0.0995586 -0.0011866482
000070 ae 43 83 3d e2 b4 31 3d 12 e1 be bd c4 90 8b 3c
       0.06409393 0.043385394 -0.093202725 0.017036803
000080 4e e6 5a bd 48 20 40 bd fa 75 3f bc cf e8 b9 bd
       -0.053442292 -0.046905786 -0.011685843 -0.09077608
000090 06 2d be bd 70 18 c4 bd 01 a2 d3 3c cd d8 39 3d
       -0.09285931 -0.095749736 0.025834085 0.045372773
0000a0 11 6f aa bd 62 91 02 bd 0d 07 30 bc c4 af e3 bd
       -0.083219655 -0.03187693 -0.010743869 -0.11117509
0000b0 ea e9 31 3d 59 3e 81 3d 06 22 bc 3c 28 d8 cb bd
       0.04343597 0.0631072 0.022965442 -0.09953338
0000c0 b0 ef 30 3c d4 94 c6 3c d2 b1 81 3d 88 e3 2c bd
       0.010799333 0.024240889 0.06332745 -0.04220918
0000d0 e4 a7 95 bd 33 b6 a1 3c c8 1b d6 3c 52 ac ab bc
       -0.07307413 0.0197402 0.026136294 -0.020956192
0000e0 c2 73 49 bd 34 ba 4a bd 7a e6 6c 3d b2 ba 61 bd
       -0.04918266 -0.049493983 0.057836987 -0.055109687
0000f0 40 f9 96 3d 0d 6c 4d 3d b2 3d 8e 3c bf 9a 60 3c
       0.073717594 0.050151873 0.017363403 0.013708769
000100 12 f8 61 bc a0 81 23 3d 01 4a 6c bd 50 07 05 3d
       -0.013792055 0.039918542 -0.057687763 0.032477677
000110 ab 6e af bc ad 56 07 3d 98 b0 d8 bc 74 7a 1e bd
       -0.021415075 0.033041645 -0.026451394 -0.038691
000120 e9 1b 68 bc 3b a1 bc 3c a3 05 9f bd 6c 66 95 bd
       -0.014166811 0.0230261 -0.07764747 -0.07294926
000130 b9 f3 2c bc 00 7c 97 bd 85 54 27 3d 1d 65 80 3d
       -0.010556155 -0.07396698 0.04085209 0.06269286
000140 8a 1d e0 bb 4c 09 ce 3d 6b 98 99 bd 44 a1 a8 bd
       -0.006839459 0.10060367 -0.074997745 -0.08233884
000150 3c 95 29 bd b6 48 81 bd a8 15 8d bd 68 8f b0 bd
       -0.041402087 -0.06312697 -0.06888896 -0.086211026
000160 0e c9 c6 bd 0e 26 6b 3c 30 f4 15 3d 19 3b d6 3d
       -0.09706317 0.014352335 0.03660983 0.10460491
000170 46 d0 c2 3d 5b 90 f5 bc 1d 4e 7f 3c d9 36 ae bc
       0.09512381 -0.02997606 0.0155825885 -0.021266388
000180 64 4b 57 3d 8d 7a ba bd 46 cb 0b 3d 7e f5 15 3b
       0.052562132 -0.09105406 0.034129404 0.002288192
000190 93 fa f3 38 16 b5 3e 3c a6 98 9b bc db 83 64 3d
       0.00011633816 0.011639854 -0.018993687 0.05578981
0001a0 d8 77 7a 3d 19 8e 25 3d 9b 64 20 3d 0c e1 fa 3c
       0.06114945 0.040418718 0.039158445 0.030624889
0001b0 75 27 a6 3d b9 03 1c 3c c0 34 af 3d 89 c9 ce bb
       0.081129946 0.009522372 0.08554983 -0.006310646
0001c0 70 9b 91 3d bd 65 03 3d c8 fb ed 3c b7 50 d8 3d
       0.071097255 0.032079447 0.029050723 0.1056227
0001d0 f1 8d 3d 3c 40 1f cc bc e9 1a 25 bd 0f 46 a3 3c
       0.011569486 -0.024917245 -0.040308867 0.019930867
0001e0 9d ea f9 3c d8 f2 40 bd 8a e1 c7 3d 5f c3 1d 3d
       0.03050738 -0.047106594 0.09759815 0.0385164
0001f0 83 38 6a bd 54 95 90 bc a0 79 03 bd 0c 62 56 bd
       -0.0571828 -0.01764933 -0.032098413 -0.0523396
000200 d5 5a 9f 3c 6c 49 14 bd da 4b 2f bd 32 a1 f3 bc
       0.019452492 -0.036202833 -0.042796947 -0.02973995
000210 2c 72 21 bd ed 98 a4 3d 2d 11 09 3d 92 ef a5 3d
       -0.039415523 0.08036981 0.033463646 0.08102335
000220 30 3a 4a 3c d4 50 4e 3c b6 74 21 3d 25 2a 51 3c
       0.012342975 0.012592513 0.039417945 0.012766396
000230 35 13 8b bd 1a ea 48 bd 63 47 dd bc 34 82 a6 b9
       -0.06790773 -0.04905138 -0.027011579 -0.00031758996
000240 30 6a 09 3d 87 cc 08 3d c3 e7 8c 3d b2 a8 dc 3b
       0.033548534 0.033398177 0.068801425 0.0067339772
000250 a3 7a 01 bd 0f 37 66 bd 73 55 7b bd 33 ce 5a bd
       -0.031611096 -0.05620485 -0.061360788 -0.053419303
000260 d5 82 22 3d fe 47 35 3d 6c f2 a6 3d 35 5d 92 bc
       0.039675552 0.04425811 0.08151707 -0.01786671
000270 a5 1b be bb 02 e3 45 bc 12 e2 a5 3c a7 9f f7 3c
       -0.0058016353 -0.012078049 0.0202494 0.030227495
000280 51 cf da ba 05 1b 8a 3c 0f 4c 3c 3c 05 92 af 3c
       -0.0016693865 0.016858587 0.011492743 0.021431932
000290 76 94 9c bc 35 c9 48 bd 0a 36 e1 3c 24 21 5b bc
       -0.01911376 -0.04902001 0.027491588 -0.013374601
0002a0 79 5e 14 bd aa 87 0f 3d a8 48 32 3c ee 25 5d ba
       -0.03622291 0.03504149 0.01088158 -0.0008436133
0002b0 e0 a1 16 bd ad d7 b1 3b 47 bf a0 bd 98 45 85 3c
       -0.03677547 0.005427322 -0.07848983 0.016268536
0002c0 d2 bc 4d 3b e4 2a 4a 3d 93 09 12 3c a9 93 52 3b
       0.0031393063 0.04935731 0.0089134155 0.003213147
0002d0 64 aa b9 3c 8b ac 9c 3d fb 4a 41 bd 70 41 52 3d
       0.022664256 0.076500975 -0.047190648 0.051331937
0002e0 b6 f5 a9 3c f2 c0 4e bd 31 b3 04 3d 9b f5 1b bd
       0.020747047 -0.050476976 0.032397453 -0.038076025
0002f0 ce 4c a6 bc 1e ec f0 bc 03 fb 21 bd 50 3d 92 3d
       -0.020300295 -0.029409464 -0.039546024 0.07140601
000300 2c 0b a1 bd d2 44 38 3d 6f 44 9c bd 26 1e 46 bc
       -0.07863459 0.044987507 -0.0763024 -0.012092149
000310 43 87 e7 3b 0b 28 7d 3d 62 71 d3 bc 28 87 d6 3c
       0.007065685 0.061805766 -0.025810901 0.026187494
000320 51 be 74 3c 73 6f 80 3d 5a 3d 7a ba 24 8b 16 3d
       0.014937953 0.06271257 -0.0009545885 0.03675379
000330 24 fe 52 bd 3c 63 46 bd 97 89 95 3d 76 6a 82 bd
       -0.0515119 -0.04843448 0.07301634 -0.06367962
000340 5f 3e 79 bb 12 c4 8b bc 97 13 c5 3d 6d 4d 95 bb
       -0.003803156 -0.017061267 0.09622877 -0.004556349
000350 cf ae 86 bd 54 f3 a8 bc 04 6b 2f 3d 44 cd 0d 3d
       -0.06576311 -0.02062384 0.042826667 0.034619585
000360 e5 76 8c 3d 29 98 31 bc fb 5c 1c 3d d3 35 ba bd
       0.06858615 -0.0108395 0.03817461 -0.090922974
000370 94 d9 1a 3d 04 37 4c 3d 65 b3 79 3d 0a 79 8c bd
       0.037805155 0.049857154 0.0609621 -0.06859024
000380 29 59 c7 bc 21 7b 9f 3c 72 de 8b bd de c6 7a bd
       -0.024334507 0.019467892 -0.068295375 -0.06122481
000390 e3 de 91 bd 54 07 9a 3c 77 1f 53 3d 8f dc f6 3c
       -0.071225904 0.018802322 0.05154368 0.030134467
0003a0 b5 de 48 3b ce 12 0f 3d f1 22 8a bd 4f 0b 32 3c
       0.0030650322 0.034930043 -0.06744946 0.010866954
0003b0 84 a5 b4 bc fd ea 07 bd f3 6f a2 3d e4 50 8f bd
       -0.02205158 -0.033183087 0.07931509 -0.069978505
0003c0 e0 0f 09 3c cd 73 9a bd 3c 76 91 b9 03 f3 36 bd
       0.008365601 -0.075416185 -0.00027744647 -0.044665348
0003d0 5a 9a f4 3c 95 ae 56 bd 88 4f aa 3d 05 db 8f bd
       0.029858757 -0.05241259 0.08315951 -0.070241965
0003e0 74 9a 4b 3d 58 3e 88 bd 5e 58 13 3d 31 b9 25 bd
       0.049707845 -0.06652516 0.035972945 -0.040459815
0003f0 82 2e d5 3a 1c af c4 bb d4 52 8b 3d 5d 0f e1 3c
       0.0016264471 -0.00600232 0.068029076 0.027473146

model.base_model.net.2.bias f4 [128]
000000 89 93 3b bb ef 4e 27 bd 6c 6a 88 bd d6 04 49 bd
       -0.0028621873 -0.04084676 -0.06660923 -0.049076878
000010 22 c9 3b bd ae 55 ae 3d c2 65 f2 3a 5e cd 47 bd
       -0.045846112 0.08512436 0.0018493461 -0.048779838
000020 d1 94 d1 bb 9c c1 95 bb eb f2 bf 3c ac 19 04 3d
       -0.006395914 -0.004570199 0.023431262 0.032251045
000030 04 29 71 3d ac 04 25 bd 4b 27 8a bc 46 05 9f bd
       0.058877006 -0.04028766 -0.01686444 -0.07764678
000040 5c a8 ed bc 16 b5 9a bd f0 14 0d bc a9 dc 4b bd
       -0.029010944 -0.07554071 -0.008610949 -0.049770985
000050 04 5e 01 bd 0e 6a ad 3d 73 41 a7 3d 84 f4 44 3c
       -0.0315838 0.08467494 0.0816678 0.012021188
000060 ff 7c 41 3d 1f 58 58 3d 17 43 03 3c f3 38 89 3c
       0.047238346 0.052818414 0.008011601 0.016750788
000070 d7 f7 76 bb 8a d2 91 bd 44 ab 8b 3d a4 64 8c bd
       -0.0037684345 -0.07120235 0.06819776 -0.06855133
000080 aa 0e c4 bc 45 a7 9b bd 81 be 50 bd 94 45 b1 3d
       -0.023932774 -0.076002635 -0.05096293 0.08655849
000090 93 3a b8 bb 6f d0 c3 3c d7 44 c3 3c 46 b1 90 3d
       -0.005622217 0.0239031 0.023836536 0.07065062
0000a0 8d 40 af 3c c4 f8 8d 3a fa 4e 12 bd a4 f2 5f 3c
       0.021393085 0.0010831584 -0.03571985 0.01366869
0000b0 75 bf c7 3c 39 4d 64 bd 38 49 75 bd dd 3f 1a bd
       0.024383286 -0.055737708 -0.05988428 -0.03765856
0000c0 c2 f6 a3 3d b3 9a 34 3d 04 39 4b 3d 77 c4 81 3d
       0.0800605 0.044092845 0.04961492 0.06336301
0000d0 de 27 15 38 18 69 78 bd 3b 77 b1 3d c3 95 6d 3c
       3.5561497e-05 -0.0606471 0.086653195 0.014501038
0000e0 d8 ce dd bc c8 4a 07 3d 17 47 6c bd 7d 21 a9 3b
       -0.02707617 0.0330303 -0.057684984 0.005161463
0000f0 8b 1c 9f 3d 9e 5e fe 3c a1 ad 93 bd 3c 50 a6 3d
       0.07769116 0.031050976 -0.072108515 0.08120772
000100 c2 43 81 3c 7a 8e e1 bc b7 85 8d 3d 35 fb 1d 3d
       0.01577938 -0.027533758 0.0691027 0.038569648
000110 81 8b 5e 3d 6a f8 41 3d cb 49 1e bd 86 20 63 bd
       0.05433226 0.047356047 -0.038644593 -0.05545094
000120 39 f0 74 3d f9 a8 14 bc f7 10 a1 3d cc b1 33 3d
       0.059799407 -0.009073489 0.07864564 0.043870732
000130 c7 7a aa bd c0 fb 59 3d 8c 80 36 3d 53 a4 a7 bd
       -0.08324199 0.053218603 0.044556186 -0.08185639
000140 66 ee 99 3b 71 59 94 bd d5 fd 48 3d eb ea 57 3d
       0.0046976088 -0.07243622 0.049070198 0.05271427
000150 70 60 eb 3c a2 7d 74 3d 62 cc 3e bd a6 4a 0f ba
       0.028732508 0.059690125 -0.046581633 -0.00054661406
000160 98 ce a1 bc 56 76 84 3d e9 ab 83 3d 51 f7 bf bc
       -0.019751832 0.06467883 0.06429274 -0.02343336
000170 d2 6c 8e bd 54 08 cc 38 18 53 95 3d e6 50 b4 bc
       -0.069543496 9.729029e-05 0.072912395 -0.022011232
000180 37 38 19 3d 8a 50 7b bd 44 67 6b bd 88 7c 95 bd
       0.037407126 -0.061356105 -0.05747153 -0.07299143
000190 78 d2 9a bd 1c b8 13 bd 07 ac 0c bd 39 54 0a 3d
       -0.07559675 -0.036064252 -0.034343746 0.033771727
0001a0 09 af a0 3d 61 26 d8 3b 91 c4 11 3d 2e 50 5f bd
       0.07845885 0.006596372 0.03558785 -0.054519825
0001b0 19 1c 02 bd 35 50 ad bd e4 bd ae 3d a9 9f 5e 3c
       -0.031765077 -0.08462564 0.085323125 0.013587871
0001c0 5d f4 b3 bc f0 d9 94 bd 11 96 a1 3c 77 0d b2 bd
       -0.021967107 -0.07268131 0.019724878 -0.086939745
0001d0 fb 11 64 3d c4 64 a9 bd 4a 98 8f 3c a6 6f 5c 3d
       0.05568121 -0.08271173 0.017528672 0.053817414
0001e0 ef 17 95 bd 86 17 7f 3d a8 3b a8 3d cc e3 74 3d
       -0.072799556 0.062278293 0.082145035 0.059787557
0001f0 09 61 a9 3d bc 18 27 bd d7 b3 66 bc 01 9f a9 3d
       0.08270461 -0.040795073 -0.014080963 0.08282281

model.base_model.net.4.weight f4 [128, 128]
000000 94 58 57 3c 06 20 7e bd cd 89 9e 3d cf 8d 0d bd
       0.013143677 -0.06204226 0.07741127 -0.034559067
000010 0e ea 06 bd 37 22 a2 3c 11 e7 a7 3d 9c f2 65 bd
       -0.032938056 0.019791706 0.08198369 -0.056139573
000020 63 b1 a9 bb e0 04 c9 bc b2 c4 21 bd 19 da 2c 3d
       -0.005178617 -0.024538457 -0.039494224 0.04220018
000030 bd 37 4d 3b 11 dc d3 bd 33 ed d8 bb 10 86 13 3d
       0.003131374 -0.10344709 -0.006620073 0.036016524
000040 a2 5a 5c bd ef 90 67 3d f8 d3 cb bd b6 e6 88 3c
       -0.05379737 0.056534704 -0.09952539 0.016711574
000050 bc 27 01 3d 02 d5 f9 3c 82 cd 22 3d a6 ea 45 3c
       0.031532034 0.030497078 0.03974677 0.01207987
000060 29 e3 78 bc 31 73 79 3d ed 73 4b ba ea 35 9f 3d
       -0.015190878 0.06090087 -0.000776111 0.07773955
000070 7f 01 ad 3d ba 39 b9 bd 03 d7 92 3d c9 60 ad 3c
       0.08447551 -0.090442136 0.071699165 0.021164315
000080 e0 c2 a4 bd d9 e5 66 bd 4b 51 1b bd 8f b8 cf 3d
       -0.08044982 -0.056371544 -0.037919324 0.10142624
000090 62 e5 73 3d 7b 3c 83 bc d0 7c 8f bd 15 54 59 bd
       0.05954493 -0.01602005 -0.07006228 -0.053058702
0000a0 3d 0e 42 bd 35 49 27 bb 58 f7 e8 bd ea ff b6 bd
       -0.04737686 -0.0025525813 -0.11375302 -0.089355305
0000b0 19 08 4b bd 21 6b 00 3d 5c e0 1b 3d 01 0e 30 3d
       -0.04956827 0.031352166 0.038055763 0.042982105
0000c0 02 a1 ad 3d 9c d9 50 3d 0b 25 e4 bc d9 00 3a 3d
       0.084779754 0.05098878 -0.027849695 0.045410965
0000d0 94 d2 eb bc fa cc 8c 3d 82 10 0c bd 14 89 78 bd
       -0.028786935 0.06875034 -0.03419543 -0.060677603
0000e0 02 d4 89 bc 8a 0f 80 bd a5 9b 31 bd 70 da 57 bd
       -0.016824726 -0.06252964 -0.043361325 -0.052698553
0000f0 a7 ec 80 3c a1 81 21 bc d5 fd 6f bd 1f af b8 bd
       0.015737845 -0.009857566 -0.058591682 -0.09017777
000100 65 71 9b bd 37 e7 ba bd 54 2d b1 bd fe b1 9a 3d
       -0.07589988 -0.09126132 -0.08651224 0.075534806
000110 e1 d3 4c 3d 64 89 52 3d ca c9 d3 3d e5 57 95 bc
       0.05000675 0.051400557 0.103412226 -0.018230388
000120 94 6f 10 bd b0 c4 b5 bc d8 7f 5a bd 48 83 52 3d
       -0.03526266 -0.022188514 -0.053344578 0.05139473
000130 f1 ef 74 3c 6d 94 ce bd cc 4c 15 3d 06 63 9e bd
       0.014949785 -0.10086904 0.036450192 -0.07733731
000140 88 f4 7a 3d 7f 9e 3e 3b d1 3a 54 3c a1 a4 eb bc
       0.06126836 0.002908617 0.012953476 -0.028765025
000150 fe 4f 90 bc 58 16 2f 3c 6d de 16 3c 9d ba 1a bd
       -0.017616268 0.0106864795 0.009208304 -0.037775625
000160 bf d3 38 bd 25 cc 81 bd 29 4f 41 bd 47 a1 94 bd
       -0.04512381 -0.063377656 -0.047194634 -0.07257324
000170 53 4b b2 bd ad 33 df 3d 6b 55 ea bd a6 af 03 bd
       -0.08705773 0.10898528 -0.114420734 -0.032149933
000180 0f aa 3f bb 8d 85 46 bd 2e 02 77 bd ef d8 a0 3c
       -0.002924565 -0.048467208 -0.060304813 0.019634692
000190 59 ba f8 bb 21 f0 b4 bc 90 d3 fe 3d 14 1e 4b bc
       -0.0075905737 -0.022087159 0.12442696 -0.012397308
0001a0 e4 e6 65 bc 01 4e ff 3c 43 e5 30 bd 6c 38 6c bd
       -0.014032099 0.031165125 -0.04318739 -0.057670996
0001b0 7a 81 9f 3d ef 38 99 bd b6 7e a9 bd a9 74 72 bd
       0.077883676 -0.07481562 -0.08276121 -0.059193287
0001c0 fa b5 ab 3c 6e 0b 59 3d a1 ff b6 bd b8 e0 89 bd
       0.020960797 0.052989416 -0.08935476 -0.06732315
0001d0 04 3b 86 3d 7b ac dc 3d 52 f3 e8 3c e4 36 9b bd
       0.06554225 0.107750855 0.028436337 -0.07578829
0001e0 3a 7d 8d 3d 56 d4 aa bc eb 3c b4 bd 30 f7 85 3d
       0.06908651 -0.020853203 -0.08800682 0.06541288
0001f0 01 e4 7c bd d8 9d fa 3c ba d0 20 bd cf 6d 80 3d
       -0.06174088 0.030592844 -0.039261557 0.06270944
000200 1e 49 bd 3c 03 44 c5 bc 68 ab 42 3d 0d ee b2 3d
       0.023106154 -0.024080282 0.047526747 0.08736811
000210 08 67 91 bc 13 be 70 3d ce 3c 25 bd 04 ee 51 bd
       -0.017749324 0.05877502 -0.04034119 -0.05125238
000220 d2 e4 25 bd e0 db b6 bd e2 e1 65 3d 60 0b f5 3c
       -0.040501423 -0.089286566 0.05612362 0.02991265
000230 cd 72 52 bd 41 c5 64 bd d5 eb 71 3d 38 ad 86 3b
       -0.051379014 -0.05585218 0.059062798 0.0041100048
000240 d2 d2 6d bd 21 c0 68 bb 00 21 cd bc 0e a5 9b 3c
       -0.058062382 -0.0035514908 -0.02504015 0.018999603
000250 b4 ec 32 bd c7 7f 19 bd 74 5f 11 bd 54 1c 3d bd
       -0.04368277 -0.037475374 -0.03549142 -0.046169594
000260 0f c8 af 3b 08 b3 1e 3d 1d d3 30 3c 01 ab 5a 3d
       0.005364425 0.038744956 0.010792521 0.05338574
000270 d1 4b c8 bc c9 9b 34 bd 13 98 67 bd e7 83 80 bd
       -0.024450215 -0.04409388 -0.056541514 -0.062751584
000280 ce f7 85 bd 85 bc d1 bc 19 23 98 3d ac 8e a9 bd
       -0.065414056 -0.025602588 0.07428569 -0.082791656
000290 ea a1 98 3d 90 00 63 3d e3 9d 6a 3d 35 d7 46 3d
       0.07452758 0.05542046 0.05727948 0.04854508
0002a0 d2 c9 6e 3d 61 3a 9e 3d 1e 59 47 3d f1 58 c4 bb
       0.05829794 0.07725979 0.048668973 -0.005992048
0002b0 30 fe 48 3d d5 a0 07 3c 4b ca 45 bd c3 4a 56 3d
       0.049070537 0.008278091 -0.048288625 0.052317392
0002c0 25 a7 c5 3d 58 76 92 3d e6 b6 07 bd bf 43 9d bb
       0.09651021 0.071514785 -0.03313341 -0.0047993357
0002d0 b5 3d 33 3d ce e9 49 3d e1 52 93 bd 56 50 a0 3c
       0.04376002 0.04929524 -0.07193542 0.019569557
0002e0 d9 fc c8 3b 5c 2b a6 3d bc 3c 32 3c 1c 43 0d bd
       0.0061336574 0.08113739 0.010878738 -0.03448783
0002f0 3a e2 a3 bc 5a 93 a1 3d 7c 97 f7 bc 66 8a e6 3c
       -0.020005334 0.07889433 -0.0302236 0.028142165
000300 6d 58 b7 3d 58 08 65 bd 02 5c a3 bc 73 82 a8 bd
       0.08952413 -0.05591616 -0.019941334 -0.08228006
000310 97 4b 83 bc 59 2c 33 3d e4 e3 4e 3c cd ab 57 3d
       -0.016027255 0.043743465 0.012627576 0.052654076
000320 45 17 7e bd 45 2d 26 3d 77 43 36 bd 51 70 23 3d
       -0.06203391 0.040570516 -0.044497933 0.039902035
000330 94 4d 1a bd 3f a8 bf 3d b4 07 fc 3b 13 29 e8 3c
       -0.03767164 0.09358262 0.007691348 0.028339898
000340 91 72 9e bd 9a 14 14 3c 95 2d 90 3d 18 b2 a5 bd
       -0.077366956 0.009038115 0.07039944 -0.08090609
000350 a9 dc ae 3d 73 89 3b 3d 50 d3 ec bc 03 dc 77 bd
       0.08538181 0.04578538 -0.028909355 -0.060512554
000360 23 9c 89 3d 78 af 81 bc b3 96 3d 3d a7 31 4f bc
       0.06719234 -0.01583074 0.046286296 -0.012646115
000370 c1 3f 9f 3d 95 9d 65 bd b4 0c 12 3b 54 ff 30 3d
       0.07775832 -0.056058485 0.0022285404 0.04321225
000380 f6 4e 2f bd ef 6c d2 bc c2 ad 86 bc 14 da a3 3d
       -0.042799912 -0.02568671 -0.016440276 0.080005795
000390 3d 6d fd 3c e8 20 b6 bd bd 5e 49 3c b8 df 59 3d
       0.030935878 -0.08892995 0.012290654 0.05319187
0003a0 75 af 00 3d e0 45 c5 3d 3e eb c5 bc c0 f8 b6 3b
       0.03141733 0.09632468 -0.024160024 0.0055838525
0003b0 d6 9e 94 3d ff f5 9c 3d c8 c0 a7 bc 33 df c9 3a
       0.07256858 0.076641075 -0.020477667 0.0015401602
0003c0 35 0c bc 3b b1 9c 79 3d e1 95 e3 bc 39 97 86 bc
       0.00573876 0.06094045 -0.027781429 -0.01642953
0003d0 48 36 36 3d 0a 0c d2 bc 86 0f 35 bd 46 5f 8a 3d
       0.04448536 -0.025640506 -0.044204257 0.06756453
0003e0 8d 0e eb bc 30 49 3c 3d 8b 72 aa bc 17 75 b3 bd
       -0.028693462 0.045968235 -0.020806571 -0.087625675
0003f0 f7 cc 60 bd 59 28 3b 3c 1e e2 84 3d 29 16 ed bc
       -0.05488297 0.011423194 0.06488441 -0.02894123

model.base_model.net.4.bias f4 [128]
000000 e8 67 0d bd 9b db a5 3d 98 dd 46 ba 90 03 a7 3d
       -0.03452292 0.08098527 -0.00075861206 0.08154976
000010 26 50 dd bc 41 2f 7d 3d 4e a3 25 bb 6e 4e 0b bd
       -0.027015757 0.061812643 -0.002527434 -0.034010343
000020 9c ab 92 3d ea fb 8e bd 36 63 70 bb b9 68 79 3c
       0.07161638 -0.069816425 -0.0036680228 0.015222722
000030 0f 1e 6b bc 7b 82 30 bd a5 c4 aa bc 4a af 56 3d
       -0.014350428 -0.043093186 -0.02084572 0.052413262
000040 82 14 33 bc a3 cd 1c bd 20 1b 0b bd b1 5a 84 bd
       -0.010930182 -0.038282048 -0.033961415 -0.064626105
000050 57 45 70 3d 94 c9 a1 bd 7c 94 25 bd 1c 42 9d 3c
       0.058659878 -0.07899776 -0.04042481 0.019196562
000060 13 1b 9d 3d bd a1 8c bd 74 6d 49 3c be 55 85 bd
       0.076711796 -0.06866787 0.012294162 -0.06510495
000070 32 df 84 3d 10 62 91 3d 91 b0 6e 3d 44 da 21 bd
       0.064878836 0.07098782 0.058273856 -0.039514795
000080 ee df 85 bd e4 93 45 bd 3f 4d e2 bc 0c 9d 31 3d
       -0.06536852 -0.048236743 -0.027624724 0.043362662
000090 d4 a1 7f bc 96 10 a5 3d ef cb a0 bd 11 d3 e2 3b
       -0.015602548 0.08059804 -0.07851397 0.0069221337
0000a0 86 9a 93 bd e6 ea a0 bd 23 9b 6f bd 62 c7 05 3c
       -0.072072074 -0.07857303 -0.05849756 0.008165212
0000b0 05 a9 ab bd 2f 4a db bb b2 20 30 bd 08 37 51 bd
       -0.08381847 -0.006692193 -0.04299993 -0.051077873
0000c0 59 b3 a6 3d 92 2e dd bc 81 ad a5 bd a9 9e 6d 3d
       0.081396766 -0.026999746 -0.08089734 0.05801264
0000d0 c4 fa b5 bd 25 5c 11 bb 7f 96 8f bd 1d 1d 45 3d
       -0.0888572 -0.0022180167 -0.07011127 0.048123468
0000e0 ea eb 07 3d 02 ed 53 bc c7 9f b5 bc 04 0b 80 bd
       0.03318397 -0.012934925 -0.022170914 -0.06252101
0000f0 a1 f0 81 bd 29 90 19 3d 08 1a 86 bd 75 91 df bc
       -0.063447244 0.037490997 -0.06547934 -0.027291039
000100 79 2a 87 3d 94 5c a9 bd aa 70 a2 ba 40 a6 fa bc
       0.06599898 -0.08269611 -0.0012393196 -0.030596852
000110 0c 30 2b 3d be d5 f6 bc ce 9f 97 3d 82 75 e9 3c
       0.041793868 -0.030131217 0.07403527 0.028498415
000120 f2 7e 55 bd 3f fe a2 3c 49 97 80 bb 58 52 95 bb
       -0.052123018 0.019896625 -0.0039242846 -0.0045569353
000130 c2 6c 52 bd 54 f2 31 3d 24 c0 92 3c 04 f5 a8 bb
       -0.05137325 0.043443993 0.017913885 -0.0051561613
000140 fa ee 33 bd 63 84 af 3d 8b e9 91 bd e9 45 11 3d
       -0.043929078 0.08570173 -0.07124623 0.035467062
000150 3a 09 9e bd 0b 83 8d bd 83 08 01 3d b0 af 9d 3c
       -0.077166036 -0.0690976 0.031502258 0.019248813
000160 59 e2 3d bc 5b 86 22 3d 2a 3b 20 bc 4d b9 e1 3c
       -0.01158961 0.039678913 -0.009779731 0.027554179
000170 c3 c1 92 bd 63 b7 18 3d 8a 70 be bc 2a 15 73 3d
       -0.07165863 0.037284266 -0.023247022 0.059346355
000180 ff 1d 96 bd ba 47 68 3c 23 9e fc bc 1b f1 15 3d
       -0.0732994 0.014177257 -0.030837124 0.03660689
000190 dd a3 85 bd fb 0a 92 bd 51 65 01 3d f6 17 22 3b
       -0.06525395 -0.071310006 0.031590763 0.002473352
0001a0 76 70 6e bd fc 72 76 bd 3a 8c 94 bd 85 b1 b1 3c
       -0.05821272 -0.06016825 -0.072533086 0.021691093
0001b0 c8 29 10 3d 2c c9 29 bd f1 6b 66 3d b8 95 51 3d
       0.035196096 -0.041451618 0.056255285 0.051168174
0001c0 d8 f9 42 3c 2c b8 54 bd eb 77 84 bd d8 e9 0e bd
       0.011900388 -0.051933452 -0.06468185 -0.03489098
0001d0 a9 39 61 bd 9d f1 a7 3c a0 ea 77 3d 7f 87 9e 3d
       -0.05498663 0.020500952 0.06052649 0.077406876
0001e0 34 c1 27 bd 4d 12 38 bd 49 4e 6f 3c 27 f8 af bc
       -0.040955737 -0.044939328 0.014606067 -0.021480633
0001f0 0d 73 5f 3d bd 3b 9b bd 64 62 2e 3d f7 16 ab 3b
       0.05455308 -0.075797535 0.0425743 0.0052212435

model.base_model.net.6.weight f4 [128, 128]
000000 9d c1 80 3d ff e8 00 bd 22 d5 eb 3c b7 94 85 3c
       0.06286929 -0.031472202 0.028788153 0.016306264
000010 0d db 81 bd b3 35 94 bd 79 9b 51 3d 76 b0 35 bd
       -0.06340609 -0.07236805 0.05117366 -0.04435774
000020 0f 43 4e 3d 11 78 9d 3c 90 5e 90 3c dc a1 83 3d
       0.05035692 0.019222291 0.017623216 0.064273566
000030 26 98 8a bc 91 6e 99 bc f0 f3 1e 3d bb b5 1d 3d
       -0.016918253 -0.01872948 0.038806856 0.03850339
000040 24 2a 7e 3d 19 7b 9a 3d ff 71 ad 3d 8e 55 19 3d
       0.062051907 0.0754301 0.08469009 0.037435107
000050 6f 21 77 bc 4e 7e a8 bd 6d 58 4c bc ba cc 3c bc
       -0.015083655 -0.08227216 -0.012472254 -0.01152342
000060 29 06 0c 3c a7 46 8e bd 8b ab 1f bd dc 86 72 3d
       0.008546391 -0.069470696 -0.038981955 0.059210643
000070 3d d2 55 bd d2 87 73 bb 41 43 40 3c b6 19 11 3d
       -0.052202452 -0.0037159813 0.011734785 0.03542491
000080 ae 87 48 3c 80 6a d0 3d 3d ae 86 3d 4a 60 ff 3c
       0.01223938 0.10176563 0.06576202 0.031173844
000090 0c 79 f1 bc 7b f7 8d bd 19 28 5e 3d 1f 00 7f bd
       -0.029476665 -0.06931969 0.05423746 -0.062255975
0000a0 7a cb 2e bd 2c 57 4b bd a8 d4 5c 3c 44 4f 92 3c
       -0.04267452 -0.04964368 0.013478436 0.017860062
0000b0 c4 32 21 3d a6 6d 55 3c 79 3a a1 bd cf 34 20 3d
       0.039355054 0.0130266305 -0.07872481 0.039112862
0000c0 64 42 56 bd dc 27 71 3c 26 f5 7c bd f4 50 07 3d
       -0.05230941 0.014718976 -0.06175723 0.033036187
0000d0 52 40 b6 bd d0 a1 83 3d eb 47 3a 3d 36 f3 54 bc
       -0.08898987 0.06427348 0.045478743 -0.012997439
0000e0 c3 65 47 bb c0 b7 e8 3b 0a ad 99 bd 30 14 1b bd
       -0.0030425645 0.007101983 -0.07503708 -0.03786105
0000f0 17 3e 54 3c 16 d3 68 3d 1b 29 4c 3d d1 a7 82 3d
       0.0129542565 0.056841932 0.04984389 0.06379665
000100 77 bc 8c 3d e3 cd 40 3d 64 eb 81 bd 39 c1 b8 3c
       0.06871884 0.04707135 -0.06343725 0.022553073
000110 49 19 21 bd af 79 8f bc 28 25 43 bd 5e 29 1f 3d
       -0.039330754 -0.017514078 -0.047642857 0.03885781
000120 b3 d1 f9 bc d5 75 2d 3d a6 df 01 3d 77 e7 20 3d
       -0.0304955 0.0423487 0.03170743 0.039283242
000130 d6 81 6f 3d 2f fd 8f 3c b0 d2 15 bd 5f b5 40 3d
       0.05847343 0.017576782 -0.03657788 0.04704797
000140 0d f7 ba 3d fa 64 55 3d a7 ce 90 bd f7 e2 5e 3d
       0.091291524 0.052098252 -0.07070666 0.05441567
000150 8e 77 be bc ac 1b d4 3d c8 6e 19 bd 4b 41 e2 bc
       -0.023250367 0.103568405 -0.037459165 -0.027619025
000160 38 50 48 3d e1 58 ca bd bd a3 c8 3c 1f 09 60 3d
       0.048904628 -0.098802336 0.024492139 0.0546962
000170 81 70 61 bb 13 50 9e bd 9e a7 d0 bd f8 39 8b bd
       -0.0034399333 -0.07730117 -0.101882204 -0.06798166
000180 57 52 9a bd b7 05 fb 3c b1 02 c2 bc 64 be 03 bd
       -0.07535236 0.030642373 -0.023682924 -0.032163993
000190 75 ec 90 3d c1 5e 3a 3c 19 58 9c bd 08 3a de 3b
       0.070763506 0.01137513 -0.07633991 0.00678182
0001a0 87 97 33 3d 06 97 53 bd 8c 41 bf 3c fc a5 12 bd
       0.04384568 -0.0516577 0.023346685 -0.035802826
0001b0 b6 13 a5 bd 1e b6 86 bd bf fa 21 bd 77 39 7c 3d
       -0.080604 -0.06577705 -0.03954577 0.06157824
0001c0 8e 31 75 3d 4b 5a 8f bd 4a f5 82 3d 0f a6 b3 bc
       0.059861712 -0.06999644 0.063944414 -0.021929769
0001d0 a4 9a 68 bc 64 f4 0f 3d e7 28 0d 3c c3 59 fb 3c
       -0.014197025 0.03514518 0.008615709 0.03068245
0001e0 9a b2 bc bd ed 63 a3 3c 40 f8 c6 bd 91 cc aa 3d
       -0.09213753 0.01994511 -0.09715319 0.08339799
0001f0 98 08 c3 3d 45 b9 a4 bd b8 a1 7b 3d bb 2b 5f 3d
       0.095231235 -0.0804315 0.061433524 0.054485064
000200 16 33 a3 bd c9 f8 9f 3c e7 1e 30 bd c8 35 62 bd
       -0.07968728 0.01952781 -0.04299822 -0.05522707
000210 5e 98 61 bd bf 2c 2d bd 91 ab 82 bd 02 17 7a bc
       -0.05507695 -0.042279 -0.0638038 -0.015264275
000220 5f 23 9d 3d 33 4e 9c 3c 43 81 10 3b e0 92 8e bd
       0.07672762 0.019080257 0.0022049702 -0.06961608
000230 c8 e3 82 3d 0c 67 9d 3d 4f 17 a1 bb a2 aa f0 3d
       0.06391102 0.0768567 -0.0049161087 0.117512956
000240 45 e6 e9 3d 59 10 45 3d 56 af aa bd 2c fc 3f bd
       0.114208736 0.048111293 -0.08334224 -0.04687135
000250 56 ba fc bc 25 e3 78 bc b8 4a 2e bc 46 26 f8 bc
       -0.03085057 -0.015190874 -0.0106379315 -0.030291688
000260 ee 6e 87 bc b3 8e 07 bd 4f d6 b2 bd 71 33 71 bd
       -0.016532388 -0.033095073 -0.08732282 -0.05888695
000270 b2 50 c8 3c d3 37 8a 3d 35 ff a1 3d b7 ad ba 3d
       0.024452541 0.06748929 0.07910005 0.09115165
000280 7b 8a ae bd 89 50 95 3b 8d 0f 00 bd 7b 00 bd 3c
       -0.08522507 0.0045567197 -0.03126483 0.023071518
000290 e4 6c aa 3d 49 c5 82 3d 3e e5 27 3d 00 ea 3d bd
       0.083215505 0.063852854 0.040990107 -0.046365738
0002a0 19 dd 93 3d f9 02 98 bd 0a d8 6e bd 4b 49 23 3d
       0.072199054 -0.07422442 -0.0583115 0.03986482
0002b0 92 bf 8d 3d 49 4b 17 3d 3e 8e d0 bd dd 80 6f 3d
       0.06921305 0.036937032 -0.101833805 0.058472503
0002c0 1d f8 c0 bc 58 66 41 bc 3e e3 10 bd 1b 2e 5e bc
       -0.02355581 -0.011804186 -0.035372965 -0.013560797
0002d0 e9 4c 08 bd 88 f2 f3 ba ec 17 47 3d d4 af 57 bd
       -0.033276472 -0.0018611709 0.048606798 -0.052657917
0002e0 c1 5a 04 bd f1 7d 81 3d 21 e1 68 bd f3 e0 53 bd
       -0.032313112 0.063228495 -0.056855325 -0.0517282
0002f0 07 94 75 3c 93 84 24 3d d9 29 72 bb e5 4a 81 ba
       0.014988906 0.040165495 -0.0036951213 -0.0009864239
000300 83 f4 b9 3d 4b 55 67 3d 7f 80 f0 b9 a0 72 60 3d
       0.0907984 0.056477826 -0.00045872104 0.054796815
000310 63 bc 90 bb f7 ed 69 bd 54 57 10 3d a5 ea 84 bd
       -0.0044169887 -0.057111707 0.035239533 -0.064900674
000320 c2 c3 44 3d f7 d6 02 3d 8c 20 04 3d 19 03 c8 ba
       0.04803825 0.031943288 0.0322576 -0.0015259712
000330 fc 9f 6e 3d 56 be 35 3d 6b 3e 4f 3d 35 a8 58 bd
       0.05825804 0.04437097 0.050596636 -0.05289479
000340 32 0f fe 3c 40 14 3a 3d 3a 59 52 3d ed cb d2 3d
       0.031013105 0.04542947 0.051354624 0.10292802
000350 8a 57 9c bd 7f 99 e2 3d 55 b7 5a 3c ae 84 56 bd
       -0.07633884 0.11064433 0.013349374 -0.052372627
000360 f8 6a 45 bd 5f 02 a4 3c d4 4f 8f 3d 93 fd 87 3d
       -0.048197716 0.020020662 0.06997648 0.06640162
000370 7d ed 78 3d f6 24 73 bd f4 01 dd bd 03 18 4d bc
       0.06077336 -0.05936142 -0.10791388 -0.012517932
000380 2a f0 51 bd da e5 98 bd 3a df b2 bd c6 3e df 3c
       -0.05125443 -0.07465716 -0.08733983 0.027251612
000390 9b d1 0b 3d e3 3e 06 3d 8a d4 65 bd 4e 20 95 bd
       0.034135442 0.032774817 -0.056110896 -0.07281552
0003a0 df 85 84 ba 3f 8e d8 3c eb 1b 16 3d 4e f1 05 3d
       -0.0010110697 0.026435016 0.03664772 0.03270083
0003b0 8d 4d 0a bd 90 90 f8 3b 30 78 d9 bb be 95 93 3d
       -0.033765364 0.0075855926 -0.006636642 0.072062954
0003c0 c3 d7 36 3d c3 4a 7c bc 83 3a 6e 3a f1 f0 cf 3d
       0.04463936 -0.015398684 0.00090876984 0.10153378
0003d0 6b 43 89 bd 01 35 1b 3d 42 18 08 bb 8e ec 06 bc
       -0.06702312 0.037892345 -0.0020766412 -0.00823511
0003e0 9a 86 19 bc 10 82 7f bd ff 8b ca bb 27 be 67 3d
       -0.00937047 -0.062379897 -0.0061812396 0.056577828
0003f0 12 0f 9c 3d 6d 30 9f 3d d2 51 8f 3d 37 fc 9f 3d
       0.07620062 0.07772908 0.06998028 0.07811778

model.base_model.net.6.bias f4 [128]
000000 d0 f3 4a bd 91 ae a5 bd 95 8a bb bc d5 2c b9 3b
       -0.049548924 -0.080899365 -0.02289323 0.0056510963
000010 c6 a7 22 3c 60 51 45 bb d5 8a b8 bd 14 e6 e9 bc
       0.009927696 -0.0030108318 -0.09010855 -0.028552093
000020 90 b5 56 bd c0 11 90 bc fe 79 3c bd a1 ca aa bb
       -0.052419245 -0.017586589 -0.04601478 -0.0052121435
000030 4f bd a0 bc 44 75 9a bd 35 16 2c 3d 7a a1 d4 3c
       -0.01962152 -0.07541898 0.042013366 0.025955904
000040 8d c5 cc 3c 20 43 f1 3c c7 e7 d2 bb 17 fc ae 3c
       0.024996543 0.029450953 -0.0064363214 0.02136044
000050 d1 fa b6 bd 3b ba 7b 3d e3 0d 95 3d 06 3a ed bc
       -0.08934558 0.0614569 0.07278039 -0.028958332
000060 83 40 94 3d 1e f8 f9 bc bc 89 06 3d 3c 8a 18 bd
       0.07238867 -0.03051382 0.032846197 -0.037241206
000070 ab 94 5a bd d3 e8 2c bd 27 4b 83 3d 97 66 f5 bc
       -0.053364437 -0.042214226 0.064108185 -0.029956145
000080 5c a6 8d bd 7c 34 e1 3b 86 ee 70 bd 61 76 73 bd
       -0.06916496 0.0068727117 -0.058821224 -0.059439067
000090 e7 12 54 bd 8a 2e 66 bd 2c a7 61 bd b0 e2 18 3d
       -0.05177584 -0.056196727 -0.05509107 0.03732556
0000a0 f2 a7 0e bd aa d7 bb 3c 35 df a0 3d bd d4 d0 3c
       -0.034828134 0.022929985 0.07855073 0.025492067
0000b0 de c1 bb 3d 9b b5 8e 3d a7 f4 1c 3c 1c 12 1c 3d
       0.091678366 0.06968232 0.009579814 0.038103208
0000c0 ab 9f a4 3d f5 a8 77 bd 43 6a 55 bd 1a 20 75 3d
       0.08038267 -0.060463864 -0.052103292 0.059845068
0000d0 23 cb 2e 3d d9 eb df 3c 38 6a 9b 3c bd a0 5b bd
       0.042674195 0.02733414 0.018971547 -0.05362009
0000e0 fc fd 13 3d 5a 16 56 bb 87 7d cf 3b 6f 6e aa 3d
       0.03613089 -0.003266713 0.0063321027 0.08321845
0000f0 d5 e0 47 3d f8 cb 30 bb 25 fc bc bc df 2f 50 bd
       0.0487984 -0.0026977044 -0.02306945 -0.050826903
000100 89 4d 28 3d 77 43 b5 3d 01 b7 43 bd 4b 45 6b bd
       0.04108957 0.088507585 -0.047781948 -0.05743913
000110 86 cb 67 3d 13 6a 93 bd 08 b8 ad 3d cf bb 5e 3c
       0.05659058 -0.071979664 0.08482367 0.013594582
000120 60 a0 a6 3d 1f 8e 72 3b f8 32 f4 3c b1 74 a7 bd
       0.08136058 0.003701098 0.02980946 -0.08176554
000130 9f 5b 8b bc 18 d9 8f 3d f1 d4 01 bd 40 b5 9d 3d
       -0.017011462 0.07023829 -0.031697217 0.07700586
000140 0d dd 5a bc fa 1f 42 bd ac a9 41 bd 68 b7 91 bd
       -0.013358367 -0.047393776 -0.047280952 -0.0711506
000150 33 c8 f9 3c cf d0 45 bd 60 fe fe 3c 83 bb db bc
       0.03049097 -0.04829484 0.031127155 -0.026822811
000160 ec fe 52 3d 93 3f 6b 3d 4e da 85 bd 45 ec 4f bd
       0.051512644 0.057433676 -0.06535779 -0.050762434
000170 25 61 68 3d e0 9a e0 bc fb d4 94 bd 43 58 40 bd
       0.05673327 -0.0274176 -0.07267185 -0.046959173
000180 99 23 a3 bd 8e 07 69 bd 4c c4 8c 3b 4b a1 7f 3d
       -0.07965774 -0.05689197 0.0042958613 0.06240968
000190 50 e0 8a 3c 10 26 07 3c 01 6a 53 bb 2e 15 45 bd
       0.016952664 0.008248821 -0.0032259228 -0.0481159
0001a0 db 76 1a 3d 3a 2e 83 3d ba e1 ff 3c 67 93 9d 3d
       0.037711006 0.064053014 0.031235565 0.076941304
0001b0 62 de b8 3d 66 fd ce 3b 4f a9 4e bd c1 a9 88 3d
       0.09026791 0.0063168285 -0.050454434 0.06673003
0001c0 87 9b 4d 3c c3 89 66 bc bc 00 5d bc b5 d0 0a 3c
       0.012549288 -0.014070931 -0.013488945 0.008472611
0001d0 71 e8 33 bd 1c 87 4a 3d a1 50 8f bd 26 16 26 3c
       -0.043922845 0.049445257 -0.069978006 0.010137117
0001e0 cc 35 b9 bd a3 62 1c 3d 3d ce 24 bd d5 2a 2d bc
       -0.09043464 0.038180005 -0.040235747 -0.010569294
0001f0 f8 d3 94 3d 56 52 84 3c cf 7b 16 3b 5b 73 f6 3c
       0.07266992 0.016152542 0.002296198 0.030084303

model.base_model.net.8.weight f4 [128, 128]
000000 50 03 5c ba 2e de 48 3d 29 ee 3b bc 13 a9 8f 3d
       -0.00083928276 0.049040012 -0.011470356 0.0701467
000010 c1 e2 6c 3d f1 85 c7 bb 59 ce a3 3d c3 60 ea 3c
       0.057833437 -0.006088965 0.07998342 0.028610593
000020 15 cd 84 3d c2 d5 cb bd 4c 7c db bd be 9d 32 bc
       0.06484429 -0.099528804 -0.10717067 -0.0109018665
000030 fa ca bd 3c e6 7c 0b bd 49 e0 52 bc b4 ae 68 3d
       0.023168076 -0.03405466 -0.012870857 0.056807235
000040 8c 49 89 3d 5c 2b c4 3c b9 4e cd 3d 64 51 91 3d
       0.06703481 0.023946457 0.10024781 0.07095602
000050 6b 8f e1 3c d0 19 46 3c de 33 cb bc e7 f0 82 bd
       0.027534207 0.012091115 -0.024805006 -0.06393605
000060 b6 3d 18 3d 9c 6b f8 3b 3d 7f 36 bd 38 da f9 bb
       0.037168227 0.0075811874 -0.044554938 -0.0076248907
000070 26 e8 54 bd d7 f6 89 3b 85 ce 45 3d a2 d8 83 3d
       -0.051979207 0.004210334 0.048292655 0.06437804
000080 6a a5 85 bd 03 32 60 3c 7b e2 1f bd dd 91 ae bd
       -0.06525691 0.013683799 -0.039034348 -0.08523915
000090 c0 bb 10 3d f9 f4 a5 3d f0 c5 aa 3d ea 61 8f 3d
       0.035335302 0.081033655 0.08338535 0.070010975
0000a0 10 a9 13 bd 82 fa d8 3c 96 b5 c8 3c c8 fc 70 bd
       -0.036049902 0.026486639 0.02450065 -0.05883482
0000b0 0b bd b5 3d c1 ed 69 bd 1d 2f d2 3c 2a dc 1d bd
       0.08873948 -0.057111505 0.025657231 -0.038540043
0000c0 e0 f7 0a 3d 87 e9 7a 3d 1f 87 63 3b 91 79 1b bd
       0.0339278 0.061257865 0.003471799 -0.03795773
0000d0 06 ba 58 3d 50 4c c9 bd 3a 01 3e bc ad c0 a6 bd
       0.05291178 -0.098290086 -0.011596972 -0.08142219
0000e0 93 c2 e0 39 ae 6d 24 3d 47 4e 41 3d ab 3b fe bc
       0.00042869578 0.04014366 0.04719379 -0.031034311
0000f0 5e ba 30 bd 8b c2 11 3c 19 d5 47 bd 90 e4 99 bd
       -0.043146484 0.00889648 -0.04878721 -0.07514298
000100 16 bf 88 3d 7c 32 b5 3c 46 03 81 bd 9a ac ae bd
       0.06677072 0.0221188 -0.062994525 -0.08529015
000110 4c 78 f1 3c 1c 8c c0 bc 69 dd 2f bd af 91 b5 3d
       0.029476307 -0.02350431 -0.042935763 0.088656776
000120 67 ca 1d 3d 1e 18 c0 3d 48 b3 66 3b 0c 82 e0 b9
       0.038523104 0.093796 0.0035202075 -0.00042821502
000130 9b 29 3b bd 5b ab 14 3d 5a f2 1c bd 14 c5 91 bb
       -0.045693975 0.03629623 -0.038317062 -0.0044485424
000140 16 32 ac bc a7 c8 41 3d 9b 57 02 3d e5 37 c7 bd
       -0.021019977 0.047310498 0.03182183 -0.09727458
000150 16 2f 06 3c b9 06 a0 3d 39 3c 7e bb f7 0a 82 3d
       0.008189937 0.07813782 -0.003879322 0.06349748
000160 50 b4 cd bc 0d da 84 bd 94 98 57 3d 1d 02 d3 bc
       -0.025110394 -0.064869024 0.052635744 -0.025757844
000170 cf dc 24 3d 4b d6 92 3d 8a 82 5d bd 7d 8f b1 bd
       0.040249642 0.071697794 -0.05407957 -0.08669946
000180 17 1a 25 bc 9c 26 54 bd 39 20 88 3d d2 45 4c 3d
       -0.010077021 -0.051794633 0.06646771 0.049871273
000190 fd dd 68 3d 6c 8f 84 bd 56 32 6e 3c 06 26 4a 3c
       0.05685233 -0.06472668 0.014538368 0.012338167
0001a0 b0 d4 43 bd 48 c3 3c bd 0e 88 38 3d cc a8 12 3c
       -0.047810256 -0.046084672 0.045051627 0.008951377
0001b0 3c 0a 9f 3d 6a 61 91 3a c3 59 fa 3c 25 c4 ca 3c
       0.07765624 0.0011091654 0.03056038 0.024751732
0001c0 cf 64 7d bd 14 a6 25 bd 27 fb 12 bd 1b d4 11 bd
       -0.061863717 -0.040441588 -0.03588405 -0.03560267
0001d0 79 2b dd 3c ed 73 5f bd 08 19 97 bd 65 ed 1f bd
       0.026998268 -0.054553915 -0.07377821 -0.039044756
0001e0 8e 34 9b bd 6c 6c 3c bc d2 51 cc bd 17 49 9f bc
       -0.075783834 -0.011500459 -0.099765435 -0.019444032
0001f0 b8 7e 85 bd c0 9b b8 bd ee 1d 73 3d 34 94 ad 3d
       -0.0651831 -0.09014082 0.059354715 0.08475533
000200 57 4e 6e bd 8f a8 6f 3c ab 22 a3 bd 2b 81 50 bd
       -0.05818018 0.01462759 -0.07965597 -0.050904434
000210 6c 47 af bd d7 ff 5c bd 4c 1a c1 3d 50 1d d0 3c
       -0.085585445 -0.053954925 0.09428844 0.025404602
000220 36 26 38 3d 16 0b 5f bd b9 1a dd 3c 27 24 b8 3c
       0.044958316 -0.05445393 0.026990281 0.022478176
000230 98 1b f9 3c ef 71 04 3c d9 50 31 bd 5e a3 31 3d
       0.030408666 0.0080838045 -0.043289993 0.04336869
000240 93 87 a1 3d e6 96 64 bc 99 70 c7 3d 07 46 7d 3b
       0.07887187 -0.013951993 0.09738273 0.0038646476
000250 82 76 d5 3c 0e 03 6a 3d ce 81 9c bc a3 0c e0 3c
       0.026057485 0.05713182 -0.019104864 0.027349776
000260 1f 50 d0 bc 80 58 83 bd 05 66 8e bb df e2 1a 3d
       -0.02542883 -0.064133644 -0.004345658 0.037814017
000270 61 e0 48 3c b5 41 0c 3d 02 ce c2 bc 21 15 97 3d
       0.012260527 0.03424235 -0.023779873 0.07377077
000280 98 2f 93 bd b5 61 ec 3b d5 5d 00 3c 15 e8 1a 3d
       -0.07186812 0.007213796 0.007834871 0.037818987
000290 80 82 d3 bc fd 04 ce 3c ca e8 7f bd df e1 d7 3c
       -0.025819063 0.025148863 -0.062477864 0.02635282
0002a0 2e 60 cd bc 0b e5 79 3d 48 cd 94 3d 1e f0 8e 3d
       -0.025070276 0.061009448 0.07265717 0.069793925
0002b0 91 1b 57 bd b9 d6 44 3d bf 19 0a bd 52 9c 02 3c
       -0.052516524 0.048056338 -0.03371596 0.00797184
0002c0 68 0c c0 3c ac 3a 95 bd cf ce a5 bd de 83 ed 3b
       0.023443416 -0.072865814 -0.08096086 0.007248386
0002d0 2f e4 fd 3b 8a 95 8c bd 6d 36 07 3d 11 d2 77 3d
       0.007748149 -0.0686446 0.03301089 0.06050307
0002e0 2b 7e 83 bc cc bf a5 bd b1 18 bc 3c 78 66 48 bd
       -0.016051373 -0.08093223 0.022960993 -0.048925847
0002f0 23 a5 f7 bb 31 16 b9 bc e0 f1 65 3d cf fd c1 3c
       -0.0075575276 -0.02259359 0.056138873 0.023680596
000300 eb d0 90 bd fe ef ab bd b7 46 1b bd 4b 9b ae bd
       -0.07071098 -0.08395384 -0.037909236 -0.085257135
000310 39 21 1b bc 0d 77 13 bd 90 dc 16 bd 05 ed ab bd
       -0.00946837 -0.036002208 -0.03683144 -0.08394817
000320 57 c4 84 3d 32 0b 3d bd 81 27 22 bd 60 a5 8c 3d
       0.06482761 -0.046153255 -0.039588455 0.0686748
000330 ca a8 3b bb 72 dd d3 bc 7b cd 1d 3d 4a d5 1f bd
       -0.0028634542 -0.02586243 0.03852604 -0.039021768
000340 71 c0 65 3d f1 a0 01 bc 7c 78 50 3d 93 86 c3 3b
       0.05609173 -0.007911907 0.050896153 0.00596697
000350 39 ee 30 bd 4e a4 e0 bc 3f e0 27 39 2d 6c c9 bc
       -0.043195937 -0.027422097 0.00016009899 -0.024587715
000360 26 b0 5d 3d d5 bb 4c 3d c1 52 3b bd 7a 48 2e bd
       0.054123066 0.049983818 -0.045733217 -0.042549588
000370 91 71 ae bc 2c 98 a4 3d d1 ef ee 3b bf 92 89 3d
       -0.021294387 0.08036837 0.007291772 0.06717443
000380 8d 07 0c 3d e8 15 7b 3b a3 b5 9e bd 15 49 06 bc
       0.03418689 0.0038312618 -0.07749488 -0.008196135
000390 83 00 67 bd 0e 05 45 bd 24 5a 4d 3d 2f b8 3e bd
       -0.056396972 -0.048100524 0.050134793 -0.04656237
0003a0 29 01 1b bd 62 2a 84 3d df df 2a bd b8 eb 8f bd
       -0.037842903 0.064533964 -0.041717406 -0.07027382
0003b0 a9 b8 f7 bc 96 cf c7 3a 43 cd 8b bd 89 ed be bd
       -0.03023942 0.001524436 -0.0682626 -0.0932265
0003c0 bf d8 af bd 17 fb 8f 3c 0e 53 b6 3b 9d e1 a0 bd
       -0.08586263 0.017575784 0.0055641 -0.07855532
0003d0 15 a1 56 bd e5 07 bf bb de 4a 95 bd 16 a7 49 bd
       -0.052399714 -0.0058297985 -0.072896704 -0.04923161
0003e0 82 53 d4 bc ba 60 bd bd c5 b1 ae bc 7b 40 d5 bc
       -0.025918726 -0.09246965 -0.021325001 -0.026031723
0003f0 b8 d7 27 3c 15 82 e0 bb 51 5f 24 3d 23 36 f4 bc
       0.010244302 -0.0068514445 0.040129963 -0.02981097
