results/edm_swiss_roll/checkpoints/epoch=18-step=608.ckpt (torch, 387402 bytes, 49 tensors)

model.base_model.time_embedding.frequencies f4 [32]
00000000: 0000 803f e332 3e3f 934f 0d3f 4bfa d13e
00000010: 8001 9c3e 3ed0 673e a33a 2c3e 81eb ff3d
00000020: a923 be3d 4144 8d3d 7ae9 513d 03f5 1b3d
00000030: b1bd e73c d72c ac3c 03d7 7f3c 7014 3e3c
00000040: f438 0d3c afd8 d13b 84e8 9b3b 1fab 673b
00000050: 0e1f 2c3b 8fc2 ff3a 3705 be3a a52d 8d3a
00000060: e1c7 513a 0ddc 1b3a 9298 e739 4611 ac39
00000070: 0dae 7f39 01f6 3d39 5722 0d39 16b7 d138
1.0 0.74296397 0.55199546 0.4101127 0.30469894 0.22638032 0.16819243 0.12496091
0.092841454 0.06897784 0.05124805 0.03807546 0.028288694 0.021017475 0.015615228 0.011601552
0.008619536 0.0064040045 0.0047579426 0.00353498 0.0026263627 0.0019512939 0.0014497404 0.001077105
0.00080025016 0.0005945571 0.00044173427 0.00032819266 0.00024383534 0.00018116088 0.000134596 9.999999e-05

model.base_model.net.0.weight f4 [64, 66]
00000000: c005 0a3e 3b67 113e ddae 09bc e612 093e
00000010: 3065 c4bb 6e12 3c3d 9ff2 1ebd 415d bf3d
00000020: 5dc7 043e 269f 8dbd 4c35 033e 36da 343d
00000030: 876b e53d af69 1a3d e777 a43d 171f 633b
00000040: 6eb7 ec3d c673 1e3d c397 18bd 6bca 513d
00000050: 79fc 18bd f07b 8d3b 2509 03bd 7f3f ca3d
00000060: 8c26 a6bd 8bb2 2bbd f430 aebc 10b7 7dbd
00000070: a5fb b53c 304d e6bd 1271 f33d 7513 c9bd
00000080: c340 cd3d f2d8 c93c c839 dfbc 1568 b23d
00000090: f617 f03c 8c60 df3d 18b4 ba3c 99ce f2bc
000000a0: b6b8 2c3d 6257 c7bc 3427 793d 4385 f33d
000000b0: a428 a43d ff92 37bd f9ef a33d fc0d fe3c
000000c0: 096e 923d fa3d 87bd 7523 e7bd 90fa 1dbd
000000d0: 72f3 aebd 7842 e13d b909 363d 28a8 753d
000000e0: 5f45 443d e45f e03b 9ab2 d73d 9ab4 a0bd
000000f0: 2520 893c 53a7 99bd 8748 403d 66d0 08bd
00000100: ae4e 3f3d fd72 88bc 217e 1f3e d416 1fbd
00000110: fb79 5abd 54e1 5bbd ba47 053e c772 763d
00000120: 7e8e 0c3e 3f4a aabd e738 d5bd 5c7f a1bd
00000130: 181e 87bd fc1e 873d 3052 733d 8f0d ef3d
00000140: 752d 4dbd e96a 92bd bcdd 9c3d c674 22bd
00000150: fa25 ab3d e1c1 b0bc 5969 9d3d 29ee b8bd
00000160: d4a6 6cbd 05ef 273d 7c95 eb3c eca6 efbc
00000170: 3c9f 993d 95f0 ad3d 0edd b4bd 281d 85bd
00000180: 6eef e73d 4578 28bd 4580 31bd 8775 f3bd
00000190: fda2 abbd 1c81 8b3c e721 f7bc d3b8 d3bd
000001a0: 0174 37bc 1f1b c9bd 7dd0 f2bd 25c8 a7bd
000001b0: a29c f9bd 5a7e bdbd 3103 df3d c50d 153c
000001c0: 8acf c23c a10d 04be 558d c2bd 54ca 61bd
000001d0: cff4 a63b 42ce fabd c39a 89bd 80e7 b3bd
000001e0: 9f4a 62bc 0594 75bd c3d0 b9bc 4acf c7bd
000001f0: f904 cabd 410e b0bd f78c 66bd bef4 e3bd
00000200: ca62 b63d 4108 1ebd d9e9 bb3d 9a3f c63c
00000210: 23ac a1bd 8b23 eb3d b869 b1bc a90f 0ebd
00000220: 1c55 b7bd b381 e0bd 1db4 443d e300 66bc
00000230: b40f 793d 996b b4bd b6b4 d53d f169 9ebd
00000240: aa56 06bc cbfb 1e3d 8f0f 9d3d a377 e63d
00000250: 5546 003e 1c27 adbd 90a5 333d 0e40 25bd
00000260: df49 abba ebe5 a4bd 9dee fb3d d77a a4bd
00000270: a741 993d 9ee1 513d 9a0b 403d cac6 78bd
00000280: 8bf9 ee3d 8a79 fd3c d31f 9b3c 182b d9bd
00000290: bf63 5b3d 1262 8bbc 1403 23bd 6adf f73d
000002a0: 8227 2c3d b7d0 5cbd 83ef 45bd 4ab5 023c
000002b0: d500 a93d bffe 90bc 9669 67bd dee0 e8bc
000002c0: 903d a0bd 7dfa 6b3d d334 df3d bd40 d1bd
000002d0: 4b3f 2d3d ad4d 9e3d ca92 133d 9dcd f6bc
000002e0: f6a6 9f3d 6c8d a03d 94ad 743d 3fc8 01bc
000002f0: 4ab7 9abc 232d dc3c c8a9 03bc 8131 bcbc
00000300: b036 bd3d e9b8 f43d 2d99 c73a 6ef0 62bc
00000310: 8607 7e3c ee5e d03b 27d7 fcbb 7911 9abb
00000320: 7624 06be f40b 85bd f9e8 ab3d 928e e63c
00000330: 3cab d4bc 34a0 c0bd 09ce c2bd 6722 05be
00000340: dcde 74bd e2a9 b43c 3f66 723d dceb 1a3d
00000350: 9274 02be de85 bcbd e461 16bd 8e5e d23d
00000360: 73a8 293b 7483 3bbd 5a9d 1d3d 00b2 6cbd
00000370: d64f b6bd 0bf0 a73d 8da9 7fbd bac7 f4bc
00000380: 929f 01be 0816 a23d f4db b93d 3bdf 2f3d
00000390: 76c6 b2bd 9a11 fbbd 0074 cebd 5db3 ba3d
000003a0: 9cf9 453d a385 c13d b19d 663d d146 c03c
000003b0: 8f18 0dbc 4b95 cebd eaad e6bd a964 fabd
000003c0: 6f48 313d 4e4a 8abd da7c 02bd f692 9fbd
000003d0: d7b3 f1bc eeea bfbd d934 b3bd 7645 0a3d
000003e0: 14d0 32bd 2624 8d3d bfb7 3ebd 6269 c7bd
000003f0: afdb ebbc b1af 88bd d338 37bd be79 febd
0.13478756 0.14199536 -0.008403507 0.13386115 -0.005993508 0.045916013 -0.0388056 0.09343959
0.12966676 -0.06915121 0.128133 0.044153415 0.1120215 0.037698444 0.08030682 0.0034655982
0.11558424 0.03868463 -0.037254106 0.05121843 -0.03735015 0.004317753 -0.031991143 0.09875392
-0.08112821 -0.04191832 -0.021263577 -0.06194216 0.02221472 -0.11245191 0.11886801 -0.09818164
0.10022118 0.02463958 -0.027249232 0.08711258 0.0293083 0.10907087 0.022790954 -0.029639529
0.04216834 -0.02433366 0.060828403 0.11890652 0.08015564 -0.04481792 0.080047555 0.031012528
0.07149894 -0.06603618 -0.1128606 -0.038569033 -0.08542527 0.10999006 0.044442866 0.05997482
0.04791772 0.0068473686 0.105321124 -0.07846947 0.01673896 -0.07502618 0.046944167 -0.03340187
0.046705894 -0.016656393 0.15575458 -0.03884013 -0.053338986 -0.053681687 0.13015643 0.060168054
0.13726231 -0.083149426 -0.10411244 -0.0788562 -0.06597537 0.06597707 0.059404552 0.11672508
-0.05009218 -0.07149298 0.0765948 -0.039662145 0.08356853 -0.021576824 0.07686109 -0.090298004
-0.057776287 0.04099943 0.028757803 -0.0292544 0.07501075 0.08493153 -0.08831225 -0.06499702
0.113249645 -0.041130323 -0.043335218 -0.11887651 -0.08380697 0.017029338 -0.030167533 -0.10337987
-0.011197091 -0.09819626 -0.11856172 -0.081924714 -0.121880785 -0.09252615 0.108892806 0.009097521
0.023780603 -0.12895824 -0.09499613 -0.055124596 0.0050951014 -0.12246372 -0.067189716 -0.087843895
-0.013811736 -0.059955616 -0.022682553 -0.09756334 -0.0986423 -0.08596469 -0.05628678 -0.11130665
0.08905561 -0.03858209 0.09175462 0.02420025 -0.078941606 0.11481389 -0.021656856 -0.034682903
-0.0895178 -0.10962238 0.048023332 -0.014038297 0.06080599 -0.08809585 0.104348585 -0.077350505
-0.008199373 0.038814347 0.07668983 0.11253288 0.1252683 -0.08454725 0.043859065 -0.04034429
-0.001306828 -0.08051666 0.12301371 -0.08031242 0.07483225 0.051240556 0.046886064 -0.060736455
0.1166869 0.030941743 0.018936073 -0.106039226 0.053561922 -0.017014537 -0.039797857 0.1210316
0.042029865 -0.053909983 -0.04832412 0.007977793 0.08252112 -0.017699597 -0.05649718 -0.028427538
-0.07824242 0.05761193 0.10898747 -0.10217426 0.04229669 0.07729659 0.03602866 -0.03012734
0.07795517 0.07839474 0.05973585 -0.007921278 -0.018886227 0.026876992 -0.0080360845 -0.022972824
0.092389464 0.11949331 0.0015228145 -0.013851268 0.015504723 0.0063589728 -0.007716078 -0.00470179
-0.13099846 -0.064964205 0.083940454 0.028144155 -0.025960557 -0.09405556 -0.09511954 -0.13001405
-0.059782848 0.022053663 0.05917954 0.03782259 -0.1273978 -0.09205221 -0.03671445 0.10271941
0.0025887757 -0.04577966 0.03848014 -0.05778694 -0.08901946 0.082000814 -0.062417556 -0.029880393
-0.12658527 0.079143584 0.09075156 0.0429375 -0.0872926 -0.122592166 -0.10080719 0.09116242
0.04833375 0.09449317 0.05630273 0.023471268 -0.008611812 -0.10087069 -0.1126364 -0.12226231
0.04328197 -0.06752454 -0.03185735 -0.077917024 -0.0295047 -0.09370981 -0.08750314 0.03375765
-0.04365547 0.068916604 -0.046561953 -0.09736897 -0.028791277 -0.066741355 -0.044731926 -0.12425564

model.base_model.net.0.bias f4 [64]
00000000: e839 98bd 03eb e3bd 0945 d23d c3d8 d03b
00000010: 424a 86bc 3714 d7bd a289 e13d 134d 97bd
00000020: c961 563d bdda c23b 70c5 3e3b 01b6 803d
00000030: 75df fcbc 202e 9fbc bb38 e33d 800a d1bd
00000040: d685 893d 0e61 bfbc feb8 e3bc c15c b43d
00000050: 96d3 df3c 6d21 e0bd 103b fb3d c47d 46bd
00000060: 631e cb3d ce93 f1bc 87d4 053e de1b 3a3d
00000070: 6b13 ce3b 9818 543d 6f56 5bbc f759 8dbd
00000080: 5b9b a13d 6d43 ba3d 2e69 69bb 7000 023e
00000090: c858 a73c 54c9 88bd 6762 76bd 0d51 b73d
000000a0: 5942 42bd c3d9 b03d 986c d8bd 79d1 773b
000000b0: fcb7 8fbd cadd 293d c14c cb3d e56a 8f3d
000000c0: 884f 0ebd 3e7c 01be 282f 60bd 2c0b 90bd
000000d0: 730f fe3d ddea 75bd cc74 843d 6af5 bb3d
000000e0: 39e5 903d a601 01be 34dd b83a ab36 10bd
000000f0: 187c b83d 1622 cfbb c764 02bc 034d fc3d
-0.0743292 -0.11128809 0.10267074 0.0063734963 -0.01639283 -0.105019026 0.110125795 -0.073877476
0.05233935 0.005946486 0.002910938 0.062847145 -0.030868271 -0.019431174 0.11094805 -0.10207081
0.0671498 -0.023361709 -0.027798172 0.08806754 0.027322572 -0.109438755 0.12267125 -0.048459783
0.09917905 -0.029489424 0.13069354 0.045436732 0.006288936 0.051781267 -0.013387307 -0.06901925
0.0789096 0.09094892 -0.003561567 0.1269548 0.020428076 -0.06679025 -0.060152438 0.08951006
-0.047426555 0.08635285 -0.105675876 0.0037814064 -0.07017514 0.04147128 0.09926749 0.070028104
-0.034743816 -0.12645051 -0.05473247 -0.07033381 0.124052905 -0.060038436 0.0646759 0.091776684
0.07074971 -0.12598285 0.001410401 -0.035208385 0.09008044 -0.006321202 -0.0079585975 0.12319376

model.base_model.net.2.weight f4 [64, 64]
00000000: 9606 823d 3572 453d 66f9 0abd bca0 943d
00000010: 90e5 463c c8dd d1bb 1c61 c23c 672d c1bd
00000020: f454 92bb ba6e 813a e031 0bbe 9157 acbd
00000030: 1983 823d 312d ff3c 482c 473c cbc3 043b
00000040: 73d9 45bd d4e3 e93d fc2a 1b3c 7995 eebc
00000050: 72fa 933d ab28 f8bd 95ca 34bb 4cd4 273d
00000060: 492f 33bd 718c 9d3d ec6b bebd bbe3 09bd
00000070: 601e 21bd c7c8 bb3d f348 293d 4f98 a6bd
00000080: 462d 8a3d 84ab dfba deec cd3d 998e a83d
00000090: 6f84 a0bd 03b8 c63d 4899 38bc 8bee 9ebc
000000a0: a1b6 763c fda7 0a3e 77f6 cbba 4257 0bbe
000000b0: 1a49 b7bd 9b58 013e 73c4 92bd 4989 c5bd
000000c0: 196b aabd 430d 9dbd 37e9 d1bd 9f60 883c
000000d0: 8b7a 973d 6344 9a3d 455e d83c f92c 21bc
000000e0: a493 a13c 1e12 833d 2e38 9fbd 905b 933d
000000f0: be2a 9fbd d156 f63d 5d2e 86bd 84e1 5f3d
00000100: 37c9 f3bc 9d52 5e3d 12ff d73c a208 c2bd
00000110: 158b 323d 0234 833d 3863 54bd 1031 9dbd
00000120: 2c91 b7bd d4a2 22bb 10bf 573c d426 933c
00000130: 5ad0 013b 7c88 5ebd 889e 943d 0681 bf3b
00000140: de5d 8abd 5e67 02bd 0a09 afbd 8bdc 45bd
00000150: 983d e4bd 65c9 f33c a4af d8bd 3bc2 933c
00000160: f53a a23d fff2 b6bd 8fab 8abd 15c3 b5bd
00000170: f022 ef3c 6e98 373d ebe0 8dbd d986 513d
00000180: 2874 353d 546c d7bd ecde a6bb a958 60bd
00000190: b52b 8fbb 9c77 953d 6086 4bbc 4b82 acbd
000001a0: 32d2 d93d 7356 e7bd c23d a33a 75ae 5e3d
000001b0: bf46 293e 1255 f33d 72b1 2f3b 3c9f b33d
000001c0: 62f2 eabd 62cf edbc ceaa 9fba 0e0a 183d
000001d0: b4f2 d1bd 1342 a03d a536 003e 38cb c63d
000001e0: a602 f23c 0c13 de3d b490 10be c3f9 05bd
000001f0: aa51 4b3d 4853 8c3c c773 6a3d e9ac d5bd
00000200: 2aff e33d 2f9f 00be 31b2 a6bd 3d73 84bc
00000210: 7309 01be abb2 c8bd bc02 ecbd 5f8f e13d
00000220: 62e2 a23c 83a5 c0bd 30a2 eabc e0e9 ffbd
00000230: e006 06be f4b8 6cbd 90ec d5bd 79ec 933d
00000240: ce79 18bd 0eb5 c6bc e39c adbd efe8 113d
00000250: 4480 6bbc b477 d0bd 581f cd3d d74f 0e3e
00000260: 0cf0 c0bd 1fcf a03d 8588 f2bb 9d6e a4ba
00000270: e4c2 913d 038d 42bd 51e4 ca3d d8ea b33d
00000280: 1593 82bd 6499 8fbd 9e44 0bbe a5ef 573d
00000290: 9a12 cfbd 2c6d f1bd 5ec9 8fbd e0f8 eabd
000002a0: de31 ffbd 3851 f93d 4fc0 f43c 48a5 c13d
000002b0: 4b1e dbbd 0abf 29bd 1e29 9dbd c770 05bd
000002c0: 33be 97bd 3cf2 3a3c 5125 ecbd 6fe4 fd3b
000002d0: 79eb 113e a49b cbbc 21b8 123d 4a0a cbbd
000002e0: ae87 82bd 622c abbd 20c4 8c3c 6105 28bd
000002f0: bbf1 7dbd 56f5 c4bd a681 66bd 3938 3d3d
00000300: 00f7 36bd 85c0 f3bd a5e5 c13d 00d3 b83d
00000310: bf63 a2bd 0e46 3f3c 4803 b83d 39d8 f3bd
00000320: 979e e7bd 27e8 f43d c9a0 ba3c 33cf 593d
00000330: 4813 36bd 7432 e63b 23f9 a53d a0f7 f8bc
00000340: ffe7 13bd c3d7 f4bd cd85 fcbc f6e2 903d
00000350: 1934 edbd cc0b 18bb f14c a83d ebfd 8fbd
00000360: 4832 57bd d498 0fbd 49db 59bd eda1 973c
00000370: 349c 00be 60ab 823d 81c9 0ebd 87fe 0cbd
00000380: 514e c5bc d1f1 5e3d 4fad 93bd ebe3 e9bd
00000390: 5b27 aabd cc72 b0bd a5b1 77bd f200 d83d
000003a0: c25f a7bd ff26 93bd d233 7fbd a148 7ebd
000003b0: bc31 213d 9d67 8bbd d36a 253d 4867 6b3d
000003c0: 3469 d3bc 094f 493d 6f09 823d 7911 fd3d
000003d0: 6944 b7bc ef12 193e 7aeb 0b3e e1c3 813d
000003e0: dc7d e93d 5408 b6bd 36d5 d6bd efa2 7d3d
000003f0: 2b62 4b3d 18de cd3d 93be 8cbc 04bc 40bd
0.063489124 0.04820462 -0.03392925 0.0725722 0.012139693 -0.006404612 0.023727946 -0.09432488
-0.0044656936 0.0009874918 -0.13593245 -0.084151395 0.06372661 0.031149479 0.012156554 0.0020258303
-0.04830308 0.11420408 0.0094706975 -0.029124008 0.07225503 -0.12117132 -0.0027586569 0.040973946
-0.043746267 0.07692803 -0.09297928 -0.033664446 -0.03933561 0.091691546 0.041329335 -0.08134519
0.067469165 -0.0017064665 0.100549445 0.08230323 -0.0783776 0.09703066 -0.011267014 -0.019400856
0.015058191 0.13540645 -0.0015561123 -0.13607505 -0.0894949 0.12631457 -0.07166376 -0.09645326
-0.083212085 -0.07668545 -0.1024956 0.016647635 0.0739642 0.07532575 0.026412139 -0.0098373825
0.01972372 0.0639994 -0.07774387 0.071951985 -0.07771824 0.12028278 -0.06551812 0.054658428
-0.029759033 0.054278005 0.026366744 -0.09474303 0.04358967 0.06406404 -0.051852435 -0.076753736
-0.08963236 -0.0024816291 0.013168111 0.01796285 0.0019808025 -0.05432938 0.072568 0.005844238
-0.06756185 -0.03183686 -0.08546646 -0.04830603 -0.111445606 0.029759118 -0.10580376 0.018036952
0.079214014 -0.089330666 -0.067710035 -0.088750996 0.029191464 0.044823103 -0.06927665 0.05115399
0.04430023 -0.10518709 -0.0050924923 -0.054772053 -0.004369224 0.07298204 -0.012422174 -0.08423289
0.10635795 -0.11295786 0.0012454318 0.054365594 0.16530894 0.1188146 0.0026808647 0.08770606
-0.11472012 -0.029029552 -0.0012181641 0.037118964 -0.1025137 0.07825103 0.12520845 0.0970673
0.029542278 0.10843477 -0.141177 -0.032708894 0.049638428 0.017129555 0.05723932 -0.104333706
0.11132653 -0.12560724 -0.08139456 -0.016168231 -0.12601261 -0.09799703 -0.11523959 0.11013674
0.019883338 -0.09406569 -0.02864179 -0.1249578 -0.1308856 -0.057793573 -0.10445511 0.07222838
-0.037225537 -0.024256255 -0.084771894 0.035622533 -0.014373843 -0.101790816 0.10015744 0.13897644
-0.09420785 0.07852005 -0.0074015283 -0.0012545172 0.071172506 -0.04749776 0.09906829 0.08785027
-0.0637571 -0.07011679 -0.13600394 0.052718777 -0.1011097 -0.11788401 -0.070208296 -0.114732504
-0.12460683 0.12173694 0.029876856 0.09455353 -0.10699137 -0.041441955 -0.07673858 -0.032578256
-0.074093245 0.011410292 -0.11530555 0.0077481787 0.14249982 -0.024854489 0.03582013 -0.09914072
-0.06373535 -0.08358075 0.017183363 -0.041020755 -0.06199811 -0.096171066 -0.056275986 0.046196196
-0.04466915 -0.119019546 0.09467629 0.0902462 -0.07929181 0.011674417 0.08985001 -0.119064756
-0.113095455 0.11958342 0.022781746 0.053176116 -0.04445198 0.0070250574 0.0810416 -0.030391514
-0.03610992 -0.11955216 -0.03082552 0.07074539 -0.115822025 -0.002320039 0.082178004 -0.07030853
-0.052538186 -0.035057858 -0.053187642 0.01850983 -0.12559587 0.063803434 -0.034860138 -0.034422424
-0.024085196 0.054429833 -0.0721079 -0.11420425 -0.08308288 -0.08615646 -0.06047215 0.10547055
-0.08172561 -0.07185172 -0.06230528 -0.062080983 0.03935407 -0.06806872 0.04038508 0.057471544
-0.025807 0.04914764 0.063494556 0.12356848 -0.022371488 0.14948629 0.13664046 0.06336189
0.11400959 -0.08888307 -0.104898855 0.061922964 0.049654167 0.10052127 -0.017180717 -0.047054306

model.base_model.net.2.bias f4 [64]
00000000: 03ba 063e 4e9f 203d abe5 f23d 5550 463d
00000010: df14 053c a46a 9a3d 08a5 9b3d f512 88bc
00000020: ea47 cc3c 09a1 943b f2bb c63d 8294 7f3d
00000030: 7770 31bc 3152 003e 46f8 053e 2c29 e13d
00000040: 08b4 073d 539c a33c 688b 79bd a3e7 b73d
00000050: 0b05 a1bd 7e4d ecbd ca42 473d e08a dfbd
00000060: 1889 1f3d 158f 80bd 8979 2cbb 84b6 4ebd
00000070: 6acb de3d 8303 a8bd 7561 9b3c e80e cf3b
00000080: 7872 fbbd 1781 d73d 856a e03c 2e05 debd
00000090: 82ba 06be 50f5 583d 9031 e33d c24a a8bc
000000a0: 778a ecbc ce03 cbbd af1a bf3d 0016 36bd
000000b0: b142 83bd faf8 413d 6bf5 df3d ff7a 773d
000000c0: 99eb 343d b1bd ef3d e328 903c af65 e63c
000000d0: 71ef 163b 1232 b3bd ecd3 ba3c c672 72bd
000000e0: a072 a33d cb3b b5bd dbb2 babd 9f6b 00bd
000000f0: b42e b93d 6589 abbd 3e73 30bd 9472 48bb
0.13156895 0.039214425 0.11860212 0.048416454 0.008122652 0.07539871 0.075998366 -0.016610602
0.024936635 0.0045357984 0.097038165 0.062397487 -0.010830036 0.12531354 0.1308299 0.10994181
0.033130676 0.019972002 -0.060923964 0.08979728 -0.0786229 -0.11538218 0.04864768 -0.1091516
0.038949102 -0.06277291 -0.0026317558 -0.05046703 0.10878642 -0.08203795 0.01896737 0.0063189156
-0.122776926 0.10522669 0.027394542 -0.10840832 -0.13157085 0.052968323 0.11093438 -0.02054346
-0.028874619 -0.09912835 0.09331261 -0.044454575 -0.06409205 0.047356583 0.10935482 0.060420033
0.044169996 0.11706103 0.017597621 0.028124658 0.0023030902 -0.087497845 0.02280613 -0.059191488
0.07980847 -0.08849295 -0.09116145 -0.031352635 0.09042111 -0.08375815 -0.043078654 -0.0030585872

model.base_model.net.4.weight f4 [64, 64]
00000000: f5ab 83bd 480f 8a3d 9768 b53d 518f bc3d
00000010: 3ef8 283c bff3 e8bd 9807 f1bd 28ec 1dbd
00000020: eb5a bcbc 3711 e1bd ce0b 623c 367b 07bd
00000030: 5be2 ca3c e49e 9dbd 5cab cfbc 54be 5fbd
00000040: 04cc 703d 660f 06be 5935 45bd cf7d 383d
00000050: 9b73 45bd 6cfa 443b f365 903d 5238 623b
00000060: 83f2 2c3d f9e7 6f3d 129a 49bd 29de f5bc
00000070: 5eab 293d 3634 133d 1e53 b93d 6234 0cbd
00000080: 8096 fc3d dc3b 823d 23ca 44bd bc35 92bd
00000090: 787c 0d3d c34f abbd 72af 87bd 6979 423c
000000a0: 5503 1c3b 2007 553d b618 91bd b936 eb3d
000000b0: d633 78bd bcdd 40bd 7760 ca3d 9442 8bba
000000c0: 048a b43c 0e52 04bd 89b4 e7bd a4ff 9dbc
000000d0: 7c71 313d 32a4 b83d 5600 f23d b0b6 fd3c
000000e0: 7c78 473d 95ea 6e3d 698b 5ebc e142 9d3b
000000f0: 0a69 a3bb c8fe a03c 6aad acb9 e4db ae3d
00000100: 853c e5bb c0fa a4bd 9722 6e3d eb56 bbbd
00000110: c582 283d 616f f53d 3d0e 173d c89d 9dbc
00000120: 2c4a bdbc 10c9 9e3d 0e2f 9cbd 806c 46bd
00000130: 3579 7bbd a3a5 ccbd 78e6 95bd 369a 7bbd
00000140: 36d1 ea3d eff1 c53d aab1 b7bd b5ab f0bd
00000150: 8741 023e e3db b23c b330 973d 3ad2 163d
00000160: 8a4d 96bd 9723 babd 10c2 403d 2d44 13be
00000170: 06f3 acbd 3e3a b33c 1dc3 32bd eede 373d
00000180: 1fe2 6c3d b7eb 6dbd bc6e 64bd 5ce5 97bd
00000190: 9718 f8bd cc3c efbc 0351 f13d 60a2 7f3c
000001a0: 908a a23d a80f 79bd 617a 053d f08f d9bd
000001b0: 1daa 9bbc c080 123c a11d 86bd 2e85 ba3d
000001c0: 4be6 4a3d 1b30 9a3d f328 1a3e f2a4 833d
000001d0: db9c c13b eba7 553d b07b c93d 5e43 20be
000001e0: 59ef 913c c9c1 133d 50ed 29bc af8f dabd
000001f0: a672 a6bd b530 3ebd ff60 2f3d 7486 973d
00000200: c42b 41ba 84d2 ebbd b1ec 263d 7d5e 7f3c
00000210: 8761 a6bd cbce 7d3d 1992 08bd 7e93 383d
00000220: f980 913d 0b96 a53d f78e 0d3c 3b11 d43d
00000230: 5d46 893b 6419 c6bd bcaa dc3d f40e 0b3e
00000240: 4aa6 9f3d 5444 043e 0304 793d f5d4 ff3c
00000250: 8527 b73d 008c d8bd f76e 853c ed47 0fbd
00000260: 6377 f83b bdb4 09be b3e4 5fbc 1233 df3c
00000270: 5c9d d4bc 1d23 85bd 2b95 c0bd 0e37 673d
00000280: 20c0 ecbd 3bea 28bc 3232 c03c 7a1a 123d
00000290: 2828 f6bd cb80 b93b 9660 11bd 32df cb3b
000002a0: 2ab3 a4bd 5df4 c7bd 83d0 1c3d d82d ed3b
000002b0: d1d9 c13d 435e c83d 1241 a43d 8f17 c63c
000002c0: c1e8 c83d c7bf 8a3d f778 b8bd 1ad1 d23d
000002d0: c328 043d 4756 2abd d8ec 7ebd 124f 833d
000002e0: 6a70 023e 5400 17bd 71ce d4bc 444b 99bd
000002f0: 9c0f 803d ca25 66bd 1635 c0bd 3e35 aabd
00000300: a753 4e3d 3b0f a83d b40f 463d a370 f03c
00000310: d596 08be 7069 92bd 90a7 61bd 73ec a0bd
00000320: ca88 98bd 994f 6abd 6b42 a3bc 0246 c1bd
00000330: 9f58 583d 85de 993c 6d69 cc3c f203 953d
00000340: 2ebc babd 06d4 f2bc 3d35 47bc cdf4 0bbe
00000350: 59a1 ac3d b713 d6bd 91c9 d23d 750d 123e
00000360: 9e8b 0aba 3bab adbd 16e1 883d 9c43 d5bd
00000370: c1e8 d93c 1e83 833d b88b d33d 1d0c 023d
00000380: 152b adbc 30a1 ad3b ccbc d4bd e0d9 a63c
00000390: 4a71 e6bd e8f1 f1bb cf7c 79bc fc53 c83d
000003a0: a40a 21bd 0e62 b53d d9a3 06bc a597 1fbd
000003b0: c793 02be e003 b53d ebde d83a 9825 0cbe
000003c0: 242e b33c dceb 873d aa36 cfb8 4d7d e83d
000003d0: a06e a13d 425d e3bc 4c68 cc3d 6cd8 583d
000003e0: 896a c23c c823 14bd 821d 733d db44 57bd
000003f0: 03fc 883d 84fc ccbd c4c7 a1bd 921c 443d
-0.064292826 0.06741196 0.088578396 0.09207023 0.010313092 -0.11374616 -0.117690265 -0.038555294
-0.022992572 -0.109896116 0.01379676 -0.033076487 0.024766138 -0.076963216 -0.025350265 -0.05462487
0.058788314 -0.13091812 -0.04814658 0.045041855 -0.048205953 0.003005649 0.07050695 0.0034518433
0.042223465 0.058570836 -0.0492192 -0.03001316 0.041423194 0.035938464 0.090490565 -0.034229644
0.12333393 0.063590735 -0.048044335 -0.07139155 0.03454253 -0.08364823 -0.066252604 0.011869767
0.0023805697 0.052008748 -0.07084791 0.11485047 -0.06059631 -0.047086462 0.098816805 -0.00106247
0.022038467 -0.032304816 -0.11313731 -0.019286938 0.043321118 0.09015693 0.1181647 0.030970901
0.048698887 0.058329184 -0.013583043 0.0047992324 -0.004986887 0.01965274 -0.000329356 0.085380346
-0.00699574 -0.08055639 0.058138456 -0.09147438 0.041140337 0.119841345 0.036878813 -0.019240275
-0.023106657 0.077531934 -0.076261625 -0.048443317 -0.06139489 -0.0999253 -0.07319349 -0.061426364
0.11465685 0.09665286 -0.089694336 -0.117515005 0.12720309 0.021833366 0.073823355 0.03682158
-0.07339008 -0.090888195 0.047060072 -0.14381476 -0.084447905 0.021878358 -0.043643106 0.044890337
0.057832833 -0.058086123 -0.055769667 -0.07416794 -0.12114065 -0.029203795 0.1178303 0.015602678
0.07936585 -0.060805947 0.032587413 -0.10623157 -0.019002015 0.008941829 -0.0654862 0.09107433
0.04953603 0.07528707 0.15054683 0.06427945 0.005908591 0.052162092 0.09838045 -0.15650699
0.017814325 0.03607348 -0.010371521 -0.10671937 -0.08127336 -0.04643317 0.042817112 0.07398692
-0.00073688873 -0.11514762 0.04075307 0.015586493 -0.081240706 0.06196479 -0.033342455 0.045062535
0.07104678 0.08085259 0.0086400425 0.10354849 0.004189296 -0.096728116 0.107747525 0.13579923
0.07795389 0.1291669 0.06079484 0.031229476 0.089430846 -0.10573578 0.016288264 -0.034980703
0.0075825914 -0.13447852 -0.013665366 0.027246032 -0.025953941 -0.06500838 -0.094034515 0.05644899
-0.115600824 -0.010309751 0.023461435 0.03566978 -0.12019378 0.0056611053 -0.035492502 0.0062216753
-0.08041985 -0.097634055 0.03828479 0.007238131 0.09465373 0.09783604 0.08020224 0.024181155
0.09810019 0.0677486 -0.09007447 0.10293789 0.032265436 -0.041586187 -0.06223759 0.06411566
0.12738195 -0.036865547 -0.025977345 -0.07485059 0.06252977 -0.056188382 -0.09385125 -0.083109364
0.050372746 0.0820603 0.04835482 0.029350584 -0.13338788 -0.07149017 -0.05509144 -0.07857599
-0.074479654 -0.057204816 -0.019929131 -0.09437181 0.05281889 0.018782863 0.024952615 0.07276143
-0.09117924 -0.029642116 -0.012158689 -0.13667603 0.08429212 -0.10452979 0.10292352 0.14262946
-0.0005285087 -0.08479925 0.06683557 -0.10413286 0.026600244 0.06421493 0.103293836 0.031749833
-0.021138707 0.005298756 -0.10387573 0.020367563 -0.11252077 -0.007383574 -0.015227511 0.09781644
-0.03931679 0.08856593 -0.008217775 -0.03896298 -0.12751685 0.0883863 0.0016545927 -0.13686216
0.021872588 0.066367835 -9.880711e-05 0.11352024 0.07882428 -0.02775443 0.099808306 0.05294077
0.02373244 -0.036166936 0.059354313 -0.0525559 0.066886924 -0.10009101 -0.078994304 0.04787881

model.base_model.net.4.bias f4 [64]
00000000: fb91 943d b428 dc3d 874e 3a3d a00a df3d
00000010: 840b 4fbd 0e55 afbd f93e b7bd 00bb c8bc
00000020: 7527 88bc a810 87bd 1293 08bd 46f0 40bd
00000030: 896a 043e b6e1 50ba 38b1 e03d 2ee9 133c
00000040: fd2e 1e3d e025 a63d 950c f9bd f7dd 77bd
00000050: 5483 aebd 26ce 033e 63b8 423d aa63 4ebd
00000060: bcce bebd b622 9a3d f913 f03c 1f51 83bd
00000070: 90e9 c4bd 6990 65bd a659 cf3c be1a e8bd
00000080: 17cc a9bb d3a1 ae3d 1262 9d3d 9692 b33c
00000090: 0040 1e3c c915 083d 5334 723d bbf3 c13d
000000a0: d3ae ee3c e091 8b3d 5623 bf3d 1cbc c9bd
000000b0: c339 92bd b4de 9a3d bf55 b53c ac2a 87bd
000000c0: 1e3e 293d 3986 f6bd b6ea 23bd c9c3 723d
000000d0: d2bc 9bbb 3513 a5bd df04 733d 9a26 793b
000000e0: 8516 bdbc c1ce ddbd e69a 38bd 35fe 553c
000000f0: e49f 8ebd c21c 023d 83fa c8bd 0c0c c23d
0.07254406 0.10749951 0.045485046 0.108906984 -0.05054809 -0.08561145 -0.08947558 -0.024503231
-0.016620377 -0.06594974 -0.033343382 -0.047104143 0.12931265 -0.0007968204 0.10971302 0.009027762
0.03861903 0.08112693 -0.12160603 -0.060514417 -0.085211426 0.12871608 0.047539126 -0.050388016
-0.09316775 0.07526152 0.029306399 -0.06411957 -0.09614861 -0.056045923 0.025311302 -0.11333226
-0.0051818 0.08526959 0.07684721 0.021920484 0.0096588135 0.0332239 0.05913193 0.09470316
0.029136097 0.06814933 0.09332912 -0.09850332 -0.071399234 0.075620085 0.022135613 -0.06599936
0.041319005 -0.1203732 -0.04001876 0.059268747 -0.0047527337 -0.08060304 0.059330817 0.0038017393
-0.023082027 -0.10830451 -0.045069598 0.013061096 -0.069640905 0.031765707 -0.09813406 0.09474954

model.base_model.net.6.weight f4 [64, 64]
00000000: eb8d da3d 205c 7b3d 9edb e4bc 155b 09be
00000010: 74be 18bd 50f4 233b 605d 03be adb7 f13d
00000020: 2312 493d 5c94 df3d 8c48 c6bd 17c2 3abd
00000030: fbc1 a43c b450 96bc 6566 b2bd 2195 d73d
00000040: bc66 8d3d 785b 98bc d3e6 003e 324f e2bd
00000050: 1234 f8bd ea59 433c df71 d03d 6ba4 ae3d
00000060: faad 91bd afdf 9d3d b735 a33d 7509 af3c
00000070: 4ebe ba3d 855c 433c a2e6 5e3c e442 b2bc
00000080: 3207 63bd 85b1 b9bd 054c 07bd 1bc6 d0bd
00000090: 6d1d 913d b75b a73c 7275 0abe 4987 acbd
000000a0: b742 c93d be5a 62bd a0e3 94bc 01cc 8abd
000000b0: 7784 43bc eedf 4a3d 9484 213d f5ed 503d
000000c0: 2648 9cbc ce31 b1bd 7a16 49bc 0fb0 a53d
000000d0: f830 393d 3a8a 813c 121a 223d 564e eb3d
000000e0: ced5 a33d 64bd 10bd 1468 57bd acb2 f13d
000000f0: f8ab 59bd bfe5 ccbd 53d0 3c3d 225b 8cbd
00000100: 3d30 c5bd 9c77 ecbd e334 813c f592 b8bd
00000110: fe5a fe3d 9a4d 1d3c f570 8abd cb59 64bd
00000120: 649a b3bc 9e29 003e c64f 81bd 47a9 c3bd
00000130: 6ab9 dd3c 2d07 c63c 5342 fabd 3f0e 25bd
00000140: 86ad 023e e749 97bd cb5f 7b3d cf95 3ebd
00000150: 66af f3bd 9bcd 0abe e077 a73d b3f2 603d
00000160: dcbc 0e3d 8835 e93c 655e 843d f361 ca3d
00000170: 3e34 e13d 2a03 a83d df58 633d 6aac 183d
00000180: ed8f 233d c2f6 ebbd 0a71 183d a41b 4e3c
00000190: ee36 973d 71a5 44bd 148f b23d 0a35 c53c
000001a0: 8daf 9cbc 9b49 ff3b 2e89 8cbd a107 83bb
000001b0: 50e0 fc3d 924d e03c 2f68 92bb bf74 e9bb
000001c0: 5bd5 873c a433 69bd fb09 a6bd 0f00 f33d
000001d0: d954 983c affb cc3c 020c 29bd 56d5 9ebd
000001e0: 135b 343d e373 523d 03e5 cdbd 127d d8bd
000001f0: a1b7 e3bc 1ee2 7f3d f2b0 d1bd 700b e63d
00000200: 50f2 023e 7a1f 1cbd 29c1 2bbb 9996 4fbc
00000210: f8fd 063e c81b c83c d77a 4b3c e62a ccbc
00000220: 7703 203c a686 5dbd 81b6 9a3c 721e a63a
00000230: 74af 873c b190 303c fd09 eabd b5dd c23d
00000240: ef26 ab3d 7b84 9e3d 4dfb c73d 2fad 2a3d
00000250: 8ae3 6d3d 443b 503d 98f5 843d 87b4 80bd
00000260: 2bd5 633d 78b0 a6bc 0a6c 753d ac6d 6e3d
00000270: a46d aabd c491 98bd 16c2 9fbd 130a b5bc
00000280: 94f4 4c3d ff0f 9d3c 091a ae3d 6e91 d4bd
00000290: 0056 663d dcdd b53d 9401 e5bd 1067 a6bd
000002a0: 8a91 363d 0f66 14bd ad59 8e3c fd68 4cbd
000002b0: 1de7 f03c ee30 edbd e1c8 e63d 8c09 c4bd
000002c0: e650 02be e829 5bbd 15f3 6dbc e016 053e
000002d0: 60b8 223d ad1a 29bd c429 95bd 180b 8a3d
000002e0: 687a c93c 1b4c 64bd d1d4 b4bc 6b35 003d
000002f0: 435f ab3d 4a0f b6bd a7f3 c4bc b585 983d
00000300: 238a 9bbd 9f5b 7dbc dc86 b43d a3e6 9e3d
00000310: 82e7 b4bd eaa8 3bbd fdb7 ee3b 6c7b c93d
00000320: 4b49 15bd 6813 cbbd e549 2b3c 37ee c63d
00000330: 2aa6 94bd 26af 06be dd10 bfbb a8b6 f13d
00000340: ff23 abbd 6b8d 633c a4e9 b03d d008 7d3c
00000350: e838 98bd 03f4 6ebd 6ffb bfbd c2c9 c33c
00000360: 6f2f 68bd 1141 0bbc 9015 54bc 6b62 91bd
00000370: a578 083e 24ad 893c b573 9a3d bc71 b23d
00000380: 4049 7d3d 6c35 2cbd 0624 62bd 2ed2 aebd
00000390: 9838 bfbd b571 e3bd c2c9 81bd e2b6 003e
000003a0: c3fd e1bd 52ff 8dbd f177 e9bd 9b4b 99bd
000003b0: e252 f13d dfaa e3bd 1834 a7bd adb7 aabd
000003c0: 794f bc3c 488b d1bc 87bc c1bd 97bc e13d
000003d0: b9da 103d f06e d4bd 6b37 04bd 79ca b73d
000003e0: d17f 803d 0cd9 c0bd d15f 44bd 683d 07bd
000003f0: 17d6 753d d057 efbd a11d ff3d d3ae c33c
0.106716 0.061367154 -0.027936753 -0.13413651 -0.037291005 0.0025017448 -0.12828588 0.118026115
0.049089562 0.10916969 -0.09681806 -0.045595255 0.020112028 -0.01834903 -0.087109365 0.10526491
0.06904361 -0.018598303 0.12588052 -0.110502616 -0.121193066 0.011923293 0.10177969 0.08527454
-0.071132615 0.0770868 0.0796923 0.021366814 0.09118329 0.011923914 0.013604792 -0.021760412
-0.055426784 -0.09067062 -0.033031482 -0.101940356 0.07085691 0.020429475 -0.13521364 -0.08424241
0.09827178 -0.05526232 -0.018174946 -0.06777192 -0.011933438 0.049529962 0.039433077 0.051008184
-0.019077372 -0.086520776 -0.012273425 0.08090221 0.045212716 0.015812982 0.039575644 0.11489551
0.079997644 -0.035336867 -0.05258949 0.11801657 -0.053142518 -0.10004758 0.04609711 -0.0685332
-0.09628341 -0.11546251 0.015772289 -0.09012405 0.12419699 0.009601021 -0.06759826 -0.055749696
-0.021924205 0.12515876 -0.06314044 -0.095537715 0.027065951 0.024173344 -0.122196816 -0.04029679
0.12761506 -0.07387143 0.061370652 -0.046529587 -0.11898689 -0.13554995 0.08177161 0.054918956
0.03484808 0.028467909 0.06463317 0.098819636 0.109962925 0.082037285 0.055504676 0.037273802
0.03993218 -0.11521675 0.037217177 0.012579832 0.07383524 -0.04800934 0.08718696 0.024073143
-0.019126678 0.007790757 -0.068621024 -0.003998712 0.12347472 0.027380738 -0.004467986 -0.007124513
0.016581228 -0.056934014 -0.081073724 0.118652456 0.018595146 0.025022356 -0.041271217 -0.07755534
0.044032168 0.05138005 -0.10053446 -0.1057073 -0.027797522 0.0624715 -0.10238828 0.1123265
0.12787747 -0.038115956 -0.0026207662 -0.012670183 0.13182819 0.02442731 0.012419424 -0.0249228
0.009766451 -0.05408349 0.018885853 0.0012673868 0.016563155 0.010776685 -0.11427686 0.095149435
0.08357035 0.077401124 0.09764729 0.041669067 0.058078326 0.05083777 0.06492156 -0.06284433
0.055623215 -0.020347819 0.059917487 0.05821006 -0.083216935 -0.074496776 -0.07800691 -0.02209953
0.050037935 0.019172667 0.085010596 -0.10379301 0.05623436 0.08880207 -0.11181942 -0.08125126
0.04457239 -0.036230143 0.017376745 -0.049904812 0.029407078 -0.11581598 0.11268783 -0.095721334
-0.12726173 -0.05350676 -0.014523287 0.12997007 0.039726615 -0.041285206 -0.07283357 0.06740397
0.0245945 -0.055736642 -0.022074135 0.031300943 0.08367779 -0.08889635 -0.024041964 0.074473776
-0.07594707 -0.015463739 0.08814785 0.07758834 -0.08833219 -0.045815386 0.0072851167 0.09837994
-0.03644685 -0.09915811 0.01045463 0.097134046 -0.07258256 -0.13152751 -0.0058308677 0.11802417
-0.08356475 0.013888697 0.086383134 0.015443996 -0.07432729 -0.058338176 -0.09374129 0.023899917
-0.05668586 -0.0084994 -0.012944594 -0.0709885 0.13327272 0.016806193 0.075416006 0.08713099
0.061837435 -0.042043135 -0.055210136 -0.08536182 -0.09336966 -0.11105672 -0.063373104 0.12569764
-0.11034729 -0.06933464 -0.1139983 -0.07485124 0.11783387 -0.111165754 -0.08164233 -0.083358146
0.022987114 -0.02557911 -0.09459787 0.11022299 0.03536484 -0.10372722 -0.032279413 0.089741655
0.06274379 -0.094163984 -0.04794294 -0.033017546 0.060018625 -0.11686671 0.12456823 0.023887074

model.base_model.net.6.bias f4 [64]
00000000: 1d90 99bd 43be 2bbd a56d 03bd 631a 9dbd
00000010: 0c32 4d3c 46b1 0bbd a765 9bbd 5b11 c7bd
00000020: 444c b9bd 97fc 90bc 931d dc3d a4f7 08bc
00000030: 23c6 73bd 3e55 cebd 508e f03c 3b98 e83d
00000040: d8f4 dfbd 3012 d53d d7f6 ec3d e817 083d
00000050: 3c66 703d 2385 3e3d a8c9 edbd b787 5cbd
00000060: acdb d2bc a357 87bd e093 983b 1a12 073d
00000070: da59 563c 9197 803d 61f6 8ebd 4ffd e03d
00000080: a4de 6bbd 213a c43d 5d40 d73d 3ca9 d9bd
00000090: f450 00be 56a8 cf3d 02df b23d 27b3 9abc
000000a0: 67c8 9c3c 576a be3c b38a 33bd 200f 843d
000000b0: 4562 473d 3a7f 02be 0f62 febc f3f2 a7bd
000000c0: fadc 6c3d e931 06be 9661 eabd 5f51 d3bd
000000d0: bbbf 21bd dd25 babd d4b9 f9bc 4465 9cbd
000000e0: 7368 ba3d 4bb6 f33d 0e52 303d 0493 42bd
000000f0: 3d56 743d bacf ccbd e707 8abd 7107 91bc
-0.074981906 -0.041929495 -0.032086987 -0.076710485 0.012524139 -0.034104608 -0.07587748 -0.09720107
-0.0904775 -0.01769857 0.10747828 -0.008359823 -0.05951513 -0.100748524 0.029364735 0.11357161
-0.10935372 0.104038596 0.115705185 0.033225924 0.05869125 0.046513688 -0.116107285 -0.053840365
-0.025739513 -0.06608512 0.0046563 0.032976247 0.013082946 0.06278909 -0.06980587 0.10985815
-0.057585374 0.095814 0.10510323 -0.10627982 -0.12530881 0.101395294 0.087339416 -0.018884255
0.019138528 0.023244066 -0.043833446 0.06448197 0.0486777 -0.12743846 -0.031052617 -0.08200636
0.057827927 -0.13104977 -0.11444394 -0.10318255 -0.03948949 -0.09089253 -0.030484118 -0.076365024
0.09101953 0.11900004 0.043047003 -0.047503486 0.059652556 -0.10000558 -0.067397885 -0.017703744

model.base_model.net.8.weight f4 [64, 64]
00000000: 41ba f6bd 228c e93d 6aa4 9d3d c15d 5d3d
00000010: 332d 853d 2994 fd3d 3859 4bbd e624 1e3d
00000020: 91a3 36bd 142e 86bc 251a cdbd ba49 a83d
00000030: 04fe a9bd 6719 6ebd b345 d13d 7b8d 91bd
00000040: 4b94 663c b54d e9bd 4e09 90bd 4b38 f03d
00000050: 7836 7b3d 47ab 1e3c 8565 84bd 9df0 bb3d
00000060: 8f3e e33d 62f7 1f3d e429 95bd c04b 013c
00000070: 9376 8c3d b553 c73c 0f88 f83d 535f c43d
00000080: 1943 733d 6064 bfbd 427c 68bb f457 ad3c
00000090: 3a23 35bd 19b5 2c3d 6c0d 913d c915 95bd
000000a0: e505 39bd f14a b8bd c34f 6a3c 749d 8d3d
000000b0: 1a2c f23d 0bd7 6d3b f4d6 9f3d d26c fcbd
000000c0: 239e c53a 88f0 d7bc 38cb 66bd 00b3 f83d
000000d0: 29d5 983d 149c d5bd 03d3 f1bd d913 80bd
000000e0: 0283 3f3d e232 813d a1ad 6c3d 28e1 c03d
000000f0: 24f0 9abd 04af 8f3c f9e7 70bd 3eee 54bd
00000100: 05e6 57bc 229f c2bc 1d5c efbd 08bd 84bc
00000110: 364f a23d 9b4c d23d 816c 3cbd 48fb af3d
00000120: 3e5b 28bd ed3b 98bd 907f f73d cada a3bc
00000130: 51d0 82bc 463a 0abd 984a ca3d 1e72 29bd
00000140: 53b5 38bd 7a7d 8c3c faa6 8ebd a1a0 823d
00000150: 758f c43d e0f6 733d 049f 2dbd 1713 1ebd
00000160: 0900 0ebe 2684 bcbd 3c52 84bc dc6a ae3d
00000170: af9b 0a3e 0b74 53bc 727c ebbb 3e33 963d
00000180: b5cf 2bbd 5059 b9bd bb9b ad3d ab40 8abd
00000190: 44e2 d0bd 88f4 893c 7f2d b5bd cdb5 edbd
000001a0: 3ac8 b2bd ac49 b13b 8c68 ca3c f5f2 47bd
000001b0: 59a3 d5bd 337a 65bd 027f d43d 139a 25bd
000001c0: 6683 9ebd 2344 76bd d22b d73d ddf3 e63c
000001d0: 4798 05bd bc32 e53d 3159 3dbb b49f 8c3b
000001e0: 4785 0d3e 5bcf 073b a490 04bd cd1b af3d
000001f0: fbe7 5a3d d7a9 b8bd 3e9f 893d 35d0 42bd
00000200: cc2e d4bd 0e90 e93d fdb5 b8bd edcd 4fbd
00000210: 75e9 a8bc cf9a a43b 11eb 2dbc e4a2 d03d
00000220: 4d66 c73d 673e e7bd b9e3 f4bd fbcb e6bd
00000230: 44df e13d 275c 3bbc 64d5 9abd 30a4 b0bd
00000240: 88e2 a33c db83 fc3c cd9d 8b3d 2d52 cb3d
00000250: 1d0a d13d dacf afbd 7481 3bbb 9076 9dbd
00000260: 8ca2 38bd d79b 7f3c 33e6 8b3d e02f 6ebd
00000270: e90b 91bd fe6d 2dbd 5721 7f3d b69b 0abc
00000280: a982 c53d dbfc fcbd 2b74 303d 281a c83d
00000290: 127f a83d 08ed e2bd b0e6 bebd 5235 893b
000002a0: 94d4 4c3b 08fc 953d 8a8c d53d e6ed 90bc
000002b0: fbc8 1fbd 6963 923d 0aa4 a0bd 9770 59bd
000002c0: 85dc 543c d22a 93bc a042 a83d 229c 50bc
000002d0: 0f13 803c 63a3 233d 6e6d 08bc 9673 19bd
000002e0: 60fb 9a3d ac60 8a3d 5749 ecbc eb01 9dbd
000002f0: 1d81 35bd 9574 c23d bb85 9b3d 6fd8 efbc
00000300: b063 893d 5ae3 8cbc 8a9d f2bb 1670 75bd
00000310: 2090 723a dced f9bc a44b ed3c a6a2 02be
00000320: 6116 22bc ef0c cbbd 97ca e8bd 61ac 08be
00000330: 7bb4 efbc 4ed2 a93c 4842 e63c 10b6 043d
00000340: 288b 67bd e55c a0bd 8d16 c8bc d025 c0bd
00000350: 6f97 c5bb 1890 e13c deeb 703c 945d eabd
00000360: e95d f63d a7a2 c43d 583f 69bd 5ef6 dabd
00000370: 44ad 763c b767 163d d845 31bd fc7c 3bbd
00000380: d64b 123c cd0c 86bd 5427 84bd 5103 1c3d
00000390: 9dde 423c c037 4f3d b03e ec3d a123 f6b8
000003a0: f099 303d 81cd b43d 8ae5 9fbd ecba bb3d
000003b0: 8dbe b03d 2ca1 4bbd de3a c43d 34e6 77bd
000003c0: 0acf 6ebd 70d4 b33d 3d1b 533d e690 aebc
000003d0: d96d cbbd f16c 8a3d 77c5 fa3c e7f9 9abd
000003e0: cd9e 85bb 7937 ba3d f1d8 803d c0d4 70bd
000003f0: 25bd 303a 3db9 56bd 07dc a43d 691b 443d
-0.12047244 0.11403681 0.07697375 0.05404449 0.06502762 0.12381775 -0.049645633 0.038609408
-0.044589583 -0.016379394 -0.10014752 0.08217187 -0.08300403 -0.058129694 0.10218372 -0.071070634
0.014073442 -0.113917746 -0.07033025 0.11729487 0.061331242 0.00968439 -0.06464676 0.09176753
0.110959165 0.039054282 -0.07283381 0.007891595 0.06858554 0.024331907 0.12135326 0.09588494
0.05939016 -0.09345317 -0.0035474454 0.021160103 -0.044223048 0.042164896 0.07082638 -0.07279546
-0.045171637 -0.08998669 0.014301243 0.069147974 0.11824818 0.0036291506 0.07804671 -0.12325443
0.0015077036 -0.026359811 -0.05634615 0.121435165 0.07462532 -0.1043016 -0.118078254 -0.06253786
0.0467558 0.06308533 0.057782773 0.09417945 -0.075653344 0.017539509 -0.058814976 -0.051985018
-0.0131773995 -0.023757521 -0.11687491 -0.016203418 0.079252645 0.102685176 -0.046001915 0.0859285
-0.04110264 -0.07433305 0.120848775 -0.020001788 -0.015968474 -0.03374698 0.09877509 -0.041368596
-0.0450948 0.017149676 -0.06965442 0.06378294 0.09597675 0.05956161 -0.042387977 -0.038592424
-0.13867201 -0.09204893 -0.016152494 0.085164756 0.13535951 -0.012906085 -0.007186466 0.073339924
-0.04194613 -0.09050238 0.08476969 -0.06750616 -0.10199407 0.016840234 -0.08846568 -0.11606941
-0.087295964 0.0054103937 0.024708055 -0.048815686 -0.10431547 -0.05602474 0.10375787 -0.04043014
-0.07739906 -0.060123574 0.10506405 0.028192455 -0.032615926 0.111913174 -0.0028892274 0.004291499
0.13820373 0.0020722959 -0.032364503 0.085502245 0.05344389 -0.090167694 0.06719826 -0.047561843
-0.10360488 0.114044294 -0.090190865 -0.050733496 -0.020619133 0.0050233374 -0.010615126 0.10187319
0.09736309 -0.11291199 -0.11957497 -0.11269375 0.11028913 -0.011435545 -0.07560232 -0.08625066
0.02000548 0.030824592 0.068172075 0.09927783 0.10207007 -0.085845664 -0.0028611096 -0.076886296
-0.04507689 0.01560112 0.068310164 -0.058151126 -0.0708235 -0.042341225 0.062287655 -0.008459976
0.09644062 -0.12352916 0.043079536 0.09770614 0.08227362 -0.110803664 -0.09321344 0.0041872645
0.0031254636 0.07323462 0.10427196 -0.017691564 -0.03901003 0.07147867 -0.07843788 -0.05308589
0.012992029 -0.017964754 0.08215833 -0.012732537 0.015634088 0.03995074 -0.008326871 -0.037463747
0.07567477 0.0675672 -0.028843565 -0.076663814 -0.044312585 0.094948925 0.075938664 -0.029278008
0.06708467 -0.017198253 -0.007404034 -0.059921347 0.00092530437 -0.030508928 0.028966732 -0.12757358
-0.009893031 -0.09914576 -0.11366766 -0.13347007 -0.029260864 0.020730164 0.028107777 0.03240019
-0.056529194 -0.07830218 -0.024424816 -0.09382212 -0.006030015 0.02753453 0.014704673 -0.1144363
0.12029631 0.09601336 -0.056945175 -0.10691522 0.015055958 0.036720004 -0.0432795 -0.04577349
0.0089292135 -0.0654541 -0.06452814 0.0380891 0.011893895 0.050590277 0.11535394 -0.000117368305
0.043115556 0.08828259 -0.07807453 0.09166512 0.08630095 -0.049714252 0.095815405 -0.060522273
-0.058302917 0.087807536 0.05153965 -0.021309327 -0.09933061 0.0675906 0.030611737 -0.07567196
-0.0040777684 0.09092612 0.06291378 -0.058796644 0.0006742052 -0.05242275 0.080497794 0.047877703

model.base_model.net.8.bias f4 [64]
00000000: fcbb 55bd 28da 153d 3c49 963d f0d7 37bc
00000010: 80d7 dbbc f333 d93d 77dc fd3d 4aba 803d
00000020: 58c2 1c3c 0e85 dc3b 260c 94bd e87d be3d
00000030: c361 6d3d b628 d73d e175 9abd b440 c03c
00000040: 8159 0d3d c955 2dbd 8188 54bc fd74 083d
00000050: 4798 fcbc 9cf1 e33d e805 f0bd 869f 13bc
00000060: f2a8 87bd 234e d53d 2335 58bd e3ea 12bd
00000070: b5b8 ec3d df49 ebbd 0f71 4cbd f070 e93d
00000080: 465e c73d 7b4a f1bc d226 ebbc f609 89bd
00000090: 2c35 083d 10de 3e3d 8616 bc3d 3454 6b3d
000000a0: 059f 863d ff62 debc a3c5 c2bd 97c8 9b3d
000000b0: c7f7 9cbb e10d b7bd 56bf 8c3b 904d 013e
000000c0: c7e1 efba 6a22 d9bd b481 963d 8b4d b63d
000000d0: 026c b1bd c20e d4bd 32c0 bcbd 5746 4d3d
000000e0: ec38 39bd 3a50 efbd 7adb 11bc 58da 64bd
000000f0: be40 37bd 7d2f 30bd 6540 4abd 16bf b0bd
-0.05218123 0.036585003 0.07338187 -0.011220917 -0.026836157 0.10605612 0.12395566 0.06285532
0.00956782 0.0067297285 -0.0722888 0.093013585 0.05795456 0.10505812 -0.07542015 0.023468353
0.034509186 -0.04231814 -0.012971998 0.033314694 -0.03083433 0.11130068 -0.117198765 -0.009010201
-0.06624021 0.10415294 -0.05278505 -0.035868537 0.115586676 -0.11488699 -0.04991251 0.11398494
0.09734778 -0.02945446 -0.028705034 -0.06691353 0.033253834 0.046598494 0.091839835 0.05745335
0.06573299 -0.027146814 -0.095103525 0.07606619 -0.0047902795 -0.08938194 0.00429527 0.12627244
-0.001830154 -0.10602267 0.07348958 0.08901509 -0.08663179 -0.10354377 -0.09216346 0.05011591
-0.0452203 -0.11685224 -0.008902425 -0.05587229 -0.044739477 -0.04301404 -0.049377818 -0.08630197

model.base_model.net.10.weight f4 [64, 64]
00000000: d174 04bd 474a a8bd b2e5 5cbc 598e 9fbd
00000010: 10e7 143c b13f c93d 7868 53bd d793 edbb
00000020: 721f f7bc 6f49 52bd ec5e b1bd 8cf0 073d
00000030: a420 053c f415 aa3b 7636 26bd 19bf 96bd
00000040: 87ed 56bd c690 8a3d d8cb 9d3d 430b 2dbd
00000050: 73ac 663d 3c65 83bd 9f16 ccbb 62aa f7bd
00000060: 42fd 66bc c86e 0e3d 8708 a13d c5b7 3e3d
00000070: 4ce1 683d aa1a d1bc dfd5 f93d 6776 d8bd
00000080: 2db4 f4bc ce97 dcbc 1e8f af3d 1dcd d63c
00000090: 0a15 f33d bcb5 b5bd c8cb 213d f0db d8bd
000000a0: c4f0 2c3d 49c2 54bd f6fb 56bd 6efe 663c
000000b0: 892e 6d3c b671 fc3d 05b2 d73d 7be0 ff3b
000000c0: fb1e 1a3d 6703 dc3c a7dd e1bc c970 a2bd
000000d0: e4ac c8bd ce3a 593b a870 41bd 527f ff3d
000000e0: 4f62 82bd a208 073d 75d7 62bd 00c2 ed3d
000000f0: 65b0 5f3d 38a7 7f3d 1869 133d e504 88bc
00000100: c0fe 1dbd 12c3 8abd 8e29 e8bd 0691 5bbc
00000110: 57ea 26bd ca89 e53d 3fc4 e03d f8aa a9bd
00000120: f66b 933a 0453 e9bd 0d08 8f3d b5db b13d
00000130: 366d 88bd 76ee c8bd b084 9dbc e24e ee3d
00000140: 3f09 963d 86f5 5abd a021 b73b 2107 dabd
00000150: c03f e73d c705 503d 26fd 27bd 1d6e 343d
00000160: ae5e ac3c a616 adbd 1fd1 e0bd 15cb b53d
00000170: dc1d d5bd 1c7b bd3d 1d14 efbc 8d68 793d
00000180: 9253 293d f27d a03d bf7a 39bd ee8a 933d
00000190: 3289 8e3c 8355 30bc c6b9 3bbc 8005 f0bb
000001a0: b29a 873d b60b b73d 94c6 10bd a39d 36bc
000001b0: ee79 8ebc 785d 14bd 6aae 573d a412 dd3d
000001c0: 5569 4b3d 3ead b1bc fa2f 863d 88a6 f73d
000001d0: a084 333d 6aa3 e83d 19fd 4d3d d6ae a7bc
000001e0: 9509 203d 5142 1b3d 32bb 4c3d 6113 02bd
000001f0: 958d a7bd 902a e5bd 9b62 8fbd 3436 af3d
00000200: 505e e3bc 8200 ebbd c1ec b43d 2d49 d6bd
00000210: 6016 073d bbce e03d 90f0 94bd 9d89 f9b9
00000220: dbea ea3d d2cd bc3d eecf cb3d 1964 f9bc
00000230: 4635 b43d 030b 203d 8409 ec3b 0eff 063e
00000240: 0315 a13c 5283 bb3d f55f c6bd 583b d13c
00000250: 4b9b f7bd 0da7 9d3c c362 353d 61c2 743d
00000260: a954 a33d 79f1 89bd 6067 b13d d778 e5bd
00000270: 3136 bc3d 2d02 923d bade 2ebc de30 cb3c
00000280: b862 6a3d 9347 cebd fdff bd3d 71b6 483d
00000290: bf35 de3d ab8b 13bc 376d da39 bad5 933c
000002a0: d2d2 c03d 27b9 b4bd 7fb9 a63d 1f03 803d
000002b0: 1214 f33a 5cf8 99bd afd7 c03d 7de9 8a3d
000002c0: 0ed0 34bd ff4a 063d 8001 49bd 0d7d 57bd
000002d0: 2cd0 0b3e 034e 4f3d 2fb7 9d3c fbf7 af3d
000002e0: ab93 a23d c9e6 9a3d 68d1 903d 2f60 c3bd
000002f0: 4bc6 20bd 7519 db3d 498c 4c3d ce41 3b3d
00000300: c31c a7bd 3a77 93bd 1906 57bd adb4 8c3d
00000310: ba3e 29bd db07 c93d 93f3 c7bd 2c71 90bc
00000320: bd46 c83d 91db 88bd a029 2c3c 0fe7 2fbd
00000330: a5be 6c3d 53cf 94bd a316 c3bd c2e7 fdbc
00000340: 4d85 103d d2c2 a5bc d0c3 cdbd 7c6f 16bd
00000350: 045b 76bd eb90 d33d 62c6 14bc 9762 293d
00000360: c266 073e b427 c8bd a140 713d 0963 ea3c
00000370: 6802 c33d 7209 603c 2b32 313d 9008 08be
00000380: 6e99 e03d 7242 c7bd 4e9c d23d 7758 92bd
00000390: 6f9b 763c dc86 44bc 0054 a93d 9b8f 00be
000003a0: 34bd cb3d e5b1 0b3e 4843 413d 184c dc3d
000003b0: 9942 e43d 839b 693c 0044 8f3d e6a5 0c3b
000003c0: 4e46 863c 9f35 9ebd 6d6b 30bd 3e8e 82bd
000003d0: f318 80bd 36ba a4bd 6165 32bd 1e03 e83c
000003e0: 301c 01bc b3d1 813d d3aa 8c3d 985d 1bbd
000003f0: e9ce c73d 4020 adbd 7d7c 77bd aef5 053e
-0.032337967 -0.08217292 -0.013482498 -0.077908225 0.009088293 0.09826601 -0.0516133 -0.00725029
-0.030166361 -0.051339563 -0.08660683 0.033188388 0.008125458 0.0051906053 -0.04057928 -0.07360668
-0.052472617 0.067658946 0.07704896 -0.042247068 0.056316804 -0.06415793 -0.0062282826 -0.12093045
-0.014098467 0.034773618 0.078629546 0.046561975 0.056855485 -0.02552541 0.12198996 -0.105694585
-0.02987107 -0.026927855 0.08572219 0.026220853 0.11869247 -0.08872554 0.03950098 -0.10588825
0.0422218 -0.051943097 -0.052486382 0.014098747 0.014476427 0.12326376 0.105320014 0.0078087426
0.0376272 0.026857091 -0.027571512 -0.07931668 -0.09798601 0.0033146623 -0.047226578 0.12475456
-0.06366407 0.032967217 -0.055381257 0.11609268 0.054611582 0.06241533 0.035988897 -0.016603896
-0.038573027 -0.06775488 -0.11336051 -0.0134012755 -0.040750828 0.11207922 0.10974931 -0.08284563
0.0011247385 -0.11392787 0.069839574 0.08684484 -0.06661455 -0.09811108 -0.01922831 0.116361395
0.07325982 -0.053456806 0.005588725 -0.10645891 0.11291456 0.05078676 -0.041012906 0.044050325
0.02104124 -0.084515855 -0.10977387 0.088766254 -0.10406086 0.09251997 -0.029184395 0.060890723
0.041339464 0.07836522 -0.045283075 0.07204233 0.017399404 -0.010762575 -0.011457866 -0.0073248744
0.06621303 0.089377806 -0.03534563 -0.011145982 -0.017392125 -0.03622195 0.05265657 0.10794571
0.049661 -0.021689054 0.065521196 0.1209231 0.043827653 0.11359294 0.0502902 -0.02046911
0.039071638 0.03790504 0.04998321 -0.031756762 -0.081813015 -0.11189759 -0.070012294 0.0855526
-0.027754933 -0.11474706 0.0883422 -0.10463176 0.032980323 0.10976931 -0.07272446 -0.0004759551
0.114705764 0.092189446 0.09951769 -0.030443238 0.087992236 0.039073 0.007203283 0.13183233
0.01966334 0.09155907 -0.09686271 0.025540993 -0.12090167 0.019244695 0.04428364 0.059755687
0.07975132 -0.067355104 0.08662295 -0.11204689 0.09190024 0.07129321 -0.010673219 0.024803575
0.05722305 -0.100722454 0.092773415 0.049002115 0.10850095 -0.009005467 0.00041661572 0.018046249
0.09415211 -0.088243775 0.08140849 0.06250595 0.001854541 -0.07518074 0.094161384 0.067828156
-0.04414373 0.032786366 -0.049073696 -0.052609492 0.1365363 0.050611507 0.019252388 0.085922204
0.07938322 0.0756355 0.07071191 -0.0953983 -0.039251607 0.10698215 0.049938474 0.045717053
-0.08159783 -0.07200475 -0.05249605 0.06870399 -0.041319586 0.098159514 -0.09763255 -0.01763209
0.09779117 -0.06682504 0.010507971 -0.042944964 0.057799 -0.072661065 -0.09525802 -0.0309943
0.035283376 -0.0202345 -0.10047114 -0.036727414 -0.060145393 0.10330375 -0.009080501 0.04135379
0.13222793 -0.09773198 0.058899526 0.028611677 0.09521943 0.013674127 0.043260735 -0.13284516
0.109667644 -0.0972947 0.10283719 -0.071457796 0.015051707 -0.011995044 0.08267975 -0.12554781
0.09948197 0.1364208 0.047183305 0.10756701 0.11145515 0.014258268 0.06995392 0.0021461188
0.016390946 -0.07725071 -0.0430712 -0.06374787 -0.06254759 -0.080433294 -0.043553714 0.028321799
-0.007880256 0.06338825 0.0686852 -0.037931055 0.09756262 -0.08453417 -0.060421456 0.13082

model.base_model.net.10.bias f4 [64]
00000000: 9898 01bd 1801 00be b67e b3bd 5bc5 85bd
00000010: 6bd7 e43d 08a4 c5bd 2e56 933d 5e47 3cbc
00000020: f011 b73d 5528 81bd 3e2b 5e3b 091d 18bd
00000030: 5e09 cd3d 5430 c7bd fef2 fc3c 22f1 f13d
00000040: 49ce e43d 3584 58bc 7123 a63c 111a e73d
00000050: aec9 ed3d c8cf bebc 532d 52bc ebc6 853d
00000060: cdbe c2bd b441 02bd 15ba c8ba a1fd c1bd
00000070: 121d 81bd 84e1 e7bd 9c65 3dbd c6f6 05be
00000080: d5a5 513d 1056 35bd 1bd5 d4bc c762 6b3d
00000090: a8a1 cfbd 2e56 dcbc d219 90bd bd4a 5bbd
000000a0: 49e1 8e3d 6e4b 603d 3e61 95bd 0a2e 41bd
000000b0: f99d 85bd d520 5ebc ac7c eb39 4593 ba3b
000000c0: 10f4 9dbc 9747 1fbc 4d50 ae3c 65d7 81bc
000000d0: 7c41 42bd 0cc1 193d 4b38 c23d 041b 173d
000000e0: e561 c8bd d81a 31bd 2cd5 dfbd e6bc b83d
000000f0: 6f62 b7bd 4be2 97bd 937f 5a3d 5547 a33d
-0.031639665 -0.12500417 -0.087644026 -0.06531783 0.111739 -0.09650427 0.07194172 -0.011491625
0.08938968 -0.06306521 0.0033900286 -0.037137065 0.10011552 -0.09726015 0.030877586 0.118135706
0.11172158 -0.013215114 0.020280572 0.11284269 0.11610733 -0.023292437 -0.012828189 0.06532081
-0.095090486 -0.03180094 -0.0015314246 -0.09472204 -0.06304373 -0.113223106 -0.04623948 -0.13082418
0.05118354 -0.04427153 -0.025980523 0.05746725 -0.10138255 -0.026896562 -0.07036175 -0.053538073
0.069765635 0.054759435 -0.07293938 -0.047163047 -0.065242715 -0.013557632 0.0004491558 0.0056938254
-0.019281417 -0.009721658 0.021278525 -0.015849778 -0.047425732 0.03753762 0.09483393 0.036891
-0.09784297 -0.04323849 -0.10929331 0.090204045 -0.089543216 -0.07416209 0.05334432 0.0797259
