results/edm_swiss_roll/checkpoints/epoch=47-step=1536.ckpt (torch, 842170 bytes, 37 tensors)

model.time_embedding.frequencies f4 [4]
00000000: 0000 803f 971e 3e3d 6b31 0d3b 16b7 d138
1.0 0.04641589 0.0021544348 9.999999e-05

model.net.0.weight f4 [128, 10]
00000000: 083b 8e3e c74a 9d3e 464d 09be 1f5b 7e3e
00000010: 8c5f d9bd 4b61 cd3c b142 0abe 245e 4e3e
00000020: 20cf 963e 0067 5dbe e554 a23e de22 b03d
00000030: 2bc2 213e 917d aabc 46e7 c13d 516e d1bd
00000040: a0c0 853e dd73 773d cd3b 09be 91f4 c03d
00000050: 516f 2bbe aa2e e7bb 558c 37bd 30d4 823e
00000060: 7740 68be c427 f2bd 3b94 ecbd cb57 50be
00000070: a88d 8b3c c778 a6be f020 a53e 1693 9abe
00000080: 986b 2c3e 82e9 68bb 6c4d 1ebe 5d59 113e
00000090: f27e 963d b109 8d3e d219 5f3d db7e a3bd
000000a0: 3d04 013e f741 c1bd f21f 893d 1b7f 6d3e
000000b0: 4a46 0e3e c8ac 39be 324f 453e 9cbf 843d
000000c0: 09d1 2c3e 64ff 3cbe dda6 b3be 98a4 15be
000000d0: dc5f 9ebe e481 633e 0700 9f3d d5aa ec3d
000000e0: 105c ee3d c8e9 bf3b 8574 843e a396 5abe
000000f0: 91a7 8f3c 58a0 87be 4a8a d23c 9609 1dbe
00000100: 3ec8 753d 46ea d4bd 9eb5 8c3e cb66 36be
00000110: 76ae 37be 88b1 37be 578b a13e 0455 0f3e
00000120: 2d6c 853e 5452 9ebe 506c b7be b4f3 94be
00000130: 5baf 4cbe 1d48 0e3e 640f fe3d c512 8c3e
00000140: c2ca 35be c513 86be ec4d e73d e8a6 2abe
00000150: 6a43 2b3e 9374 cfbd ca13 473e e870 71be
00000160: 525d 19be 178c d93d 9d51 f53d 696f c3bd
00000170: 9e52 4e3e 9f05 6c3e a8af 61be ddf4 20be
00000180: bab5 8d3e 5fe1 f1bd d8e6 fcbd e57c a2be
00000190: 35e9 66be 56d2 ea3d 0879 043d 3a5c 2ebe
000001a0: 77fd 543d 57f4 30be b232 88be d4b6 2abe
000001b0: 5ed2 89be c16b 46be a6cf b73e af38 8f3d
000001c0: e3b7 153d 0313 abbe 8c3f 78be 214a 12be
000001d0: b999 8e3d d155 85be bd96 f2bd 18a1 2fbe
000001e0: 8bf9 d0bc 9fd5 18be 44e4 90bd 077c 80be
000001f0: 760e 74be f8fa 53be ad09 cabd 5f61 79be
00000200: 29c9 8a3e 67d3 68bd b083 a53e 4d86 073e
00000210: 26e7 56be b02f 8d3e 244f 27bd 31ed 99bd
00000220: d572 84be 4e82 9bbe 8d85 cf3d d77c 6ebd
00000230: c5e3 f03d d311 95be 3c89 1c3e c2b7 91be
00000240: 7a8d cfbd 2840 973c 6039 3b3e 54e3 893e
00000250: 809c 9a3e 2186 72be ad13 cc3d 77f1 1fbe
00000260: 34cf 0abe 9080 9abe 7394 6f3e 1354 93be
00000270: 8004 413e ff63 ff3d 3d0a ee3d dd46 21be
00000280: 850a a63e d083 833d f04e 08bc 1d74 a4be
00000290: eb91 c03d 30c4 b5bd a198 fdbd 3255 943e
000002a0: f44d b53d d9b3 20be 2996 3fbe 1188 4e3c
000002b0: 94f5 603e e8a1 aebd 4ad4 3bbe 0dfc e7bd
000002c0: 0f93 69be 7ddf f53d c2fb 803e 97c4 94be
000002d0: 726f 923d 3a6c 573e 5e7d 40bc 62cf 2dbe
000002e0: bf65 e43d efc5 e63d 9a72 0a3e cb54 32bd
000002f0: 1c06 93bd a182 3b3d 784a a6bd 5e18 ebbd
00000300: fb2e f93d 6b95 603e 515a 78bd 6280 cebd
00000310: 2cc9 983c b18b 47bc 24f0 a83d 13ba c23d
00000320: 868a 9dbe 5f13 13be 5460 7c3e eb72 de3d
00000330: b16a d7bc b8aa 50be c94a 26be 1b15 84be
00000340: fdcb 9fbd ee01 073e 4390 7a3e 4eef 483e
00000350: 035d babe af1f 84be 0106 e7bd 98a5 7a3e
00000360: 1744 663d 07bf 98bd d56a 0d3e 19c6 e7bd
00000370: 86f7 79be c9f4 803e cf90 4bbe ff2c cbbd
00000380: 8cd2 a5be c20b 4c3e a3ce 873e 9855 0b3e
00000390: b29b 4cbe 3134 95be 351e 95be c165 913e
000003a0: 97d3 d83d bf64 783e 4b16 1d3e eba4 843d
000003b0: 6f8b 073d 7654 55be 2f8b 74be 93fe 86be
000003c0: a085 243e ebc1 48be fa2f edbd 68fb 5ebe
000003d0: 95d2 b8bd 40be 83be 0231 42be 63d9 f53d
000003e0: 2a90 a1bd 9c5c 573e 063c f4bd c5dc 8abe
000003f0: 983e 05be b6a8 4fbe d567 febd 6ec6 a8be
0.27779412 0.30721113 -0.13408384 0.24839447 -0.10613927 0.025070807 -0.13502003 0.201531
0.294549 -0.21621323 0.31705394 0.086004004 0.15796725 -0.020811828 0.0946794 -0.10226119
0.26123524 0.06041323 -0.13401718 0.09421647 -0.16741683 -0.0070551233 -0.044811565 0.2555251
-0.22680841 -0.11823991 -0.1155171 -0.2034599 0.01703532 -0.3251402 0.32251692 -0.30190343
0.16837919 -0.0035539572 -0.15459222 0.14194246 0.07348432 0.27546456 0.054467984 -0.0798318
0.12599273 -0.0943641 0.06695546 0.23193018 0.13894 -0.18132317 0.19268492 0.06481859
0.16876616 -0.18456799 -0.35088244 -0.14613569 -0.3093251 0.22217518 0.07763677 0.11556021
0.11638653 0.0058567263 0.25870147 -0.21346526 0.017535957 -0.2648952 0.025700707 -0.15335688
0.06000542 -0.103962466 0.27482313 -0.1781265 -0.17937645 -0.17938817 0.3155162 0.13997275
0.26059094 -0.30922186 -0.35824823 -0.2909218 -0.19988768 0.13894697 0.12405279 0.2735807
-0.17753127 -0.26186958 0.11294159 -0.16665232 0.16724935 -0.10129657 0.19441143 -0.23578227
-0.14977005 0.10622423 0.11978457 -0.09542734 0.20148703 0.2304902 -0.22039664 -0.15718408
0.2767771 -0.11810564 -0.123487175 -0.31735912 -0.22549899 0.114659 0.032341987 -0.17027369
0.051999535 -0.17280708 -0.26601177 -0.16671306 -0.2691831 -0.19377042 0.3590061 0.069932334
0.03655232 -0.33412942 -0.24242991 -0.1428609 0.06962914 -0.26042035 -0.11845157 -0.17151296
-0.025509616 -0.1492524 -0.07074788 -0.25094625 -0.23833641 -0.20701206 -0.09865127 -0.2435355
0.27106598 -0.056842234 0.32327032 0.13234825 -0.20986614 0.27575445 -0.04084696 -0.07515944
-0.2586886 -0.30372852 0.10132895 -0.058224525 0.117621936 -0.2911516 0.15286726 -0.2846051
-0.101344064 0.01846321 0.18283606 0.2693125 0.30197525 -0.23683979 0.0996469 -0.15619455
-0.13555604 -0.3017621 0.23396473 -0.2877508 0.18849373 0.124702446 0.116230465 -0.15749688
0.324299 0.064216256 -0.008319601 -0.32119837 0.09402832 -0.088753104 -0.12382627 0.2897125
0.08852759 -0.15693606 -0.18709625 0.012605683 0.2196868 -0.08526975 -0.183427 -0.11327372
-0.22810005 0.12005518 0.25192076 -0.29056236 0.07150163 0.21037379 -0.01174864 -0.16973642
0.11152219 0.112682216 0.1352028 -0.043537896 -0.071789 0.045778874 -0.081196725 -0.11479257
0.12167164 0.21931998 -0.060633007 -0.10083081 0.018650614 -0.012179301 0.08248928 0.09508147
-0.30769747 -0.14362858 0.24646121 0.108617626 -0.026295992 -0.20377624 -0.16239466 -0.25797352
-0.078025796 0.1318433 0.24469094 0.19622537 -0.36399087 -0.25805423 -0.11280442 0.24477232
0.05621728 -0.074583106 0.13810284 -0.11317081 -0.24410829 0.25186756 -0.19879459 -0.09920692
-0.32387197 0.1992636 0.2652484 0.1360687 -0.19981268 -0.2914138 -0.2912461 0.28397945
0.105872326 0.24257182 0.15340535 0.06476768 0.03309196 -0.20833 -0.2388122 -0.263661
0.16066599 -0.19605224 -0.115814164 -0.21775591 -0.0902454 -0.25731087 -0.18964007 0.12004354
-0.07888825 0.21031421 -0.11925511 -0.2712156 -0.13012159 -0.20279202 -0.12422148 -0.3296389

model.net.0.bias f4 [128]
00000000: 7423 5abe 7cf3 85bd ee20 30bd b0d2 1fbe
00000010: c3ce 66be c44a 653e 2533 653e 0f81 8dbe
00000020: 872e e23d ae26 f03d 14b1 9d3e 3493 4d3e
00000030: d0e0 973e 4fcd bdbd 2409 713e e597 8a3e
00000040: 56aa 8fbe 649c 7cbe c38d 9b3d c06f 373e
00000050: 003a 07be ef74 2c3d efaf a53c 41b3 e53d
00000060: 218c 1ebe b41d 413e e893 633e c278 46be
00000070: 19c3 203c 634f 833b 09ca d63d 5e9c 9b3e
00000080: fbd7 c73d 59e1 5cbd 6d21 a23e 62a1 ecbd
00000090: 7569 95bd 8a65 193d 9ed9 70be 962a 413d
000000a0: f762 3cbe ae72 243d 9c93 8e3c 62ed 523d
000000b0: c7c9 81be c9df 8fbe bccc 233e 1491 923e
000000c0: 7e46 8cbe 79bc f83d f7c1 68be 8de7 083d
000000d0: 4243 9b3e 2303 743e 4abe 5fbe e4ba 4d3e
000000e0: 3be0 1c3e 9864 293c ce14 a13e 1adc e7bd
000000f0: dc18 5fbd f2c7 20be a9b5 4e3d 2e00 de3d
00000100: 18b8 2d3d 5446 24be 9745 04be 3511 d03d
00000110: 8db4 76be 1f44 1abd 7ec4 923b 4fa2 01be
00000120: 3368 fd3d ba11 113d a65a 6b3e 84af b4bc
00000130: 7b16 42be 4f5f 693e b9fc 413d 4d7e 9cbd
00000140: ba80 4bbe 1e93 b33d 4da6 90be 7ebb ab3d
00000150: 35a4 293e e24a 8dbe 8989 43be d974 5ebe
00000160: 0127 913e 7af8 883e 4565 2b3d 3dba 9b3e
00000170: 756e c3bd a89d 92be adac 093e 00ca ff3d
00000180: fb2a a63e cbb5 d93b a3b4 7d3e 7578 3b3e
00000190: bac4 6f3e 2f98 98be 50db 8e3e 501a 91be
000001a0: 9482 973e 6133 973b 156f 89be d5a9 dc3d
000001b0: 51a4 80bd b93b 8fbe 4cb2 d5bd 5e69 393d
000001c0: 03a4 803e ccc4 92bd 84a9 3e3e d86c 3a3d
000001d0: 212b ba3c 7545 953d b634 59be 2276 77be
000001e0: cf4d b7bd a8d7 90be 75d0 08be ce55 a43c
000001f0: 5bbf 47be d228 eabd 8bc8 2abd e260 ebbc
-0.21302587 -0.065405816 -0.043000154 -0.15607715 -0.22539811 0.22391802 0.22382791 -0.27637526
0.11044031 0.117261276 0.30799162 0.20075685 0.29663706 -0.09267675 0.23538643 0.2706901
-0.28059644 -0.24669033 0.07595398 0.17913723 -0.13205719 0.042103704 0.020225493 0.112158306
-0.15483142 0.18858987 0.2222439 -0.19382003 0.00981214 0.0040072664 0.10487754 0.30392736
0.09757992 -0.053925846 0.31666127 -0.11554219 -0.07295505 0.03745035 -0.23520514 0.047159754
-0.18397127 0.04014843 0.01740437 0.051495917 -0.25349256 -0.28100422 0.15996069 0.2862631
-0.2739753 0.12145323 -0.22730242 0.03342395 0.3032475 0.23829322 -0.21849933 0.20090824
0.15319912 0.010338925 0.31461185 -0.11321278 -0.054467067 -0.15701273 0.050466213 0.10839878
0.042411894 -0.16042453 -0.12917171 0.10159532 -0.24092312 -0.03766262 0.00447899 -0.12659572
0.1237339 0.035417296 0.22983798 -0.022056349 -0.18953888 0.22790264 0.047360156 -0.076412775
-0.19873324 0.08768295 -0.28251877 0.08385371 0.16566546 -0.27596194 -0.19095434 -0.21724261
0.2835007 0.26752073 0.041844625 0.30415526 -0.095425524 -0.28635907 0.13444777 0.124897
0.32454666 0.006643986 0.24775939 0.1830767 0.23414889 -0.29803607 0.27901697 -0.28340387
0.2959181 0.004614279 -0.2684256 0.107745804 -0.06281341 -0.27975252 -0.10434398 0.0452665
0.2512513 -0.07166442 0.18619353 0.045513958 0.022725644 0.072886385 -0.21211514 -0.24166158
-0.08950388 -0.28289533 -0.1336077 0.020060446 -0.1950659 -0.11433567 -0.04169516 -0.02873272

model.net.2.weight f4 [128, 128]
00000000: 645e b6bd c8dd 02bd 41f5 a6bc 2f55 2fbc
00000010: d643 12bd 6ed4 8dbc f315 f6bc a9b9 29bd
00000020: 8f55 fabc c6cc b7bc ffcc 7abc 15a6 7fbb
00000030: e380 f73c 63fc 323d 94f1 38b9 8ab2 7ebd
00000040: 3ee6 4fba 543c 83bd 2b9a 14bd bf47 6abc
00000050: 1e49 18bd 12e9 99bd cf9f cf3d 663f 2c3d
00000060: 8037 5fbc 3281 ce3d fec3 f7bd 5316 c5bb
00000070: 20ab 8e3d e1e7 4c3d 5ea6 c5bd 08ea 8e3c
00000080: c130 80bd ea3c 43bd b40d 79ba f1aa c4bd
00000090: ff9a b4bd 495a bcbd b64b 9b3c da74 1e3d
000000a0: 9b8f b7bd 56d8 1ebd be69 fcbb 1e15 f3bd
000000b0: bc90 203d 90df a53d 429d aa3c ecbb d9bd
000000c0: 08a3 2d3c 7bbc a73c 04a9 6f3d 24cc 1cbd
000000d0: 38ea 8abd 099b 98b8 9574 fb3c 2d58 74bc
000000e0: 9dd7 52bd f1bb 03bd a61f 4d3d a861 49bd
000000f0: 3893 b63d a9da 1a3d 49d7 0d3d e548 1e3c
00000100: 3629 9dbc f98d 9c3c 8b4b 4bbd d288 b93c
00000110: 6535 ddbc 0362 083d fb46 1fbd 0537 32bd
00000120: e5ea 97bc 6242 163c ce75 adbd ce83 99bd
00000130: c9e9 22bc 322a 90bd 2e6a 213d 36e4 703d
00000140: f10b 7e3c 37f1 d23d 031c 92bd d2c8 a9bd
00000150: ba39 15bd 2838 6dbd 94d6 a2bd dbf2 a8bd
00000160: 5ecb cabd 9222 1e3c 4695 c63c 47d0 da3d
00000170: b7ed c63d 9e45 2ebd 33bd 953c 1ff5 00bd
00000180: 66e4 7a3d 5c67 b8bd c768 be3c 35c2 d83b
00000190: 5751 06bc 2ffc ab3b ffd2 2fbc 3a31 4e3d
000001a0: cda2 8b3d 1093 df3c 53cc 113d 2fa4 bf3c
000001b0: 189c b53d 95c0 123c 4443 c93d 8649 0e39
000001c0: 260e 9a3d e1c7 0f3d 8ce1 073c ea22 e33d
000001d0: aca6 8f3b d6d2 aebc f4ce d3bc e804 403c
000001e0: 00b0 133d 5b2a 88bd 9c97 ca3d 034f 0e3d
000001f0: b87c 84bd 77f6 47bb 4b85 eabc eddf 40bd
00000200: 656f e63c 6e3d 04bb 6c22 6ebd 4390 d9bc
00000210: fdba 9bbc c611 463d 5abb 9eba 4bcb d13d
00000220: ac60 a0bc 73bc 6c3c 8a58 c33c 7e43 973c
00000230: fda8 b1bd 66f5 86bd e04d a1bc 5f9d 063c
00000240: 69e1 263d 4afa 833c 5cc6 ca3d 8720 f33b
00000250: f4ac 51bd 2433 11bd a0d3 98bd 582e 85bd
00000260: 574d b83b 6818 043d cdd3 783d 164a 49bd
00000270: 66cc 28bd 1f03 32bd 3dfd d9bc e522 4b3d
00000280: f314 6dbc d855 f93c 48cb 9c3c bc57 6a3d
00000290: 4f29 40bd b297 d2bc 9470 3c3b 1643 2bbd
000002a0: 4df7 52bd bbbe 823c fa0a 4bbc c49f 2c3b
000002b0: a13f 5ebd b959 43bd 1941 89bd 53c8 013d
000002c0: 0bb7 5b3c 8c56 983d f4c8 ddbb ff6c 22bc
000002d0: d775 1f3d 0c3b 963c e730 6ebd 408d 823d
000002e0: 4b07 843b 5986 c7bd 5d93 d43c 6c0e 0ebd
000002f0: e61e ebbc 67a1 42bd be34 b5bd ad24 563d
00000300: 70c1 f4bd ceec 123d f22d e3bd abab aebc
00000310: 7ed7 16bc a6f6 ae3d e6cf 91bc 267f 9f3c
00000320: 47da c03b da7f 283d ad6e df3c d2f8 693d
00000330: 278e a1bd 9061 1ebd a401 aa3d cef3 a0bd
00000340: 1926 333c 3abf 1bbc ed10 db3d fdf0 aebc
00000350: d85c 8bbd 6c15 58bc 1e69 373c a4c0 793d
00000360: deeb ca3d e284 1ebd f743 cd3c e121 bfbd
00000370: 63c4 e33b 41f2 113d 6fd2 0a3d 9f3a c8bd
00000380: 7f02 36bd b90c 163d fcc0 89bd b537 93bd
00000390: 5788 c9bd 84bf ffbc be7d 1a3c 63e7 633c
000003a0: 8cb2 893b f3b1 ca3c af0e aebd 01c7 ee3b
000003b0: 688b 77bd 1e67 9fbc 142d 7d3d 7239 babd
000003c0: 3a43 a43b 4e4a c0bd e032 dbbb 05f8 10bd
000003d0: 67ee 6b3c 2c44 2abd e478 b03d eef5 abbd
000003e0: c200 233d 12c7 6dbd 6fc5 e93c dc97 a6bc
000003f0: 2d91 65bc 41a8 5fbd 65dc 5b3d 6688 393d
-0.08904722 -0.03194979 -0.020380618 -0.010701462 -0.035709225 -0.017313208 -0.030039763 -0.041436825
-0.030558376 -0.02243651 -0.015307664 -0.0039008905 0.030212825 0.043697726 -0.00017637602 -0.062181987
-0.0007930732 -0.06407991 -0.03627984 -0.014299332 -0.037179105 -0.07515158 0.10137903 0.04205265
-0.013624072 0.10083236 -0.120979294 -0.006014624 0.06966233 0.050025824 -0.09650873 0.01744558
-0.06259299 -0.047665514 -0.0009500638 -0.09602917 -0.08818626 -0.09196908 0.018957 0.038685657
-0.089629374 -0.038780533 -0.007703035 -0.11869262 0.03920053 0.08099282 0.02082694 -0.106315464
0.010597952 0.020475617 0.058510795 -0.03828062 -0.06782955 -7.276802e-05 0.03069524 -0.014913601
-0.051475156 -0.032161657 0.05007901 -0.049165398 0.089147985 0.037806187 0.03462914 0.009660934
-0.01918469 0.019110667 -0.04963259 0.022648249 -0.027003 0.033296596 -0.03888605 -0.043509502
-0.018544624 0.0091711 -0.08469735 -0.07495843 -0.009943434 -0.07039298 0.0394079 0.05881139
0.015505777 0.10299914 -0.07134249 -0.082902566 -0.036432005 -0.057914883 -0.07951084 -0.08249446
-0.099020705 0.009651797 0.024241101 0.10684257 0.09713309 -0.04254686 0.018278694 -0.031483766
0.061252974 -0.09004089 0.023243321 0.006614948 -0.008198104 0.0052485685 -0.010731458 0.050339915
0.06818161 0.027291805 0.03559525 0.023393719 0.08867663 0.008957048 0.09827283 0.00013569565
0.0752223 0.03510273 0.008293521 0.11090644 0.0043838825 -0.021340769 -0.025855519 0.01171992
0.03605652 -0.06648704 0.098921984 0.03474332 -0.06469101 -0.0030511895 -0.028628012 -0.047088552
0.028129289 -0.0020178217 -0.058138296 -0.026558047 -0.019010061 0.048356794 -0.0012110278 0.10243853
-0.019577347 0.014449227 0.02384593 0.0184648 -0.0867481 -0.06589775 -0.019690454 0.008216231
0.04074231 0.016110558 0.09901115 0.007419649 -0.05119033 -0.035449162 -0.07462239 -0.0650298
0.005624454 0.032249838 0.060748864 -0.04914292 -0.041210555 -0.043460008 -0.026610011 0.049593825
-0.014470327 0.030436441 0.0191399 0.057212576 -0.046914395 -0.0257071 0.0028753625 -0.041812025
-0.051505376 0.015960088 -0.012392754 0.0026340345 -0.0542599 -0.047692988 -0.067018695 0.031685185
0.01341034 0.074383825 -0.0067683402 -0.009913682 0.03893074 0.018338703 -0.058152106 0.063745975
0.0040291897 -0.09742422 0.025949175 -0.034681723 -0.028701257 -0.047517207 -0.088479504 0.05228107
-0.11950958 0.035870366 -0.11092748 -0.021322092 -0.009206651 0.08543138 -0.017799329 0.019469809
0.0058853957 0.041137554 0.027274454 0.05712206 -0.078884415 -0.03866726 0.08301094 -0.07859002
0.010934376 -0.009506041 0.10696588 -0.021355147 -0.06804818 -0.013188701 0.0111944955 0.060974732
0.09908269 -0.038700946 0.025056822 -0.09332634 0.0069509014 0.035631422 0.03389209 -0.09776806
-0.044435974 0.036633227 -0.06726262 -0.0718836 -0.09840458 -0.031219251 0.009429393 0.013910147
0.0042021926 0.024743056 -0.084988944 0.0072869067 -0.060435683 -0.01945835 0.061810568 -0.09092988
0.005012897 -0.093891725 -0.0066894144 -0.03539278 0.014400101 -0.04156892 0.08616808 -0.08396517
0.039795645 -0.058051176 0.028536526 -0.020336084 -0.014011663 -0.05460382 0.05367698 0.045296095

model.net.2.bias f4 [128]
00000000: f38e 813a 0ac6 fcbc d571 74bd e63f 49bd
00000010: 5a9e 38bd ed8b c13d b55f 1c3b 7b66 33bd
00000020: 5563 933b 3923 01bc f53b d83c 79a4 193d
00000030: fdb9 813d 8ba1 19bd 0e2e afbc 0e50 86bd
00000040: 01c2 c7bc 6e9d 98bd fb07 d6ba 596e 13bd
00000050: 98c0 c8bc a2cd bf3d 6f7e b03d b7e1 bb3c
00000060: 08cf 533d 5da3 6a3d 9d4e 153c c47e c93c
00000070: 02c3 97ba 35b1 88bd 11b6 9b3d 41b7 69bd
00000080: b077 84bc 360f 8bbd b3af 44bd a599 c03d
00000090: 8274 e3bb e6e6 eb3c dd3a e03c 727e 983d
000000a0: b0b8 d63c 8003 c0b9 66cc fbbc e97f c83c
000000b0: e65b d13c f05d 52bd a2ed 5bbd c106 1abd
000000c0: c6bc a33d 9278 3b3d 5056 513d a16d 933d
000000d0: 51b5 b23b 81d3 51bd fd75 bc3d 899d 9e3c
000000e0: 7c6b efbc 0168 363d a970 80bd 8cd4 503c
000000f0: f731 b73d f050 073d fe6a 9fbd f6d5 b23d
00000100: 201c d83c fb09 99bc 6cf3 923d 46c9 1e3d
00000110: 64e6 6b3d b8f2 4c3d ddd4 22bd c9d3 5ebd
00000120: e4ec 883d 951d c7bb b728 933d b4c0 5f3d
00000130: 1737 a4bd 3bb9 5e3d 4606 4f3d 3e9a a2bd
00000140: 763e 203c 2f75 75bd 7c27 523d 146b 713d
00000150: f424 0d3d 4b67 783d 2a62 45bd 820c 6e3a
00000160: d352 6abc a679 913d 5d79 963d a885 02bd
00000170: 3c5f 88bd 3c23 9a3b fcb9 9f3d a514 c1bc
00000180: 1d3e 253d b6c5 65bd 0cdc 5dbd 045b 90bd
00000190: 54fc 8cbd 6730 0bbd d667 e7bc 0916 1d3d
000001a0: 8450 a83d d3ab c03c 68f0 293d e069 34bd
000001b0: 53f4 e8bc 38e9 9bbd 4e65 af3d 810f 6a3c
000001c0: 9e38 84bc b206 91bd 15be a23c e75f a4bd
000001d0: 8aaa 883d 9790 9bbd 0634 a53c dac2 763d
000001e0: b661 86bd 7a7d 8a3d d166 a23d 0991 8b3d
000001f0: 6a8d 9e3d e9fb 08bd 55c3 41bc 026e b03d
0.0009884521 -0.030856151 -0.05967887 -0.049133204 -0.04507289 0.09450517 0.0023860757 -0.043798905
0.0044979253 -0.007881933 0.026395777 0.03751037 0.063343026 -0.037507575 -0.021384265 -0.06558238
-0.0243845 -0.07451902 -0.0016329283 -0.035993908 -0.024505898 0.09365393 0.08617865 0.022934778
0.051711112 0.0572847 0.009112981 0.02459658 -0.0011578503 -0.066744246 0.07603086 -0.05705953
-0.016170353 -0.06790011 -0.048019122 0.09404305 -0.006941379 0.028796624 0.027371818 0.074459925
0.026211113 -0.000366237 -0.030737113 0.024475055 0.025556516 -0.051359117 -0.05369342 -0.037604097
0.0799499 0.04576928 0.051107705 0.071986444 0.0054537435 -0.051227096 0.09202192 0.019362228
-0.029226057 0.04453278 -0.06271488 0.012745988 0.08945077 0.033036172 -0.07784079 0.08732216
0.026380599 -0.018681517 0.07175335 0.038766168 0.057592764 0.050036162 -0.039753783 -0.054401193
0.06685808 -0.0060765245 0.071855 0.054627135 -0.0801832 0.05437587 0.050543092 -0.079395756
0.009780517 -0.059926208 0.051307186 0.05894001 0.03445907 0.060645383 -0.04818932 0.00090808433
-0.014301973 0.07103281 0.07347367 -0.031865746 -0.066587895 0.0047039073 0.077991456 -0.023569414
0.04034244 -0.056096755 -0.05416493 -0.0704861 -0.06884065 -0.033981707 -0.028247755 0.038351092
0.08218482 0.023519432 0.041489035 -0.044046283 -0.028436815 -0.07612842 0.08564244 0.014285923
-0.016140278 -0.07081355 0.019866029 -0.080261044 0.06673153 -0.07595938 0.020166408 0.06024442
-0.06561606 0.06762214 0.07929767 0.06814773 0.07741816 -0.033443365 -0.011826356 0.08614732

model.net.4.weight f4 [128, 128]
00000000: 0280 85ba cc3d 49bd de95 763d 56e6 48bd
00000010: a0c2 41bd 3770 b83c b70c cf3d 3525 99bd
00000020: 733b 853c 7419 87bc cab7 27bc f474 4a3d
00000030: 6070 9b3c 5e4c d2bd baa0 4c3c b6eb 913c
00000040: 1464 b2bc 55b4 9e3d d764 e4bd cf31 b4bb
00000050: d82c 4f3d d1d7 333d ba4d 393d 121b babc
00000060: 390f 31bb 182f 8a3d 4dd7 05bd 8c20 8c3d
00000070: 6c0f c23d 844b dabd 4276 c43d 8583 64bc
00000080: 5b4c 19bd 8212 9bbd 05ca 32bd 82d6 da3d
00000090: 27d1 263d b4a2 e4bb 2ca0 d6bc a6b1 28bd
000000a0: 76b9 fcbc 4b69 5e3b bf47 96bd ecf0 f7bd
000000b0: 6d60 04bd e24c 423d ba95 fc3c 89db 253d
000000c0: 1569 b63d 26ef 523d 8c4b 02bd 00e3 793d
000000d0: 6d02 16bd e639 7a3d 965d 83bd cc34 2ebd
000000e0: d094 31bc e2e4 bebc ec5d 14bd 4194 04bd
000000f0: e54d 35bc 58af 0e3c 18b5 92bd 80a1 86bd
00000100: 9c85 c1bd 4c4d ffbd e4b2 c7bd b918 873d
00000110: 35c2 923d d59f 6f3d a704 b93d 4ccf 29ba
00000120: bf3e 4abd ac0a 42bd f6dc 6fbd 686b b53c
00000130: 110c 5c3c c735 e7bd 3887 073d 656e 81bd
00000140: c5ec 183d 0d94 ccbb f4cd b03c 5a4e 0bbd
00000150: 1780 b53a c5aa 5c3b be32 503b 622d b9bd
00000160: 73fd 88bd 0856 a2bd 76ec 18bd d19a 81bd
00000170: 61ac a1bd 998e e43d 0443 f3bd 009a 83bd
00000180: ede2 823c 21c1 61bd 1843 5cbd 4d6d db3c
00000190: 1915 1bbb a094 e7bc 44a0 ec3d 4e25 57bd
000001a0: 8b6a a93c bce1 963d dcb1 70bc ddee dcbd
000001b0: 6f26 ae3d be62 8cbd 9437 9cbd 5535 f9bc
000001c0: e9e3 e13c 8b6e a43d 7939 b7bd 21c1 96bd
000001d0: a84c 1e3d b1ed c23d fbaf 493c 6dc4 4bbd
000001e0: a91c 8b3d 1b19 0dbd 2866 b9bd a691 8e3d
000001f0: b1a0 8cbd 8105 fb3a 3139 09bd 669c b53d
00000200: 5410 7f3c 4d2b 5bbd c4d4 053d 276a 7c3d
00000210: 00ee dbbc a908 483d 18d1 81bb b784 85bd
00000220: bbec eebc 462e d3bd f931 bf3d a0cf f03c
00000230: 2cfd 44bd bca2 69bd b773 6a3d de43 a3bc
00000240: 78be 36bd 60f1 9e3c f119 7cbd 9577 c1bc
00000250: f08f 26bd 1e8c c7bc c24f 24bd cd0b 87bd
00000260: 6eab a03c ca9c 6a3d 03ee b1bc cb99 ab3c
00000270: 79f6 75bc 2b79 a9bc 5540 67bd e2ed e0bd
00000280: b8e1 9dbd 98d4 36bd e1e1 a83d ed13 85bd
00000290: 2fc1 993d b8bb 673d 509c 8f3d 3669 7b3d
000002a0: 8acf c63c 344b a93d 91fa 713d d81b 6abd
000002b0: dd05 5b3d 52b1 623c 57f2 6dbd 6263 723c
000002c0: bbea d43d 7d72 a13d d4b1 f0bc d4d9 373c
000002d0: c7c4 12ba 1751 a03c 45c0 d9bd 162d e83c
000002e0: 7279 5abc a455 e23d 80a1 153b aa3a 78bd
000002f0: 8a38 45bd b219 c23d daaf 13bd 2d67 e93c
00000300: 4e9f 743d d571 ecbd 194b f23c 40d2 c1bd
00000310: d622 9dbb 40f6 4e3d abba cd3c ca65 173d
00000320: 7a7a 24bd 4d11 c53c a3e7 72bd dcd7 a63c
00000330: dbbd c0bb 0faf b23d 4521 733c a471 e83c
00000340: d271 a9bd 1e14 1fbc f03a a03d fd58 babd
00000350: 2811 b83d d844 f13c 0c90 ddbc edae b2bd
00000360: 2b61 803d 6231 d7bc f000 233d 3672 5c3c
00000370: 1b55 c13d 46a6 3cbd 7ec8 843b 0f51 b13c
00000380: c1ef cdbc 1561 12bd 80ef 75bc 5067 da3d
00000390: 38bd 343d 2b34 9bbd 2db1 403c 7423 183d
000003a0: 8b58 6b3d 92a1 d23d dd39 46bd 8c5e debc
000003b0: b95b 623d bd63 953d b10a 22bd 258e 143d
000003c0: 27c4 933c ffd7 a13d 9b49 cebc 263b fcba
000003d0: 76ed 1f3c 6935 29bb dab0 32bd d0bb b83d
000003e0: 8f98 0ebd 1228 863d 0dfb 0dbd 5d0d 8fbd
000003f0: 832d 4dbd d3a5 d0bb 4515 9f3d 56ea 7b3c
-0.0010185244 -0.0491312 0.06020152 -0.04904779 -0.04730475 0.022514446 0.10109847 -0.074778
0.0162637 -0.01649163 -0.01023669 0.04942794 0.018974483 -0.10268472 0.012489492 0.017812591
-0.021776237 0.07749239 -0.11152046 -0.0054991017 0.050579876 0.04390699 0.04524014 -0.022717986
-0.002701713 0.06747264 -0.03267603 0.06842145 0.09475598 -0.10658935 0.095928684 -0.013947372
-0.037426334 -0.075718895 -0.043649692 0.10685445 0.040726807 -0.0069774035 -0.026199423 -0.041185044
-0.030850153 0.0033937271 -0.07337903 -0.12106499 -0.03231852 0.047436602 0.030833114 0.04049257
0.089067616 0.0514976 -0.03181033 0.0610075 -0.036623407 0.061090373 -0.064143345 -0.04253082
-0.010838702 -0.0233025 -0.036222383 -0.03236795 -0.011065935 0.008708797 -0.07163447 -0.065737724
-0.09449312 -0.12465915 -0.097509176 0.06596512 0.07165948 0.058502037 0.090340905 -0.0006477728
-0.049376246 -0.04737346 -0.058560334 0.022145942 0.013430611 -0.11289554 0.03308794 -0.06319884
0.037335176 -0.006243235 0.021582581 -0.03401027 0.0013847378 0.0033671123 0.0031768526 -0.09041859
-0.066889666 -0.079265654 -0.03733488 -0.06328357 -0.07894207 0.11160011 -0.118780166 -0.064258575
0.015977347 -0.055115823 -0.053774923 0.026785517 -0.0023663698 -0.028269112 0.11554006 -0.05252581
0.020680686 0.07367274 -0.0146908425 -0.10787747 0.085034244 -0.06854771 -0.07627788 -0.030420939
0.027574496 0.08028897 -0.08946509 -0.07361055 0.038647324 0.09517992 0.012310023 -0.049747873
0.06792576 -0.03444777 -0.09052688 0.06961374 -0.06866587 0.001915142 -0.033501808 0.08867721
0.015567858 -0.05350809 0.032673612 0.061624672 -0.026846886 0.048836384 -0.0039616935 -0.06519454
-0.029165616 -0.1031156 0.093357034 0.029395878 -0.048093006 -0.05703996 0.05723926 -0.019929823
-0.04461524 0.019402206 -0.061548177 -0.023616591 -0.040664613 -0.024358805 -0.040115125 -0.06594048
0.019612994 0.057278432 -0.021719938 0.020947358 -0.015012377 -0.02068766 -0.056457836 -0.109828725
-0.07709068 -0.04463634 0.08246208 -0.06497941 0.0750755 0.056575507 0.07012236 0.061379634
0.024268884 0.08266297 0.05907685 -0.05715546 0.05347239 0.013836222 -0.05809244 0.0147942025
0.10396334 0.07883165 -0.02938167 0.011221368 -0.000559878 0.019569917 -0.10632376 0.028341811
-0.013334619 0.11051491 0.0022831857 -0.06060282 -0.048149623 0.09477557 -0.036056377 0.02849158
0.059722237 -0.11545149 0.029576825 -0.0946393 -0.0047954125 0.05052781 0.025113424 0.036962308
-0.040155865 0.024056101 -0.059302937 0.020366602 -0.0058820075 0.08724796 0.014839475 0.0283745
-0.082736626 -0.009709386 0.078237414 -0.090990044 0.08987647 0.029451773 -0.027046226 -0.08724771
0.06268533 -0.026268665 0.039795816 0.013454964 0.09440061 -0.04605701 0.004052221 0.021645097
-0.025138738 -0.035737116 -0.0150107145 0.106642365 0.044125766 -0.075783096 0.011760992 0.037143186
0.057457488 0.10284723 -0.048395026 -0.027144693 0.055263255 0.07294414 -0.039560977 0.036268372
0.018037869 0.07902526 -0.025181582 -0.0019243702 0.009761205 -0.0025819188 -0.04362569 0.090201974
-0.03481346 0.065506116 -0.03466325 -0.06984971 -0.05009223 -0.006367424 0.07767729 0.015375694

model.net.4.bias f4 [128]
00000000: e4dc 08bd b0ac aa3d 2b66 013a ee3e c03d
00000010: 0aae c3bc e43a 843d ca3a b43b c757 eabc
00000020: 8b0f 933d a034 8abd 45fa e8ba c9df af3c
00000030: 9808 18bc b23b 24bd e6fa 8fbc cec9 713d
00000040: 7b8d fdba 04be efbc 8914 cfbc a162 70bd
00000050: 3d6b 733d ce45 97bd a158 12bd 8832 b33c
00000060: 46ee ae3d e4f7 8abd 2e8f 963c c6e0 6cbd
00000070: f44f 8b3d a4e7 933d 8aee 793d 1d64 15bd
00000080: b563 6dbd a93e 44bd 8852 edbc bd15 383d
00000090: 64fb 15bc 8b32 aa3d 8424 a2bd 6140 123c
000000a0: 8ffb 8dbd f9f7 a3bd 00da 68bd af0e 743c
000000b0: 8d36 a0bd 8643 bdbb 5a01 14bd e091 33bd
000000c0: bb18 aa3d 0aa8 e9bc 8ac1 a6bd 76fb 893d
000000d0: 3455 aabd d16f 07ba 82dd 78bd 755e 513d
000000e0: df8e 163d 294d 1fbc c01b 9bbc e81b 73bd
000000f0: 45e8 7cbd e918 1a3d 552f 76bd 021d b9bc
00000100: e698 a03d e721 9fbd 6fe5 3d3a 30ea b3bc
00000110: 2503 393d 5fa9 cdbc 35f2 9b3d 14e2 013d
00000120: e7d1 4ebd e8e2 b63c b39d 743b 7fc1 263b
00000130: cace 34bd f1e6 463d 1206 8e3c a94e 18bb
00000140: 7dd0 18bd d83f b63d 6a21 8ebd 201a 213d
00000150: e258 9bbd edfb 8cbd ca47 1b3d 78be b03c
00000160: 6556 63bc 4f39 373d e991 73ba 2273 0a3d
00000170: 8555 8abd d9bd 353d 8249 87bc 21f4 813d
00000180: 9a40 93bd e968 903c b052 b2bc 18b6 263d
00000190: 9250 73bd 8857 8cbd 668b fd3c 1c9c 763b
000001a0: 6a7a 6bbd 63af 6ebd 5343 8bbd 23c0 c33c
000001b0: 7d94 303d 056a 1fbd 9a76 7c3d 366a 653d
000001c0: f09b 973c 5dec 4ebd 1e58 79bd 8386 ebbc
000001d0: 0dd8 40bd e610 cb3c 82e2 863d 406b ac3d
000001e0: 5107 2abd c992 19bd 344c 853c 233d 76bc
000001f0: ad2c 713d 2282 99bd ca72 4b3d a38a ec3b
-0.033413783 0.08333719 0.00049361837 0.09387003 -0.0238867 0.06456545 0.0055001723 -0.028606309
0.07180699 -0.06748319 -0.0017774781 0.021469014 -0.009279393 -0.040095992 -0.017575692 0.059030347
-0.0019344533 -0.029265411 -0.025278347 -0.05868781 0.059428442 -0.07386361 -0.035729054 0.021874681
0.08541541 -0.06785563 0.01837882 -0.05783155 0.06802359 0.07221916 0.061018504 -0.03647243
-0.057956416 -0.04791132 -0.028970018 0.044942606 -0.0091541745 0.083104216 -0.07917121 0.008926482
-0.069327466 -0.080062814 -0.056848526 0.014896079 -0.07822905 -0.0057758717 -0.0361341 -0.04384029
0.08305498 -0.02852251 -0.081423834 0.067374155 -0.083170325 -0.0005166503 -0.06075812 0.051115472
0.036757346 -0.009722986 -0.01893413 -0.059352785 -0.061744947 0.037621412 -0.060103733 -0.02259684
0.07841663 -0.07770138 0.0007243966 -0.021962255 0.045169014 -0.025105176 0.07614557 0.031709746
-0.050493147 0.022324994 0.0037325441 0.0025444923 -0.044142522 0.048560087 0.017336879 -0.0023240244
-0.037308205 0.08898896 -0.06939967 0.039331555 -0.075853124 -0.068839885 0.03791026 0.021575198
-0.0138755785 0.044732388 -0.00092914567 0.033801205 -0.06754593 0.044370506 -0.016514543 0.06345392
-0.07190056 0.01762815 -0.021767944 0.040701002 -0.05940301 -0.06852633 0.03095026 0.003762967
-0.05748979 -0.05827273 -0.067999505 0.023895329 0.04311036 -0.038919467 0.061636545 0.056009494
0.018506974 -0.050518382 -0.06087505 -0.028750664 -0.047081042 0.024788331 0.06586172 0.08418894
-0.041510884 -0.0374935 0.016271688 -0.015029225 0.058880497 -0.07495524 0.04967002 0.007218675

model.net.6.weight f4 [128, 128]
00000000: 2c35 d73c 9277 4fbd 6639 8a3d 29e0 613d
00000010: 49ec cfbd 536c c3bd 8ece db3c fac7 60bc
00000020: fd5e 303d 64d6 0e3d f8dd 013d 3518 ab3d
00000030: ed19 383c 362b 9bbc 09c6 633d 1c8e ebbc
00000040: b0e5 a43d 4149 2f3d 2825 e13d 32e6 1c3c
00000050: 7a47 3ebc 24f0 c1bd 1168 8abc 5207 aabc
00000060: f24a 80bc 0142 d1bd 6c32 f63b 05a6 bc3d
00000070: 0fc4 acbc c62d 97bc 99cd 16bc 30a6 8fbc
00000080: 538a 09bd c2f9 ca3d 2b23 6e3d bf8c a83c
00000090: 4ba4 57bc 2e6f c2bd b738 e83c b271 85bd
000000a0: 8af8 bcbd 2f25 8abd c5ec 12bd fa31 013d
000000b0: 81a7 503d 5d11 46b9 e953 52bd ee82 5d3d
000000c0: 52bd 91bd 84ad 9a3d 4a7a 71bd 8492 533d
000000d0: 2ff1 a3bd 6c92 c83d 0df7 e5bb eac7 37bd
000000e0: 3a1e b73c 5258 da3c 2d13 d8bd 25f2 2bbd
000000f0: 60e0 8d3c 59a1 763d 36fa 973d 7a84 913d
00000100: 3ac3 d83d f302 693b 33f3 ccbd d2e9 2c3d
00000110: 6d49 1fbd 2563 033c 96f3 97bd 7a19 513d
00000120: a934 08bd 8afc 1b3d 8e29 8e3c f81e 843d
00000130: c344 7c3d c19c 5a3d 72f3 69bd 4f69 8a3d
00000140: ce0f c33d a11d 6a3d b5f2 babd d9d9 5c3d
00000150: 2e78 f7bc 109e a83d 775c 00bd cdc3 36bd
00000160: 89fe 463d f77b e6bd 21b6 153d e610 8d3d
00000170: 32ca 60bd 7ef4 b2bd 2578 04be d401 cebd
00000180: fe4b dcbd b920 633d 58a0 4dbd d373 0dbd
00000190: ae17 a73d 9c99 5f3d 0695 95bd 37ba 403d
000001a0: f702 433d 2d97 a8bd 0e9e f33c e1c8 3fbd
000001b0: 8a98 dbbd 6af0 c1bd 0f70 9abd 1963 ae3d
000001c0: 928b 913d dc14 dfbd 97ca 8d3d 978a a2bd
000001d0: 3e28 bfbc 98aa 203d 61c9 cabc 0331 ed3c
000001e0: e9f7 eebd 278c 753c 0a56 06be 0e9a fc3d
000001f0: 7afe 813d 005b 04be 50a4 303a 4b6c 5a3d
00000200: 1cf1 92bd 99cc 0e3d d340 b4bc 262a 77bd
00000210: d89f 67bd ad32 41bd ffc5 a7bd b9a3 1bbb
00000220: ee1f b03d 7523 be3c ddc6 b33b 54fd 8dbd
00000230: 0004 593d 9464 c03d cd08 ee3a 1fa1 ea3d
00000240: 3648 a83d d324 373d 3104 85bd ef0f 65bd
00000250: 920c 0fbb 7065 c7bc b7e8 14bd 3501 e2bc
00000260: 7dc1 13bd 787b ebbc 83a5 81bd e080 51bd
00000270: 6d41 1f3d cb7f ad3d a2c8 cc3d cb94 ab3d
00000280: e399 88bd 625f 4ebc f4bc 91bc d18a e03c
00000290: fefa c03d 6a91 963d a9f2 a53d 70d2 d1bc
000002a0: 6b67 423d a31f 9fbd 3273 51bd 347a 993c
000002b0: 35d9 8a3d 1bb0 8d3d 4abb c1bd 30f9 493d
000002c0: 991d 53bc 8696 983c 15a8 3ebd 0231 12bd
000002d0: dd7d aebc 80dd cf3c 843b 003d e15c d1bc
000002e0: 1815 9abc 5bae 833d b858 d8bc 283f 49bd
000002f0: a1b7 0cbc b4c0 3f3d fe71 13bb 6278 7c3c
00000300: 4de7 b43d a426 833d 7559 0a3d c000 803d
00000310: 5ce9 fc3a e8cc 31bd 4a9c 5f3d 93f7 35bd
00000320: 3f19 cd3c a52a 773d 4d4d 933c 7bed a23b
00000330: 9f4d 8b3d 4575 853d ad49 a63d 5e4c 87bd
00000340: fe7c 003d f2fc 923c 3489 833d b785 c93d
00000350: e6f9 a5bd 4ab9 ac3d 94cf 043c 6ea8 17bd
00000360: 7453 a5bd 8abd 2a3d 7ea1 733d f203 8a3d
00000370: 72da a33d 8a39 30bd 7fdf e9bd 0bf1 593c
00000380: 818c 2cbb 2cad 86bd 138b dabd d70d 4e3d
00000390: 8128 c93c 42c7 553d 243d 3abd c390 45bd
000003a0: 2d2f 543c 22d9 9d3c df58 1e3d 56ab 473d
000003b0: 023e 5abd 0cfc 393c 8cb7 4abd 1fc6 a03d
000003c0: 899f 2b3d ac2c 003b 143b c1bb e7ad 533d
000003d0: f0c0 a6bd 3676 833c 2740 61bc d70d a7bc
000003e0: 13c4 1ebc e2e3 88bd bafc 213d 69f4 6a3d
000003f0: bf2a a53d c158 c73d 118b dc3a 22bf d23d
0.026270472 -0.05065114 0.06749229 0.055145416 -0.1015249 -0.095421456 0.026831891 -0.013719553
0.043059338 0.034872428 0.031705827 0.083542265 0.01123665 -0.018941503 0.055608783 -0.028754286
0.08051622 0.04279447 0.10993415 0.009576367 -0.011613721 -0.09469631 -0.016895326 -0.020755444
-0.015660737 -0.10217667 0.007513335 0.09211353 -0.021089582 -0.018454444 -0.009204292 -0.017535299
-0.033579182 0.09910919 0.058139008 0.020574925 -0.013161729 -0.09493862 0.028347356 -0.06515826
-0.092270926 -0.067453735 -0.035870332 0.031541802 0.050940994 -0.0001888922 -0.051349554 0.054079942
-0.07116188 0.07552627 -0.058954515 0.0516534 -0.080049865 0.09793553 -0.007017976 -0.044868387
0.02235328 0.026653443 -0.105505325 -0.041978974 0.017318904 0.060212467 0.07420771 0.07105346
0.105841115 0.0035554736 -0.10007324 0.042215176 -0.038888384 0.008019243 -0.07419507 0.051049687
-0.033253346 0.038082637 0.0173538 0.06451219 0.061589014 0.05337215 -0.057116933 0.06758367
0.09524499 0.057157163 -0.09128324 0.053918693 -0.030208673 0.08233273 -0.03133818 -0.044620324
0.048582587 -0.11254113 0.036550645 0.06887989 -0.05488033 -0.087380394 -0.12936457 -0.100589424
-0.10756682 0.05545113 -0.050201744 -0.034534287 0.081588134 0.054589853 -0.073038146 0.04705259
0.04761025 -0.082319595 0.029738452 -0.046822432 -0.10722454 -0.094696835 -0.07540905 0.08514995
0.07106699 -0.108926505 0.069234066 -0.0793659 -0.023334619 0.03922519 -0.024754228 0.028954035
-0.11668379 0.014987028 -0.13118759 0.12334071 0.06347366 -0.12925339 0.00067383517 0.053325932
-0.07174894 0.03486309 -0.022003567 -0.06034293 -0.056548923 -0.04716747 -0.08192062 -0.002374871
0.0859984 0.023210267 0.005486353 -0.06933084 0.05298233 0.09394184 0.0018160582 0.11456513
0.08216898 0.044712853 -0.0649494 -0.0559234 -0.002182756 -0.024340361 -0.036354747 -0.027588466
-0.036073197 -0.028745398 -0.06330397 -0.051148295 0.038880754 0.0847164 0.09999205 0.083779894
-0.066699766 -0.012595983 -0.017790295 0.027409943 0.09422873 0.07351954 0.081029244 -0.02561304
0.04746191 -0.07769706 -0.05113525 0.018735029 0.0677971 0.06918355 -0.09459551 0.04930991
-0.012885475 0.018626463 -0.046547014 -0.03569127 -0.02130025 0.025374174 0.03130676 -0.025556983
-0.018808886 0.0642974 -0.026409492 -0.049132496 -0.008588702 0.046814635 -0.0022498365 0.015409561
0.088331796 0.064038545 0.03377672 0.06250143 0.0019295621 -0.043408304 0.05459241 -0.04442556
0.025036452 0.060343403 0.017981196 0.0049721575 0.068019144 0.06516508 0.08119521 -0.06606363
0.0313692 0.01794288 0.06422654 0.09839957 -0.08104305 0.084337786 0.008106131 -0.03702586
-0.08072558 0.041684665 0.059480183 0.06739034 0.080006495 -0.043023624 -0.114195816 0.013302098
-0.0026328864 -0.06575999 -0.106710576 0.050306167 0.024555447 0.05219198 -0.045468464 -0.04823376
0.012950701 0.019268576 0.038658973 0.048747383 -0.05328179 0.011351597 -0.04949145 0.078502886
0.04190019 0.0019557877 -0.0058969352 0.051679518 -0.08142269 0.016047578 -0.013748205 -0.020392342
-0.009690302 -0.0668409 0.03954766 0.057361994 0.08064794 0.09733725 0.0016826113 0.10290362

model.net.6.bias f4 [128]
00000000: 4ae5 35bd 3648 acbd df92 c1bc d8b6 1b3c
00000010: 4035 fd3b 139c e03a ecc0 acbd 21a7 c4bc
00000020: 4822 46bd 0590 98bc 9a59 38bd 05a8 45bb
00000030: 52f6 7abc df44 a0bd fc2e 313d 06f4 ef3c
00000040: 6353 cf3c 3a69 0c3d 2bf6 79ba e641 a53c
00000050: 8433 aebd 4f13 743d 8730 953d 5d1b eabc
00000060: 7359 973d 28ad dabc 03f4 103d 9c53 f8bc
00000070: 415a 4ebd a045 1fbd 3cfc 7f3d 4139 e2bc
00000080: 2f06 8ebd 5a4f 423c 2b64 5fbd 5663 6abd
00000090: c2ac 4abd a4c5 54bd 7981 54bd 18e0 133d
000000a0: 9037 e8bc 7acc cd3c 9dc6 9e3d 90d4 cc3c
000000b0: 05f9 bc3d 6088 963d 7cb4 313c 81ec 2f3d
000000c0: cfed af3d 86a5 7cbd 43f2 5ebd 4fdd 853d
000000d0: f4cf 3b3d 70be ea3c f6df 8b3c af65 50bd
000000e0: 5821 143d 82ec 80bb 195f f33b d16a a73d
000000f0: 4924 383d 14a4 71b9 fa1a 89bc b1bf 57bd
00000100: 2a4e 1e3d 6f7a b23d 9e52 2cbd 8442 75bd
00000110: c0ed 733d ba57 97bd 4bd8 aa3d 1f33 2e3c
00000120: caf9 a53d 3684 0c3c c677 db3c 5c35 a4bd
00000130: dfe3 51bc 8ab2 8c3d 4ead 05bd a2a7 9d3d
00000140: 1a58 52bc 92ce 2cbd b6be 2bbd ddae 89bd
00000150: 8140 e93c dbb9 34bd 0fb4 1a3d f818 cabc
00000160: ae29 5a3d 0381 7e3d f26f 85bd d467 49bd
00000170: bd39 7c3d 7171 aebc a353 8ebd 5129 3abd
00000180: b44e a6bd a403 67bd 4b07 ae3b 1369 853d
00000190: 9818 8d3c 2c60 3b3c 61c5 2bbb a6c4 53bd
000001a0: 6d7a 3f3d 489b 823d 0bdf 063d 6f8c 9e3d
000001b0: d9c9 b73d 33cf 103c 0ae5 34bd 92ee 853d
000001c0: 4c42 1e3c a16f 81bc 710a 0ebc ff2a 4e3c
000001d0: c5d3 2cbd b5b3 543d e2a7 86bd 7b40 2b3c
000001e0: 6b75 b2bd b47a 1f3d 66fe 13bd 1927 03bc
000001f0: a8b3 913d 5ef3 783c 907e 003c 635e 0e3d
-0.04440812 -0.08412211 -0.023629604 0.009504043 0.007727295 0.0017136357 -0.084352344 -0.024005475
-0.048372537 -0.018623361 -0.045007326 -0.0030159962 -0.015317516 -0.07825636 0.0432577 0.029291164
0.025308317 0.03428004 -0.0009535278 0.020173024 -0.085059196 0.059588727 0.072846465 -0.028577501
0.07390108 -0.026693895 0.035388958 -0.030313306 -0.05037904 -0.03888476 0.06249641 -0.027615191
-0.06934773 0.011859739 -0.054538887 -0.05722364 -0.04948116 -0.051946297 -0.051881287 0.036102384
-0.028346807 0.025121916 0.07752726 0.025003701 0.09227184 0.0735023 0.0108462535 0.042950157
0.0859028 -0.061681293 -0.054430258 0.06536352 0.045852616 0.02865526 0.017074566 -0.050878223
0.03616461 -0.003934444 0.007427108 0.081746705 0.04495648 -0.00023044675 -0.016736496 -0.052673046
0.03864876 0.087147586 -0.042070977 -0.059877887 0.059552908 -0.073897794 0.08342036 0.010632305
0.08104284 0.008576443 0.02679051 -0.0801799 -0.012810676 0.06869991 -0.03263598 0.07697989
-0.012838388 -0.04218919 -0.041929923 -0.06722806 0.02847314 -0.044122558 0.037769374 -0.02467011
0.053262405 0.062134754 -0.065154925 -0.049171284 0.0615785 -0.021294327 -0.06949546 -0.04544956
-0.0812048 -0.056399956 0.005310928 0.06514182 0.017223641 0.011436503 -0.0026210176 -0.05170121
0.046747614 0.06377274 0.032927554 0.07741629 0.08974046 0.008838463 -0.04416374 0.06539644
0.009659361 -0.0158003 -0.008669482 0.012583493 -0.042194147 0.051929194 -0.0657499 0.010452385
-0.08713802 0.03893538 -0.036131285 -0.008004927 0.07114345 0.015194742 0.007842675 0.034757983

model.net.8.weight f4 [128, 128]
00000000: 1458 81bc 34dc 323d c93c 813a ee98 323d
00000010: 75a8 703d dcaf 1cbc ad7e 9d3d 284a ca3c
00000020: 32a9 6e3d d71c adbd a600 e7bd e7c3 b33c
00000030: 6b71 673c 9354 25bd 839e 62bc fc3d 0b3d
00000040: 92d6 793d 78e9 e93c 6b1f ca3d f979 7c3d
00000050: 117d c53c 2b24 1b3c a6ef bdbc 05b4 9fbd
00000060: 12f7 053d 655a dfba 04cd 78bd 713d 03bc
00000070: ac15 88bd af79 be3b 66c6 393d 4e21 583d
00000080: bea4 9bbd e2cb 043c 0c85 26bd 5f82 babd
00000090: e0e8 cf3c 7e37 853d a69b a03d c094 453d
000000a0: a6cb 2dbc 26e4 023d 0dd4 9d3c 8185 82bd
000000b0: 3ef2 b93d fbc1 8ebd 0b4a d93c 6a2a 32bd
000000c0: 5f4f 143d 3b98 473d f345 0dbc 66d1 08bd
000000d0: ebf7 203d 8bc4 edbd 07b3 3dbc 2119 b9bd
000000e0: b6d7 873b d331 fe3c 1509 5d3d 30fe 1dbd
000000f0: a517 1abd 2633 f8ba bb46 85bd 5a06 a0bd
00000100: d5a9 763d 491c b43c cdff 79bd 687e b7bd
00000110: 31fd d63b da99 04bd 0f57 34bd 2057 cb3d
00000120: 18e0 e43c a9ba 9f3d d9ef 4ebc c04b 18bc
00000130: 7023 48bd 6943 1b3d 7ecf 52bd 5055 e1ba
00000140: 741d eebc bd96 103d 2afd c53c 02b6 d0bd
00000150: 7424 1f3c 873f 963d cce1 4fbc b735 733d
00000160: a5b1 a9bc 7d38 6cbd 4035 4a3d b575 09bd
00000170: d713 0a3d 8e39 993d 4d85 5dbd da31 a5bd
00000180: 9e76 9bbc a6ef 7bbd 1cee 9e3d 8d25 573d
00000190: 9f27 c03d f439 9abd 4bb8 4abc 543e 803c
000001a0: 7d07 58bd 166b 30bd 5910 523d bd51 243c
000001b0: 24f7 943d 1650 95bc e29b 293d eff1 4c3c
000001c0: 02e8 84bd f018 86bd 42de edbc 24fa 2abd
000001d0: d133 0b3c f21c 8abd 6ffd aebd 4705 6bbd
000001e0: cf6e 9cbd 414e 52bc a5fd b6bd 46b4 a6bc
000001f0: ebfd 90bd 5a58 c8bd 6f09 7d3d 659c 893d
00000200: 11c9 90bd 3091 623b 39fe d9bd aca0 73bd
00000210: e89b cdbd 5860 49bd 1cad b73d 8a0a d83c
00000220: c6fd 373d 147d b0bd 55c9 d3ba 2716 483d
00000230: fff8 e33c 0dbc 42bc 2a63 2abd 89ad 543d
00000240: d969 933d 26fc f8ba 3c38 bf3d ffba 87bc
00000250: 9299 d13c b3f6 653d a659 ddbc ea29 8a3c
00000260: 3917 c6bc 9f81 9cbd fe25 7cbc ed21 fa3c
00000270: c8dc 6bbc a73b 003d 02f1 14bd f72c 963d
00000280: 924f b7bd ff98 713c df30 cb3b 463b 283d
00000290: 6476 33bd 7ec1 10ba 2812 89bd ffab 09bb
000002a0: 9b93 0cbd f22e 843d 660d 5b3d dc8b 733d
000002b0: e846 41bd dfb1 2b3d 009c bbbc 52ff b83c
000002c0: 3167 253d d90b b8bd 1b9a bcbd 063e 953c
000002d0: fdaa c53b 5c32 c4bd 304e 773c ab14 653d
000002e0: 0bae 00bd 7a6a e5bd f4b1 a73c 2e78 56bd
000002f0: dacb e7bc fee6 1abd 06e6 0b3d baa5 0838
00000300: b92c a1bd b063 ccbd b64b 46bd 393f b6bd
00000310: 86aa 833b 1765 65bd edef 1cbd e53e cabd
00000320: 54f2 3e3d 412d 71bd 2da2 77bd fc0c 4f3d
00000330: b88d 413b 39c6 1fbd 64cb 6b3b bd65 22bd
00000340: 09a1 d13c 4e5e 2cbd bd9d 1a3d 2120 72bc
00000350: 868a 23bd d628 0bbd 13e3 6e3c d13f c4bc
00000360: ec0c 5f3d 2a4b 5e3d 0459 a3bd 8ff4 79bd
00000370: 437d 0cbd 7b07 a33d ab71 c3ba 5ec5 263d
00000380: 46a9 9c3c 9117 03bc c337 aabd f7fd bfba
00000390: 733e acbd 9f03 a7bd 9b3b f73c b1d4 81bd
000003a0: 401b 10bd 17fc 463d ca4f 33bd 8657 9ebd
000003b0: f3b6 15bd 7424 c1bc 6d56 9bbd 7927 dfbd
000003c0: 727f cfbd cdfe e2bc bd49 483b cd92 a3bd
000003d0: e2ce 94bd 65e7 13bc f135 a9bd 4dd9 a6bd
000003e0: 7323 e1bc 2de0 ebbd 15fe 48bd 773a d3bc
000003f0: 3c03 6cba 315d b7bc 55ab 2a3d 38bc b8bc
-0.01578907 0.043667033 0.0009860034 0.043602876 0.058754403 -0.0095634125 0.07690177 0.024693564
0.058266826 -0.084527664 -0.112794206 0.021944 0.014126162 -0.04036386 -0.013831737 0.03399466
0.060995646 0.02855371 0.09869274 0.06163976 0.024107488 0.009469072 -0.023185562 -0.07798008
0.032706328 -0.001704049 -0.060742393 -0.008010254 -0.066447586 0.0058128457 0.045355223 0.052766137
-0.075997815 0.00810525 -0.040654227 -0.091068976 0.025379598 0.06504725 0.078421876 0.048237562
-0.010607636 0.03195586 0.019266153 -0.0637312 0.09079407 -0.069705926 0.026524564 -0.04349748
0.036208507 0.048729163 -0.008622634 -0.033402823 0.039298933 -0.11609753 -0.011578328 -0.09037996
0.004145588 0.031029617 0.05396374 -0.03857249 -0.037620205 -0.0018936142 -0.065076314 -0.078137115
0.06022056 0.021986144 -0.061034966 -0.08959657 0.0065609445 -0.032373287 -0.044028338 0.09928727
0.027938887 0.077992745 -0.012630426 -0.009295404 -0.04886192 0.037906084 -0.05146741 -0.0017191563
-0.029066779 0.035300005 0.02416857 -0.10190965 0.009713281 0.07336336 -0.0126881115 0.0593774
-0.02071459 -0.05767106 0.04936719 -0.03355952 0.033710327 0.07481681 -0.054082204 -0.08066149
-0.01897746 -0.061507843 0.077602595 0.052526046 0.09382557 -0.07530585 -0.01237304 0.01565472
-0.052741516 -0.043070875 0.05128512 0.010029254 0.07273701 -0.018226665 0.041408427 0.012508853
-0.064895645 -0.06547725 -0.029036645 -0.04174246 0.008496241 -0.06743802 -0.08544432 -0.05737808
-0.076383226 -0.01283604 -0.089350976 -0.020349633 -0.07079681 -0.09782477 0.061776575 0.06719283
-0.070696004 0.0034571402 -0.10644192 -0.0594794 -0.100395024 -0.049164146 0.08968565 0.026372213
0.04491975 -0.08617607 -0.0016158024 0.04884925 0.027828692 -0.011885655 -0.041598476 0.05192331
0.07197923 -0.0018996045 0.09336898 -0.016568659 0.025585923 0.056143474 -0.027020287 0.01686569
-0.024180995 -0.07641911 -0.015389917 0.030533755 -0.0143959 0.03130689 -0.036362655 0.07332795
-0.08950724 0.01474595 0.0062008942 0.041072153 -0.043814078 -0.00055219966 -0.06692916 -0.0021007059
-0.034320455 0.064542666 0.053479575 0.059459552 -0.047186762 0.041917678 -0.022901535 0.022582684
0.040381614 -0.08986635 -0.09209081 0.018218052 0.0060323463 -0.09579918 0.015094325 0.055927914
-0.03141598 -0.112019494 0.020470597 -0.052360706 -0.028295446 -0.037817948 0.034154914 3.257927e-05
-0.07869858 -0.099799514 -0.048412047 -0.088987775 0.0040181307 -0.05600461 -0.03831475 -0.098752774
0.04661782 -0.058881048 -0.060457397 0.050549492 0.0029533934 -0.0390074 0.0035979385 -0.039647806
0.025589483 -0.042082123 0.037748087 -0.014778168 -0.039927028 -0.03397449 0.014580506 -0.023956211
0.054455683 0.0542709 -0.07975963 -0.061024245 -0.034299146 0.07960411 -0.0014911195 0.040715568
0.019123685 -0.008001224 -0.08311417 -0.0014647831 -0.08410349 -0.081549875 0.03017979 -0.06339396
-0.035182238 0.048580255 -0.043777265 -0.077315375 -0.036551427 -0.023576953 -0.07584844 -0.10896201
-0.1013173 -0.02770939 0.003056153 -0.079869844 -0.07266022 -0.009027337 -0.08262242 -0.081469156
-0.027482724 -0.115173675 -0.049070437 -0.025784714 -0.00090031675 -0.022383304 0.0416673 -0.022550687

model.net.8.bias f4 [128]
00000000: 367a 89bd 5e36 d93b 9811 24bd 4094 a13c
00000010: a761 98bd e1fe 3c3d 61af 863d 5734 983d
00000020: e0f3 8cbc 9b6f 78bd 3dbd 453d 7961 543d
00000030: a371 1abd ddf9 4b3d 7cb9 a03c 44fe cbbc
00000040: 00e1 513d 044b 423d 1d0b d13c e82b 55bd
00000050: a19e 62bc 0f18 a43d a4aa f7ba c16e a8bd
00000060: 9909 9f3a 35c7 02bd fb31 093d fb3a 39bd
00000070: 9706 94bc 466f 8dbd 3007 a0bd fb14 62bd
00000080: 4044 50bd 4cb9 a53c a102 1e3d 02b7 693d
00000090: e3d1 2bbd cebb 5dbd 4b5e e63c d051 3bbd
000000a0: db07 6bbd 8a89 953c d2ad 383d 4d03 093c
000000b0: b016 97bd 9153 d23c 349f 2f3d 36f9 27bc
000000c0: b830 43bd 2aab 6f3c 506d 873c 32ba 31bd
000000d0: b9b5 00bd 55ae 32bd b7bf a2bc 4df8 0e3d
000000e0: ba9a 1cbd 08a8 fc3b 1afb 2ebd 8b54 c2bc
000000f0: 5b57 3e3c 4edf 1e3d f85b 733d cada 8fbd
00000100: 321c 84bb 1a1b aebc 7c99 813d c829 15bd
00000110: b0c3 c4bc 9e04 60bd aadb 303d 1e6e d0bc
00000120: d444 ab3b a07e f5bc 99f0 66bd c175 93bd
00000130: b36b bdb9 2ba8 a93b ad04 533b 302a 9b3d
00000140: 3bee 74bd 5710 0fbc e25d 203c b5a4 813d
00000150: c4b4 583d a97d 693d baf8 9cbd 14c0 e33c
00000160: 1f94 95bd 8455 ef3c a9a5 92bd f23f a13d
00000170: 23b4 b13d 926e 813c 8600 5a3c 3632 94bd
00000180: 71a7 febc 262f c83a 6750 41bc 5cc8 acbd
00000190: c77f 4bbd d5aa 38bd 43de 333d c605 843c
000001a0: 7cfd 32bd 3fb4 453d f862 93bd 962d 943c
000001b0: 9407 703d 8da4 41bc 143c 3b3c f5c5 d6bc
000001c0: dcf9 8fbc 6e8b 3abd ba51 863c 20bf 1abd
000001d0: 2b53 c0bc 7855 94bd f12a 2e3d cfb1 9abd
000001e0: 1000 2fbd 5261 283d 5e3c a73d 6b62 91bd
000001f0: a256 b1bd e1d6 223d b6ed febc 6cdd 183d
-0.06712763 0.0066287955 -0.04005584 0.019724011 -0.07440501 0.04614151 0.065764196 0.07431858
-0.017206132 -0.06065331 0.048276175 0.05185077 -0.03770603 0.049798835 0.019619696 -0.024901517
0.051239967 0.04743482 0.025517995 -0.052043825 -0.013831765 0.08012401 -0.0018895459 -0.0822425
0.0012133598 -0.03192826 0.03349493 -0.045222264 -0.018069549 -0.06905989 -0.07813871 -0.05519579
-0.05084634 0.020229958 0.038576726 0.057059295 -0.04194821 -0.054134183 0.028121134 -0.04573232
-0.05738054 0.01825406 0.045087643 0.008362603 -0.07377374 0.025674613 0.042876437 -0.010252288
-0.047653884 0.014628211 0.016531616 -0.04339046 -0.031423304 -0.043623287 -0.019866807 0.034904767
-0.038233496 0.0077104606 -0.042719938 -0.023721954 0.011617507 0.03878718 0.05941388 -0.070241526
-0.0040316815 -0.021253157 0.06328103 -0.0364168 -0.024019092 -0.054691903 0.043178238 -0.025443133
0.005226711 -0.029967606 -0.056381796 -0.07200194 -0.0003612913 0.005177518 0.0032198832 0.07576406
-0.059797507 -0.008731923 0.009788008 0.063302435 0.052906767 0.057004604 -0.07664628 0.02780155
-0.073036425 0.029215582 -0.071605034 0.07873525 0.086769365 0.015799794 0.013305789 -0.072361395
-0.031085702 0.001527284 -0.011798955 -0.08436653 -0.049682405 -0.045084793 0.043913137 0.016116034
-0.043698773 0.0482676 -0.07196611 0.018088143 0.058600977 -0.011819017 0.011427898 -0.02621744
-0.017575197 -0.045543127 0.016396392 -0.037779927 -0.023477158 -0.07242864 0.04252142 -0.075534455
-0.04272467 0.041108437 0.08165811 -0.0709885 -0.08659102 0.039755706 -0.031119209 0.03732054
