results/edm_swiss_roll/checkpoints/epoch=1-step=64-v5.ckpt (torch, 842042 bytes, 37 tensors)

model.time_embedding.frequencies f4 [4]
1.0 0.04641589 0.0021544348 9.999999e-05
00000000: 0000 803f 971e 3e3d 6b31 0d3b 16b7 d138

model.net.0.weight f4 [128, 10]
0.24757926 0.26749337 -0.07094944 0.29305446 -0.06683473 0.06516199 -0.15127751 0.18839324
0.2814464 -0.22931549 0.2804557 0.0640343 0.23306602 0.041694343 0.15138528 -0.045248665
0.2456356 0.048594475 -0.14577475 0.0824589 -0.14141114 -0.03169947 -0.1338206 0.20484887
-0.25415206 -0.14751749 -0.0926809 -0.19356707 0.02641841 -0.31575978 0.2910442 -0.27342355
0.24968606 0.05792894 -0.097479895 0.19956508 0.052561607 0.25878587 0.0378554 -0.09644423
0.090641506 -0.08339783 0.13306543 0.2818224 0.18228431 -0.1386167 0.18434472 0.05837279
0.16238274 -0.19095123 -0.3189771 -0.12333048 -0.23673356 0.26545075 0.09696394 0.13550961
0.10187524 -0.0036124373 0.24937126 -0.22279532 0.020531068 -0.22156118 0.1031995 -0.10324117
0.10250183 -0.061132047 0.26526055 -0.18442765 -0.18559648 -0.18560787 0.28573895 0.11101687
0.30024764 -0.26506293 -0.31767744 -0.2505136 -0.21379791 0.12699233 0.112140834 0.26166877
-0.15926066 -0.21969499 0.17018902 -0.12549414 0.19422936 -0.07338652 0.1827035 -0.24389113
-0.15777647 0.09821814 0.07215417 -0.07550632 0.18320075 0.20972188 -0.23448946 -0.17285481
0.28704768 -0.10924265 -0.11464473 -0.30851704 -0.18615797 0.084423155 -0.040151287 -0.22846362
0.008454323 -0.21548206 -0.26827976 -0.17413011 -0.27676195 -0.2013499 0.3158296 0.055358473
0.100642696 -0.2916917 -0.20457265 -0.10322587 0.04987925 -0.27781367 -0.13581176 -0.18887338
-0.0050244695 -0.11967524 -0.018771177 -0.21107823 -0.21389772 -0.18201268 -0.1071158 -0.24844399
0.266296 -0.061611384 0.27327713 0.10059057 -0.2697632 0.21773826 -0.08796341 -0.12153202
-0.26329297 -0.31518826 0.08966912 -0.069885015 0.11834776 -0.2600958 0.23683713 -0.23004967
-0.052554805 0.067722104 0.16369922 0.25575158 0.2885283 -0.2502863 0.07587056 -0.1349035
-0.03464594 -0.23645563 0.28826636 -0.2320541 0.16808866 0.11021812 0.101843365 -0.17188415
0.2927196 0.0645277 0.04551658 -0.27434635 0.1369459 -0.044636767 -0.14269745 0.27380687
0.07268695 -0.17277694 -0.16537434 -0.01026032 0.17997062 -0.0772721 -0.17698596 -0.10580794
-0.2361419 0.112890296 0.24488607 -0.29759654 0.06893095 0.16890742 0.055676185 -0.11440724
0.16330363 0.16503794 0.11761326 -0.056204725 -0.08437431 0.03319358 -0.061337177 -0.09206471
0.20180613 0.27137664 -0.031707715 -0.07115761 0.003786983 -0.01970875 0.07519744 0.08779038
-0.2923876 -0.12261981 0.2725937 0.1292405 -0.009796183 -0.18639894 -0.18863167 -0.27840102
-0.098212965 0.11165683 0.20446943 0.15190272 -0.28349423 -0.19412345 -0.05371021 0.3036084
0.04499859 -0.082649216 0.13007288 -0.12120071 -0.21020009 0.22681169 -0.13801108 -0.057788167
-0.30911785 0.21543816 0.24188648 0.11757135 -0.21817477 -0.30977508 -0.2567209 0.2411939
0.1544462 0.26780444 0.16718097 0.080902055 -0.0015051047 -0.23889321 -0.26933596 -0.294184
0.1295441 -0.16089837 -0.057777777 -0.17618394 -0.051934596 -0.21840616 -0.203684 0.10786825
-0.091009475 0.19819331 -0.09931383 -0.23758316 -0.05145878 -0.14937332 -0.09289214 -0.29788354
00000000: 6b85 7d3e e4f4 883e f14d 91bd 3c0b 963e
00000010: a6e0 88bd a673 853d 7ee8 1abe 28ea 403e
00000020: be19 903e aed1 6abe e497 8f3e 6a24 833d
00000030: dca8 6e3e b0c7 2a3d be04 1b3e aa56 39bd
00000040: e687 7b3e 000b 473d fa45 15be 36e0 a83d
00000050: 15ce 10be 4ed7 01bd 4408 09be e7c3 513e
00000060: 3820 82be d30e 17be 7ccf bdbd 7236 46be
00000070: 6c6b d83c 44ab a1be bf03 953e 2cfe 8bbe
00000080: b4ad 7f3e e546 6d3d 8aa3 c7bd ca5a 4c3e
00000090: d74a 573d 957f 843e 440e 1b3d 8d84 c5bd
000000a0: 41a2 b93d 7bcc aabd 4e42 083e 074b 903e
000000b0: bda8 3a3e 89f1 0dbe ddc4 3c3e 4f18 6f3d
000000c0: a947 263e b888 43be f750 a3be b194 fcbd
000000d0: 486a 72be 29e9 873e 0895 c63d 08c3 0a3e
000000e0: f7a3 d03d a4be 6cbb 2e5b 7f3e 7524 64be
000000f0: c530 a83c efe0 62be 425a d33d 1b70 d3bd
00000100: 7bec d13d 9965 7abd 3bd0 873e 9ada 3cbe
00000110: 010d 3ebe fd0f 3ebe 604c 923e d05c e33d
00000120: 0fba 993e 54b6 87be 9ea6 a2be 5243 80be
00000130: d7ed 5abe 470a 023e 18aa e53d 73f9 853e
00000140: 3a15 23be b9f7 60be 0846 2e3e 8981 00be
00000150: 10e4 463e ac4b 96bd a016 3b3e 99be 79be
00000160: 2890 21be 9826 c93d 91c5 933d 0fa3 9abd
00000170: fa98 3b3e 55c1 563e 011e 70be da00 31be
00000180: eaf7 923e 9cba dfbd dbca eabd f2f5 9dbe
00000190: 32a0 3ebe 0ce6 ac3d ad75 24bd 5ef2 69be
000001a0: 0084 0a3c 54a7 5cbe f75b 89be 2a4f 32be
000001b0: beb3 8dbe ab2e 4ebe 6bb4 a13e 91bf 623d
000001c0: c21d ce3d 9d58 95be 7e7b 51be 1668 d3bd
000001d0: 2f4e 4c3d 983d 8ebe 3d12 0bbe 0668 41be
000001e0: 4ea4 a4bb 4b18 f5bd 03c6 99bc e424 58be
000001f0: 0108 5bbe 8861 3abe 875f dbbd 1a68 7ebe
00000200: f357 883e 385c 7cbd fbea 8b3e 6e02 ce3d
00000210: 671e 8abe c7f6 5e3e 2926 b4bd c8e5 f8bd
00000220: 56ce 86be 5b60 a1be 72a4 b73d e01f 8fbd
00000230: 4f60 f23d 472b 85be 6f85 723e 2492 6bbe
00000240: b543 57bd e3b1 8a3d c5a0 273e dff1 823e
00000250: fbb9 933e 8725 80be 0662 9b3d 2524 0abe
00000260: e7e8 0dbd 6d21 72be a697 933e 979f 6dbe
00000270: 6f1f 2c3e 0aba e13d 4193 d03d 6602 30be
00000280: 58df 953e 1927 843d 986f 3a3d 2077 8cbe
00000290: 8c3b 0c3e 0bd5 36bd 481f 12be 6a30 8c3e
000002a0: e5dc 943d 70ec 30be e457 29be e71a 28bc
000002b0: 384a 383e d640 9ebd cf3b 35be d5b1 d8bd
000002c0: 2fcf 71be 0733 e73d 6ac3 7a3e 935e 98be
000002d0: ab2b 8d3d 11f6 2c3e b60c 643d 584e eabd
000002e0: 1139 273e b5ff 283e 39df f03d ed36 66bd
000002f0: 70cc acbd fef5 073d b13c 7bbd 6c8c bcbd
00000300: 44a6 4e3e e1f1 8a3e f3df 01bd 15bb 91bd
00000310: 082f 783b 3f74 a1bc 1e01 9a3d 71cb b33d
00000320: d4b3 95be 1820 fbbd 6791 8b3e 9f57 043e
00000330: 2b80 20bc 5ddf 3ebe a928 41be 948a 8ebe
00000340: e123 c9bd 56ac e43d 6f60 513e 638c 1b3e
00000350: 2826 91be 4cc8 46be 3dff 5bbd 8f72 9b3e
00000360: 7150 383d fe43 a9bd d331 053e 1438 f8bd
00000370: b13e 57be 5341 683e c752 0dbe 49b3 6cbd
00000380: b244 9ebe d29b 5c3e 17b1 773e 3fc9 f03d
00000390: 3569 5fbe d79a 9ebe ec70 83be 89fb 763e
000003a0: 2527 1e3e aa1d 893e 7d31 2b3e faaf a53d
000003b0: ef46 c5ba 6ca0 74be 67e6 89be 499f 96be
000003c0: 35a7 043e 8bc2 24be 64a8 6cbd 9069 34be
000003d0: 5fb9 54bd dda5 5fbe 8a92 50be 07ea dc3d
000003e0: 2d63 babd 30f3 4a3e 0d65 cbbd 0049 73be
000003f0: 71c6 52bd 52f5 18be 3c3e bebd 3184 98be

model.net.0.bias f4 [128]
-0.22612785 -0.07716375 -0.033617802 -0.17269047 -0.23178093 0.21458924 0.2176069 -0.28828704
0.10243543 0.12610509 0.30041075 0.18339702 0.29186824 -0.10433715 0.2219391 0.2563038
-0.2964383 -0.25372463 0.06336949 0.17184494 -0.1522406 0.034072384 0.0018635803 0.08163886
-0.16695242 0.18074365 0.20926023 -0.21549109 0.0042204405 0.0038750523 0.10047169 0.2966853
0.08928994 -0.06908364 0.282238 -0.12144008 -0.087772444 0.023750946 -0.2440948 0.037848055
-0.21172488 0.0319156 0.027137473 0.04338589 -0.2666503 -0.29606625 0.14419885 0.27118003
-0.28130844 0.11782281 -0.23293357 0.022298155 0.29442212 0.23901883 -0.22822766 0.1940271
0.16218616 -0.0034070844 0.30474576 -0.12451923 -0.07241931 -0.16308074 0.047226507 0.087673545
0.029037576 -0.17469813 -0.14062208 0.108175844 -0.27291512 -0.048547953 -0.0044185934 -0.12819783
0.11546573 0.022568233 0.2223297 -0.028603744 -0.19601145 0.2225091 0.04559599 -0.09082325
-0.207695 0.07681025 -0.30035758 0.08058338 0.15889958 -0.27607742 -0.20384878 -0.22788164
0.26712537 0.27045676 0.02177082 0.29442802 -0.10588205 -0.3035495 0.11390987 0.11105206
0.31374067 0.00017150855 0.2431338 0.19246833 0.23178299 -0.31074414 0.26406696 -0.2709842
0.28344208 -0.012777244 -0.28122237 0.09080639 -0.06711541 -0.28587827 -0.1146755 0.03580843
0.24758112 -0.094775684 0.18721542 0.03821795 0.010722541 0.062480364 -0.20995614 -0.261437
-0.09750808 -0.2943319 -0.1474254 0.014503074 -0.20650423 -0.12744467 -0.056000262 -0.035189964
00000000: 0f8e 67be 0708 9ebd d2b2 09bd c5d5 30be
00000010: fb57 6dbe 48bd 5b3e 58d4 5e3e 5c9a 93be
00000020: abc9 d13d b121 013e 70cf 993e 6ecc 3b3e
00000030: c16f 953e b7ae d5bd 0144 633e 403a 833e
00000040: c3c6 97be 32e8 81be ddc7 813d 1ff8 2f3e
00000050: f6e4 1bbe 7c8f 0b3d 6143 f43a 4632 a73d
00000060: 93f5 2abe dd14 393e 5048 563e b2a9 5cbe
00000070: 9f4b 8a3b 97f4 7d3b 1ac4 cd3d 23e7 973e
00000080: a5dd b63d b97b 8dbd 8081 903e 94b5 f8bd
00000090: 0ac2 b3bd 5891 c23c fdf3 79be 9006 1b3d
000000a0: 68ce 58be efb9 023d 684f de3c 67b5 313d
000000b0: 6386 88be ff95 97be dda8 133e 1cd8 8a3e
000000c0: a907 90be 164d f13d 2386 6ebe 9faa b63c
000000d0: 7fbe 963e 5ac1 743e 83b4 69be 0aaf 463e
000000e0: 2114 263e 6449 5fbb a307 9c3e f003 ffbd
000000f0: 9350 94bd a3fe 26be 9570 413d 308e b33d
00000100: 36e0 ed3c 11e4 32be 3cff 0fbe 4c8b dd3d
00000110: 88bb 8bbe 38da 46bd d9c9 90bb 4b46 03be
00000120: 4c79 ec3d 04e1 b83c 66aa 633e 6652 eabc
00000130: 3ab7 48be 6dd9 633e dcc2 3a3d 8a01 babd
00000140: 00ae 54be b14e 9d3d 78c8 99be e608 a53d
00000150: 92b6 223e 055a 8dbe bcbd 50be ce59 69be
00000160: a8c4 883e 4f79 8a3e b858 b23c 45bf 963e
00000170: b0d8 d8bd d76a 9bbe 9449 e93d 436f e33d
00000180: 9ea2 a03e fad6 3339 11f8 783e 6b16 453e
00000190: 8558 6d3e db19 9fbe c933 873e 71be 8abe
000001a0: 521f 913e a557 51bc 61fc 8fbe b3f8 b93d
000001b0: ce73 89bd a35e 92be fdda eabd dcab 123d
000001c0: e885 7d3e c119 c2bd 66b5 3f3e 6d8a 1c3d
000001d0: 99ad 2f3c 69eb 7f3d befe 56be 12db 85be
000001e0: 51b2 c7bd acb2 96be aff6 16be 4d9e 6d3c
000001f0: d875 53be db80 02be 8860 65bd 5a23 10bd

model.net.2.weight f4 [128, 128]
-0.054668855 -0.0017458 -0.012427659 0.020407977 -0.0010748634 -0.038564473 -0.02636376 -0.0071434956
-0.049148355 0.0034960038 -0.006505366 0.029153088 0.02513111 0.062456697 -0.0011774147 -0.06397514
0.034026902 -0.058198523 -0.017780105 -0.024484135 -0.03136236 -0.03878467 0.08390388 0.04996
0.020892244 0.08762925 -0.08451346 0.012627293 0.061829586 0.0586856 -0.06796319 0.02781438
-0.050285302 -0.009256898 -0.0151194185 -0.07897 -0.083515115 -0.06400295 0.03723213 0.04390494
-0.07865426 -0.031619713 0.0011572123 -0.08202609 0.047808263 0.08394798 0.016617805 -0.07160893
0.019243242 0.028639633 0.06927149 -0.04276641 -0.07861708 0.037500776 0.010477719 -0.027107917
-0.040118434 -0.040044565 0.07042734 -0.020779964 0.06787302 0.074328884 0.01656195 0.019520747
-0.0028327557 0.055691075 -0.07360557 0.03315283 -0.016541751 0.03720608 -0.0060051163 -0.03497543
-0.011251333 0.044306543 -0.06629102 -0.060517456 -0.016186353 -0.038104407 0.03676888 0.05955922
-0.0084938025 0.08715578 -0.042297356 -0.05441508 -0.037113067 -0.06023054 -0.06010871 -0.08241495
-0.08347718 0.02355613 0.048997674 0.08714317 0.08103022 -0.009615859 0.01985305 -0.046875834
0.039354626 -0.08660461 0.040572748 0.012823939 0.023325525 0.0336879 -0.034556117 0.07240064
0.046292894 0.053963557 0.016812537 0.0504587 0.065506555 0.034348857 0.07240152 -0.011121118
0.06224157 0.023500357 0.047966857 0.08977564 0.017119091 -0.030549927 -0.014298397 0.023108209
0.019582553 -0.029744357 0.07445559 0.048905488 -0.054940887 -0.002480221 -0.012645042 -0.05529235
0.018315496 -0.022815412 -0.045310453 -0.031935044 -0.03498993 0.07974048 0.028907854 0.09244565
0.018783072 0.018290801 0.037349734 0.018989498 -0.07394561 -0.049718928 -0.024579436 -0.00128545
0.037722006 0.03384127 0.07521204 0.0143585475 -0.031093726 -0.061006315 -0.0611715 -0.051200602
0.024133729 0.04334061 0.07432752 -0.029257262 -0.0119885 -0.026977133 -0.005009165 0.0303442
-0.001689729 0.009096933 0.008118904 0.037579138 -0.027770385 -0.048138402 0.020795226 -0.013567268
-0.03808138 0.03571543 2.0604391e-05 -0.009655596 -0.03868367 -0.016251734 -0.07432835 0.025545806
-0.000406059 0.056224063 0.005932253 0.0022538914 0.025547551 0.06258837 -0.0453358 0.05292749
0.024151854 -0.06386535 0.02680536 -0.04776365 -0.026064953 -0.044144575 -0.06297324 0.06920899
-0.083960205 0.04318609 -0.081248924 -0.008055636 0.0066542746 0.066077426 -0.034743506 0.027824381
0.016061205 0.047731925 0.007818371 0.036569722 -0.055394 -0.056014407 0.07590337 -0.060692128
-0.010878415 -0.012222228 0.091508985 -0.016166937 -0.071045704 -0.024361117 0.0408346 0.039817702
0.0770214 -0.02015591 0.045669965 -0.080425836 0.03340789 0.042126667 0.055767067 -0.05616047
-0.0271918 0.022846244 -0.06599004 -0.065813005 -0.08615763 0.00010604744 0.04940898 0.022711499
0.006642292 0.032952104 -0.054540522 0.013759838 -0.027090369 -0.038790356 0.07860872 -0.073057674
0.009302193 -0.074474804 -0.0048437156 -0.03882709 0.031890985 -0.051437095 0.061800998 -0.06942721
0.04928427 -0.06920645 0.04470986 -0.035083253 0.0002598156 -0.02107266 0.06151619 0.029627198
00000000: 73ec 5fbd 54d3 e4ba 619d 4bbc a12e a73c
00000010: 6ee2 8cba c8f5 1dbd d0f8 d7bc fc13 eabb
00000020: c94f 49bd 361d 653b f72a d5bb 75d2 ee3c
00000030: c2df cd3c 98d2 7f3d 7b53 9aba 6605 83bd
00000040: cb5f 0b3d 9361 6ebd 95a7 91bc f492 c8bc
00000050: d175 00bd addc 1ebd ccd5 ab3d dba2 4c3d
00000060: 3626 ab3c f776 b33d 6515 adbd b5e2 4e3c
00000070: 0541 7d3d 5060 703d 4930 8bbd fcda e33c
00000080: f6f7 4dbd 3faa 17bc 70b7 77bc 06bb a1bd
00000090: f909 abbd fb13 83bd b880 183d abd5 333d
000000a0: 7c15 a1bd ac83 01bd 9aad 973a 4bfd a7bd
000000b0: 99d2 433d ebec ab3d 1022 883c b4a7 92bd
000000c0: 01a4 9d3c aa9d ea3c 36de 8d3d d52b 2fbd
000000d0: fe01 a1bd 6a9a 193d bdaa 2b3c 6c11 debc
000000e0: 3a53 24bd c505 24bd 363c 903d be3a aabc
000000f0: 0301 8b3d be39 983d edac 873c f9e9 9f3c
00000100: c1a5 39bb 531c 643d 84be 96bd 43cb 073d
00000110: 9182 87bc 6765 183d 91c6 c4bb 6642 0fbd
00000120: 8357 38bc c77a 353d 96c3 87bd 27e1 77bd
00000130: 3e99 84bc 5e13 1cbd f79a 163d 5ef4 733d
00000140: 9729 0bbc bb7e b23d fe3f 2dbd 59e2 5ebd
00000150: df03 18bd 4cb4 76bd 8d34 76bd 2bc9 a8bd
00000160: 15f6 aabd c9f8 c03c c9b1 483d 1e78 b23d
00000170: 2cf3 a53d d68b 1dbc dda2 a23c e000 40bd
00000180: 5132 213d c25d b1bd 9c2f 263d 801b 523c
00000190: 2c15 bf3c 53fc 093d b78a 0dbd c946 943d
000001a0: 9e9d 3d3d e408 5d3d 72ba 893c c8ad 4e3d
000001b0: 4d28 863d 63b1 0c3d 4047 943d 5a35 36bc
000001c0: 04f1 7e3d d283 c03c e578 443d 4adc b73d
000001d0: 563d 8c3c d743 fabc d343 6abc 6d4d bd3c
000001e0: 976b a03c 70aa f3bc 2c7c 983d 1f51 483d
000001f0: b209 61bd 348b 22bb 262d 4fbc 3b7a 62bd
00000200: 610a 963c 63e7 babc 7497 39bd 52ce 02bd
00000210: 9a51 0fbd fa4e a33d 2ad0 ec3c 2554 bd3d
00000220: f5de 993c 97d6 953c 09fc 183d dd8f 9b3c
00000230: cc70 97bd 13a6 4bbd d05a c9bc 8b7c a8ba
00000240: 6482 1a3d 259d 0a3d c508 9a3d 1d40 6b3c
00000250: 45b8 febc c2e1 79bd f78e 7abd b9b7 51bd
00000260: 19b4 c53c ec85 313d 0739 983d edac efbc
00000270: 6a6b 44bc 26ff dcbc ec23 a4bb 6694 f83c
00000280: e679 ddba 4d0b 153c 2705 053c 95ec 193d
00000290: b87e e3bc c62c 45bd c05a aa3c 3f49 5ebc
000002a0: 39fb 1bbd 584a 123d 98d7 ac37 8132 1ebc
000002b0: c572 1ebd 5b22 85bc 7639 98bd 7045 d13c
000002c0: 51e4 d4b9 344b 663d 5863 c23b 06b6 133b
000002d0: 1949 d13c 552e 803d 08b2 39bd 7fca 583d
000002e0: 1cda c53c d6cb 82bd ea96 db3c d1a3 43bd
000002f0: 2b86 d5bc f1d0 34bd 1df8 80bd 71bd 8d3d
00000300: 54f3 abbd e6e3 303d d665 a6bd c9fb 03bc
00000310: 1a0c da3b 9a53 873d 354f 0ebd f5ef e33c
00000320: ca92 833c 8d82 433d a018 003c 22ca 153d
00000330: d2e4 62bd 5d6f 65bd 3a73 9b3d 4f98 78bd
00000340: 613b 32bc bd3f 48bc 1069 bb3d 8670 84bc
00000350: 6980 91bd f790 c7bc 2e42 273d e317 233d
00000360: 65bd 9d3d 021e a5bc 6e10 3b3d 4db6 a4bd
00000370: b6d6 083d 038d 2c3d 026c 643d 8508 66bd
00000380: 56c1 debc 0c28 bb3c c925 87bd f8c8 86bd
00000390: 6973 b0bd c965 de38 1261 4a3d 770d ba3c
000003a0: 95a7 d93b c9f8 063d e265 5fbd f270 613c
000003b0: 9fec ddbc a3e2 1ebd 9cfd a03d 439f 95bd
000003c0: 3a68 183c 3f86 98bd 08b8 9ebb 2809 1fbd
000003d0: 1fa0 023d b4af 52bd 0b23 7d3d da2f 8ebd
000003e0: 4dde 493d 1cbc 8dbd b021 373d 75b3 0fbd
000003f0: dc37 8839 92a0 acbc 67f8 7b3d bdb4 f23c

model.net.2.bias f4 [128]
-0.0066432813 -0.03973372 -0.06834129 -0.05029028 -0.048557837 0.08420281 0.0019212918 -0.051748592
-0.0049726767 -0.0037364487 0.02320316 0.029805485 0.05740169 -0.042427033 -0.018204838 -0.07643763
-0.029952457 -0.07582833 -0.008706379 -0.052308507 -0.031679183 0.08316557 0.081697375 0.0105144875
0.047033496 0.05579589 0.004965438 0.017396048 -0.0036536183 -0.071092956 0.07057791 -0.06691611
-0.02511663 -0.07526807 -0.053339947 0.089547776 -0.0061334367 0.026978076 0.02329784 0.071353056
0.019799162 0.0020765958 -0.037734807 0.014562567 0.021196557 -0.058450628 -0.06260444 -0.040071417
0.07785005 0.03622272 0.049348727 0.06143832 -0.0023821145 -0.058862716 0.08435039 0.01563224
-0.030890945 0.03548102 -0.06328975 0.0020910017 0.08032352 0.031107064 -0.081367455 0.07933536
0.017771106 -0.025185548 0.06825686 0.037425373 0.053816512 0.045316856 -0.047899958 -0.06263414
0.062053632 -0.007496966 0.072921 0.04261985 -0.08526654 0.050281107 0.04472999 -0.08353548
0.0038241923 -0.07184499 0.044696823 0.048725907 0.029239234 0.05689117 -0.04745162 -0.0048547164
-0.021815551 0.06625156 0.064181894 -0.030070558 -0.07319935 -0.0013976452 0.07149886 -0.021595124
0.034551505 -0.06321308 -0.05873182 -0.07500164 -0.07483309 -0.03680615 -0.036497626 0.03250098
0.07507523 0.012935929 0.03392172 -0.05657798 -0.037203383 -0.084332466 0.08058268 0.011586661
-0.022328481 -0.07844683 0.017901616 -0.08630625 0.05864149 -0.08401718 0.017864319 0.05370203
-0.07206322 0.06377082 0.08290593 0.060416408 0.081362575 -0.041834213 -0.013334792 0.0812572
00000000: e2af d9bb d3bf 22bd 85f6 8bbd 2efd 4dbd
00000010: 95e4 46bd 8672 ac3d dbd3 fb3a 55f6 53bd
00000020: d6f1 a2bb 35df 74bb 8e14 be3c a22a f43c
00000030: 091e 6b3d f8c7 2dbd 5022 95bc 558b 9cbd
00000040: db5e f5bc e24b 9bbd 33a5 0ebc 7241 56bd
00000050: 08c2 01bd b652 aa3d f450 a73d f544 2c3c
00000060: 32a6 403d 3b8a 643d 1db5 a23b 2882 8e3c
00000070: 8b71 6fbb 2f99 91bd 278b 903d 500b 89bd
00000080: 64c1 cdbc 2526 9abd fd7a 5abd d364 b73d
00000090: fffa c8bb 2001 dd3c 1ddb be3c 8d21 923d
000000a0: da31 a23c 7f17 083b d08f 1abd d597 6e3c
000000b0: 67a4 ad3c ed69 6fbd c236 80bd ed21 24bd
000000c0: d96f 9f3d 465e 143d e421 4a3d bfa6 7b3d
000000d0: 401d 1cbb 081a 71bd e6bf ac3d 2f0f 803c
000000e0: 020f fdbc 8c54 113d 0e9e 81bd 3009 093b
000000f0: a880 a43d 3ed4 fe3c fba3 a6bd 947a a23d
00000100: b694 913c ec51 cebc 41ca 8b3d 594b 193d
00000110: b46e 5c3d 2b9e 393d bf32 44bd 5446 80bd
00000120: f32b 7e3d 1ca9 f5bb 9b57 953d 2792 2e3d
00000130: 39a0 aebd 90f3 4d3d cb36 373d a614 abbd
00000140: 4d9f 7a3b 7723 93bd 0414 373d d194 473d
00000150: 1e87 ef3c b706 693d a15c 42bd 5014 9fbb
00000160: 87b6 b2bc e6ae 873d cc71 833d 8856 f6bc
00000170: 8ae9 95bd 3131 b7ba ff6d 923d 42e8 b0bc
00000180: e185 0d3d dc75 81bd c790 70bd 769a 99bd
00000190: 1742 99bd 0cc2 16bd 897e 15bd bf1f 053d
000001a0: 0bc1 993d 38f1 533c 80f1 0a3d 50be 67bd
000001b0: 9362 18bd 80b6 acbd 8808 a53d fbd5 3d3c
000001c0: 38ea b6bc bba8 a0bd 69a6 923c 55c1 b0bd
000001d0: 0f32 703d 3311 acbd 3158 923c a9f6 5b3d
000001e0: e295 93bd 479a 823d 96ca a93d 3277 773d
000001f0: 6ca1 a63d 5a5a 2bbd 2c7a 5abc 2d6a a63d

model.net.4.weight f4 [128, 128]
0.03726421 -0.058917213 0.08456664 -0.018418096 -0.031568136 0.013130098 0.08269082 -0.047594428
0.009836724 -0.009182911 -0.02186911 0.041937307 0.007785203 -0.07689572 -0.0007834875 0.051619183
-0.03649117 0.07559441 -0.0766535 0.02522096 0.05687947 0.033188272 0.03862006 0.0085967975
-0.01581369 0.06608891 -0.023917342 0.06940487 0.08750939 -0.078170545 0.0772155 0.019674147
-0.059647605 -0.05191804 -0.014092141 0.0877518 0.053338595 -0.019748252 -0.047265165 -0.05345954
-0.044443067 0.0003959274 -0.0755832 -0.084312685 -0.050935768 0.02975911 0.029444927 0.029420711
0.076128736 0.02621682 -0.032682408 0.040183052 -0.042015675 0.07539219 -0.03459418 -0.05283249
-0.01742195 -0.04436884 -0.010187357 -0.016165936 0.010481314 -0.009465524 -0.063430235 -0.077715464
-0.06555091 -0.086808205 -0.08414616 0.08689114 0.05637942 0.04350343 0.055867936 0.024147443
-0.027761064 -0.011158992 -0.03855106 0.039255098 0.022102023 -0.07858952 0.01572137 -0.06947535
0.06397653 0.007439967 0.0020771574 -0.05280917 0.012508733 0.006879725 0.020326788 -0.064243205
-0.039810825 -0.06135798 -0.052117836 -0.048600953 -0.07217097 0.091733314 -0.08849156 -0.02402921
0.008064367 -0.03771325 -0.027265096 0.042163707 -0.017122762 -0.010265086 0.08322759 -0.034855995
0.0006388265 0.060946327 -0.01878786 -0.07525767 0.065720245 -0.075394355 -0.08549451 -0.044820655
0.014201636 0.0719631 -0.06741161 -0.045806635 0.07638642 0.07164091 0.03371961 -0.0708283
0.051794093 -0.006228669 -0.064506434 0.07181825 -0.060999252 0.011125296 -0.044992648 0.0763781
0.0076062707 -0.02677223 0.04766326 0.07800945 -0.00980654 0.058052614 -0.033905752 -0.04958801
-0.043636456 -0.08576364 0.08312325 0.023423983 -0.058976553 -0.071629226 0.052260574 0.0008028188
-0.055442818 -0.008811068 -0.036748618 0.006577111 -0.03569931 -0.038432207 -0.047298748 -0.040770046
0.0046680686 0.047095712 0.01383354 0.050752737 -0.02368118 -0.026573554 -0.04918913 -0.07781624
-0.057933073 -0.020535331 0.08435755 -0.08081255 0.06652864 0.048928406 0.04954889 0.050819088
0.0424086 0.07887082 0.038182367 -0.023443583 0.038762562 -0.0014579899 -0.045390956 0.0347657
0.09147202 0.06559915 -0.036312923 -0.0030293416 0.029673634 0.044452906 -0.078526214 0.01596224
-0.012437761 0.08992817 0.022251617 -0.04194487 -0.02642215 0.07535719 -0.028759556 0.021520011
0.0773687 -0.08141145 -0.002353047 -0.0788781 -0.021423358 0.036856998 -0.0027183972 0.04329687
-0.055853672 0.04127185 -0.04118244 0.052227035 -0.021800626 0.07624922 0.009074478 0.028982498
-0.067036934 0.009073594 0.06818764 -0.071105294 0.07027453 0.028725889 -0.035270322 -0.06078816
0.054061864 -0.02517604 0.043189257 0.009932433 0.08306456 -0.057767767 -0.007966095 0.03997152
-0.038220808 -0.026192946 -0.017474562 0.091136955 0.0412167 -0.079529844 0.019876657 0.069393344
0.045494597 0.08572165 -0.022407953 0.0036232912 0.08133197 0.08035379 -0.026826443 0.021820243
0.0062486758 0.07720361 -0.033319596 -0.0099903075 0.03102826 -0.010984235 -0.041287083 0.07888297
-0.031045128 0.058537535 -0.016471421 -0.08284991 -0.061226033 0.01772114 0.066930905 -0.008049672
00000000: 5ba2 183d 2d53 71bd 4631 ad3d 8ce1 96bc
00000010: 974d 01bd 9f1f 573c ce59 a93d 60f2 42bd
00000020: 362a 213c ec73 16bc d926 b3bc 74c6 2b3d
00000030: 041b ff3b 817b 9dbd f562 4dba a36e 533d
00000040: c477 15bd 3ed1 9a3d 83fc 9cbd 309c ce3c
00000050: 72fa 683d 6df0 073d 1130 1e3d 95d9 0c3c
00000060: b68b 81bc 9f59 873d 4dee c3bc 2424 8e3d
00000070: 2038 b33d e117 a0bd 2923 9e3d ad2b a13c
00000080: 0c51 74bd 03a8 54bd b9e2 66bc 37b7 b33d
00000090: 9279 5a3d 16c7 a1bc 1e99 41bd 64f8 5abd
000000a0: ef09 36bd 7a94 cf39 5dcb 9abd 21ac acbd
000000b0: 06a2 50bd 61c9 f33c 7d36 f13c b403 f13c
000000c0: 62e9 9b3d a8c4 d63c fddd 05bd fc96 243d
000000d0: a118 2cbd 3867 9a3d a0b2 0dbd e266 58bd
000000e0: 7ab8 8ebc 1abc 35bd dfe8 26bc 6d6e 84bc
000000f0: d1b9 2b3c 4915 1bbc b6e7 81bd 4929 9fbd
00000100: 8e3f 86bd 80c8 b1bd d254 acbd fbf3 b13d
00000110: 1bee 663d a730 323d c7d5 643d dcd0 c53c
00000120: 2c6b e3bc 34d4 36bc b7e7 1dbd f4c9 203d
00000130: 4d0f b53c 8bf3 a0bd 1aca 803c 1849 8ebd
00000140: 2106 833d f7ca f33b eb20 083b 6e4e 58bd
00000150: 6ef1 4c3c 516f e13b 5d84 a63c f191 83bd
00000160: ad10 23bd 8152 7bbd 8379 55bd cb11 47bd
00000170: 60ce 93bd adde bb3d 103b b5bd e8d8 c4bc
00000180: 6820 043c 3579 1abd 0d5b dfbc dab3 2c3d
00000190: 0945 8cbc e42e 28bc 3a73 aa3d 29c5 0ebd
000001a0: ec76 273a dba2 793d 00e9 99bc b120 9abd
000001b0: 5698 863d 5b68 9abd bf17 afbd dd95 37bd
000001c0: fbad 683c 6461 933d 190f 8abd bd9f 3bbd
000001d0: 7c70 9c3d 78b8 923d 931d 0a3d 6e0e 91bd
000001e0: 0b26 543d dd19 ccbb f31b 84bd 7215 933d
000001f0: 5ada 79bd e046 363c 364a 38bd 1f6c 9c3d
00000200: 063e f93b 7051 dbbc 8d3a 433d 6bc3 9f3d
00000210: 9cab 20bc 94c8 6d3d c2e0 0abd cc1c 4bbd
00000220: 24bc 32bd d9a4 afbd 863c aa3d a7e3 bf3c
00000230: 6691 71bd 58b2 92bd 2f0f 563d 4274 523a
00000240: 0218 63bd 4c5c 10bc b885 16bd ce84 d73b
00000250: 7139 12bd 176b 1dbd 55bc 41bd 7efe 26bd
00000260: 99f6 983b 6fe7 403d 12a6 623c 1ae2 4f3d
00000270: 09ff c1bc c8b0 d9bc 8b7a 49bd 1f5e 9fbd
00000280: 3b4b 6dbd b639 a8bc a7c3 ac3d 0d81 a5bd
00000290: 2b40 883d 2769 483d c7f3 4a3d ad27 503d
000002a0: a4b4 2d3d 0687 a13d 1d65 1c3d c20c c0bc
000002b0: 7ec5 1e3d 061a bfba deeb 39bd 7b66 0e3d
000002c0: af55 bb3d d958 863d dcbc 14bd eb87 46bb
000002d0: 1f16 f33c 4014 363d 5ad2 a0bd 3ec3 823c
000002e0: c0c7 4bbc 432c b83d 0649 b63c 62ce 2bbd
000002f0: 4473 d8bc df54 9a3d 2999 ebbc bc4a b03c
00000300: 7b73 9e3d 0cbb a6bd 9435 1abb d78a a1bd
00000310: 0a80 afbc 5df7 163d 2327 32bb 0f58 313d
00000320: d2c6 64bd ac0c 293d ebae 28bd 04ec 553d
00000330: 3a97 b2bc 8d28 9c3d 1fad 143c b46c ed3c
00000340: a94a 89bd 69a9 143c f6a5 8b3d a79f 91bd
00000350: 18ec 8f3d 8e52 eb3c 9d77 10bd 01fd 78bd
00000360: f96f 5d3d fc3d cebc 38e7 303d a5bb 223c
00000370: c11d aa3d e59d 6cbd 3984 02bc 2db9 233d
00000380: 6c8d 1cbd 9792 d6bc d026 8fbc 03a6 ba3d
00000390: d8d2 283d 8be0 a2bd 5fd4 a23c 191e 8e3d
000003a0: 8b58 3a3d d58e af3d e290 b7bc bd74 6d3b
000003b0: 6091 a63d 8790 a43d 21c3 dbbc 5ec0 b23c
000003c0: b1c1 cc3b ed1c 9e3d 217a 08bd 63ae 23bc
000003d0: fa2e fe3c 39f7 33bc a51c 29bd 658d a13d
000003e0: 5a52 febc 0ec5 6f3d 13ef 86bc 37ad a9bd
000003f0: 26c8 7abd ed2b 913c 1213 893d c5e2 03bc

model.net.4.bias f4 [128]
-0.0382701 0.07978822 -0.0036573422 0.08686122 -0.028696006 0.059368312 -0.00025534735 -0.035624634
0.06807379 -0.074446656 -0.0069847037 0.017424583 -0.013985456 -0.0474626 -0.021349087 0.056659706
-0.009666674 -0.03701243 -0.034266945 -0.06493698 0.056345608 -0.08026855 -0.03897808 0.016603695
0.08010615 -0.07135698 0.011004302 -0.06385721 0.063066214 0.068298355 0.056528527 -0.039429896
-0.06602875 -0.0516148 -0.029532867 0.041252084 -0.015235611 0.07835468 -0.08148103 0.005961243
-0.07373042 -0.082300805 -0.06144978 0.008935068 -0.08295444 -0.009142093 -0.040805284 -0.049912076
0.07903689 -0.032980304 -0.08534462 0.059124216 -0.0887593 -0.0039425585 -0.06732136 0.046414923
0.030823113 -0.011923185 -0.023909627 -0.06345795 -0.063040785 0.034719672 -0.0639852 -0.031213444
0.07141066 -0.081313014 0.00042416196 -0.029683879 0.043322314 -0.029786142 0.07213425 0.025742993
-0.051514767 0.017873721 -0.0028826948 -0.004399111 -0.04915173 0.04367574 0.015958544 -0.0046797087
-0.045877304 0.08429154 -0.076418124 0.036561783 -0.08033943 -0.06902108 0.031748965 0.022954633
-0.015308207 0.038617484 -0.008858307 0.028468614 -0.07350779 0.041498173 -0.02391675 0.058715735
-0.07792364 0.010226399 -0.02934067 0.036297094 -0.0651032 -0.0711238 0.029582394 -0.0054812175
-0.06225436 -0.06387056 -0.071276456 0.019111453 0.037466276 -0.042145606 0.05761889 0.05415011
0.012839605 -0.053620793 -0.06764632 -0.03339251 -0.053591233 0.021087306 0.059037026 0.07992348
-0.043240458 -0.043042768 0.012924848 -0.019707672 0.055936158 -0.08008311 0.042706363 0.0039538983
00000000: 1cc1 1cbd 0268 a33d 05b0 6fbb 4ce4 b13d
00000010: e313 ebbc 302c 733d 24e0 85b9 23eb 11bd
00000020: 456a 8b3d 7d77 98bd f1df e4bb 00be 8e3c
00000030: 4123 65bc 2568 42bd 48e4 aebc 0214 683d
00000040: f860 1ebc 599a 17bd 7f5b 0cbd aefd 84bd
00000050: a7ca 663d d663 a4bd 7ba7 1fbd 7904 883c
00000060: b10e a43d 9c23 92bd 634b 343c 92c7 82bd
00000070: dc28 813d 02e0 8b3d 758a 673d 3e81 21bd
00000080: 153a 87bd 0a6a 53bd e9ee f1bc f2f7 283d
00000090: c99e 79bc 6b78 a03d 87df a6bd 8856 c33b
000000a0: f9ff 96bd 538d a8bd c4b2 7bbd 6464 123c
000000b0: 04e4 a9bd b8c8 15bc 7123 27bd 9b70 4cbd
000000c0: 18de a13d 5b16 07bd 29c9 aebd 3c2c 723d
000000d0: 70c7 b5bd 9430 81bb c8df 89bd 931d 3e3d
000000e0: c180 fc3c 7659 43bc 1fde c3bc 3ef6 81bd
000000f0: 871b 81bd 3736 0e3d ac0a 83bd 56b3 ffbc
00000100: c13f 923d 7087 a6bd 0e62 de39 9b2b f3bc
00000110: bd72 313d 1102 f4bc 1fbb 933d f8e2 d23c
00000120: 2601 53bd e96b 923c 98eb 3cbb 6b26 90bb
00000130: 5353 49bd 55e5 323d 7ebb 823c 3e58 99bb
00000140: d7e9 3bbd 0ba1 ac3d 1b81 9cbd cfc1 153d
00000150: 0089 a4bd ed5a 8dbd 340b 023d 5b0b bc3c
00000160: 46cf 7abc 5e2d 1e3d 6f22 11bc 0337 e93c
00000170: 418b 96bd fdf9 293d 0fed c3bc e97f 703d
00000180: 6e96 9fbd a08c 273c d85b f0bc 43ac 143d
00000190: d454 85bd 5ba9 91bd c756 f23c c99b b3bb
000001a0: 6efe 7ebd 91ce 82bd 64f9 91bd 9f8f 9c3c
000001b0: 3d76 193d dfa0 2cbd c901 6c3d 81cc 5d3d
000001c0: 355d 523c 7aa1 5bbd 278a 8abd 96c6 08bd
000001d0: 7b82 5bbd 49bf ac3c cfd0 713d ecae a33d
000001e0: e81c 31bd 9d4d 30bd bec2 533c fc71 a1bc
000001f0: 501d 653d 9d02 a4bd deec 2e3d b48f 813b

model.net.6.weight f4 [128, 128]
0.07237194 -0.030061306 0.03750206 0.018967614 -0.056750827 -0.064935245 0.05215658 -0.036903642
0.062368628 0.016014548 0.011445122 0.053866036 -0.021637715 -0.024246132 0.03334701 0.015697192
0.043925975 0.0594466 0.079790086 0.052465137 -0.00257353 -0.073482 -0.03290139 -0.01133589
0.00462896 -0.053339466 -0.030708002 0.068399824 -0.049216498 0.0034399398 0.016132524 0.0054675085
0.0032155516 0.08238614 0.06336782 0.049341194 -0.029616738 -0.06859819 0.061281834 -0.06026856
-0.046776406 -0.045866277 -0.0025784087 0.022858836 0.03552624 0.017189177 -0.072898716 0.027680686
-0.054042272 0.044422835 -0.06921505 0.01355348 -0.085699275 0.07126459 0.035106286 -0.010408259
-0.001760055 -0.0004620409 -0.06383776 -0.05897256 0.0016432037 0.059707284 0.044932738 0.059108384
0.06888178 0.027624805 -0.061607536 0.025567848 -0.046464093 -0.010901348 -0.057241835 0.044133708
-0.050066903 0.05151058 0.03733862 0.051057633 0.055381346 0.019670252 -0.038007148 0.04007942
0.074330725 0.055863526 -0.058055535 0.030826643 -0.029512748 0.07003085 -0.033948466 -0.016856277
0.030910973 -0.08275215 0.020347249 0.04926606 -0.01908106 -0.083191454 -0.08587721 -0.068534754
-0.07491938 0.04234011 -0.027155504 -0.024909528 0.062240202 0.021689545 -0.06307252 0.020458404
0.040213756 -0.03940909 0.020199528 -0.035923537 -0.08041436 -0.055421963 -0.04977107 0.0532848
0.07681606 -0.05951428 0.053542387 -0.0396672 -0.013760873 0.010207559 0.016359784 0.013472208
-0.082358055 0.020429155 -0.09276429 0.08833798 0.08299312 -0.08059567 0.036405906 0.06062016
-0.05699788 0.018645268 -0.037460145 -0.062007494 -0.037271373 -0.04102028 -0.06211033 -0.0067447373
0.085810095 0.020639671 -0.0013365538 -0.083185844 0.043773573 0.08251368 -0.009355308 0.08367944
0.085028395 0.030830486 -0.07453844 -0.024877736 -0.01899659 -0.001989217 -0.038818937 -0.032143943
-0.03160782 -0.013233276 -0.073420756 -0.053428583 0.025975607 0.069955304 0.07908371 0.062569104
-0.08757057 -0.014952137 -0.032712713 0.0350173 0.08484865 0.05997955 0.05528817 -0.04484517
0.072980806 -0.06116115 -0.064770035 0.033553798 0.06720177 0.049058385 -0.08780255 0.048035305
-0.0293399 0.018138863 -0.04056032 -0.045660194 -0.025102053 0.0061096954 0.04048821 -0.0429032
-0.03282038 0.05250046 -0.03721717 -0.06153727 0.0015408377 0.03980127 -0.012227485 0.006603339
0.08150502 0.03886372 0.001390554 0.059222307 -0.013240057 -0.046665605 0.03685515 -0.06331395
0.027733058 0.040896814 0.04334872 0.010152193 0.057210073 0.056662016 0.051113155 -0.062372204
0.019489454 0.03845923 0.06911081 0.08260707 -0.08388285 0.07694225 0.017692195 -0.047126897
-0.07813686 0.035435457 0.06417743 0.061473835 0.05153764 -0.06707005 -0.08802775 -0.018327087
-0.043189924 -0.059747092 -0.08552472 0.03507584 0.028311262 0.04382108 -0.04705108 -0.056801844
0.0046060206 0.047200285 0.037237335 0.030124487 -0.027752824 0.013581855 -0.030486299 0.06261769
0.060771246 0.0046044844 -0.008781223 0.074319296 -0.06339013 0.0031591174 0.0093966955 -0.027648425
-0.0034129948 -0.058790848 0.0021448233 0.048967358 0.061077096 0.06362913 0.033138327 0.085589126
00000000: bd37 943d 2143 f6bc c39b 193d f861 9b3c
00000010: 8e73 68bd c5fc 84bd 23a2 553d 4628 17bd
00000020: 3f76 7f3d f130 833c 5284 3b3c a2a2 5c3d
00000030: 9441 b1bc d39f c6bc e096 083d 6697 803c
00000040: b9eb 333d 477e 733d fc68 a33d afe5 563d
00000050: aba8 28bb bb7d 96bd 9cc3 06bd 2bba 39bc
00000060: 88ae 973b 7c7a 5abd 598f fbbc 3515 8c3d
00000070: 3d97 49bd 9d70 613b 5b28 843c c928 b33b
00000080: 01bc 523b 11ba a83d fdc6 813d fe19 4a3d
00000090: cd9e f2bc 357d 8cbd a902 7b3d 2adc 76bd
000000a0: 9e98 3fbd 47de 3bbd 85fa 28bb 7442 bb3c
000000b0: f683 113d 51d0 8c3c ec4b 95bd 9bc2 e23c
000000c0: 6e5b 5dbd b8f4 353d 9fc0 8dbd 6a0f 5e3c
000000d0: 1a83 afbd 2bf3 913d 9ccb 0f3d 6787 2abc
000000e0: a5b1 e6ba 143e f2b9 5fbd 82bd 368d 71bd
000000f0: c460 d73a a08f 743d 640b 383d a21b 723d
00000100: e411 8d3d 6a4d e23c 2f58 7cbd aa73 d13c
00000110: 2251 3ebd 919b 32bc 6a76 6abd 8cc5 343d
00000120: f412 4dbd c2fc 523d 61f0 183d cf21 513d
00000130: 8dd7 623d 8223 a13c 62ad 1bbd 512a 243d
00000140: b53a 983d 27d1 643d a4cb 6dbd 2888 fc3c
00000150: b8c4 f1bc 566c 8f3d 8c0d 0bbd 2d16 8abc
00000160: 0239 fd3c f679 a9bd 46af a63c 35cb 493d
00000170: e24f 9cbc 4860 aabd 64e0 afbd f35b 8cbd
00000180: 556f 99bd d36c 2d3d 3875 debc 110f ccbc
00000190: 95ef 7e3d 46ae b13c 2a2c 81bd 6298 a73c
000001a0: 2eb7 243d 6d6b 21bd 7b79 a53c 8f24 13bd
000001b0: 49b0 a4bd 2402 63bd c0dc 4bbd 2a41 5a3d
000001c0: bd51 9d3d 3fc5 73bd 434f 5b3d 137a 22bd
000001d0: 4975 61bc 9b3d 273c f404 863c 89ba 5c3c
000001e0: 57ab a8bd 0b5b a73c 34fb bdbd 8bea b43d
000001f0: 4cf8 a93d 580f a5bd 5c1e 153d d84c 783d
00000200: 9c76 69bd f6bd 983c cf6f 19bd 92fb 7dbd
00000210: dea9 18bd e204 28bd 6767 7ebd f502 ddbb
00000220: 34bd af3d 8714 a93c 4e2f afba 575d aabd
00000230: eb4b 333d effc a83d 0147 19bc 2060 ab3d
00000240: 5e23 ae3d 3790 fc3c 9ca7 98bd 65cc cbbc
00000250: bd9e 9bbc 865d 02bb 9b00 1fbd 5ea9 03bd
00000260: 3477 01bd 62d0 58bc 9f5d 96bd eed7 5abd
00000270: ccca d43c ba44 8f3d a4f6 a13d 3b24 803d
00000280: 3358 b3bd cff9 74bc c4fd 05bd 4d6e 0f3d
00000290: 21c5 ad3d 1ead 753d d975 623d 92af 37bd
000002a0: f676 953d 1d84 7abd 27a6 84bd b56f 093d
000002b0: 15a1 893d 72f1 483d d3d1 b3bd abc0 443d
000002c0: 3b5a f0bc f497 943c 9422 26bd 2f06 3bbd
000002d0: d2a2 cdbc d733 c83b f7d6 253d 44bb 2fbd
000002e0: aa6e 06bd b90a 573d 0871 18bd 810e 7cbd
000002f0: eff5 c93a a806 233d ca55 48bc d360 d83b
00000300: 1bec a63d 902f 1f3d 4043 b63a 1793 723d
00000310: d3ec 58bc 6f24 3fbd 6df5 163d bfaa 81bd
00000320: 7030 e33c 6b83 273d 6d8e 313d 6255 263c
00000330: 1c55 6a3d 6e16 683d 075c 513d ff79 7fbd
00000340: 59a8 9f3c 6d87 1d3d f889 8d3d e52d a93d
00000350: c6ca abbd e693 9d3d 39ef 903c 2208 41bd
00000360: 3806 a0bd c524 113d 756f 833d fdcb 7b3d
00000370: 2219 533d 065c 89bd e547 b4bd b022 96bc
00000380: ebe7 30bd 5eb9 74bd 9627 afbd afab 0f3d
00000390: 05ed e73c bc7d 333d a2b8 40bd 0da9 68bd
000003a0: 1aee 963b 1655 413d 2d86 183d a1c7 f63c
000003b0: e459 e3bc 6e86 5e3c 67be f9bc b43d 803d
000003c0: 45eb 783d 37e1 963b 1edf 0fbc b734 983d
000003d0: afd2 81bd 3209 4f3b 99f4 193c f37e e2bc
000003e0: 8dac 5fbb acce 70bd 2a90 0c3b ff91 483d
000003f0: fa2b 7a3d fd4f 823d 0ebc 073d 5a49 af3d

model.net.6.bias f4 [128]
-0.048022635 -0.08622907 -0.024867546 0.0070647122 0.0069738985 -0.0008730016 -0.0882291 -0.026520215
-0.051492956 -0.020024214 -0.04768485 -0.0042460123 -0.017785093 -0.07914425 0.040505815 0.025977563
0.022057168 0.031840608 -0.00415896 0.018861812 -0.08806765 0.05894415 0.071332164 -0.034217317
0.07243132 -0.02869815 0.034112677 -0.033637766 -0.05128866 -0.044327974 0.060928185 -0.02878238
-0.07024437 0.008904278 -0.056513693 -0.05728214 -0.050740972 -0.05382256 -0.055705033 0.03416271
-0.03099083 0.022402525 0.075350516 0.02317348 0.088623576 0.07238146 0.008363826 0.039663076
0.08302176 -0.0639509 -0.05578988 0.061867673 0.043240618 0.02572431 0.015434442 -0.051860984
0.034774102 -0.005617431 0.004948734 0.08058605 0.046353254 -0.0009310187 -0.020770932 -0.053033616
0.03752361 0.08631199 -0.044991504 -0.061679095 0.056053735 -0.07504419 0.08238582 0.011445875
0.07782943 0.005935955 0.026439244 -0.08177775 -0.015310228 0.06767501 -0.0343062 0.074700825
-0.013501983 -0.044503585 -0.045340203 -0.070150204 0.027975537 -0.04787336 0.03485876 -0.025697248
0.048248958 0.06106633 -0.06586794 -0.05173201 0.05805181 -0.024469456 -0.07252075 -0.049035933
-0.08304875 -0.05679108 0.0017809017 0.063397944 0.016415304 0.0077749942 -0.003407462 -0.05146384
0.03984123 0.061246295 0.030307448 0.07506368 0.08662688 0.008447798 -0.047740016 0.06341127
0.010520224 -0.016103653 -0.011773926 0.010161504 -0.043214276 0.051927432 -0.06870078 0.007922954
-0.08879233 0.03614615 -0.03980778 -0.008631888 0.07012298 0.014432474 0.004223796 0.033714294
00000000: 62b3 44bd de98 b0bd 06b7 cbbc 1a7f e73b
00000010: 4d85 e43b 25da 64ba 75b1 b4bd ec40 d9bc
00000020: 47ea 52bd d209 a4bc 3051 43bd 2222 8bbb
00000030: 0bb2 91bc 6116 a2bd 6de9 253d e6ce d43c
00000040: 3cb1 b43c 4c6b 023d e347 88bb 1684 9a3c
00000050: d05c b4bd 6c6f 713d 9916 923d 7527 0cbd
00000060: df56 943d 6218 ebbc bcb9 0b3d c1c7 09bd
00000070: 0f14 52bd 4091 35bd d58f 793d 07c9 ebbc
00000080: 48dc 8fbd 40e3 113c e77a 67bd ada0 6abd
00000090: c4d5 4fbd 0b75 5cbd f62a 64bd 33ee 0b3d
000000a0: 7be0 fdbc 8085 b73c 5f51 9a3d 4fd6 bd3c
000000b0: 4780 b53d bb3c 943d 6e08 093c c075 223d
000000c0: 5007 aa3d b1f8 82bd ee83 64bd f568 7d3d
000000d0: 131d 313d cabb d23c bee0 7c3c 2f6c 54bd
000000e0: 4a6f 0e3d 6d12 b8bb fd28 a23b 4d0a a53d
000000f0: e9dc 3d3d 9b0f 74ba cd27 aabc c739 59bd
00000100: 5bb2 193d 57c4 b03d 0349 38bd 38a3 7cbd
00000110: 9a98 653d c5b0 99bd e6b9 a83d 7b87 3b3c
00000120: 0965 9f3d 6682 c23b 1d97 d83c 187b a7bd
00000130: c0d7 7abc 3299 8a3d a884 0cbd bffc 983d
00000140: 6c37 5dbc 6449 36bd a6b6 39bd e9aa 8fbd
00000150: f42c e53c db16 44bd 0fc8 0e3d 0983 d2bc
00000160: b3a0 453d b020 7a3d c5e5 86bd f2e4 53bd
00000170: bcc7 6d3d 2b74 c8bc c285 94bd e7d9 48bd
00000180: 7715 aabd c39d 68bd 256d e93a c8d6 813d
00000190: 6379 863c 61c5 fe3b ba4f 5fbb bfcb 52bd
000001a0: 8f30 233d 65dd 7a3d 5347 f83c fdba 993d
000001b0: 6f69 b13d a268 0a3c 098b 43bd c5dd 813d
000001c0: 055d 2c3c cfeb 83bc 6de7 40bc 707c 263c
000001d0: 7401 31bd dcb1 543d ffb2 8cbd 47cf 013c
000001e0: c1d8 b5bd fc0d 143d 7c0d 23bd c36c 0dbc
000001f0: a39c 8f3d 2f76 6c3c c567 8a3b 0018 0a3d

model.net.8.weight f4 [128, 128]
0.003505435 0.056000773 0.0075596133 0.05335153 0.059570383 -0.0109691005 0.072879456 0.01765038
0.06352979 -0.081906006 -0.08581996 0.026578108 0.025500529 -0.033444036 -0.021193849 0.022197215
0.080053754 0.021395944 0.07843844 0.07642587 0.025648033 0.00861903 -0.022897728 -0.06432085
0.050956506 0.00013524055 -0.0362302 -0.016785257 -0.052653037 -0.007976238 0.051505238 0.069440946
-0.058370866 0.013279652 -0.036343347 -0.084789276 0.04722699 0.07017973 0.07325894 0.072698765
-0.030038113 0.02109653 0.030851638 -0.059644856 0.08048331 -0.0747973 0.0071093924 -0.028030427
0.040325865 0.06614987 0.007333982 -0.038883664 0.06699819 -0.08559251 -0.0049781715 -0.08139553
-0.0011386945 0.06266044 0.042677056 -0.04065481 -0.040352985 0.024519382 -0.056358635 -0.075436845
0.07036381 0.026539948 -0.067229435 -0.08230526 0.030507294 -0.028225683 -0.046272025 0.09001032
0.043889206 0.06988798 0.014320344 -0.003067372 -0.055590652 0.035820384 -0.03005697 -0.0074255057
0.003981696 0.06376132 0.032004 -0.08742479 0.002901497 0.06467239 -0.004316199 0.07297198
-0.035822913 -0.06304359 0.07858933 -0.03227226 0.06493694 0.06751262 -0.05936039 -0.08026993
-0.011614951 -0.050481055 0.066758305 0.044944786 0.07836163 -0.043887477 0.0138832955 0.0012669697
-0.06359037 -0.041352868 0.04287386 0.008854693 0.078919925 0.0048070154 0.028510805 0.032342624
-0.06284026 -0.06621686 -0.05288371 -0.033034164 0.026313687 -0.046800382 -0.07209972 -0.028233392
-0.076323204 -0.0067995386 -0.08436913 -0.012832068 -0.06740995 -0.079795964 0.06323775 0.08659603
-0.06070576 0.015383284 -0.0751567 -0.05628766 -0.07966094 -0.059282757 0.087814376 0.024554266
0.041242532 -0.052813638 0.03445405 0.03035105 0.028021399 0.0073493584 -0.043199766 0.033753153
0.07154837 -0.014795464 0.07913774 0.010848227 0.022801733 0.059824776 -0.014533327 0.02091549
-0.01719979 -0.07055767 0.004048456 0.02844176 0.0039814785 0.022627072 -0.021580312 0.0733375
-0.073035516 0.0038756963 0.0053170733 0.03467121 -0.029783012 0.018445797 -0.07092404 0.028346628
-0.028904015 0.05998905 0.074929364 0.07596237 -0.051582802 0.039861623 -0.03710886 0.015816934
0.03207326 -0.074151404 -0.08213646 0.007484713 0.009292629 -0.05974588 0.040635753 0.056560863
-0.01708299 -0.07996051 0.022180516 -0.04941888 -0.0053333486 -0.02244578 0.04850454 0.02532355
-0.06317863 -0.08032922 -0.044260528 -0.0841184 -0.0017464091 -0.03805824 -0.031585123 -0.08198436
0.06955908 -0.05577965 -0.03239696 0.06313659 -0.009093202 -0.021795835 0.039140895 -0.03621421
0.0603519 -0.007987243 0.04757175 0.00769608 -0.040416136 -0.03771045 0.0031928835 -0.022554034
0.052841857 0.05232372 -0.04869022 -0.049037676 -0.016774753 0.07379749 0.0014226929 0.070206344
0.02798685 0.0009462234 -0.07385517 -0.0059320843 -0.05678933 -0.048298303 0.044703107 -0.05019195
-0.046908285 0.0681694 -0.038876023 -0.06755432 -0.024707992 -0.002468903 -0.07343196 -0.08653319
-0.07651778 0.0023818396 -0.010962883 -0.08035444 -0.05534936 -0.0008006254 -0.076869555 -0.049894765
-0.03062806 -0.08927259 -0.016617183 -0.02890386 0.013678118 0.0014200987 0.038686797 -0.027758457
00000000: 71bb 653b 1161 653d a2b6 f73b 2287 5a3d
00000010: 1300 743d beb7 33bc d341 953d 8897 903c
00000020: e81b 823d 56be a7bd 60c2 afbd 55ba d93c
00000030: 7ce6 d03c 9dfc 08bd b99e adbc efd6 b53c
00000040: 39f3 a33d 8c46 af3c 55a4 a03d 2b85 9c3d
00000050: d31b d23c d536 0d3c 0494 bbbc a6ba 83bd
00000060: c5b7 503d 5ccf 0d39 1e66 14bd 3c81 89bc
00000070: b6aa 57bd c4ae 02bc 28f7 523d 0e37 8e3d
00000080: 4a16 6fbd e692 593c c3dc 14bd 00a6 adbd
00000090: 1771 413d 64ba 8f3d c808 963d 17e3 943d
000000a0: 7d12 f6bc a1d2 ac3c 93bc fc3c 2a4e 74bd
000000b0: 6fd4 a43d 542f 99bd e8f5 e83b 11a0 e5bc
000000c0: bc2c 253d 9579 873d e651 f03b 7a44 1fbd
000000d0: 5936 893d 204b afbd ee1f a3bb b3b2 a6bd
000000e0: 3f40 95ba 1e54 803d 23ce 2e3d a885 26bd
000000f0: 2c49 25bd dfdc c83c 50d8 66bd a27e 9abd
00000100: e71a 903d 4e6a d93c 96af 89bd a98f a8bd
00000110: 6fea f93c 8c39 e7bc bc87 3dbd 5557 b83d
00000120: 2bc5 333d 6e21 8f3d e09f 6a3c f605 49bb
00000130: 06b3 63bd 65b8 123d 093a f6bc a851 f3bb
00000140: e378 823b 4c95 823d a016 033d c50b b3bd
00000150: 0b27 3e3b f572 843d e76e 8dbb 5572 953d
00000160: 0cbb 12bd ff1c 81bd 71f3 a03d eb2f 04bd
00000170: a9fd 843d 0e44 8a3d e123 73bd 9064 a4bd
00000180: a34c 3ebc 39c5 4ebd 94b8 883d 0618 383d
00000190: 107c a03d 5bc3 33bd c376 633c 7310 a63a
000001a0: ab3b 82bd a061 29bd 809c 2f3d 4613 113c
000001b0: c5a0 a13d 2b84 9d3b 7e8f e93c b379 043d
000001c0: 65b2 80bd b59c 87bd 979c 58bd d54e 07bd
000001d0: cd8f d73c c2b1 3fbd 05a9 93bd b749 e7bc
000001e0: 574f 9cbd aace debb b9c9 acbd 983d 52bc
000001f0: 3a0e 8abd 116c a3bd cb82 813d 4259 b13d
00000200: 9aa6 78bd 2b0a 7c3c c2eb 99bd e48d 66bd
00000210: 4625 a3bd 7ad2 72bd 06d8 b33d 0726 c93c
00000220: eeed 283d 1d53 58bd b11f 0d3d c4a2 f83c
00000230: 228d e53c e3d2 f03b 3df2 30bd bf40 0a3d
00000240: f487 923d ad68 72bc f812 a23d c3bc 313c
00000250: b3ca ba3c d30a 753d 311d 6ebc f656 ab3c
00000260: 93e6 8cbc 8a80 90bd e9a8 843b b2fe e83c
00000270: 1077 823b 695c b93c 32c9 b0bc f931 963d
00000280: a593 95bd 65ff 7d3b d83a ae3b 6603 0e3d
00000290: 81fb f3bc a41b 973c a040 91bd 3037 e83c
000002a0: 1dc8 ecbc 14b7 753d 9174 993d 2992 9b3d
000002b0: 7d48 53bd f145 233d 76ff 17bd 8492 813c
000002c0: 405f 033d b1dc 97bd 2937 a8bd 5342 f53b
000002d0: 1c40 183c 19b8 74bd ad71 263d 5dac 673d
000002e0: a0f1 8bbc 56c2 a3bd eab3 b53c 746b 4abd
000002f0: 5fc3 aebb 36e0 b7bc b2ac 463d 5573 cf3c
00000300: cc63 81bd a583 a4bd 874a 35bd 4546 acbd
00000310: c4e7 e4ba f5e2 1bbd 675f 01bd 6be7 a7bd
00000320: fe74 8e3d 3479 64bd adb2 04bd c24d 813d
00000330: a7fb 14bc 2e8d b2bc 3452 203d 5a55 14bd
00000340: 8e33 773d eddc 02bc 98da 423d 662f fc3b
00000350: 648b 25bd 4676 1abd b23f 513b 3dc3 b8bc
00000360: b470 583d 6651 563d 656f 47bd bbdb 48bd
00000370: 356b 89bc 2323 973d a779 ba3a 58c8 8f3d
00000380: ae44 e53c fa0b 783a 6141 97bd ee61 c2bb
00000390: ee9b 68bd 71d4 45bd 9b1a 373d 1396 4dbd
000003a0: e722 40bd 669c 8b3d 773c 1fbd eb59 8abd
000003b0: 6a68 cabc 52cd 21bb 7f63 96bd 5038 b1bd
000003c0: 5bb5 9cbd a318 1c3b aa9d 33bc de90 a4bd
000003d0: 03b6 62bd 10e1 51ba c96d 9dbd 745e 4cbd
000003e0: b3e7 fabc 8cd4 b6bd c220 88bc cac7 ecbc
000003f0: 2f1a 603c 9b22 ba3a 0c76 1e3d b465 e3bc

model.net.8.bias f4 [128]
-0.06794311 0.005533728 -0.03996495 0.018748367 -0.07460658 0.0450388 0.06492663 0.07397626
-0.018455878 -0.0617709 0.04842574 0.050697945 -0.03845409 0.048553847 0.018508295 -0.026554467
0.051417585 0.045962244 0.02420873 -0.052220058 -0.014248711 0.078225434 -0.0019181338 -0.08428638
0.0018122832 -0.032816216 0.032078266 -0.046240818 -0.019558169 -0.06914271 -0.0795356 -0.05514731
-0.051987413 0.019895775 0.037715502 0.056260366 -0.04346087 -0.054208286 0.027216228 -0.045132015
-0.05712447 0.01723669 0.04434339 0.0068905847 -0.074861534 0.025849521 0.04118456 -0.011290561
-0.04791435 0.013741431 0.015657542 -0.04368392 -0.0326825 -0.043860912 -0.020692116 0.03315784
-0.038015496 0.006765717 -0.044447232 -0.024621801 0.011004559 0.03921364 0.058085192 -0.07210758
-0.005522997 -0.021574017 0.06156968 -0.03633376 -0.024191428 -0.055701997 0.042986065 -0.025636414
0.0049340096 -0.031270094 -0.0563088 -0.07382184 -0.0019546298 0.004781801 0.003100327 0.07599786
-0.0613486 -0.009412374 0.008910309 0.06347531 0.052981645 0.056214616 -0.07696004 0.026505781
-0.07343048 0.027887605 -0.07241726 0.07721342 0.08614086 0.015597035 0.011974102 -0.07272333
-0.0315426 -0.00017946308 -0.011771649 -0.084841326 -0.05211699 -0.04517462 0.043739397 0.016499186
-0.04443084 0.046903722 -0.07161984 0.017952116 0.058117423 -0.012596526 0.010091858 -0.027763486
-0.018102119 -0.04681316 0.015816236 -0.037659805 -0.024957044 -0.07289772 0.041176807 -0.077272795
-0.04418878 0.03978427 0.08039336 -0.07031307 -0.08766017 0.039091345 -0.031358235 0.036409833
00000000: c225 8bbd 4654 b53b 4ab2 23bd 2d96 993c
00000010: 56cb 98bd 9b7a 383d 41f8 843d de80 973d
00000020: c830 97bc 7c03 7dbd 125a 463d a6a8 4f3d
00000030: 0982 1dbd 66e0 463d b59e 973c c188 d9bc
00000040: 3f9b 523d e842 3c3d 6351 c63c b3e4 55bd
00000050: 6d73 69bc a834 a03d e469 fbba 569e acbd
00000060: 228a ed3a 4c6a 06bd 8064 033d 0367 3dbd
00000070: 7438 a0bc b19a 8dbd 90e3 a2bd 25e2 61bd
00000080: c1f0 54bd 77fc a23c 927b 1a3d 4571 663d
00000090: 0604 32bd 8209 5ebd 91f4 de3c 59dc 38bd
000000a0: 59fb 69bd f533 8d3c 6aa1 353d 6aca e13b
000000b0: 0151 99bd 60c2 d33c 24b1 283d 0cfc 38bc
000000c0: d641 44bd bd23 613c 3f44 803c e9ed 32bd
000000d0: 16de 05bd 80a7 33bd 8382 a9bc 84d0 073d
000000e0: 23b6 1bbd f3b2 dd3b 4d0e 36bd a9b3 c9bc
000000f0: 774c 343c 7b9e 203d bdea 6d3d 24ad 93bd
00000100: 42fa b4bb febb b0bc 7d30 7c3d b5d2 14bd
00000110: 1a2d c6bc c727 64bd 2812 303d 7503 d2bc
00000120: 79ad a13b 1215 00bd 0ea4 66bd e82f 97bd
00000130: 3f19 00bb a7b0 9c3b db2e 4b3b c4a4 9b3d
00000140: ab48 7bbd 5c36 1abc 8bfc 113c 58ff 813d
00000150: 4803 593d 4c41 663d 3a9d 9dbd a722 d93c
00000160: b862 96bd 8c74 e43c 804f 94bd 1222 9e3d
00000170: 9f6a b03d b58a 7f3c 062f 443c f8ef 94bd
00000180: d032 01bd 412e 3cb9 e0dd 40bc 4ac1 adbd
00000190: a078 55bd 0609 39bd 1528 333d 4d29 873c
000001a0: 1dfd 35bd 1e1e 403d 6cad 92bd 5110 933c
000001b0: 890c 6e3d a961 4ebc 5258 253c 4070 e3bc
000001c0: e54a 94bc 28bf 3fbd 0d91 813c 2b41 1abd
000001d0: b772 ccbc 664b 95bd 03a9 283d 3341 9ebd
000001e0: 4bff 34bd d5f4 223d 46a5 a43d 4d00 90bd
000001f0: 2d87 b3bd 3f1e 203d 7e71 00bd 7a22 153d
