results/edm_swiss_roll/checkpoints/epoch=7-step=256-v1.ckpt (torch, 842170 bytes, 37 tensors)

model.time_embedding.frequencies f4 [4]
0	0x3f800000	1.0
1	0x3d3e1e97	0.04641589
2	0x3b0d316b	0.0021544348
3	0x38d1b716	9.999999e-05

model.net.0.weight f4 [128, 10]
0	0x3e8b3f7c	0.27196872
1	0x3e968c81	0.2940407
2	0xbd50f1c5	-0.05101182
3	0x3e96718f	0.29383513
4	0xbd879a1c	-0.06621191
5	0x3d84fd8d	0.064936735
6	0xbe103147	-0.14081298
7	0x3e4b668a	0.19863334
8	0x3e95574a	0.2916816
9	0xbe605699	-0.21908034
10	0x3e9d9910	0.3078084
11	0x3dad9dbf	0.08477353
12	0x3e7dc8fe	0.24783704
13	0x3d0bc0d5	0.034119446
14	0x3e131738	0.14364326
15	0xbd5a8c0f	-0.053356227
16	0x3e82b7e2	0.25530916
17	0x3d6dd63b	0.058065634
18	0xbe0b94a0	-0.13630915
19	0x3dbc42df	0.09192442
20	0xbe1b7c5f	-0.15184163
21	0xbbe0b838	-0.006857898
22	0xbe170588	-0.14748204
23	0x3e57cf1b	0.21075098
24	0xbe7dc441	-0.24781896
25	0xbe0e7d5b	-0.13915007
26	0xbdd1fa73	-0.102528475
27	0xbe4fcffe	-0.20294186
28	0x3c8c0a79	0.017094838
29	0xbea67153	-0.32508335
30	0x3ea095e4	0.31364357
31	0xbe964c94	-0.293553
32	0x3e8b4a17	0.27204964
33	0x3d64b17e	0.055833332
34	0xbdcd341c	-0.10019705
35	0x3e48fa0a	0.19626632
36	0x3d831a5b	0.06401511
37	0x3e8a4e4d	0.27012864
38	0x3d4980ab	0.049194973
39	0xbdae4b5c	-0.085104674
40	0x3df1506b	0.11782917
41	0xbdaae528	-0.08344489
42	0x3e07e34a	0.13270298
43	0x3e8a86db	0.27056012
44	0x3e2f7df0	0.17137885
45	0xbe1881ff	-0.1489334
46	0x3e425c40	0.18980503
47	0x3d828e9a	0.06374855
48	0x3e2bc8be	0.16775796
49	0xbe3e07a3	-0.185576
50	0xbeb15065	-0.3463165
51	0xbe16fe00	-0.14745331
52	0xbe5c0882	-0.2148762
53	0x3e8b8df8	0.2725675
54	0x3dd25ad6	0.10271232
55	0x3e0ff094	0.14056617
56	0x3dde8560	0.10865283
57	0x3b40dece	0.0029429677
58	0x3e8306ae	0.25591034
59	0xbe5d7237	-0.21625601
60	0x3c2c7a6c	0.0105272345
61	0xbe7dd1d2	-0.24787071
62	0x3de489e4	0.11159113
63	0xbdde2a75	-0.10847942
64	0x3dc75f2f	0.09734952
65	0xbd88950d	-0.06669054
66	0x3e8a4d1d	0.27011958
67	0xbe380744	-0.17971522
68	0xbe393c0c	-0.18089312
69	0xbe393f17	-0.18090473
70	0x3e9f598d	0.3112301
71	0x3e0baa01	0.1363907
72	0x3ea1ceb0	0.31603003
73	0xbe8a6183	-0.2702752
74	0xbea5a611	-0.3235326
75	0xbe8332e8	-0.25624776
76	0xbe5209c8	-0.20511544
77	0x3e0abef7	0.1354941
78	0x3df7112b	0.120638214
79	0x3e8a5338	0.27016616
80	0xbe34adc5	-0.17644413
81	0xbe7de431	-0.2479408
82	0x3e3d33e4	0.18476826
83	0xbe03bf3e	-0.12865922
84	0x3e43ee26	0.19133815
85	0xbd9e3f16	-0.077268764
86	0x3e41bcab	0.18919627
87	0xbe735ce1	-0.23765899
88	0xbe1b3268	-0.15155947
89	0x3dd5e213	0.10443511
90	0x3dcc86cc	0.09986648
91	0xbd993fb4	-0.074828535
92	0x3e221dc5	0.15831669
93	0x3e4c7147	0.19965087
94	0xbe7a206a	-0.24426427
95	0xbe394c82	-0.18095592
96	0x3e8f5f87	0.2800257
97	0xbdedfdb6	-0.11620657
98	0xbdf90817	-0.12159746
99	0xbea1853b	-0.3154696
100	0xbe56264c	-0.20913047
101	0x3ddf1415	0.10892502
102	0xbcba38e5	-0.022732208
103	0xbe535083	-0.20636182
104	0x3cf0ae45	0.029379973
105	0xbe480a10	-0.19535089
106	0xbe889e2a	-0.2668317
107	0xbe304de7	-0.17217217
108	0xbe8cb11f	-0.27478883
109	0xbe4c296a	-0.19937673
110	0x3eafa139	0.3430269
111	0x3d85acaa	0.06527074
112	0x3dfe004e	0.12402402
113	0xbe935f03	-0.28783426
114	0xbe4f29cf	-0.20230792
115	0xbdd29ed6	-0.10284202
116	0x3d80b792	0.06285013
117	0xbe87aa17	-0.26496956
118	0xbdfbd86e	-0.1229714
119	0xbe344200	-0.17603302
120	0xbce1d4ab	-0.027567228
121	0xbe14f8fd	-0.14548106
122	0xbba1d86d	-0.00493913
123	0xbe59f9e5	-0.21286733
124	0xbe5c9585	-0.21541412
125	0xbe3c910b	-0.18414705
126	0xbdd37ca6	-0.10326509
127	0xbe7aa6dd	-0.24477716
128	0x3e8a36fe	0.2699508
129	0xbd6d63fb	-0.057956677
130	0x3e94f8e7	0.29096147
131	0x3e0007e6	0.12503013
132	0xbe80a16d	-0.25123158
133	0x3e650043	0.22363381
134	0xbdab0f90	-0.08352578
135	0xbdf110eb	-0.11770805
136	0xbe831f94	-0.2561003
137	0xbe9dbf6d	-0.3081011
138	0x3dc627a4	0.096755296
139	0xbd809cac	-0.06279883
140	0x3de8eed3	0.11373677
141	0xbe91eb30	-0.28499746
142	0x3e819847	0.2531149
143	0xbe6e059a	-0.23244324
144	0xbd60c7cd	-0.054878045
145	0x3d84dc8c	0.064873785
146	0x3e30f069	0.17279209
147	0x3e877e20	0.26463413
148	0x3e9844f5	0.2974011
149	0xbe773525	-0.24141367
150	0x3dc50cd1	0.09621585
151	0xbe1cbee1	-0.1530719
152	0xbc9d29ba	-0.019184936
153	0xbe73964d	-0.23787804
154	0x3e92f53e	0.2870273
155	0xbe706d75	-0.23479255
156	0x3e35ff2e	0.17773125
157	0x3df53df4	0.11974707
158	0x3de4170d	0.11137209
159	0xbe26407d	-0.16235538
160	0x3ea32584	0.3186456
161	0x3d8320bc	0.06402728
162	0x3d8a8dd4	0.06765333
163	0xbe8ed91b	-0.27900013
164	0x3e060bcb	0.13090436
165	0xbd54b838	-0.051933497
166	0xbe047419	-0.12934913
167	0x3e92e5eb	0.28691038
168	0x3dafaf5d	0.0857837
169	0xbe23833a	-0.15968028
170	0xbe41dd67	-0.18932115
171	0x3b6d3d0c	0.0036199717
172	0x3e5118bd	0.20419593
173	0xbd88e2a5	-0.06683854
174	0xbe2e2b26	-0.17008647
175	0xbdccbb28	-0.09996635
176	0xbe6d4be6	-0.23173484
177	0x3df000bb	0.11718889
178	0x3e7f2667	0.24916993
179	0xbe962d18	-0.2933128
180	0x3d9c20ce	0.076234445
181	0x3e49d8c3	0.19711594
182	0x3da07312	0.07834448
183	0xbde77a7d	-0.1130266
184	0x3e28c028	0.16479552
185	0x3e29dcec	0.16588181
186	0x3e00ffdb	0.12597601
187	0xbd44b24e	-0.048021607
188	0xbd9c0ca8	-0.076196015
189	0x3d297594	0.041371897
190	0xbdae3c81	-0.08507634
191	0xbdf0cc99	-0.11757774
192	0x3e60d6df	0.21956967
193	0x3e8a92a0	0.2706499
194	0xbd0bbcc4	-0.034115568
195	0xbd9855e7	-0.074382596
196	0x3c16ba2a	0.009199658
197	0xbc6eb332	-0.014569091
198	0x3da47d47	0.08031707
199	0x3dbe4796	0.09290998
200	0xbea144d8	-0.31497836
201	0xbe186d5c	-0.14885467
202	0x3e976470	0.29568815
203	0x3e07156b	0.13191764
204	0xbc2e0b79	-0.0106228525
205	0xbe40a6b0	-0.18813586
206	0xbe2f60d0	-0.17126775
207	0xbe85fb8a	-0.26168472
208	0xbda7003e	-0.08154343
209	0x3e0367f9	0.12832631
210	0x3e6b6894	0.22989112
211	0x3e3741c3	0.1789618
212	0xbe8b4509	-0.27201107
213	0xbe4c763d	-0.1996698
214	0xbd72fc89	-0.059322868
215	0x3e98a9f2	0.29817158
216	0x3d526901	0.05136967
217	0xbd9c8871	-0.07643212
218	0x3e0b8e99	0.13628615
219	0xbdeb7e96	-0.11498754
220	0xbe737941	-0.23776723
221	0x3e712912	0.23550823
222	0xbdd9e704	-0.10639766
223	0xbd24af0d	-0.040206004
224	0xbe95f809	-0.29290798
225	0x3e6ba995	0.23013909
226	0x3e81946d	0.25308552
227	0x3e03d1d1	0.12873007
228	0xbe53fe00	-0.20702362
229	0xbe98e53e	-0.29862398
230	0xbe8f2b48	-0.27962708
231	0x3e895495	0.26822343
232	0x3e40cf9b	0.18829195
233	0x3e932f0d	0.28746834
234	0x3e3bd2ba	0.18342105
235	0x3dc1ca11	0.09462369
236	0x3c96ddaf	0.018416254
237	0xbe603c54	-0.21898013
238	0xbe7f6ab6	-0.2494305
239	0xbe8c6e3d	-0.27427855
240	0x3e1c211e	0.15247008
241	0xbe3cc2dc	-0.18433708
242	0xbd312599	-0.043248747
243	0xbe3a2e1f	-0.18181656
244	0xbd6b48e1	-0.05744255
245	0xbe65f2a9	-0.22455849
246	0xbe477387	-0.19477664
247	0x3def0250	0.11670363
248	0xbda84c3c	-0.082176656
249	0x3e53fea7	0.20702611
250	0xbdf4c37a	-0.11951347
251	0xbe86c84b	-0.26324686
252	0xbd1404b4	-0.036137298
253	0xbe1b0040	-0.15136814
254	0xbdc322d2	-0.09528126
255	0xbe99fede	-0.3007726

model.net.0.bias f4 [128]
0	0xbe5d1303	-0.21589284
1	0xbd8aa54f	-0.06769811
2	0xbd2fe419	-0.04294214
3	0xbe25392d	-0.16135092
4	0xbe67d6ef	-0.22640584
5	0x3e626f76	0.22112831
6	0x3e63a539	0.22230996
7	0xbe8f40a1	-0.27978995
8	0x3dde8508	0.108652174
9	0x3df40572	0.11915101
10	0x3e9ad22d	0.30238476
11	0x3e48f28a	0.19623771
12	0x3e974edc	0.29552352
13	0xbdc72b64	-0.09725073
14	0x3e6c5a30	0.23081279
15	0x3e881b20	0.26583195
16	0xbe9111fb	-0.2833403
17	0xbe7f6d61	-0.24944068
18	0x3d9287bb	0.07154795
19	0x3e35365e	0.1769652
20	0xbe0ad3ef	-0.13557409
21	0x3d25033d	0.04028629
22	0x3c553b78	0.013014667
23	0x3dcff5db	0.10154315
24	0xbe21ea0c	-0.15811938
25	0x3e3ee35c	0.18641418
26	0x3e5ed760	0.21761847
27	0xbe51b8f1	-0.20480706
28	0x3c09919b	0.008396531
29	0x3b8ff65d	0.0043933825
30	0x3dd5328f	0.10410034
31	0x3e9b3352	0.30312592
32	0x3d9c256f	0.076243274
33	0xbd681939	-0.05666468
34	0x3e97d690	0.29655886
35	0xbdeefd24	-0.116693765
36	0xbd9df88a	-0.07713421
37	0x3d0c79d8	0.034295887
38	0xbe7a42a1	-0.2443948
39	0x3d393c37	0.04522344
40	0xbe469362	-0.1939216
41	0x3d2148d2	0.039376087
42	0x3ca7e5e8	0.02049537
43	0x3d4c8343	0.04992987
44	0xbe84f90a	-0.25971252
45	0xbe92450c	-0.28568304
46	0x3e1e71f2	0.15473154
47	0x3e90a44e	0.28250355
48	0xbe8d43e2	-0.27590853
49	0x3df7bd7c	0.12096688
50	0xbe69adf6	-0.22820267
51	0x3cf6d02d	0.030128563
52	0x3e992c10	0.2991643
53	0x3e720886	0.23636064
54	0xbe637768	-0.22213519
55	0x3e48f8ee	0.19626209
56	0x3e165724	0.14681679
57	0x3bc572e5	0.0060256594
58	0x3e9f3b90	0.3110013
59	0xbdebec7d	-0.11519716
60	0xbd75a29f	-0.05996954
61	0xbe24b400	-0.1608429
62	0x3d4c3368	0.049853712
63	0x3dda4f94	0.106597096
64	0x3d1c09a8	0.038095146
65	0xbe29abb7	-0.1656941
66	0xbe08e185	-0.13367279
67	0x3dc0c218	0.094120204
68	0xbe85e434	-0.26150668
69	0xbd27e85e	-0.040993087
70	0x3acdae8a	0.0015692275
71	0xbe00d1cd	-0.12580033
72	0x3df73125	0.120699205
73	0x3cfb8e99	0.030707644
74	0x3e69c579	0.22829236
75	0xbcc15f74	-0.023605086
76	0xbe42bcf6	-0.19017395
77	0x3e67f92f	0.2265365
78	0x3d41105a	0.047134735
79	0xbda94f29	-0.08267052
80	0xbe4f63be	-0.20252892
81	0x3daa3ec1	0.083127506
82	0xbe9303b4	-0.28713763
83	0x3da8b756	0.082380936
84	0x3e27efe2	0.16400102
85	0xbe8cf46a	-0.27530223
86	0xbe476760	-0.19473028
87	0xbe62f896	-0.2216514
88	0x3e8f8586	0.28031558
89	0x3e89b02c	0.2689222
90	0x3d16801b	0.036743265
91	0x3e98a707	0.29814932
92	0xbdcc282b	-0.09968599
93	0xbe94fd8b	-0.29099688
94	0x3e044c6d	0.12919779
95	0x3df8cfaf	0.121489875
96	0x3ea4426a	0.3208192
97	0x3badbae3	0.0053018196
98	0x3e7cb608	0.24678814
99	0x3e3ceb1e	0.18449065
100	0x3e6e4266	0.23267516
101	0xbe9a6836	-0.30157632
102	0x3e8c991d	0.27460566
103	0xbe90fadf	-0.283164
104	0x3e94d854	0.29071295
105	0xb9f281b4	-0.00046254473
106	0xbe8c75b3	-0.27433547
107	0x3dd35c60	0.103203535
108	0xbd8381e3	-0.06421258
109	0xbe90459a	-0.28178102
110	0xbdde65ff	-0.10859298
111	0x3d2dd2b8	0.042437285
112	0x3e804bb6	0.25057763
113	0xbda59ceb	-0.0808657
114	0x3e3f7059	0.18695201
115	0x3d2b58c3	0.041832697
116	0x3c9147cf	0.017734436
117	0x3d8c5bca	0.06853445
118	0xbe5a2795	-0.21304162
119	0xbe81f2d1	-0.25380567
120	0xbdbcd6d2	-0.09220661
121	0xbe92b192	-0.286511
122	0xbe0db70b	-0.13839357
123	0x3c9f7858	0.019466564
124	0xbe4cea6a	-0.20011297
125	0xbdf2681d	-0.11836264
126	0xbd3da4a1	-0.04629958
127	0xbd0eeafe	-0.034892075

model.net.2.weight f4 [128, 128]
0	0xbda31ef5	-0.07964889
1	0xbcc81f09	-0.024428861
2	0xbc63dd5f	-0.013907759
3	0xb9f1fe49	-0.0004615656
4	0xbcd82f0e	-0.026389625
5	0xbc897cc0	-0.016783118
6	0xbcb0da72	-0.021588538
7	0xbd098e70	-0.033583105
8	0xbccc2a7f	-0.024922607
9	0xbc6b52c4	-0.014362995
10	0xbbe8d912	-0.007105955
11	0x3bfef053	0.0077801137
12	0x3d0f3802	0.034965523
13	0x3d4e50e7	0.050370123
14	0x3989bab1	0.00026269772
15	0xbd819ef4	-0.06329146
16	0x3c262b6e	0.01014219
17	0xbd5f2fd2	-0.054488964
18	0xbd1b97df	-0.037986632
19	0xbc467321	-0.01211241
20	0xbcd37074	-0.025810458
21	0xbd858074	-0.06518641
22	0x3dcb63b7	0.099311285
23	0x3d4a8548	0.049443513
24	0xba634ce9	-0.00086708233
25	0x3dce656a	0.10077937
26	0xbdde4af1	-0.10854138
27	0x3b2e0a46	0.0026556416
28	0x3d9f3799	0.07774276
29	0x3d6a1402	0.057147987
30	0xbdab5184	-0.08365157
31	0x3c995e92	0.018721852
32	0xbd55e141	-0.052216772
33	0xbd111ecf	-0.035429772
34	0xbbf817d2	-0.007571199
35	0xbdc401e7	-0.09570675
36	0xbda8e9a9	-0.08247692
37	0xbdaed66f	-0.08536994
38	0x3ccb5cc3	0.024824506
39	0x3d559998	0.05214843
40	0xbda92d58	-0.08260602
41	0xbcec11e8	-0.028817132
42	0xbb4f7a3c	-0.003165855
43	0xbddcb019	-0.107757755
44	0x3d3e2ec8	0.046431333
45	0x3dbaa90c	0.091142744
46	0x3ca5430e	0.020173576
47	0xbdc7d274	-0.097569376
48	0x3c4e7ed8	0.012603484
49	0x3ca2423e	0.019806977
50	0x3d875d29	0.06609566
51	0xbd1147f4	-0.03546901
52	0xbd95281a	-0.072830394
53	0x3caee619	0.021349953
54	0x3cee5851	0.029094847
55	0xbc9f9b00	-0.01948309
56	0xbd44b9b3	-0.04802866
57	0xbcbe0959	-0.023197817
58	0x3d706805	0.05869295
59	0xbd29117d	-0.041276444
60	0x3db293e2	0.08719613
61	0x3d52946e	0.051411085
62	0x3d189c2d	0.037258316
63	0x3ca6e1dc	0.02037137
64	0xbb9f3338	-0.0048584007
65	0x3cfce693	0.030871665
66	0xbd4afe8c	-0.04955916
67	0x3cef8646	0.029238831
68	0xbcbd8cef	-0.023138491
69	0x3cffeca4	0.031240769
70	0xbce56001	-0.02799988
71	0xbd26998a	-0.04067377
72	0xbc69bfd7	-0.01426693
73	0x3cbaae4a	0.022788186
74	0xbda71b51	-0.08159507
75	0xbd988b4a	-0.07448442
76	0xbba5e7ed	-0.005063048
77	0xbd833e33	-0.06408348
78	0x3d1ef66a	0.038809218
79	0x3d85b2d2	0.06528248
80	0x3bc6df32	0.0060690874
81	0x3dcd32f3	0.100194834
82	0xbd7de231	-0.06198329
83	0xbd961fbf	-0.07330274
84	0xbd10a0d1	-0.035309616
85	0xbd745953	-0.0596555
86	0xbd8b3064	-0.06796339
87	0xbdb31fe6	-0.087463185
88	0xbdc8c951	-0.09804023
89	0x3c96114c	0.018318795
90	0x3cf8ecd3	0.030386364
91	0x3ddd5064	0.10806349
92	0x3dcf42ce	0.10120164
93	0xbcf86b73	-0.030324673
94	0x3cdef5b8	0.027216777
95	0xbcb66128	-0.022263125
96	0x3d740e97	0.059584226
97	0xbdba2574	-0.09089175
98	0x3cff44aa	0.031160671
99	0x3c12d8f4	0.0089628585
100	0x3b57d786	0.0032934858
101	0x3ca72180	0.020401716
102	0xbc1d004d	-0.009582591
103	0x3d6f8211	0.05847365
104	0x3d8614a6	0.06546907
105	0x3d1b2a16	0.037881933
106	0x3d23150c	0.039814994
107	0x3d027b8a	0.031856097
108	0x3db6c305	0.08923916
109	0x3c4c2a08	0.012461193
110	0x3dc44c1c	0.09584829
111	0x3b539705	0.003228606
112	0x3d97d57e	0.07413767
113	0x3d1b987a	0.03798721
114	0x3cb195e6	0.021677922
115	0x3dd97001	0.10617066
116	0x3c17ea1c	0.009272125
117	0xbccdffd1	-0.025146397
118	0xbcf08b84	-0.029363401
119	0x3ca0c7eb	0.019626578
120	0x3d1077af	0.03527039
121	0xbd5d73a4	-0.05406536
122	0x3dc51a57	0.096241646
123	0x3d1686e0	0.03674972
124	0xbd627bc1	-0.055293802
125	0x3c06304d	0.008190227
126	0xbcc43b81	-0.023954155
127	0xbd5673a0	-0.052356362
128	0x3d2e07fc	0.042488083
129	0xb91fa834	-0.00015226082
130	0xbd6399bf	-0.055566546
131	0xbcad0baf	-0.021123735
132	0xbca001a7	-0.019532038
133	0x3d728acc	0.0592144
134	0x3b8b4eb8	0.0042513274
135	0x3df067ee	0.11738573
136	0xbc0f7c1e	-0.008757619
137	0x3c817497	0.015802665
138	0x3ce20a02	0.027592663
139	0x3d040156	0.032227837
140	0xbda9db53	-0.08293786
141	0xbd53fac1	-0.05175281
142	0xbca72479	-0.020403134
143	0x3b9e23d1	0.004826047
144	0x3d696306	0.0569792
145	0x3cab8dbc	0.020941608
146	0x3dcbedeb	0.099574886
147	0x3c2bd2b7	0.01048725
148	0xbd3ea419	-0.046543214
149	0xbd11da9a	-0.035608865
150	0xbd92eed4	-0.07174459
151	0xbd763c5a	-0.06011615
152	0x3c95acea	0.018270928
153	0x3d0e07f8	0.03467557
154	0x3d9b1c15	0.075737156
155	0xbd2561a0	-0.040376306
156	0xbcf45d0d	-0.029829526
157	0xbd2366e5	-0.03989305
158	0xbcbc8cd3	-0.023016369
159	0x3d3e40dd	0.046448577
160	0xbc44aff1	-0.012004838
161	0x3d08b9ee	0.03338044
162	0x3c336962	0.010950418
163	0x3d76783e	0.060173266
164	0xbd2b91ce	-0.041887097
165	0xbcd27445	-0.025690207
166	0x3c694e62	0.014239879
167	0xbd080e44	-0.03321673
168	0xbd37f92a	-0.044915356
169	0x3cab9876	0.020946722
170	0xbc2f1b75	-0.010687699
171	0x3c386d0d	0.0112564685
172	0xbd25358e	-0.040334277
173	0xbd21ff50	-0.039550126
174	0xbd7faaf0	-0.062418878
175	0x3d4daae3	0.0502118
176	0x3c20b5dd	0.009808985
177	0x3d970450	0.073738694
178	0xbb8876fe	-0.0041645756
179	0xbbf72d18	-0.0075432174
180	0x3d181ffd	0.03713988
181	0x3d3f2c78	0.046673268
182	0xbd630649	-0.055425916
183	0x3d7b5923	0.061364304
184	0x3c9b6dc1	0.018973233
185	0xbdb43513	-0.087991856
186	0x3d00d9b3	0.031457614
187	0xbcdab2c7	-0.026696576
188	0xbccfd3b3	-0.0253695
189	0xbd2ec03f	-0.04266381
190	0xbdb000da	-0.085939124
191	0x3d6593a2	0.056048997
192	0xbddc0667	-0.10743409
193	0x3d56b6ea	0.052420534
194	0xbdd634a3	-0.104592584
195	0xbc5deba9	-0.013544955
196	0xb98afdee	-0.00026510603
197	0x3dabf789	0.08396823
198	0xbcabe9b2	-0.020985458
199	0x3cbe0cf6	0.02319954
200	0x3c20f323	0.009823593
201	0x3d487e97	0.04894885
202	0x3cdae2ac	0.026719414
203	0x3d66ca37	0.05634519
204	0xbd96fbfa	-0.073722795
205	0xbcfd34eb	-0.030909022
206	0x3da5c5c6	0.08094363
207	0xbd88b6b8	-0.06675476
208	0x3b579d76	0.003290025
209	0xbc296994	-0.010340113
210	0x3de2c5eb	0.11072906
211	0xbc2c68d5	-0.010523041
212	0xbd8e2ed7	-0.06942528
213	0xbc8d875e	-0.017276462
214	0x3c9edee7	0.019393397
215	0x3d7e1e79	0.06204078
216	0x3dc6f1ca	0.09714086
217	0xbd0ad668	-0.03389588
218	0x3d629cd9	0.055325363
219	0xbda09eee	-0.078428134
220	0x3c62cd4a	0.01384289
221	0x3d3bda02	0.045862205
222	0x3d21ad8e	0.039472155
223	0xbdaa4016	-0.08313005
224	0xbd24a122	-0.04019273
225	0x3d195de5	0.03744306
226	0xbd6e54a5	-0.058186192
227	0xbd86a271	-0.06573952
228	0xbdb9f53a	-0.090799764
229	0xbc9b9839	-0.018993484
230	0x3cb81565	0.02247114
231	0x3c87de75	0.016585568
232	0x3c0795a8	0.008275427
233	0x3d0a45c0	0.033757925
234	0xbd82af95	-0.06381146
235	0x3cd54c16	0.026037257
236	0xbd57ed2b	-0.052716415
237	0xbc7cdb07	-0.01543308
238	0x3d8b3616	0.067974254
239	0xbdae5370	-0.08512008
240	0x3bc46bdb	0.0059943027
241	0xbdafe1bb	-0.085879765
242	0x3c4d9d59	0.012549722
243	0xbd0fba37	-0.035089698
244	0x3cee346a	0.029077727
245	0xbd39cc77	-0.04536101
246	0x3d9aa9f3	0.075519465
247	0xbd9b8606	-0.07593922
248	0x3d2ab428	0.041675717
249	0xbd5d4aae	-0.0540263
250	0x3d0855ec	0.033285066
251	0xbc916ba0	-0.017751515
252	0xbc2cbdf5	-0.010543336
253	0xbd3bc128	-0.045838505
254	0x3d851bde	0.06499456
255	0x3d25abb0	0.040446937

model.net.2.bias f4 [128]
0	0xbadbe96d	-0.001677794
1	0xbd0428ad	-0.032265354
2	0xbd8205f3	-0.06348791
3	0xbd4fb023	-0.050705086
4	0xbd3b840f	-0.045780238
5	0x3dbbff99	0.09179611
6	0x3b2127b3	0.0024590313
7	0xbd4699f9	-0.048486684
8	0x3aad8da9	0.001324107
9	0xbbe1d8d3	-0.0068923025
10	0x3cd16217	0.025559468
11	0x3d11127a	0.03541801
12	0x3d7ba247	0.061434057
13	0xbd1e4cb6	-0.038647376
14	0xbca51c0b	-0.020154973
15	0xbd9142eb	-0.07092842
16	0xbcd73f3d	-0.026275272
17	0xbd98b577	-0.07456487
18	0xbbc3a7bd	-0.0059709237
19	0xbd2d3b53	-0.042292904
20	0xbce0b166	-0.02742834
21	0x3db6c99f	0.08925175
22	0x3dadd3ed	0.08487687
23	0x3c8ca634	0.017169096
24	0x3d4dce2f	0.05024546
25	0x3d66a6d2	0.056311436
26	0x3becce67	0.0072267535
27	0x3cbddba4	0.023176022
28	0xbaae0695	-0.0013277108
29	0xbd8bcfac	-0.0682672
30	0x3d9988fc	0.07496831
31	0xbd7d7b3d	-0.061885107
32	0xbc936e3d	-0.017996902
33	0xbd92112a	-0.0713218
34	0xbd4d9798	-0.0501934
35	0x3dbdb953	0.092638634
36	0xbbe21513	-0.006899485
37	0x3cdf50c4	0.027260192
38	0x3cd5cae9	0.026097732
39	0x3d983706	0.0743237
40	0x3ccf998c	0.025341772
41	0x38c43edd	9.3577175e-05
42	0xbd05daf7	-0.032679524
43	0x3c9f65ff	0.019457815
44	0x3cc68e58	0.024237797
45	0xbd5b8084	-0.05358936
46	0xbd67278b	-0.056434195
47	0xbd18e668	-0.037329108
48	0x3da339cc	0.07970008
49	0x3d31aca9	0.043377552
50	0x3d4cdf35	0.050017554
51	0x3d8e3f2a	0.06945641
52	0x3b582811	0.0032982866
53	0xbd5824aa	-0.05276934
54	0x3db41d15	0.087946095
55	0x3c971470	0.018442363
56	0xbcf2dc72	-0.029646132
57	0x3d2d16b8	0.042257994
58	0xbd83c727	-0.0643447
59	0x3c0d543f	0.008626043
60	0x3daf6423	0.085640214
61	0x3d04dbc0	0.032436132
62	0xbda40fa5	-0.080107965
63	0x3daddefc	0.084897965
64	0x3cb6f799	0.02233486
65	0xbcb63922	-0.02224404
66	0x3d8fb629	0.07017166
67	0x3d1703bc	0.036868796
68	0x3d67cffa	0.056594826
69	0x3d495ead	0.049162555
70	0xbd2eb057	-0.04264864
71	0xbd6a3e48	-0.057188302
72	0x3d84b26f	0.06479346
73	0xbc06f97a	-0.008238191
74	0x3d8b3ff5	0.06799308
75	0x3d4d2bff	0.050090786
76	0xbda5c475	-0.08094112
77	0x3d5903f0	0.05298227
78	0x3d496ad6	0.049174152
79	0xbda42a03	-0.080158256
80	0x3bdfea0f	0.006833322
81	0xbd8425ee	-0.06452547
82	0x3d4b96db	0.049704414
83	0x3d68de2e	0.056852512
84	0x3d07a229	0.033113632
85	0x3d744f3d	0.05964588
86	0xbd42bce9	-0.04754344
87	0xbadde0c4	-0.0016927947
88	0xbc8bdc69	-0.017072873
89	0x3d8c85ee	0.068614826
90	0x3d929451	0.07157195
91	0xbd031860	-0.032005668
92	0xbd8b78a8	-0.06810123
93	0x3b43652b	0.002981494
94	0x3d9c345c	0.07627174
95	0xbcc9ba3b	-0.024624934
96	0x3d1fe9e7	0.039041426
97	0xbd74c96a	-0.059762396
98	0xbd6218be	-0.055199377
99	0xbd9244d8	-0.07142037
100	0xbd8f7f2d	-0.07006679
101	0xbd0e39a7	-0.03472295
102	0xbcf46a9b	-0.02983599
103	0x3d142f56	0.036177956
104	0x3da3252e	0.07966076
105	0x3cac2835	0.021015266
106	0x3d21857d	0.039433945
107	0xbd4cbb26	-0.049983166
108	0xbcf5c890	-0.030002862
109	0xbd9f0851	-0.07765258
110	0x3dad84c0	0.08472586
111	0x3c5f5269	0.013630488
112	0xbc95e7c5	-0.018298993
113	0xbd95e93a	-0.07319875
114	0x3c9ef64b	0.019404551
115	0xbda88ceb	-0.08230003
116	0x3d80d15c	0.06289932
117	0xbda01cc6	-0.07817988
118	0x3c93cd0e	0.018042114
119	0x3d72335f	0.059131023
120	0xbd898dbc	-0.06716487
121	0x3d867378	0.06564993
122	0x3d909fc9	0.070617266
123	0x3d86412f	0.065554015
124	0x3da1358f	0.078715436
125	0xbd12f1cc	-0.035875127
126	0xbc3c7ea7	-0.011504806
127	0x3dadc3ac	0.08484587

model.net.4.weight f4 [128, 128]
0	0x3c54d5dc	0.012990441
1	0xbd5694a2	-0.05238784
2	0x3d927bf0	0.071525455
3	0xbd10b492	-0.035328455
4	0xbd24e22d	-0.04025476
5	0x3c9facb7	0.019491537
6	0x3dbb7a46	0.09154181
7	0xbd7b1ea1	-0.061308507
8	0x3c56554a	0.013081858
9	0xbb2b142f	-0.002610456
10	0xba7de4ac	-0.0009685259
11	0x3d436f11	0.047713343
12	0x3c8c6dc2	0.01714218
13	0xbdc3676f	-0.09541213
14	0x3c4c3160	0.012462944
15	0x3d097337	0.033557143
16	0xbc814955	-0.015782038
17	0x3d922e2d	0.071377136
18	0xbdc1aeb9	-0.09457154
19	0x3b9f1c18	0.004855644
20	0x3d8f40d0	0.06994784
21	0x3d1af76e	0.037833624
22	0x3d59cbca	0.053172864
23	0xbc0fba24	-0.008772407
24	0xbbd62f9f	-0.0065364386
25	0x3d8b2501	0.06794167
26	0xbcbe65ec	-0.02324196
27	0x3d8ce9cc	0.06880531
28	0x3dc3a2a8	0.095525086
29	0xbdc26a56	-0.09492938
30	0x3dccef79	0.10006613
31	0xbb79acdd	-0.003809742
32	0xbd1e26c5	-0.038611192
33	0xbd875558	-0.06608075
34	0xbcfb5627	-0.03068073
35	0x3ddab8a5	0.106797494
36	0x3d4cff3d	0.0500481
37	0xbb0770db	-0.0020666632
38	0xbceff03e	-0.029289361
39	0xbd28c481	-0.041203026
40	0xbcb3fec0	-0.02197206
41	0x3b9938d6	0.004675965
42	0xbd96474e	-0.07337819
43	0xbdd9f62d	-0.106426574
44	0xbd0e406a	-0.0347294
45	0x3d4b734a	0.049670495
46	0x3ced38fa	0.028957833
47	0x3d47f5e5	0.048818488
48	0x3db2026b	0.086918674
49	0x3d3d15b9	0.046163294
50	0xbd0679d9	-0.032831047
51	0x3d70445c	0.058658943
52	0xbd176262	-0.03695906
53	0x3d8eb3d6	0.06967895
54	0xbd5ce8d8	-0.053932995
55	0xbd33bb88	-0.043880016
56	0xbb5c5898	-0.0033622142
57	0xbcd2fc1e	-0.025754984
58	0xbcb9dcf3	-0.022688365
59	0xbcb50f64	-0.022102065
60	0xbb6efe61	-0.003646754
61	0x38c4965d	9.374016e-05
62	0xbd7eddac	-0.06222312
63	0xbd74a766	-0.059729956
64	0xbdae1364	-0.08499792
65	0xbde2fe7c	-0.11083695
66	0xbdc26c86	-0.094933555
67	0x3d9d8a3d	0.076923825
68	0x3d9161cd	0.07098732
69	0x3d6abbbc	0.057307944
70	0x3d9df35d	0.077124335
71	0x3c27287e	0.010202525
72	0xbd34e5f6	-0.04416462
73	0xbd0a2207	-0.033723857
74	0xbd14bb41	-0.03631139
75	0x3ccff82f	0.025386898
76	0x3c833df6	0.016020756
77	0xbdcff6b4	-0.10154477
78	0x3cdf1203	0.027230268
79	0xbd739dfb	-0.059476834
80	0x3d49b26d	0.049242426
81	0xb9db890a	-0.00041873037
82	0x3c8accea	0.016943414
83	0xbd2423f4	-0.04007335
84	0x3c0463d6	0.008080443
85	0x3c12f95e	0.008970587
86	0x3c0c6e81	0.008571268
87	0xbd9fd6cb	-0.078046404
88	0xbd64c4a3	-0.05585159
89	0xbd942e26	-0.072353646
90	0xbd1b0703	-0.037848484
91	0xbd64b946	-0.055840753
92	0xbd9c05b7	-0.076182775
93	0x3de2bdb1	0.11071337
94	0xbde17868	-0.11009294
95	0xbd4452f4	-0.047930673
96	0x3c99f859	0.01879518
97	0xbd403f0a	-0.04693512
98	0xbd33616e	-0.043794088
99	0x3d10be48	0.035337716
100	0xbb46b3a7	-0.0030319483
101	0xbc98ce7d	-0.018653149
102	0x3ddb0f60	0.10696292
103	0xbd4f2a18	-0.050577253
104	0x3cc37300	0.023858547
105	0x3d9607c0	0.07325697
106	0xbc8654cd	-0.016397858
107	0xbdc00ed9	-0.09377832
108	0x3dac0537	0.08399432
109	0xbd8a8011	-0.06762708
110	0xbd9e4b80	-0.07729244
111	0xbcd48098	-0.025940225
112	0x3cc013cc	0.02344694
113	0x3dbf315d	0.09335587
114	0xbd9d08dc	-0.076677054
115	0xbd810a78	-0.06300825
116	0x3d52298c	0.051309153
117	0x3daf1020	0.085479975
118	0x3c9e57b2	0.019328926
119	0xbd597e2d	-0.053098846
120	0x3d859fb1	0.06524599
121	0xbcc096ad	-0.023509348
122	0xbd5e7d57	-0.054318752
123	0x3d8fcd92	0.07021631
124	0xbd87ce81	-0.06631184
125	0x3b25d262	0.00253024
126	0xbd0e5026	-0.034744404
127	0x3db0ae0e	0.08626948
128	0x3cb1ff38	0.021728143
129	0xbd4d943a	-0.050190188
130	0x3d20792d	0.039178062
131	0x3d8dac75	0.06917659
132	0xbca6d30a	-0.020364303
133	0x3d4ca6da	0.04996381
134	0xbc4da905	-0.012552504
135	0xbd6e1be7	-0.05813208
136	0xbcffb99d	-0.031216437
137	0xbdbdffc9	-0.09277303
138	0x3dd468ed	0.103715755
139	0x3cf3aa97	0.02974443
140	0xbd40f68d	-0.04711013
141	0xbd633cba	-0.055477835
142	0x3d7769a3	0.060403477
143	0xbc3246ed	-0.010881168
144	0xbd17c108	-0.037049323
145	0x3c7bf175	0.015377392
146	0xbd5598da	-0.052147724
147	0xbc6aa6e7	-0.014322019
148	0xbcba1e47	-0.022719515
149	0xbce76728	-0.02824743
150	0xbd044aba	-0.032297827
151	0xbd67e67d	-0.056616295
152	0x3c863664	0.016383357
153	0x3d727243	0.059191
154	0xbbe7dfec	-0.007076254
155	0x3cdbcb3b	0.026830306
156	0xbc44fd27	-0.012023247
157	0xbc75fa99	-0.01501336
158	0xbd44db82	-0.0480609
159	0xbdce9386	-0.100867316
160	0xbd922002	-0.07135011
161	0xbd140a63	-0.036142718
162	0x3db30480	0.08741093
163	0xbd8257d2	-0.06364407
164	0x3dacd9d4	0.08439985
165	0x3d81371e	0.06309341
166	0x3d8ea21d	0.069645144
167	0x3d80cbeb	0.06288894
168	0x3d1aa098	0.03775081
169	0x3db136be	0.08653019
170	0x3d733a86	0.059381984
171	0xbd3a273b	-0.04544757
172	0x3d5f8c6c	0.054577276
173	0x3c8f841e	0.017519053
174	0xbd602116	-0.054719053
175	0x3cfa6bce	0.030568983
176	0x3dd3d574	0.10343447
177	0x3d9d245a	0.07672949
178	0xbcf467f3	-0.029834723
179	0x3c2a2b92	0.010386365
180	0x3bb9992f	0.005664013
181	0x3ce60464	0.028078265
182	0xbdc72ae4	-0.097249776
183	0x3ce97355	0.028497377
184	0xbba98ca7	-0.005174238
185	0x3ddfa6d5	0.109204926
186	0x3c48cdca	0.012256095
187	0xbd596794	-0.053077295
188	0xbd263197	-0.040574636
189	0x3db63add	0.08897946
190	0xbcfb5212	-0.030678783
191	0x3d14393d	0.0361874
192	0x3d8700e7	0.06591969
193	0xbdd4ae08	-0.10384756
194	0x3c9f56ec	0.019450627
195	0xbdb447b0	-0.08802736
196	0xbb65a0f9	-0.0035038574
197	0x3d56357a	0.052297093
198	0x3c83357c	0.016016714
199	0x3d32894f	0.04358798
200	0xbd349ba7	-0.044093754
201	0x3d0525cf	0.03250676
202	0xbd2bccde	-0.041943423
203	0x3cdfb8f4	0.027309872
204	0xbbb4e5e5	-0.0055205696
205	0x3dc0cb71	0.09413803
206	0x3c3dc9ec	0.011583786
207	0x3d05f014	0.03269966
208	0xbd994c55	-0.07485262
209	0xbb5a8592	-0.0033343774
210	0x3d9b6e91	0.07589448
211	0xbdb493e1	-0.08817268
212	0x3dbe9600	0.09305954
213	0x3d1d8092	0.038452692
214	0xbcc2826c	-0.02374383
215	0xbd9ecc3f	-0.077538006
216	0x3d832e48	0.06405312
217	0xbcc506c3	-0.024051076
218	0x3d2dc16b	0.042420786
219	0x3c95ab36	0.018270116
220	0x3dbe924f	0.0930525
221	0xbd378cdd	-0.044812072
222	0x3c02f96e	0.007994039
223	0x3cfc1f90	0.030776769
224	0xbcb3d1e5	-0.021950671
225	0xbcf8a540	-0.030352235
226	0xbc03e17e	-0.008049367
227	0x3de846f1	0.11341656
228	0x3d42051f	0.047368165
229	0xbd8ddce7	-0.069268994
230	0x3c1b6235	0.009483864
231	0x3d3a2a72	0.045450635
232	0x3d804819	0.062637515
233	0x3dd4cf3d	0.1039109
234	0xbd2dd952	-0.04244358
235	0xbc821838	-0.015880689
236	0x3d81764c	0.063213915
237	0x3d9b27c8	0.07575947
238	0xbd13a014	-0.036041334
239	0x3d361954	0.04445775
240	0x3c80a8c5	0.015705476
241	0x3dc1270a	0.09431274
242	0xbc81c343	-0.015840178
243	0x3a7f4e5a	0.00097391533
244	0x3c8a7283	0.016900307
245	0xbc0b38be	-0.008497415
246	0xbd1d90e3	-0.038468253
247	0x3db8c36d	0.090216495
248	0xbd07f226	-0.033189915
249	0x3d8bc53d	0.068247296
250	0xbba0a390	-0.0049023107
251	0xbd9087ac	-0.07057127
252	0xbd5354f3	-0.051594686
253	0xba47ae2f	-0.0007617203
254	0x3da06858	0.07832402
255	0x3c801f76	0.015640002

model.net.4.bias f4 [128]
0	0xbd10149d	-0.03517591
1	0x3da90708	0.08253294
2	0xbabc66e1	-0.0014373922
3	0x3dbbad59	0.09163923
4	0xbccec81f	-0.02524191
5	0x3d819c85	0.06328682
6	0x3b84857c	0.004044233
7	0xbd02a342	-0.031893976
8	0x3d91a867	0.07112198
9	0xbd946585	-0.07245926
10	0xbb7e6304	-0.0038816342
11	0x3c9ce68a	0.019152898
12	0xbc423c47	-0.011855192
13	0xbd311079	-0.0432286
14	0xbca6de0a	-0.020369548
15	0x3d6581b9	0.056031916
16	0xbba919a2	-0.0051605264
17	0xbd0fde4c	-0.03512411
18	0xbcf1569e	-0.029460248
19	0xbd77fc18	-0.06054315
20	0x3d70dd0f	0.058804568
21	0xbd9a3771	-0.07530106
22	0xbd18d917	-0.037316408
23	0x3ca8b102	0.020592216
24	0x3dace554	0.08442178
25	0xbd8e8b34	-0.06960145
26	0x3c79ae1e	0.015239267
27	0xbd78770b	-0.060660403
28	0x3d85ab45	0.06526808
29	0x3d923c4e	0.071404085
30	0x3d757ba9	0.059932385
31	0xbd18995c	-0.03725563
32	0xbd782e70	-0.06059116
33	0xbd4d661e	-0.050146215
34	0xbcebd0d4	-0.0287861
35	0x3d34710e	0.04405313
36	0xbc50b0dc	-0.012737479
37	0x3da80b2b	0.08205255
38	0xbda421dc	-0.08014271
39	0x3c05a475	0.008156885
40	0xbd8f8fd5	-0.07009856
41	0xbda4872b	-0.08033594
42	0xbd6dc819	-0.058052156
43	0x3c54f6ee	0.012998326
44	0xbda4c76a	-0.08045848
45	0xbbec6012	-0.007213601
46	0xbd1bc77b	-0.038032036
47	0xbd446b57	-0.04795393
48	0x3da83135	0.082125105
49	0xbd031e1f	-0.032011148
50	0xbdaa14a3	-0.083047174
51	0x3d8126fa	0.06306262
52	0xbdb18130	-0.08667219
53	0xbb213f17	-0.0024604255
54	0xbd806ee5	-0.062711515
55	0x3d4c9e1b	0.04995547
56	0x3d0d0aee	0.03443425
57	0xbc3e2592	-0.011605637
58	0xbcab11a3	-0.020882433
59	0xbd7a0eba	-0.0610492
60	0xbd827ede	-0.06371854
61	0x3d183a98	0.037165254
62	0xbd813770	-0.06309402
63	0xbcd1b902	-0.025600914
64	0x3d98a850	0.07453978
65	0xbda34592	-0.07972254
66	0xb9fa64e8	-0.00047758897
67	0xbcc67b13	-0.024228608
68	0x3d314593	0.04327924
69	0xbcd5b87b	-0.026088944
70	0x3d9acbb2	0.07558383
71	0x3cf3b6ad	0.029750193
72	0xbd52419e	-0.05133211
73	0x3cab4ea4	0.020911522
74	0x3b0a36ef	0.0021089872
75	0xb9f585f6	-0.0004682985
76	0xbd48d4ff	-0.049031254
77	0x3d3c62d0	0.045992672
78	0x3c85f9c4	0.01635445
79	0xbb9a1565	-0.0047022575
80	0xbd27ccdd	-0.040966857
81	0x3db4a729	0.08820946
82	0xbd92d90d	-0.071703054
83	0x3d17058a	0.036870517
84	0xbd9e537b	-0.077307664
85	0xbd8ee41d	-0.06977103
86	0x3d155092	0.03645379
87	0x3cb25649	0.02176966
88	0xbc8321e5	-0.016007373
89	0x3d2f8d7c	0.04285954
90	0xbb6a3c0b	-0.0035741355
91	0x3cfec567	0.031099988
92	0xbd8d98e4	-0.06913927
93	0x3d30b0a6	0.043137215
94	0xbc8f16e2	-0.017466966
95	0x3d7c3896	0.061577402
96	0xbd9b7d0c	-0.0759221
97	0x3c8026d4	0.015643515
98	0xbcc12128	-0.02357538
99	0x3d219cab	0.03945605
100	0xbd817d63	-0.06322744
101	0xbd911220	-0.07083535
102	0x3cfc3f8a	0.030792017
103	0xb9f05aac	-0.00045843923
104	0xbd72a281	-0.059237007
105	0xbd72769a	-0.05919514
106	0xbd8f1127	-0.069856934
107	0x3cb972b9	0.022637712
108	0x3d2b6abc	0.041849837
109	0xbd26d97d	-0.040734757
110	0x3d7ac8c0	0.061226606
111	0x3d5e2c43	0.05424143
112	0x3c8bff27	0.01708944
113	0xbd54ba2d	-0.051935364
114	0xbd830acf	-0.06398546
115	0xbcf22470	-0.02955839
116	0xbd4840be	-0.048889868
117	0x3cb6a883	0.02229715
118	0x3d83b16f	0.06430327
119	0x3da7b435	0.08188669
120	0xbd28af81	-0.041183
121	0xbd1deda9	-0.03855673
122	0x3c744445	0.014908855
123	0xbc92af24	-0.01790578
124	0x3d6b17c9	0.05739573
125	0xbda058b7	-0.07829421
126	0x3d4568ac	0.048195526
127	0x3bd3b340	0.0064605772

model.net.6.weight f4 [128, 128]
0	0x3d500f81	0.050796036
1	0xbd1ba8c4	-0.038002744
2	0x3d7628b4	0.06009741
3	0x3d1050d8	0.03523335
4	0xbda17c96	-0.07885091
5	0xbd9ec8e3	-0.0775316
6	0x3d29d887	0.041466262
7	0xbce02acc	-0.027364157
8	0x3d5eaa3c	0.054361567
9	0x3ccdc7a8	0.025119618
10	0x3cbedc10	0.023298293
11	0x3d97ad90	0.07406151
12	0xbb249fea	-0.002511973
13	0xbc8b535f	-0.017007528
14	0x3d3a27b4	0.04544802
15	0x3b0affca	0.002120959
16	0x3d7b6d99	0.061383817
17	0x3d6855ce	0.056722455
18	0x3dc575e9	0.0964163
19	0x3cf5d1ac	0.030007206
20	0xbb837a39	-0.004012373
21	0xbda7da9a	-0.08195992
22	0xbce97d17	-0.02850203
23	0xbc80860d	-0.01568892
24	0xbb770a04	-0.0037695179
25	0xbd9b7fbd	-0.075927235
26	0xbc428e4e	-0.011874748
27	0x3da2e08a	0.07952984
28	0xbceed4d6	-0.029154222
29	0xbbafbfe9	-0.0053634536
30	0x3bcae84d	0.006192243
31	0xbba5fd21	-0.0050655757
32	0xbc5f1987	-0.013616926
33	0x3dbe8ab9	0.09303803
34	0x3d7cf2dd	0.06175505
35	0x3d16d138	0.03682062
36	0xbcbb09ad	-0.022831762
37	0xbd9db825	-0.077011384
38	0x3d4345e4	0.047674075
39	0xbd74deb3	-0.059782695
40	0xbd8e35c7	-0.06943851
41	0xbd5926bd	-0.05301546
42	0xbc97eedd	-0.018546516
43	0x3cd04c47	0.025426997
44	0x3d298ea1	0.041395787
45	0x3c4fb90e	0.012678398
46	0xbd85b6f0	-0.06529033
47	0x3d1afa8c	0.037836596
48	0xbd7b9d55	-0.06142934
49	0x3d7260c3	0.05917431
50	0xbd80ff5e	-0.062987074
51	0x3d029a9a	0.03188572
52	0xbdab058d	-0.08350668
53	0x3dbecde6	0.09316616
54	0x3c8217d9	0.015880512
55	0xbcd302d5	-0.025758186
56	0x3c80b28e	0.015710142
57	0x3c8b0b98	0.016973302
58	0xbda9cdcb	-0.08291205
59	0xbd38ff03	-0.045165073
60	0x3bfb068b	0.007660692
61	0x3d79003c	0.06079124
62	0x3d6cdb4d	0.05782633
63	0x3d8b01fb	0.06787487
64	0x3db53bdc	0.08849308
65	0x3c8d0530	0.017214388
66	0xbd959ec0	-0.0730567
67	0x3d06e5aa	0.03293387
68	0xbd20b411	-0.039234225
69	0xbb51bd6a	-0.0032003769
70	0xbd867ed7	-0.065671615
71	0x3d4ede9f	0.050505277
72	0xbd333603	-0.04375268
73	0x3d4127b1	0.047156993
74	0x3cd9eb0e	0.02660134
75	0x3d6ec2b4	0.058291152
76	0x3d6b55fa	0.05745504
77	0x3d1e5e20	0.038663983
78	0xbd386c42	-0.045025118
79	0x3d545b9b	0.051845174
80	0x3db734d8	0.08945626
81	0x3d6481fa	0.055788018
82	0xbd8fad11	-0.07015432
83	0x3d4a7e71	0.04943699
84	0xbcf2c313	-0.029634034
85	0x3d9d2dae	0.07674728
86	0xbd02f90f	-0.031975802
87	0xbcd808b7	-0.026371343
88	0x3d291609	0.04128078
89	0xbdc3f1ab	-0.09567579
90	0x3cde5339	0.027139293
91	0x3d6c2cf1	0.057660047
92	0xbd0e95a1	-0.034810666
93	0xbda966cf	-0.08271562
94	0xbdddb0c4	-0.10824731
95	0xbda5dae3	-0.0809839
96	0xbdaac22b	-0.08337816
97	0x3d40a7cb	0.04703502
98	0xbd23168c	-0.039816424
99	0xbcddc04a	-0.02706923
100	0x3d8fb8af	0.070176475
101	0x3d23f1dd	0.04002558
102	0xbd8820ec	-0.06646904
103	0x3d048781	0.03235579
104	0x3d3f842f	0.04675692
105	0xbd78649c	-0.060642824
106	0x3cc64cfa	0.024206627
107	0xbd1ffbcf	-0.039058503
108	0xbdbf36c9	-0.09336621
109	0xbd9463fd	-0.07245634
110	0xbd7627a5	-0.0600964
111	0x3d9b516e	0.07583891
112	0x3d975945	0.07390074
113	0xbda6681d	-0.08125327
114	0x3d7f956d	0.062398363
115	0xbd79e36a	-0.061007895
116	0xbc977c77	-0.018491967
117	0x3cf600a7	0.030029608
118	0xbba63266	-0.005071926
119	0x3cba5d7f	0.02274966
120	0xbdc09a3a	-0.094044164
121	0x3c99d512	0.018778358
122	0xbdde7ed5	-0.10864035
123	0x3ddf3d48	0.1090036
124	0x3d9b0cf7	0.07570832
125	0xbdce32f6	-0.10068314
126	0x3c8e81a7	0.017395807
127	0x3d7711ce	0.060319714
128	0xbda09103	-0.07840159
129	0x3c7a7f8f	0.015289201
130	0xbc556d78	-0.013026588
131	0xbd8a0380	-0.06738949
132	0xbd77ec2f	-0.060527977
133	0xbd650c79	-0.055920098
134	0xbd9bad5b	-0.07601424
135	0xbc365d55	-0.0111306505
136	0x3d9faa0d	0.077961065
137	0x3cf00b89	0.029302375
138	0x3c6c78ac	0.014433067
139	0xbd7cf804	-0.061759964
140	0x3d81ec3b	0.063438855
141	0x3dcbc238	0.09949154
142	0x3bc155a9	0.005900104
143	0x3d921e07	0.071346335
144	0x3dadb6f2	0.0848216
145	0x3cb53474	0.022119738
146	0xbd6831a4	-0.056687966
147	0xbd4ce1aa	-0.050019898
148	0xbc02a1d1	-0.00797315
149	0xbc9e727c	-0.0193417
150	0xbd41dce6	-0.047329806
151	0xbcfc77d2	-0.030818854
152	0xbd3d6559	-0.04623923
153	0xbd1f1132	-0.038834758
154	0xbd900845	-0.07032827
155	0xbd7d6e38	-0.06187269
156	0x3d3fd7b5	0.046836574
157	0x3d83f553	0.06443276
158	0x3d950e00	0.07278061
159	0x3d9de933	0.07710495
160	0xbdcb4bcf	-0.09926569
161	0xbb670edb	-0.0035256657
162	0xbcbd69d3	-0.02312175
163	0x3c9fb01c	0.019493155
164	0x3da30d5c	0.079615325
165	0x3d6c8f07	0.05775359
166	0x3d7919f4	0.060815766
167	0xbcf928a7	-0.030414892
168	0x3d48f06c	0.04905741
169	0xbd8f7dac	-0.07006392
170	0xbd6de112	-0.058075972
171	0x3c585cae	0.01320569
172	0x3d89ca2c	0.06728014
173	0x3d8037cf	0.06260645
174	0xbdae419a	-0.08508606
175	0x3d557d97	0.052121725
176	0xbcf270af	-0.029594747
177	0x3cdf649c	0.027269654
178	0xbd122723	-0.035681855
179	0xbd2800ae	-0.041016273
180	0xbcf06d3c	-0.029348962
181	0x3cfaa39a	0.03059559
182	0x3ca96891	0.020679744
183	0xbd4f345c	-0.050587043
184	0xbc4a2aa8	-0.012339272
185	0x3d95bdce	0.07311593
186	0xbd5cd55e	-0.05391442
187	0xbd29b0c7	-0.041428354
188	0x3bb6271a	0.0055588605
189	0x3d3fb3bb	0.046802264
190	0xbc0904b0	-0.008362934
191	0x3cb8e5b7	0.022570474
192	0x3dc29a9d	0.095021464
193	0x3d5c71ab	0.05381934
194	0xbb36525a	-0.0027820081
195	0x3d5d0fdb	0.0539702
196	0x3b204fb2	0.0024461565
197	0xbd59cd8a	-0.053174533
198	0x3d399239	0.045305464
199	0xbd4200c9	-0.04736403
200	0x3d0e3f70	0.034728467
201	0x3d3b9ffa	0.045806862
202	0x3cafed06	0.021475326
203	0xbb4c36c3	-0.003116057
204	0x3d4b9b5a	0.0497087
205	0x3d93b4bd	0.072122075
206	0x3d85ef50	0.06539786
207	0xbd589dea	-0.052884974
208	0x3d1f55c5	0.038900156
209	0x3c96eb0b	0.018422624
210	0x3d54ac00	0.051921844
211	0x3dd81264	0.10550383
212	0xbda2e9dc	-0.079547614
213	0x3dba02e2	0.09082581
214	0x3b91904c	0.0044422504
215	0xbd6201bf	-0.055177446
216	0xbd89f11b	-0.0673544
217	0x3cd2f698	0.02575235
218	0x3d67ee0e	0.05662351
219	0x3d85eac3	0.06538918
220	0x3d43c90c	0.047799155
221	0xbd6b52a8	-0.057451874
222	0xbde621d4	-0.11236921
223	0xbcc8e443	-0.024522906
224	0xbd45a0c1	-0.04824901
225	0xbd94842c	-0.07251772
226	0xbdddfd4c	-0.10839328
227	0x3d3a3d34	0.045468524
228	0x3d108490	0.03528267
229	0x3d78f355	0.060778935
230	0xbd5d5bb0	-0.05404252
231	0xbd56e7f1	-0.05246729
232	0x3ca02450	0.019548565
233	0x3cb36b83	0.021901852
234	0x3d13ff98	0.036132425
235	0x3d15ee97	0.03660449
236	0xbd483360	-0.04887712
237	0xbc02ff01	-0.007995368
238	0xbd4efd8a	-0.050534762
239	0x3db0e553	0.0863749
240	0x3d1ab1fe	0.037767403
241	0xbc791584	-0.015202884
242	0x3aa039c8	0.0012224251
243	0x3d46f6c0	0.048575163
244	0xbda4b086	-0.08041482
245	0x3cc2f7ad	0.023799742
246	0xbc761e2e	-0.015021844
247	0xbc6b66b6	-0.01436775
248	0xbca2b507	-0.019861711
249	0xbd8ef2ef	-0.0697993
250	0xbb040d30	-0.0020149462
251	0x3d81f526	0.063455865
252	0x3d8d388a	0.068955496
253	0x3d48d934	0.049035266
254	0x3c0e644b	0.008690904
255	0x3dc29373	0.0950078

model.net.6.bias f4 [128]
0	0xbd40f09a	-0.047104456
1	0xbdb07803	-0.086166404
2	0xbcbff9b2	-0.023434494
3	0x3bfe8e42	0.0077684233
4	0x3c03773d	0.008024034
5	0x3a96a3ac	0.001149287
6	0xbdad5976	-0.08464329
7	0xbcc8e2c3	-0.02452219
8	0xbd4d901a	-0.050186254
9	0xbc997955	-0.018734613
10	0xbd3c856c	-0.04602568
11	0xbb510e00	-0.0031899214
12	0xbc8799e4	-0.016552873
13	0xbd9f67ec	-0.077834934
14	0x3d3065c6	0.04306581
15	0x3ceeb01b	0.029136708
16	0x3cbdd8c0	0.023174644
17	0x3d0c4258	0.034242958
18	0xbac3aaf6	-0.001492827
19	0x3ca6fd27	0.020384384
20	0xbdb00192	-0.085940495
21	0x3d7570f0	0.05992216
22	0x3d95bc74	0.07311335
23	0xbcfc2863	-0.030780977
24	0x3d94f419	0.072731204
25	0xbcdc00c6	-0.026855838
26	0x3d0a247a	0.033726193
27	0xbd01085d	-0.031502116
28	0xbd556264	-0.052095786
29	0xbd224ae6	-0.03962221
30	0x3d7ed399	0.062213514
31	0xbcea36c6	-0.028590571
32	0xbd8f2ae3	-0.06990602
33	0x3c37d04b	0.0112190945
34	0xbd61ca98	-0.05512485
35	0xbd6ba840	-0.057533503
36	0xbd4e1012	-0.050308295
37	0xbd5c2f1f	-0.053755876
38	0xbd57c078	-0.052673787
39	0x3d11d589	0.035604034
40	0xbcec7fb0	-0.02886948
41	0x3ccb2c54	0.02480141
42	0x3d9e2450	0.0772177
43	0x3cc59a46	0.024121415
44	0x3dbba93f	0.091631405
45	0x3d96dbb9	0.073661275
46	0x3c2eaf8c	0.010661971
47	0x3d2a766e	0.04161685
48	0x3dae0fbf	0.08499097
49	0xbd819098	-0.06326407
50	0xbd615524	-0.055012837
51	0x3d847dc5	0.06469301
52	0x3d356029	0.04428116
53	0x3cd6eb5e	0.026235279
54	0x3c8be9c6	0.017079245
55	0xbd52b69a	-0.051443674
56	0x3d14d0b4	0.036331847
57	0xbb8ce079	-0.00429922
58	0x3beb23f3	0.0071759163
59	0x3da819c0	0.082080364
60	0x3d3abd7c	0.045590863
61	0xbaa48c88	-0.0012554089
62	0xbca23548	-0.019800797
63	0xbd56f051	-0.052475277
64	0x3d1e1798	0.03859672
65	0x3db24908	0.08705336
66	0xbd2f6822	-0.04282392
67	0xbd7aeb52	-0.061259575
68	0x3d6d4a01	0.057931904
69	0xbd96d581	-0.073649414
70	0x3dab0a86	0.083516166
71	0x3c37b1cf	0.0112118265
72	0x3da4b0d1	0.080415376
73	0x3c00a7ab	0.007852475
74	0x3cdba8ab	0.026813826
75	0xbda4c65c	-0.080456465
76	0xbc54db0f	-0.012991681
77	0x3d8d5b42	0.06902172
78	0xbd0707b1	-0.03296632
79	0x3d9d55bc	0.07682368
80	0xbc56c869	-0.013109305
81	0xbd310311	-0.043215815
82	0xbd32dc00	-0.04366684
83	0xbd8fc003	-0.07019045
84	0x3cedf46e	0.029047217
85	0xbd3678a2	-0.04454864
86	0x3d172df5	0.036909062
87	0xbcd09117	-0.02545981
88	0x3d543817	0.051811304
89	0x3d7efd90	0.062253535
90	0xbd865570	-0.06559265
91	0xbd4b604b	-0.04965238
92	0x3d733485	0.05937626
93	0xbcaf7268	-0.021416858
94	0xbd8fedea	-0.070278004
95	0xbd3bfd2d	-0.045895744
96	0xbda5c20f	-0.08093654
97	0xbd690ffd	-0.056900013
98	0x3b9b590c	0.00474084
99	0x3d856039	0.06512494
100	0x3c9032d0	0.017602354
101	0x3c20b0e5	0.0098078
102	0xbb542c3f	-0.0032375006
103	0xbd50c59c	-0.050969705
104	0x3d38dbe2	0.04513157
105	0x3d81e186	0.06341843
106	0x3d0522f5	0.03250404
107	0x3d9e0e9d	0.07717631
108	0x3db61a15	0.088916935
109	0x3bf2f3f9	0.0074143377
110	0xbd399c49	-0.04531506
111	0x3d844eaf	0.0646032
112	0x3c2a4b32	0.0103939045
113	0xbc7f765f	-0.015592187
114	0xbc1545ce	-0.009110881
115	0x3c39f331	0.011349485
116	0xbd327887	-0.043571975
117	0x3d525157	0.051347103
118	0xbd8b25c6	-0.06794314
119	0x3c1e59c7	0.009664959
120	0xbdb3bce2	-0.08776261
121	0x3d1e530f	0.03865343
122	0xbd1640e2	-0.03668297
123	0xbc0de0fe	-0.008659599
124	0x3d922f08	0.07137877
125	0x3c71a403	0.014748576
126	0x3befc9e6	0.0073177693
127	0x3d092bef	0.033489164

model.net.8.weight f4 [128, 128]
0	0xbbedfb21	-0.007262603
1	0x3d48624e	0.048921876
2	0x3bb73aaf	0.0055917124
3	0x3d4d9868	0.050194174
4	0x3d6c8cfc	0.05775164
5	0xbbc449d3	-0.005990246
6	0x3da5b5af	0.08091294
7	0x3d1d0a3a	0.03833983
8	0x3d753d65	0.059873004
9	0xbdac7315	-0.08420388
10	0xbdd8d110	-0.105867505
11	0x3cdaf8b7	0.026729925
12	0x3c9c582b	0.01908501
13	0xbd239599	-0.03993759
14	0xbc3431ac	-0.010998171
15	0x3d0807b5	0.033210475
16	0x3d99bc13	0.075065754
17	0x3d08c821	0.033393983
18	0x3dcef020	0.10104394
19	0x3d867616	0.06565492
20	0x3ccd9b33	0.025098419
21	0x3c382d8e	0.01124133
22	0xbcaa980f	-0.02082446
23	0xbd93861e	-0.07203315
24	0x3d2ec2b1	0.04266614
25	0x3ba98354	0.0051731262
26	0xbd4de6ee	-0.05026906
27	0x3bab1d9f	0.005222037
28	0xbd6e669a	-0.058203317
29	0x3c23197a	0.009954805
30	0x3d3f7ac8	0.046747953
31	0x3d75628b	0.05990843
32	0xbd8ef8cf	-0.0698105
33	0x3c493c2a	0.012282411
34	0xbd20f2eb	-0.039294165
35	0xbdb5a8eb	-0.08870109
36	0x3d068daa	0.032849945
37	0x3daaa617	0.083324604
38	0x3da0c6f1	0.07850445
39	0x3d5ac8a8	0.053414017
40	0xbc20bd31	-0.009810732
41	0x3d0bfb9b	0.034175497
42	0x3cbf1349	0.023324626
43	0xbd58d610	-0.05293852
44	0x3db75631	0.089519866
45	0xbd8637fc	-0.06553647
46	0x3ce4de8e	0.027938154
47	0xbd107b84	-0.035274044
48	0x3d2e0a50	0.042490304
49	0x3d626d93	0.05528028
50	0xbb28f9d3	-0.0025783672
51	0xbce7196e	-0.028210368
52	0x3d4ea9ee	0.050455026
53	0xbdd92401	-0.1060257
54	0xbc10f50b	-0.008847485
55	0xbdb2b4d5	-0.08725897
56	0x3aae96bb	0.0013320068
57	0x3d2016d7	0.03908428
58	0x3d555af9	0.05208871
59	0xbd094892	-0.033516474
60	0xbd18ba9d	-0.037287343
61	0x3bdf0bb1	0.0068068136
62	0xbd6ff22f	-0.058580574
63	0xbd9a5263	-0.07535245
64	0x3d81ae64	0.063320905
65	0x3cbfda69	0.023419576
66	0xbd4d9e4d	-0.050199796
67	0xbdb07494	-0.086159855
68	0x3c887291	0.016656192
69	0xbcfd3e17	-0.030913396
70	0xbd2d19ec	-0.04226105
71	0x3dc2eedd	0.09518216
72	0x3d0a120d	0.03370862
73	0x3dad8bc2	0.08473922
74	0xbbc08016	-0.005874644
75	0xb9813682	-0.0002464541
76	0xbd3a431e	-0.045474164
77	0x3d126f24	0.035750523
78	0xbd3cc840	-0.04608941
79	0xba11d760	-0.00055634044
80	0xbcb33739	-0.021876918
81	0x3d2fbab1	0.042902652
82	0x3d05f2d6	0.03270229
83	0xbdb9896b	-0.090594135
84	0x3c2ed6c2	0.010671319
85	0x3daab80b	0.08335885
86	0xbbcfc880	-0.00634104
87	0x3d83665a	0.064160064
88	0xbcd72832	-0.026264284
89	0xbd5f71e4	-0.054551974
90	0x3d6aa1e4	0.057283297
91	0xbcc13b4e	-0.023587849
92	0x3d384772	0.04499001
93	0x3dab3aff	0.08360862
94	0xbd54f2d0	-0.051989377
95	0xbda3c231	-0.079960234
96	0xbbf787ac	-0.007554015
97	0xbd6c3899	-0.057671163
98	0x3d984614	0.07435241
99	0x3d557eaf	0.052122768
100	0x3db5d570	0.088786006
101	0xbd87571a	-0.0660841
102	0xbb8f4177	-0.0043718177
103	0x3c3b8ba1	0.011446864
104	0xbd588cf9	-0.052868817
105	0xbd289de4	-0.0411662
106	0x3d50c0e5	0.05096521
107	0x3c86ecd1	0.016470345
108	0x3d983407	0.074317984
109	0xbc1b5e0e	-0.009482874
110	0x3d4ca3b1	0.049960796
111	0x3ca10761	0.019656839
112	0xbd7fc165	-0.062440295
113	0xbd8e3cde	-0.06945203
114	0xbce3e3e7	-0.027818633
115	0xbd1756d2	-0.036948033
116	0x3c7ba248	0.015358515
117	0xbd72f0f9	-0.05931184
118	0xbda35d89	-0.07976825
119	0xbd50a606	-0.050939582
120	0xbd9d0469	-0.07666857
121	0xbc24abdd	-0.010050741
122	0xbdb22fda	-0.08700533
123	0xbc932ba1	-0.01796514
124	0xbd91949c	-0.07108423
125	0xbdbea72e	-0.09309231
126	0x3d920ea3	0.07131698
127	0x3d9ce229	0.07660324
128	0xbd76cfb0	-0.06025666
129	0x3c08e8f6	0.0083563235
130	0xbdc867bf	-0.09785413
131	0xbd230f5d	-0.039809573
132	0xbdc17894	-0.094468266
133	0xbd28e3b0	-0.041232765
134	0x3dc79ff7	0.09747308
135	0x3d45c783	0.048285972
136	0x3d34f755	0.044181187
137	0xbd9e4ea0	-0.0772984
138	0x3c2bd3a8	0.0104874745
139	0x3d50107c	0.05079697
140	0x3d0ec117	0.034852114
141	0xbbadd6a8	-0.00530513
142	0xbd1845fe	-0.037176125
143	0x3d6ca685	0.057775993
144	0x3db9347a	0.09043212
145	0x3c16b1d6	0.009197673
146	0x3dcc8c72	0.09987725
147	0xbc19e138	-0.009392075
148	0x3ce7f9ad	0.028317297
149	0x3d6e119b	0.05812226
150	0xbcbd3f81	-0.02310157
151	0x3c8dcdba	0.017310012
152	0xbc07f8de	-0.008299081
153	0xbd6f9bb6	-0.058498107
154	0xbb8617df	-0.004092201
155	0x3d449c96	0.048000894
156	0x3b78a6ab	0.0037941139
157	0x3d2213f5	0.039569814
158	0xbd03cf6c	-0.032180235
159	0x3da4518d	0.08023367
160	0xbdad8d47	-0.08474212
161	0x3ca04d70	0.019568175
162	0x3c1669ed	0.009180528
163	0x3d2bb583	0.04192115
164	0xbd220500	-0.03955555
165	0x3cf33b14	0.029691257
166	0xbd76b658	-0.06023249
167	0x3bcc81e2	0.006241069
168	0xbcd5f4e9	-0.026117759
169	0x3d8ddfc7	0.06927448
170	0x3d79656b	0.060887735
171	0x3d904c01	0.070457466
172	0xbd4192ec	-0.047259256
173	0x3d4d7551	0.05016071
174	0xbc8a958a	-0.016917009
175	0x3d0a8c23	0.03382505
176	0x3d434b47	0.047679212
177	0xbda51977	-0.08061498
178	0xbdb849c1	-0.089984424
179	0x3ce20d3b	0.0275942
180	0x3cad119e	0.021126565
181	0xbda827d1	-0.082107194
182	0x3cc215a5	0.023691962
183	0x3d6f8248	0.058473855
184	0xbce48751	-0.027896555
185	0xbdd4a678	-0.10383314
186	0x3caa20bc	0.020767562
187	0xbd3a433d	-0.04547428
188	0xbc9cf30e	-0.019158866
189	0xbd0905dc	-0.033452854
190	0x3d72c657	0.059271183
191	0x3bfab798	0.0076512806
192	0xbd99b031	-0.07504309
193	0xbdb921d8	-0.09039658
194	0xbce35a92	-0.027753148
195	0xbda43b16	-0.08019082
196	0x3ae4c1ed	0.0017452814
197	0xbd4eb8c5	-0.05046918
198	0xbd134db2	-0.035962768
199	0xbdbd29dd	-0.092365004
200	0x3d60f6e6	0.05492296
201	0xbd3cb15d	-0.046067584
202	0xbd57ea38	-0.052713603
203	0x3d87b530	0.06626356
204	0x3c31ac3b	0.010844286
205	0xbd0aad5b	-0.03385673
206	0x3c712e87	0.014720566
207	0xbd197cfd	-0.037472714
208	0x3d0b0144	0.033936754
209	0xbd03ded6	-0.032194935
210	0x3d5da63c	0.05411361
211	0x3c4e4e4d	0.012591911
212	0xbd1a12b7	-0.037615504
213	0xbc98fed1	-0.018676193
214	0x3c981234	0.018563367
215	0xbcc92558	-0.02455394
216	0x3d5210b9	0.05128548
217	0x3d853cb5	0.065057196
218	0xbd940ff6	-0.07229607
219	0xbd2600f2	-0.040528245
220	0xbcc89b8c	-0.024488233
221	0x3dbe17d4	0.092818886
222	0x3c0cd221	0.0085950205
223	0x3d4689eb	0.048471373
224	0x3cfb0c91	0.03064564
225	0xbb52dad6	-0.0032173893
226	0xbda434a8	-0.08017856
227	0xbb15fe16	-0.0022887043
228	0xbd9dcf5c	-0.07705566
229	0xbd924d15	-0.071436085
230	0x3cff756b	0.031183919
231	0xbd78dd72	-0.06075806
232	0xbd008e6e	-0.03138583
233	0x3d638c92	0.05555398
234	0xbd2a47f2	-0.04157252
235	0xbd8e4af5	-0.06947891
236	0xbd06e84c	-0.03293638
237	0xbc43496b	-0.01191936
238	0xbd7161e9	-0.058931265
239	0xbdce6dee	-0.10079561
240	0xbdbd3afe	-0.092397675
241	0xbc9c898c	-0.019108556
242	0x3c2549a0	0.010088354
243	0xbd91fc70	-0.07128227
244	0xbd715294	-0.058916643
245	0xbbf4c963	-0.007470296
246	0xbd9fbdcb	-0.07799872
247	0xbd973d8b	-0.07384785
248	0xbce3e4e3	-0.027819103
249	0xbdd8e3db	-0.10590335
250	0xbd23d2dd	-0.039996017
251	0xbcac1c0a	-0.021009464
252	0x3b3a488b	0.0028424587
253	0xbc8d3812	-0.01723865
254	0x3d79c85a	0.060982086
255	0xbcb7f637	-0.022456272
