results/edm_swiss_roll/checkpoints/epoch=11-step=384.ckpt (torch, 842042 bytes, 37 tensors)

model.base_model.time_embedding.frequencies f4 [4]
000000 00 00 80 3f 97 1e 3e 3d 6b 31 0d 3b 16 b7 d1 38
       1.0 0.04641589 0.0021544348 9.999999e-05

model.base_model.net.0.weight f4 [128, 10]
000000 53 6d 7d 3e 3d 08 8d 3e 75 0c 93 bd 22 f7 95 3e
       0.24748735 0.27545348 -0.0718011 0.2929011
000010 79 2d 8b bd 52 6e 83 3d d5 92 10 be c5 ab 49 3e
       -0.067957826 0.06417526 -0.14118512 0.19694431
000020 d6 79 94 3e 76 11 62 be 2e 40 8a 3e fc a4 93 3d
       0.28999203 -0.22076973 0.2700209 0.07209203
000030 2a 66 83 3e 89 b0 86 3d 7a d9 2e 3e ec e2 25 bd
       0.25663882 0.0657664 0.17075148 -0.040499613
000040 a5 d9 81 3e b7 25 5a 3d 5d 81 10 be 76 69 b2 3d
       0.25361362 0.053258624 -0.14111848 0.08711521
000050 ab 2e 18 be ad 27 29 bd 86 f1 00 be 2a f7 58 3e
       -0.14861552 -0.041297603 -0.12592134 0.21188036
000060 2f 7d 7f be 72 49 15 be 9c 56 c6 bd e6 9b 4a be
       -0.24950098 -0.14578798 -0.09684488 -0.19786033
000070 2e 40 b5 3c f5 dd a3 be fe da 96 3e 4a 9c 88 be
       0.02212533 -0.32005277 0.29463953 -0.2668174
000080 ef a1 74 3e c4 1a 42 3d c3 5f db bd f0 1f 47 3e
       0.23889898 0.047388807 -0.107116245 0.19445777
000090 7e fb 5f 3d 2a ac 85 3e b9 72 24 3d 4c d2 c0 bd
       0.0546832 0.26107913 0.04014847 -0.09415111
0000a0 c3 bd c9 3d d7 20 a9 bd 47 cc 04 3e 9f ab 8e 3e
       0.09850647 -0.08258217 0.1296855 0.27865312
0000b0 83 4e 37 3e 76 d3 0e be 09 68 38 3e 9f 81 60 3d
       0.17901044 -0.13947853 0.18008436 0.054811116
0000c0 53 a2 22 3e 0e 2e 47 be 29 f3 ac be 96 52 02 be
       0.15882234 -0.19451162 -0.33779266 -0.12726817
0000d0 c1 71 77 be d3 93 85 3e ab c7 be 3d 50 9f 07 3e
       -0.24164487 0.26089343 0.093154274 0.13244367
0000e0 9b 7a dc 3d 8c bb 85 3a 43 0c 82 3e 04 67 5f be
       0.10765573 0.0010202988 0.2539998 -0.21816641
0000f0 d5 e0 e5 3b f2 cf 66 be 1d b5 b7 3d 26 93 ee bd
       0.0070153275 -0.22540262 0.089700915 -0.1164916
000100 42 6c ba 3d 9b 2c 89 bd 61 99 87 3e ea b7 3c be
       0.0910268 -0.06697961 0.26484206 -0.18429533
000110 2a ea 3d be 26 ed 3d be 8e f1 95 3e d4 b6 d5 3d
       -0.18546358 -0.18547496 0.29285854 0.10435262
000120 7b c6 96 3e 4c ad 8a be cc 1d a5 be 51 08 80 be
       0.29448304 -0.2708534 -0.32249296 -0.25006345
000130 8f f0 5a be d8 43 03 3e b9 1f e8 3d de 96 86 3e
       -0.21380828 0.12818849 0.113341756 0.26286978
000140 9d 37 30 be 03 46 64 be ac a6 24 3e 07 23 0a be
       -0.17208715 -0.22292332 0.16079205 -0.13489924
000150 5d 1f 3f 3e 15 90 9b bd db 4a 31 3e 48 45 81 be
       0.18664308 -0.07595841 0.17313711 -0.2524817
000160 08 5b 2a be d0 90 b7 3d fa af a9 3d 9e 2c a3 bd
       -0.16636288 0.08963168 0.08285518 -0.079674944
000170 e6 35 3a 3e 66 ff 54 3e a9 9f 71 be b7 32 2f be
       0.18184623 0.20800552 -0.23596062 -0.1710919
000180 8e 1f 91 3e 42 96 e4 bd fc a4 ef bd 77 2c 9f be
       0.28344387 -0.11161472 -0.1170139 -0.3108861
000190 96 fb 35 be 31 bf 8b 3d 37 8f 70 bd c1 84 7c be
       -0.17771754 0.06823576 -0.05873033 -0.24660017
0001a0 9c f5 8c bb 9d ca 5e be fe 88 8e be 8f 5f 39 be
       -0.00430174 -0.21756978 -0.27838892 -0.18102859
0001b0 bf 3a 91 be bf 3c 55 be ff 4e a8 3e 85 f7 89 3d
       -0.28365132 -0.20823954 0.3287277 0.06736664
0001c0 15 55 bd 3d 59 67 99 be 76 6c 57 be 95 09 d8 bd
       0.09244744 -0.2996166 -0.21037468 -0.105487026
0001d0 79 15 80 3d a1 06 88 be fc 49 fd bd c3 fa 34 be
       0.062540956 -0.26567557 -0.12367627 -0.17673783
0001e0 5a 58 87 bc 64 4e f7 bd 46 39 9d bc 8b 5b 58 be
       -0.016521621 -0.12075499 -0.01919235 -0.21128671
0001f0 a0 91 5b be 61 1a 3c be aa a9 d7 bd 31 67 7d be
       -0.2144227 -0.18369438 -0.10530408 -0.24746396
000200 35 d8 88 3e d5 59 78 bd d6 6e 8d 3e a7 cf c4 3d
       0.26727453 -0.060632546 0.27623624 0.09609919
000210 1c 23 90 be f6 1f 52 3e 45 8f c9 bd e7 9f fe bd
       -0.28151786 0.20520005 -0.098417796 -0.12432843
000220 d5 76 83 be 3d 4a 9d be 61 fe c7 3d db 8b 7d bd
       -0.256766 -0.30720702 0.09765316 -0.061900955
000230 49 be d9 3d ee c5 86 be d1 45 75 3e 72 93 68 be
       0.10631997 -0.26322883 0.23952414 -0.22712496
000240 ad b9 4b bd 8c e4 8b 3d 65 08 2a 3e ee a3 83 3e
       -0.04973762 0.06830701 0.16604765 0.25711006
000250 e2 6b 94 3e 3e e7 7e be b6 be 87 3d 15 45 0d be
       0.28988558 -0.248929 0.06628172 -0.13795884
000260 2e 61 e2 bc 58 dd 6a be d4 15 97 3e 1a cd 6a be
       -0.02763423 -0.22935998 0.2950884 -0.22929803
000270 e5 e8 30 3e 27 94 e8 3d bd 6a d7 3d 9b 96 2c be
       0.17276342 0.11356383 0.105184056 -0.16854326
000280 7f 7d 96 3e 15 70 a2 3d 6d 9e 33 3d 86 ec 8c be
       0.2939262 0.07931534 0.04385226 -0.27524203
000290 54 8a 0a 3e 44 a6 40 bd 51 4a 06 be 46 4b 91 3e
       0.1352933 -0.047033563 -0.13114287 0.28377742
0002a0 40 46 a9 3d c5 b7 26 be 73 c6 29 be d6 f4 e1 bc
       0.08265352 -0.1628104 -0.16579609 -0.027582567
0002b0 6c 4b 21 3e a1 72 cc bd d9 e6 47 be a7 27 e3 bd
       0.15751427 -0.09982801 -0.19521655 -0.110915475
0002c0 51 f5 77 be 21 13 e0 3d 0c 35 77 3e c5 25 9a be
       -0.24214675 0.109411485 0.2414133 -0.3010694
0002d0 6b 38 ad 3d 10 17 26 3e 22 09 55 3d b5 1b f2 bd
       0.084580265 0.16219735 0.052010663 -0.11821691
0002e0 44 6c 24 3e 7c 5f 29 3e b0 69 ed 3d 0f b9 69 bd
       0.16056925 0.1654033 0.11592424 -0.05706125
0002f0 1c 8c ae bd a8 76 04 3d bd 67 98 bd 58 6f c6 bd
       -0.085228175 0.032339722 -0.074416615 -0.09689206
000300 47 22 55 3e ec 59 8e 3e be f9 d0 bc 39 b7 8c bd
       0.20813857 0.2780298 -0.025509711 -0.068708844
000310 51 21 e6 3b 02 42 90 bc 19 4c 9e 3d 6c 16 b8 3d
       0.0070230146 -0.0176096 0.07729358 0.08988652
000320 e7 a2 96 be 7c 25 03 be 96 ea 7b 3e b4 2d d4 3d
       -0.2942116 -0.12807268 0.24601206 0.1036028
000330 41 fe e2 bc fa c1 44 be da b0 43 be c9 ff 8e be
       -0.027709128 -0.19214621 -0.19110432 -0.27929524
000340 b6 f6 ca bd 82 d9 e2 3d 92 39 5f 3e ff 6e 16 3e
       -0.099103376 0.110766426 0.21799305 0.14690779
000350 b8 4f 94 be 74 57 4d be 2b 4c 73 bd 49 f7 9a 3e
       -0.2896707 -0.20052892 -0.05939881 0.3026679
000360 77 f2 31 3d eb 1d a9 bd cf 45 05 3e 0e 10 f8 bd
       0.043444123 -0.082576595 0.13014911 -0.12112437
000370 f2 1c 69 be 3d c2 6a 3e 9f 2f 0b be 46 56 61 bd
       -0.22764948 0.22925659 -0.13592385 -0.055013917
000380 90 00 9d be cb 4a 5b 3e 85 11 80 3e a2 94 fd 3d
       -0.30664492 0.2141525 0.25013366 0.12381865
000390 d7 04 59 be a0 68 9b be 8a 60 8a be 5b c1 82 3e
       -0.21193253 -0.3035326 -0.27026778 0.25538144
0003a0 3c 3f 28 3e 97 9b 8e 3e 7c 87 30 3e d3 59 a5 3d
       0.16430372 0.2785308 0.17239183 0.08073773
0003b0 0c 38 81 3c ef ca 65 be 74 7c 82 be 56 35 8f be
       0.015773796 -0.22440694 -0.25485575 -0.2797038
0003c0 6c a2 09 3e 4c 6c 29 be 57 59 af bd 1c 94 50 be
       0.13440865 -0.16545218 -0.08561962 -0.20368999
0003d0 3d 3d 98 bd 24 9e 67 be 53 67 4f be f8 c5 e4 3d
       -0.07433555 -0.2261892 -0.20254259 0.11170572
0003e0 64 84 b2 bd 8d e2 4e 3e 0f fc f1 bd 62 3c 6b be
       -0.08716658 0.2020361 -0.118156545 -0.22972253
0003f0 31 ad 3c bd dd a4 12 be ed 40 b3 bd b9 3c 98 be
       -0.046063606 -0.14320703 -0.08752618 -0.29733828

model.base_model.net.0.bias f4 [128]
000000 8c cd 5e be cc 7e 94 bd ed 48 1b bd d4 7c 2e be
       -0.21758097 -0.07250747 -0.037911344 -0.17039806
000010 54 fd 70 be ee 7a 60 3e 98 f7 5e 3e ef fc 92 be
       -0.23534137 0.21921894 0.21774137 -0.28708598
000020 5a 33 c0 3d 6a 69 fd 3d 59 48 96 3e 5d 39 48 3e
       0.093847945 0.12373622 0.29352072 0.19553132
000030 36 f0 95 3e 55 54 c5 bd da a7 64 3e 18 f0 84 3e
       0.2928483 -0.09635226 0.22329655 0.25964427
000040 72 ac 92 be 70 af 83 be ed 07 80 3d 97 1d 32 3e
       -0.2864719 -0.25719786 0.06251512 0.173941
000050 67 ce 1c be e8 df 0b 3d 03 d2 04 3c 07 da c4 3d
       -0.15313111 0.03414908 0.008106711 0.09611898
000060 7f 06 27 be 8f 2e 3c 3e 23 fb 54 3e 19 9f 5b be
       -0.16311072 0.18377136 0.20798926 -0.2144741
000070 f9 23 a6 3b 94 5b 1e 3c 73 ea c9 3d fd 0a 99 3e
       0.0050702062 0.009665389 0.09859171 0.29891196
000080 89 82 a7 3d aa e1 7e bd 40 4d 8f 3e 09 a5 fe bd
       0.081791945 -0.06222693 0.27988625 -0.12433822
000090 1f 5b ad bd 37 a1 fb 3c 99 b2 76 be b7 ed 21 3d
       -0.084646456 0.030716522 -0.24091567 0.039533343
0000a0 05 9c 54 be b1 30 f3 3c fe 52 dd 3c 50 5e 2d 3d
       -0.20762642 0.029686304 0.027017113 0.04232627
0000b0 a8 c5 88 be 4e 8d 95 be fd 3d 15 3e 6d d1 8b 3e
       -0.267133 -0.2920937 0.14574428 0.27308217
0000c0 06 8f 90 be c0 d7 fa 3d a6 d9 6a be 23 11 bf 3c
       -0.28234118 0.12248182 -0.22934589 0.023323601
0000d0 2b 78 99 3e e1 b9 77 3e a6 cf 65 be d4 13 4b 3e
       0.29974493 0.24192001 -0.22442493 0.19831783
0000e0 23 5f 28 3e fd dd e3 ba 27 54 9b 3e 49 77 f8 bd
       0.16442542 -0.0017384883 0.3033764 -0.12132127
0000f0 c0 03 8e bd bd 42 24 be b2 bd 53 3d 6a e1 b4 3d
       -0.06934309 -0.16041084 0.05169458 0.08832057
000100 5f 86 00 3d 11 74 30 be 7e c4 0b be db 11 d1 3d
       0.031378146 -0.17231776 -0.13649175 0.10208484
000110 8f f9 89 be d8 bb 30 bd bd d6 67 bb b9 19 04 be
       -0.2694821 -0.04314789 -0.0035375797 -0.12900437
000120 87 a1 dc 3d bd 54 aa 3c 34 20 6a 3e d3 4b ae bc
       0.107729964 0.02079236 0.22863847 -0.02127639
000130 74 7d 45 be 97 18 63 3e 1a d9 3c 3d 30 0a c0 bd
       -0.19286138 0.22177349 0.04610548 -0.09376943
000140 1a 7b 4e be 16 dc a5 3d 51 d9 94 be a0 fb ad 3d
       -0.20164147 0.08098619 -0.2907205 0.08495259
000150 9e 16 22 3e c5 c8 8c be 75 4e 57 be 44 dc 67 be
       0.1582894 -0.27496925 -0.21026023 -0.22642618
000160 b3 e7 8a 3e 5f 82 8b 3e 7a b3 ca 3c 54 47 9a 3e
       0.27129897 0.27247903 0.024743784 0.30132544
000170 54 e6 dd bd 18 08 9b be 78 b0 df 3d 3e 03 ed 3d
       -0.10834947 -0.30279613 0.109223306 0.11572884
000180 c9 3b a2 3e ed 88 ca ba a8 42 77 3e 95 a9 45 3e
       0.31686237 -0.0015452184 0.24146521 0.19302972
000190 0a 3b 6c 3e cf 95 9d be 1d e4 89 3e 67 7d 87 be
       0.23069397 -0.30778357 0.2693185 -0.26462862
0001a0 2a 16 95 3e b6 45 2a bc c9 7e 90 be bb d5 be 3d
       0.29118472 -0.010392597 -0.2822173 0.093181096
0001b0 21 4a 8d bd 01 cc 90 be 40 e6 ee bd cb 82 19 3d
       -0.068989046 -0.28280643 -0.116650105 0.03747825
0001c0 84 99 7f 3e af b8 c1 bd d8 84 3c 3e c1 79 1a 3d
       0.24960905 -0.09459054 0.18410051 0.03771377
0001d0 f3 bb e2 3b 35 8f 84 3d 0d b1 52 be 1a 4a 89 be
       0.006919378 0.06472627 -0.20575352 -0.26814348
0001e0 13 cf bd bd ca ba 97 be 3c 88 15 be bb 42 88 3c
       -0.09268012 -0.29634696 -0.1460275 0.016633382
0001f0 b5 95 56 be 57 74 01 be 50 31 6d bd 31 de 03 bd
       -0.20955546 -0.12642036 -0.057908356 -0.03219432

model.base_model.net.2.weight f4 [128, 128]
000000 21 31 8e bd 7f 09 45 bc 04 8a 85 bc 97 5b 77 3c
       -0.06942964 -0.01202619 -0.016301163 0.01509752
000010 db 2c ef bb ad f5 e1 bc fb 3c 04 bd 70 98 a8 bc
       -0.0072990484 -0.027582968 -0.032284718 -0.0205805
000020 34 c6 1c bd 82 43 9b ba b6 7e 1c bc eb 35 9e 3c
       -0.03827496 -0.001184568 -0.009551695 0.01931282
000030 e4 01 d9 3c 7e c8 5c 3d 2a 5a ea 3a f6 9c 7b bd
       0.02649016 0.05390214 0.0017879654 -0.061428986
000040 0a bc b0 3c 45 2e 77 bd 8c 02 bc bc 3a 8e 77 bc
       0.021574039 -0.06034686 -0.022950433 -0.015109593
000050 86 c0 0a bd d0 f8 5b bd 36 65 bf 3d 82 4a 4c 3d
       -0.03387501 -0.053704083 0.09345476 0.049875744
000060 17 1c 07 3c 9a e4 bf 3d 69 a0 be bd f5 7c 83 3b
       0.008246443 0.09369774 -0.093079396 0.004012699
000070 9f de 85 3d 51 00 4c 3d 11 14 a7 bd 6a 7c e8 3c
       0.06536602 0.04980499 -0.08158124 0.028379638
000080 3e d2 5e bd 8a 28 d8 bc 1e 50 30 bc 47 eb a2 bd
       -0.05439972 -0.026386518 -0.010761289 -0.07955032
000090 d6 17 b7 bd ec 31 94 bd ee bb ef 3c b1 a3 24 3d
       -0.08940093 -0.07236084 0.029264417 0.04019517
0000a0 89 6f a9 bd b5 9a 12 bd 94 f0 f6 bb 35 18 c7 bd
       -0.08273227 -0.03579207 -0.0075360034 -0.09721414
0000b0 ab 67 43 3d 1e 50 98 3d 61 64 c4 3c 89 c8 ab bd
       0.047706287 0.07437156 0.023973646 -0.083878584
0000c0 ce 76 9a 3c 97 98 02 3d 66 21 82 3d 99 7f 28 bd
       0.018855479 0.031883802 0.063540265 -0.04113731
0000d0 86 8b 91 bd d5 e1 f1 3c 67 60 b1 3c f5 92 a3 bc
       -0.0710669 0.02952663 0.021652414 -0.019967536
0000e0 5d 26 3d bd eb 0e 27 bd 66 39 89 3d 56 b9 07 bd
       -0.046179164 -0.04078571 0.06700401 -0.033135734
0000f0 cb 19 9a 3d 49 2d 7f 3d e7 6b a2 3c 5f a4 71 3c
       0.07524451 0.062299047 0.019826842 0.014748662
000100 3a 76 2b bc 31 e8 3f 3d 0d e3 7a bd 9c 31 fc 3c
       -0.010465199 0.046852294 -0.06125169 0.030785374
000110 3a 9c b4 bc 1b e2 2a 3d 84 38 54 bc 13 0e 1f bd
       -0.02204715 0.041719537 -0.0129529275 -0.03883178
000120 27 71 6b bc 9c 6d 17 3d 6a 98 8a bd dc 89 77 bd
       -0.014370239 0.036969766 -0.06767352 -0.060434207
000130 c4 9a 70 bc d3 4e 51 bd d9 86 27 3d cb 4b 7e 3d
       -0.0146853365 -0.051100563 0.040900085 0.062084
000140 67 93 02 bb 8e 38 c7 3d 6f 29 5e bd 25 42 8d bd
       -0.0019924284 0.09727584 -0.054238733 -0.06897382
000150 32 02 16 bd 58 72 6f bd 65 d2 8a bd 69 ab 9a bd
       -0.036623187 -0.058458656 -0.06778411 -0.07552225
000160 be 64 ae bd fe 6f 75 3c 40 47 29 3d a1 a0 ce 3d
       -0.08515309 0.014980314 0.041327715 0.10089231
000170 e8 bb bc 3d 70 e7 ab bc bf eb 90 3c 0e 56 fd bc
       0.09215528 -0.020984381 0.017690537 -0.030924823
000180 40 1f 4b 3d 52 ba ab bd bb 64 22 3d 1d 28 2e 3c
       0.04959035 -0.08385147 0.039646845 0.010629681
000190 a4 a9 2c 3c e7 75 bf 3c 98 3e ba bc 20 75 7f 3d
       0.010538492 0.02337165 -0.022734925 0.06236756
0001a0 18 b1 6e 3d a3 a3 38 3d 83 3d 04 3d 3d 71 27 3d
       0.05827436 0.04507793 0.032285225 0.040879477
0001b0 e4 34 9d 3d e9 f3 f0 3c a6 b9 ab 3d 1b e5 c8 bb
       0.07676104 0.02941318 0.08385019 -0.006130827
0001c0 90 87 8d 3d 00 e9 06 3d dc aa 14 3d 0a b4 d0 3d
       0.06910622 0.03293705 0.036295757 0.1019059
0001d0 d4 91 4c 3c 15 61 cb bc a6 20 b3 bc 99 b2 a3 3c
       0.01248594 -0.024826566 -0.021866154 0.019982623
0001e0 03 70 e5 3c 02 07 18 bd 6e df b7 3d eb 02 47 3d
       0.028007513 -0.03711606 0.08978163 0.048586767
0001f0 74 39 70 bd 24 31 1c bc d4 17 ae bc a0 5e 4a bd
       -0.05864854 -0.0095332 -0.021251597 -0.049406648
000200 c2 41 9d 3c 63 65 dd bc 68 f1 31 bd 3f 44 cb bc
       0.019196395 -0.027025884 -0.043443114 -0.024812816
000210 89 b4 e6 bc eb cc 99 3d 96 cf 11 3d a5 db b8 3d
       -0.028162258 0.07509788 0.03559836 0.09026269
000220 4a 06 61 3c 70 73 b0 3c ae 7d 1c 3d d7 85 9e 3c
       0.01373441 0.02153942 0.038205795 0.01935093
000230 42 18 90 bd cf 57 41 bd d2 55 c7 bc 3c b0 8f b9
       -0.07035877 -0.04720288 -0.024332915 -0.0002740639
000240 9f c3 22 3d 51 09 0b 3d 9e 93 8e 3d 80 19 1b 3c
       0.03973734 0.03394443 0.069617495 0.009466529
000250 6f 6e ff bc 56 9a 71 bd 1b 51 8f bd 10 2a 58 bd
       -0.031180589 -0.058985077 -0.069978915 -0.05277449
000260 47 4b 1f 3d cc bd 2e 3d c9 48 ad 3d a2 97 b0 bc
       0.03889015 0.042661473 0.08461148 -0.02155668
000270 fd 4b 1f bc 4f a2 99 bc c1 26 41 3c 5c d1 ec 3c
       -0.009722707 -0.018754153 0.011789025 0.028908424
000280 eb 89 1f ba 00 43 84 3c 8b 5d 0a 3c 64 6f e2 3c
       -0.000608592 0.01614523 0.008445154 0.027641006
000290 25 f3 bc bc b4 eb 4b bd be 26 dd 3c 2d d5 2e bc
       -0.02306516 -0.04978533 0.026996013 -0.010670942
0002a0 37 ef 17 bd 5c c1 19 3d a3 a1 f5 3b ba c6 99 39
       -0.037093367 0.037537917 0.0074960752 0.00029330497
0002b0 d7 5b 2a bd 59 1b 6b bb 56 af a3 bd 2c 7b c1 3c
       -0.04159149 -0.0035874455 -0.07992427 0.023618303
0002c0 4e 02 27 3b 64 d8 50 3d 6d 8c 12 3c 6a c0 88 3b
       0.0025483551 0.050987616 0.008944613 0.004173328
0002d0 cd f7 9f 3c ee 8f 99 3d 47 f7 50 bd dd 00 46 3d
       0.01952734 0.074981555 -0.051017072 0.048340667
0002e0 6c ce c4 3c cb 53 72 bd 4e 5a 09 3d d3 6c 38 bd
       0.02402421 -0.059161942 0.033533387 -0.045025658
0002f0 1d 34 03 bd 05 f6 f8 bc 80 44 67 bd 9c aa 91 3d
       -0.03203212 -0.030390749 -0.05646181 0.07112619
000300 0a 3e 9c bd 38 5c 4f 3d ab 20 b5 bd e9 31 23 bc
       -0.076290205 0.050625056 -0.088441215 -0.00996063
000310 d8 4b 0c 3c 1c 4a 75 3d b6 7a ce bc 7e 45 e2 3c
       0.008563004 0.05988513 -0.025204998 0.027621027
000320 0a 64 7e 3c 4c b4 76 3d 84 5b 83 3b d1 9c 0c 3d
       0.015526781 0.06023054 0.0040087122 0.03432924
000330 f9 8e 5f bd 13 01 5b bd 48 ed 99 3d b4 90 87 bd
       -0.05457971 -0.05346782 0.07515961 -0.06619397
000340 5c 39 85 bc b7 f6 98 bc 3f 45 be 3d 8c 52 cb bb
       -0.016262703 -0.01867233 0.092905514 -0.0062049087
000350 ed fb 89 bd 87 63 b9 bc 3b 5d 43 3d 01 57 f5 3c
       -0.06737504 -0.022630466 0.047696333 0.029948713
000360 a2 7b 92 3d 56 60 41 bc 3a 51 35 3d e9 5a c4 bd
       0.07152487 -0.011802753 0.044266917 -0.09587652
000370 02 75 e0 3c 4c 47 4e 3d 5a cc 6a 3d 9f 81 87 bd
       0.027399544 0.050360963 0.05732379 -0.0661652
000380 0a f1 00 bd cc 0f a0 3c 7a 48 81 bd c6 de 89 bd
       -0.031479873 0.019538783 -0.06312652 -0.06731944
000390 31 10 95 bd 89 c0 66 3c 69 db 35 3d 14 fb fd 3c
       -0.07278479 0.01408399 0.0443987 0.031003512
0003a0 a3 0e 8e bb bb e9 16 3d 59 95 90 bd 8f 8d 63 3c
       -0.004335241 0.036843996 -0.07059736 0.013888731
0003b0 e3 c5 ef bc fb e7 20 bd 23 c2 89 3d 06 a7 94 bd
       -0.029269164 -0.039283734 0.06726482 -0.0725842
0003c0 e6 49 f4 3b 52 c1 aa bd b4 dc dd 3b 65 26 4a bd
       0.0074550984 -0.08337654 0.0067706946 -0.049353022
0003d0 4f 15 02 3d 10 03 5b bd 90 0d 8c 3d 2a d4 8e bd
       0.031758603 -0.053469718 0.06838524 -0.06974061
0003e0 38 7c 3e 3d f2 10 7b bd 83 e8 06 3d c0 f3 1a bd
       0.046505183 -0.061295457 0.032936584 -0.037830114
0003f0 0e 05 cb 3a e8 fa 3d bc 8b 6e 82 3d c8 b0 d2 3c
       0.0015489177 -0.011595465 0.06368741 0.025719061

model.base_model.net.2.bias f4 [128]
000000 e5 68 ba ba 1d e6 2b bd e5 70 93 bd 72 40 42 bd
       -0.0014221935 -0.0419675 -0.07199267 -0.04742474
000010 26 5c 4d bd 72 e1 ae 3d 6f ee 2f ba c5 a3 60 bd
       -0.050136708 0.08539094 -0.00067112496 -0.054843683
000020 00 10 9f bb 50 1b d8 bb e5 d0 a7 3c d8 96 0c 3d
       -0.0048542023 -0.006595053 0.02048535 0.034323543
000030 f6 31 76 3d c3 ee 1b bd e1 d3 7a bc d2 02 a6 bd
       0.06010624 -0.038069498 -0.015309305 -0.08106007
000040 f9 ec f1 bc ba 96 95 bd d1 98 3c bc ea 43 48 bd
       -0.029531943 -0.073041394 -0.011511044 -0.048892893
000050 66 20 05 bd f0 ee af 3d d9 d8 a9 3d 6d 1e f4 3b
       -0.0325016 0.085904956 0.082933135 0.007449916
000060 25 8e 4a 3d 2d e2 59 3d 80 f3 0b 3c 08 26 8b 3c
       0.049451966 0.053194214 0.008541942 0.016985908
000070 8c be ad ba b7 2e 95 bd bd 7c 89 3d 2a 49 8d bd
       -0.001325564 -0.07284301 0.06713245 -0.068987206
000080 8e c5 d0 bc ad 8e 9e bd 55 f5 55 bd e0 80 ae 3d
       -0.025484826 -0.07742057 -0.05223592 0.08520675
000090 ad 93 be bb a8 e5 c7 3c 24 20 d3 3c 71 c0 95 3d
       -0.005815944 0.0244015 0.025772162 0.07312096
0000a0 44 e2 b9 3c b9 7e 4d 3b d4 80 0c bd ae 9b 6c 3c
       0.0226909 0.003135605 -0.034302548 0.014441414
0000b0 91 38 c6 3c 3c 72 67 bd f3 af 82 bd 7b 3d 1b bd
       0.024196895 -0.056505427 -0.06381216 -0.03790043
0000c0 af 32 a5 3d cb 58 2e 3d d0 14 56 3d f8 40 83 3d
       0.08066308 0.04256515 0.052265942 0.06408876
0000d0 d8 ca d3 3a 06 6b 77 bd 84 70 b7 3d b6 c4 93 3c
       0.0016158475 -0.0604048 0.089570075 0.018038135
0000e0 c8 b5 d4 bc c1 7a 04 3d 8d 14 7a bd c3 1d 92 39
       -0.025965586 0.03234363 -0.061054755 0.00027869464
0000f0 1d 43 a0 3d d9 98 0a 3d 0e 4f 9b bd 82 ac a6 3d
       0.07825301 0.033837173 -0.07583438 0.08138372
000100 cf 6a 93 3c 6f 1c dd bc 52 fd 88 3d f7 24 13 3d
       0.017995266 -0.026991097 0.06688942 0.035923924
000110 18 77 64 3d 54 35 46 3d fd 6c 2d bd 91 6f 6b bd
       0.05577764 0.0483907 -0.042340267 -0.057479445
000120 65 47 6f 3d b8 9b e3 bb 89 f7 9b 3d b1 a7 29 3d
       0.058417697 -0.0069460534 0.07615573 0.04141969
000130 80 0a ad bd f0 4d 5f 3d 77 90 33 3d c5 a1 a8 bd
       -0.08449268 0.054517686 0.043838944 -0.0823398
000140 12 10 9d 3a 96 df 97 bd 92 14 49 3d c5 57 4a 3d
       0.0011982939 -0.074156925 0.049091883 0.04940011
000150 da be f7 3c 52 08 79 3d 5a 34 34 bd bc 00 5b bb
       0.030242372 0.06079895 -0.04399524 -0.0033417186
000160 8b e3 a3 bc 0b c5 89 3d 75 1f 88 3d 1f ab d9 bc
       -0.020005962 0.06727036 0.06646625 -0.026570855
000170 c7 f4 90 bd 3b 4c b1 3a 23 38 9a 3d 3e 3b 94 bc
       -0.070779376 0.0013526747 0.075302385 -0.018094655
000180 44 b0 1a 3d 4e 29 87 bd 88 04 6a bd 66 b9 94 bd
       0.037765756 -0.06599675 -0.057133228 -0.072619244
000190 07 ca 9d bd bb 08 15 bd 40 28 19 bd 56 95 04 3d
       -0.07704549 -0.03638528 -0.0373919 0.03236898
0001a0 91 64 9d 3d 90 c1 da 3b c5 45 06 3d 92 42 67 bd
       0.07685197 0.0066759065 0.03278138 -0.05645997
0001b0 07 44 00 bd 8c 08 af bd ec 35 b3 3d 97 e5 3e 3c
       -0.031314876 -0.08546552 0.08750519 0.011651418
0001c0 03 60 a3 bc 25 ca 9a bd 97 3e b2 3c b9 d0 b9 bd
       -0.019943243 -0.07558087 0.02175836 -0.09073014
0001d0 ac 3f 6e 3d 86 25 af bd 7d f5 98 3c d3 1a 57 3d
       0.05816619 -0.08552079 0.018671745 0.052515816
0001e0 61 8f 96 bd af 79 79 3d 33 d5 a7 3d d5 59 70 3d
       -0.07351566 0.060907062 0.081949614 0.05867942
0001f0 f8 74 ae 3d 2b 53 32 bd 1b ef 39 bc 64 af a1 3d
       0.08518404 -0.043536346 -0.011348511 0.07894781

model.base_model.net.4.weight f4 [128, 128]
000000 19 d6 d4 3c a2 a1 4f bd d1 f0 aa 3d 48 0f d1 bc
       0.025980996 -0.050691254 0.08346713 -0.025519982
000010 fe 62 f1 bc fb 6f af 3c 60 94 b0 3d 27 0d 49 bd
       -0.029466148 0.021415701 0.0862205 -0.04908481
000020 dd 46 01 3b 8b a5 3d bc 58 1f 05 bd 9d cc 2a 3d
       0.0019726076 -0.011575113 -0.032500595 0.04169904
000030 14 51 8a 3b 7c 9c ad bd 8f 3d 8c 3b 5a fd 4a 3d
       0.004221091 -0.08477113 0.0042797993 0.04955802
000040 ca 69 27 bd 3a eb 86 3d 7c cc 99 bd 1c 02 d7 3c
       -0.040872373 0.06587835 -0.075097054 0.026246123
000050 3e b3 51 3d de e3 f8 3c 22 46 0c 3d be 5c 47 3c
       0.05119633 0.030382093 0.03424657 0.012168108
000060 e1 9f 93 bc a3 ec 72 3d 49 bd 21 bc d6 0f a5 3d
       -0.018020572 0.059307706 -0.009871789 0.08059661
000070 5c e2 a9 3d 92 a5 b8 bd d1 1a 98 3d 78 0d c7 3c
       0.08295128 -0.09015955 0.0742699 0.024298415
000080 a4 c9 6e bd a7 f7 55 bd 18 e3 e5 bc 2b 24 af 3d
       -0.05829777 -0.052238133 -0.028062388 0.0855182
000090 5e 50 4f 3d 65 0d 77 bc 7b 3d 82 bd f7 9f 64 bd
       0.050613753 -0.015078877 -0.06359383 -0.055816617
0000a0 ec b9 22 bd 5c 2d c3 ba 76 65 bf bd c6 ea 9e bd
       -0.03972809 -0.0014890837 -0.09345524 -0.07759623
0000b0 56 6f 6a bd c7 6a b7 3c a3 a5 04 3d 5d fd 10 3d
       -0.057235084 0.022389783 0.032384526 0.035397876
0000c0 18 db 9b 3d 0b 5e 04 3d dc 48 01 bd 2e f6 17 3d
       0.07610148 0.03231625 -0.031563625 0.03710001
0000d0 d5 d0 07 bd c0 bf a1 3d d7 9f f9 bc e1 99 70 bd
       -0.033158142 0.078979015 -0.030471725 -0.0587405
0000e0 f3 7f 5a bc bc 99 71 bd a0 34 64 bc 59 a8 9a bc
       -0.0133361695 -0.058984503 -0.013928562 -0.018879103
0000f0 1c a6 22 3c df 48 46 bc ae bd 7a bd 93 0f aa bd
       0.009927299 -0.012102335 -0.06121605 -0.08303752
000100 0e 76 88 bd f6 12 a6 bd 8a e3 b2 bd 76 8c aa 3d
       -0.06663142 -0.08109085 -0.08734806 0.08327572
000110 3d 28 41 3d 14 d4 28 3d 8a ed 83 3d d8 dd 35 3c
       0.047157515 0.04121788 0.06441791 0.011100255
000120 62 63 1d bd 94 8e 78 bc 65 a2 19 bd 58 55 56 3d
       -0.038424857 -0.015170712 -0.037508387 0.052327484
000130 44 82 69 3c ee 19 b6 bd a6 16 b6 3c 4d 43 91 bd
       0.014252249 -0.088916644 0.022227596 -0.07092915
000140 84 25 7b 3d 96 8a 28 3c ff 08 4a 3b 78 c3 39 bd
       0.061315075 0.010286948 0.0030828116 -0.04535243
000150 0f c2 47 bb 5a db 54 3c b6 f1 99 3c e9 7c 76 bd
       -0.0030480658 0.012991751 0.018792015 -0.060177717
000160 a7 a4 35 bd 80 46 80 bd de 03 46 bd 7e b1 6a bd
       -0.044346478 -0.06263447 -0.04834353 -0.057298176
000170 cc f5 a5 bd 7b 88 c0 3d ce 2f c5 bd 34 fb cf bc
       -0.08103523 0.094010316 -0.09628259 -0.025388338
000180 41 fd 06 bb 94 1c 1e bd a9 f3 30 bd e0 d8 c3 3c
       -0.0020597728 -0.038601473 -0.043201122 0.023907125
000190 ad 80 53 bc 3b 2e a6 bc 79 c9 b8 3d 0d db 7e bc
       -0.012909097 -0.020285716 0.09022803 -0.015555155
0001a0 c4 1b 00 b9 22 1d 22 3d 73 b0 8f bc d0 63 87 bd
       -0.00012217375 0.039578564 -0.017540192 -0.066108346
0001b0 ca 8d a3 3d ef f0 9b bd 4d c7 a7 bd ff 92 73 bd
       0.079860285 -0.07614314 -0.081923105 -0.05946636
0001c0 2f cb 6c 3c 5d 5d 8a 3d 41 7e a5 bd 61 30 4f bd
       0.01445274 0.06756089 -0.08080722 -0.050583247
0001d0 e6 4b 9b 3d 89 66 a0 3d aa b6 07 3d 17 b2 95 bd
       0.07582836 0.07832057 0.033133186 -0.073093586
0001e0 f1 f1 72 3d 49 cb 8f bc 5e cf 8d bd cb 17 82 3d
       0.059312765 -0.017552989 -0.06924318 0.063521944
0001f0 01 0f 73 bd 1d 5e a1 3c 4c 96 3f bd 30 53 85 3d
       -0.05934048 0.019698197 -0.046774194 0.065100074
000200 54 11 90 3c 05 a4 f6 bc 5e ae 3a 3d c6 63 af 3d
       0.017586388 -0.030107507 0.045576446 0.08563952
000210 b0 1e 4a bc 06 05 7c 3d e6 0c 1f bd 97 b1 51 bd
       -0.012336418 0.06152823 -0.03883066 -0.051194753
000220 f2 51 20 bd c8 7a bf bd 9e 20 8a 3d 77 c8 f1 3c
       -0.03914065 -0.093495905 0.067445025 0.029514534
000230 6c 04 5b bd 1a e7 7c bd d6 61 6b 3d 63 08 93 3b
       -0.053471014 -0.061743833 0.05746635 0.0044870838
000240 20 08 89 bd f1 4d d9 ba a8 5b 0f bd a8 c4 9d 3c
       -0.06691003 -0.0016579014 -0.03499952 0.019258812
000250 b7 56 38 bd 11 43 10 bd 64 cd 2d bd 16 a6 23 bd
       -0.045004573 -0.03522021 -0.042432204 -0.039953314
000260 a0 e2 da 3b 9c 57 42 3d 0b bc 89 3c d4 57 5c 3d
       0.006679848 0.047446832 0.016813299 0.053794697
000270 5c 1b b5 bc 2d 32 02 bd d2 c3 7e bd f2 85 8b bd
       -0.022107773 -0.031786133 -0.062198468 -0.068126574
000280 5b e7 89 bd 8b 25 c9 bc 4c 59 a7 3d 2f 20 b8 bd
       -0.06733581 -0.024554035 0.08171329 -0.089905135
000290 b4 70 89 3d 38 4f 36 3d 21 c2 51 3d a0 71 4c 3d
       0.067109495 0.044509143 0.051210526 0.04991305
0002a0 69 92 54 3d 90 24 a5 3d 12 3e 37 3d 87 cf 41 bc
       0.05189744 0.08063614 0.04473693 -0.0118292635
0002b0 36 f3 2f 3d 73 f8 02 bc 63 23 46 bd 2f d1 25 3d
       0.042956553 -0.007993805 -0.04837359 0.040482696
0002c0 db 33 c2 3d 88 52 88 3d 3d 8a 01 bd 1d 00 23 bc
       0.09482547 0.066563666 -0.031625975 -0.0099487575
0002d0 c8 fa 26 3d 96 4e 38 3d cc 10 91 bd a3 2a a2 3c
       0.040766507 0.04499682 -0.07083282 0.019795721
0002e0 c7 d2 e7 b9 bd c5 aa 3d 54 91 68 3c 3c 28 39 bd
       -0.00044216795 0.08338497 0.014194805 -0.045204386
0002f0 bd 14 ae bc a0 9d a2 3d ff 39 01 bd 60 23 93 3c
       -0.021250123 0.07940221 -0.03154945 0.017961204
000300 11 ce b3 3d 85 b3 8a bd c2 da 80 bc 6f a0 b2 bd
       0.087795384 -0.06772522 -0.015729312 -0.087220065
000310 57 d6 91 bc 62 0d 26 3d 10 2d 04 bb dc 91 44 3d
       -0.0178024 0.040540107 -0.002016846 0.047990665
000320 8c ed 5b bd 2f 50 3c 3d 29 7b 31 bd 72 2c 42 3d
       -0.05369334 0.045974907 -0.043330345 0.047405668
000330 43 78 e7 bc 0a 1e b4 3d c1 0a 27 3c b6 30 ce 3c
       -0.028255587 0.08794792 0.010195435 0.025169712
000340 c7 4f 94 bd 30 36 d3 3b 68 34 8e 3d 53 9e 9f bd
       -0.07241779 0.0064456686 0.069435894 -0.0779387
000350 b5 b2 9d 3d 50 35 2e 3d 2b 96 e2 bc 5a 22 82 bd
       0.07700101 0.04253131 -0.027659496 -0.06354208
000360 da b7 6e 3d aa a0 90 bc a8 56 39 3d a6 98 07 bb
       0.058280803 -0.017654736 0.045248657 -0.002069035
000370 4f b3 a3 3d 6c 18 78 bd a7 de 7d 3a 26 9d 40 3d
       0.07993185 -0.060570166 0.0009684362 0.04702487
000380 ac 1b 1f bd 44 e6 eb bc e3 bc 7b bc b5 cc b2 3d
       -0.03884475 -0.028796323 -0.015364858 0.08730451
000390 53 c8 15 3d b0 fd ad bd 2a b7 5b 3c 36 c3 80 3d
       0.036567997 -0.08495653 0.013410369 0.062872335
0003a0 6a 91 f6 3c fd e2 b8 3d e1 ce f3 bc a5 a7 ad 3b
       0.030098636 0.090276696 -0.029761733 0.005299526
0003b0 ba e5 9c 3d 22 2e 97 3d cc c4 ac bc f8 53 69 3c
       0.07661004 0.07381846 -0.021089934 0.014241211
0003c0 0c 13 00 3c 76 29 8b 3d a5 22 e1 bc 3f 0f 85 bc
       0.007817041 0.067950174 -0.02748234 -0.016242621
0003d0 fa 38 33 3d 00 18 88 bc 8a 83 14 bd 43 2c 90 3d
       0.04375551 -0.016613007 -0.036258258 0.07039692
0003e0 c6 f2 09 bd 8a 7a 56 3d 20 f4 a1 bc 0d 99 a7 bd
       -0.033678792 0.052362956 -0.019769728 -0.08183489
0003f0 da e8 59 bd 84 86 75 3c ab bd 89 3d 72 d3 89 bc
       -0.05320058 0.014985684 0.067256294 -0.016824458

model.base_model.net.4.bias f4 [128]
000000 d0 18 17 bd 03 e9 a8 3d e8 51 17 ba ca 05 ad 3d
       -0.036888897 0.082475685 -0.0005772398 0.0844837
000010 ad 50 e5 bc 44 f3 7e 3d 39 6f 3d bb 91 31 14 bd
       -0.02799257 0.062243715 -0.0028905405 -0.036180083
000020 6b ef 91 3d b5 1f 97 bd f6 de a5 bb be a3 6e 3c
       0.071257435 -0.073790945 -0.0050619794 0.014565406
000030 62 49 85 bc 39 43 30 bd a3 0a c5 bc 48 3d 56 3d
       -0.016270343 -0.04303286 -0.024052924 0.052304536
000040 09 cd 54 bc 87 2c 22 bd 16 56 14 bd 99 ae 88 bd
       -0.012988337 -0.039593246 -0.03621491 -0.06673927
000050 dc d3 73 3d cd 62 a5 bd e7 78 29 bd 74 e4 a3 3c
       0.059528217 -0.080754854 -0.041375067 0.020006396
000060 2f a5 9e 3d 58 52 8c bd 7a 03 18 3c ed d9 87 bd
       0.0774635 -0.06851643 0.009278173 -0.06633363
000070 65 d4 87 3d 5c 51 92 3d 33 a4 72 3d 6d e2 29 bd
       0.06632308 0.07144424 0.059238624 -0.041475702
000080 c6 e8 84 bd 5e a0 50 bd c0 b9 d6 bc e8 95 32 3d
       -0.064897105 -0.050934188 -0.02621162 0.043599993
000090 58 df 8f bc 3c cf a7 3d c4 88 a2 bd 0f 27 09 3c
       -0.017562553 0.08193824 -0.07936242 0.008371129
0000a0 14 27 97 bd 36 1d a3 bd 21 43 73 bd ee 87 d8 3b
       -0.073805004 -0.07964556 -0.05939019 0.006608001
0000b0 d4 d3 ae bd 4e a3 13 bc 60 fa 2c bd a9 34 59 bd
       -0.08536497 -0.009011103 -0.042230964 -0.053028736
0000c0 1a e7 a7 3d 5b 47 e3 bc 96 9a aa bd d6 c8 69 3d
       0.08198376 -0.027743986 -0.08330266 0.057076298
0000d0 28 eb b9 bd 10 b4 8c ba 66 01 93 bd 43 37 47 3d
       -0.090780556 -0.0010734815 -0.07178001 0.048636686
0000e0 1f e0 0a 3d 80 e5 71 bc 22 27 b6 bc be 62 83 bd
       0.033905145 -0.01476419 -0.022235457 -0.06415318
0000f0 fe a2 86 bd 84 b2 1e 3d ba 75 89 bd c9 30 02 bd
       -0.06574057 0.038744465 -0.06711908 -0.031784806
000100 d7 e9 8d 3d f1 23 af bd 36 b7 c4 ba b8 99 02 bd
       0.06929367 -0.08551777 -0.0015008214 -0.03188488
000110 fd ae 2c 3d db 5e 02 bd 07 f0 98 3d f9 f8 ed 3c
       0.04215907 -0.031828742 0.074676566 0.029049383
000120 0c 36 5c bd 9c e3 ac 3c 25 e9 b8 bb 73 02 bd bb
       -0.05376248 0.021104626 -0.0056430274 -0.0057681142
000130 a9 fb 57 bd ab 4c 29 3d b2 7f 97 3c fa b7 f5 bb
       -0.052730236 0.041332882 0.018493507 -0.0074987384
000140 21 9d 40 bd 51 3a af 3d cd 88 93 bd 4c fb 0e 3d
       -0.04702485 0.08556045 -0.07203827 0.034907624
000150 6d b5 a2 bd 4e 27 91 bd 67 66 f6 3c 22 a9 ae 3c
       -0.079447605 -0.07087575 0.030078126 0.021320883
000160 73 6c 73 bc 2e 18 21 3d 6b 21 33 bc 60 fd d4 3c
       -0.014857399 0.0393297 -0.01093326 0.025999725
000170 2c 04 93 bd b4 0c 1e 3d 49 3f b6 bc 8b 4e 78 3d
       -0.0717853 0.038586333 -0.022246974 0.06062178
000180 53 84 99 bd 7d ee 4f 3c e2 5a 05 bd ed 86 1a 3d
       -0.07495942 0.012691137 -0.032557376 0.03772633
000190 99 fe 8a bd 8f 9d 95 bd c1 d6 03 3d f4 fe aa 3a
       -0.06786842 -0.073054425 0.032187227 0.0013045953
0001a0 74 34 70 bd ef 58 7b bd 46 25 97 bd 43 e8 bb 3c
       -0.058643773 -0.06136411 -0.07380156 0.0229379
0001b0 c4 06 0b 3d a0 37 25 bd 18 c7 64 3d 2e b4 4d 3d
       0.033942 -0.04033625 0.055853933 0.05022066
0001c0 41 fe 34 3c 43 47 59 bd fe d8 8a bd f6 48 12 bd
       0.011046947 -0.053046476 -0.06779669 -0.035714112
0001d0 de 91 64 bd c2 9c 95 3c 5c d4 73 3d 24 15 9e 3d
       -0.055803172 0.018263225 0.059528694 0.07718876
0001e0 4c 5f 24 bd 81 bf 3a bd 56 38 7f 3c c9 33 b6 bc
       -0.040129945 -0.04559279 0.015577396 -0.02224149
0001f0 f5 35 60 3d 0b 6a a2 bd 5b ae 29 3d 60 4b d4 3b
       0.054738957 -0.07930382 0.041426044 0.006478712

model.base_model.net.6.weight f4 [128, 128]
000000 b9 dd 9e 3d 96 55 03 bd 04 a2 dd 3c 9a 21 75 3c
       0.07757134 -0.032064043 0.027054794 0.0149616245
000010 06 2c 5b bd 1b 4a 8b bd 9c b7 5a 3d d2 60 1b bd
       -0.05350878 -0.06801244 0.05339776 -0.037934132
000020 1b a6 70 3d d6 a9 93 3c 64 7e 4e 3c e4 99 5c 3d
       0.05875216 0.01802532 0.012603376 0.0538577
000030 6e 8e d8 bc a2 f4 a7 bc 64 80 0f 3d 93 35 ae 3c
       -0.026435103 -0.020502392 0.035034552 0.02126578
000040 ea 20 4a 3d ef dd 88 3d 12 a8 a6 3d af 8b 4c 3d
       0.049347796 0.066829555 0.081375256 0.0499379
000050 b2 06 2d bc a0 04 99 bd 92 29 bb bc f5 04 4c bc
       -0.010560678 -0.07471585 -0.02284697 -0.012452354
000060 92 f2 8e 3b e3 ff 6f bd 21 fb 15 bd 9a ea 7e 3d
       0.0043624127 -0.058593642 -0.03661645 0.062235452
000070 ea fe 5d bd 35 01 c9 b9 1f 08 67 3c 97 be 86 3c
       -0.054198183 -0.00038338607 0.014101057 0.016448302
000080 ae 30 4b 3c b6 49 b7 3d a0 23 81 3d 98 04 29 3d
       0.012401743 0.08949606 0.06305623 0.041264147
000090 51 60 e4 bc 0f 7f 94 bd 6f 9b 80 3d 85 b6 83 bd
       -0.027877958 -0.07250797 0.062796466 -0.06431297
0000a0 e4 8c 1a bd b8 94 34 bd 51 51 db 3b c5 f0 a4 3c
       -0.03773202 -0.04408714 0.0066930433 0.02013434
0000b0 60 48 1c 3d 99 a0 aa 3c 07 a2 95 bd f7 7a fe 3c
       0.03815496 0.020828532 -0.07306295 0.031064494
0000c0 80 44 5d bd f3 b6 03 3d 49 c8 88 bd f2 d0 7d 3c
       -0.054020405 0.032156896 -0.06678826 0.015491711
0000d0 a5 a9 ac bd 97 69 80 3d 5d 82 2d 3d e4 ff 7f bb
       -0.084307946 0.0627014 0.042360652 -0.0039062435
0000e0 12 b8 bc bb 01 ad b8 b8 b6 f0 73 bd 33 d5 4d bd
       -0.0057592476 -8.806028e-05 -0.05955573 -0.05025215
0000f0 fb 76 d9 3b c6 6f 65 3d 5a 59 37 3d cb c5 81 3d
       0.006636498 0.0560148 0.044762947 0.06336554
000100 6a 6e 84 3d eb 0b 15 3d 50 f6 70 bd 1d 9a c4 3c
       0.06466372 0.03638832 -0.058828652 0.023999268
000110 1d 7e 3a bd 6c 1c 4d bc 82 04 4f bd e4 4d 1b 3d
       -0.045530427 -0.012518983 -0.05054141 0.03791608
000120 64 a0 28 bd 93 72 3b 3d ce f9 23 3d f5 e2 35 3d
       -0.041168585 0.045763563 0.040033154 0.044405896
000130 2a e8 6c 3d 45 63 6e 3c e9 6e 1f bd a8 89 2a 3d
       0.057838596 0.014550035 -0.03892413 0.041635185
000140 be 9f 9f 3d 49 68 60 3d c8 3c 75 bd bd 50 26 3d
       0.0779414 0.054786954 -0.05987242 0.04060434
000150 ea 84 c9 bc e0 e9 ae 3d 31 28 09 bd 5b 35 a5 bc
       -0.024599511 0.08540702 -0.033485595 -0.020167043
000160 07 d4 0a 3d 8d ca b4 bd ef c4 bb 3c 5d 10 52 3d
       0.03389361 -0.08827696 0.022921054 0.051285136
000170 67 e5 54 bc 26 c0 a8 bd 80 ed ba bd 5c a4 89 bd
       -0.012994147 -0.082397744 -0.09127331 -0.06720802
000180 4d 59 96 bd 5d af 1c 3d 65 d3 99 bc af 3f f6 bc
       -0.073412515 0.038253177 -0.018777559 -0.030059664
000190 c1 cb 85 3d a5 e1 27 3c 1c c8 94 bd 4d 55 84 3c
       0.065330036 0.010246669 -0.0726473 0.016153956
0001a0 01 df 2b 3d 1b 4d 3e bd a3 c3 c0 3c 59 77 1a bd
       0.04196072 -0.046460252 0.023530787 -0.037711475
0001b0 9b f3 95 bd c0 ce 76 bd bb d1 43 bd bb c7 59 3d
       -0.07321855 -0.060255766 -0.047807436 0.053168993
0001c0 4d 77 90 3d 7f 61 78 bd 49 6a 66 3d a4 0c ef bc
       0.07054005 -0.060639855 0.056253705 -0.029180832
0001d0 e3 f8 1f bc 5c ef 7a 3c 65 74 af 3c d3 d3 92 3c
       -0.009763929 0.015315857 0.021417806 0.017923271
0001e0 4b 63 b9 bd 1d f4 ba 3c 4b 3d b9 bd a1 44 a7 3d
       -0.09052142 0.02282148 -0.09044894 0.08167387
0001f0 81 ee b1 3d 01 c0 99 bd e0 64 4f 3d 58 d1 5f 3d
       0.08688069 -0.07507325 0.05063331 0.054643005
000200 bd 64 7a bd 40 9a b4 3c d5 cc 22 bd ac d2 77 bd
       -0.061131228 0.022046208 -0.039746124 -0.060503647
000210 1b 22 35 bd 2f 93 20 bd 05 1a 71 bd 39 57 17 bc
       -0.04422198 -0.039202865 -0.058862705 -0.009237104
000220 f8 f3 af 3d cc 61 93 3c 66 0c 7f bb 4d 74 9e bd
       0.08591455 0.01799097 -0.0038917302 -0.07737026
000230 83 40 28 3d be 4c aa 3d 5b 4d 5d bc 9a 2f be 3d
       0.04107715 0.08315419 -0.0135072125 0.09286423
000240 6f a0 ba 3d 42 b4 00 3d 6d c4 9e bd db ad 03 bd
       0.091126315 0.031421907 -0.07752309 -0.032148223
000250 77 28 b2 bc b5 53 f0 bb d8 b6 0c bd 9c 3a ea bc
       -0.02174781 -0.0073341974 -0.03435406 -0.0285924
000260 72 5a e3 bc 69 48 ab bc 56 28 9a bd 1e d1 62 bd
       -0.027753089 -0.020908551 -0.07527225 -0.05537521
000270 00 66 e3 3c a1 b6 92 3d 69 c6 a7 3d d1 cd 85 3d
       0.027758598 0.0716374 0.081921406 0.06533397
000280 31 84 a5 bd ea 4e 4c bc 01 9f eb bc d2 9a 03 3d
       -0.08081854 -0.012469986 -0.028762342 0.03213007
000290 c0 eb ab 3d 3b 27 80 3d ea ca 55 3d 23 58 2c bd
       0.08394575 0.062574826 0.052195467 -0.04207624
0002a0 c0 19 97 3d 9c 7f 84 bd 09 8e 7c bd 71 16 11 3d
       0.07377958 -0.06469652 -0.061658893 0.035421792
0002b0 12 c2 86 3d 43 47 35 3d 15 96 b3 bd d7 1d 43 3d
       0.06579985 0.044257414 -0.0876886 0.04763588
0002c0 df 08 ca bc 41 0c c9 3b 68 c1 2b bd 63 52 1d bd
       -0.024662433 0.006135494 -0.041932493 -0.03840865
0002d0 18 b8 ea bc 11 a1 89 3b 28 65 26 3d ae a3 24 bd
       -0.028652236 0.004200109 0.040623814 -0.04019516
0002e0 e8 b3 f5 bc ad fd 4d 3d e4 f8 2f bd ac 49 6b bd
       -0.029993013 0.050290752 -0.04296197 -0.057443306
0002f0 6f 35 70 3a 72 ba 2c 3d 51 15 5a bc aa ee 90 3b
       0.00091632357 0.042169996 -0.013310746 0.004422982
000300 19 d9 aa 3d d8 2f 2a 3d 0c e9 ac 3b 49 63 66 3d
       0.08342189 0.041549534 0.005276805 0.05624703
000310 dd f9 f4 bb 8a ed 4c bd 81 8c 18 3d a2 40 80 bd
       -0.007476075 -0.050031222 0.03724337 -0.06262328
000320 7f 21 ef 3c d4 bd 23 3d 2a 9f 24 3d 0a 73 ae 3b
       0.029190777 0.039975956 0.040190853 0.0053237723
000330 d0 ea 5f 3d 23 8d 4f 3d 77 d1 49 3d 51 57 88 bd
       0.054667294 0.050671708 0.049272027 -0.06657279
000340 af 52 9f 3c e2 b1 17 3d 95 57 80 3d ea 45 bf 3d
       0.019448606 0.037034877 0.06266705 0.09339507
000350 fd d6 ac bd a3 e0 ab 3d 25 3a 7f 3c 26 42 3f bd
       -0.08439443 0.083924554 0.015577828 -0.046693943
000360 5c 8f 9e bd 9d 5c 00 3d c7 4f 84 3d a8 3e 73 3d
       -0.077421874 0.031338323 0.06460529 0.059385926
000370 2f 97 6c 3d 79 8d 7f bd ee d1 bd bd 99 24 6c bc
       0.057761367 -0.06239078 -0.092685565 -0.014413022
000380 13 89 3f bd ee 83 86 bd d6 15 ae bd 9d 76 0f 3d
       -0.046761584 -0.06568132 -0.085002586 0.035025228
000390 97 57 d5 3c 6d a4 19 3d 3c 65 4c bd a6 56 7f bd
       0.026042743 0.037510324 -0.049901232 -0.062338494
0003a0 a9 5d 82 3b 54 89 1d 3d 64 6f 11 3d 05 55 09 3d
       0.0039784503 0.038461044 0.03550662 0.033528347
0003b0 8f 89 e5 bc ef 76 8b 3c 46 e9 d4 bc 54 d0 8e 3d
       -0.028019695 0.017024485 -0.02599014 0.06973329
0003c0 04 97 60 3d cc b1 2a bb c5 ab 1e bc 48 f5 a3 3d
       0.05483152 -0.0026045917 -0.009684508 0.08005768
0003d0 71 b5 83 bd b1 e9 b3 3b de c9 9a 3b 9a 19 a7 bc
       -0.064310916 0.0054905047 0.0047237715 -0.02039795
0003e0 bb 6d f3 ba 41 16 78 bd 0a 81 27 37 77 92 45 3d
       -0.0018572131 -0.060568098 9.98402e-06 0.048235383
0003f0 e8 66 8a 3d 1d c0 81 3d 52 9a 35 3d 9d 49 af 3d
       0.06757909 0.06335471 0.044336624 0.085589625

model.base_model.net.6.bias f4 [128]
000000 e1 4f 4f bd e6 5b ac bd 4e 50 b9 bc 5a e8 a1 3b
       -0.050613288 -0.08415966 -0.0226213 0.0049410285
000010 b7 84 29 3c 80 9a 62 bb bd 7e bb bd 06 79 ed bc
       0.010346583 -0.0034576952 -0.09155033 -0.028988373
000020 e8 f5 5e bd 1d d7 91 bc 37 fb 3f bd 6a c5 d0 bb
       -0.054433733 -0.01780277 -0.046870437 -0.00637119
000030 40 cd a6 bc 25 87 9c bd 7b 77 2d 3d eb 2a d1 3c
       -0.020361543 -0.07642964 0.042350274 0.02553316
000040 3d 1c c0 3c 2c fe f2 3c 23 32 ec bb eb 1f b2 3c
       0.023450965 0.029662214 -0.007208125 0.021743735
000050 ac dc b9 bd b7 8a 7d 3d 34 39 97 3d ab 56 01 bd
       -0.09075293 0.061899867 0.073839575 -0.031576794
000060 48 5f 93 3d 7a 94 00 bd c5 81 0a 3d 6c ff 19 bd
       0.07195908 -0.0313916 0.033815164 -0.037597105
000070 a9 8f 5d bd fd 5c 33 bd 8f 2d 84 3d b2 f3 ff bc
       -0.054092083 -0.043789852 0.06454002 -0.031244133
000080 cb 8e 8f bd ba be cd 3b 9e 1e 73 bd d6 bb 75 bd
       -0.070096575 0.00627884 -0.05935537 -0.059993587
000090 0b 52 59 bd 3f c4 68 bd 2a aa 67 bd 8a 6c 1c 3d
       -0.053056758 -0.05682778 -0.056558765 0.03818945
0000a0 13 f5 13 bd 27 d9 be 3c b7 95 a1 3d af 36 d5 3c
       -0.036122393 0.023296906 0.07889884 0.026027052
0000b0 c7 c2 bb 3d db 39 8f 3d 43 80 20 3c 04 cb 19 3d
       0.0916801 0.06993457 0.009796205 0.037547126
0000c0 65 04 a5 3d 3e 9c 79 bd e4 96 5a bd ed 7b 74 3d
       0.08057479 -0.06094002 -0.053366557 0.059688497
0000d0 d8 a8 2a 3d d7 62 e0 3c 6e c9 9a 3c a7 73 5f bd
       0.04166493 0.02739088 0.018894877 -0.054553654
0000e0 a2 80 18 3d b8 16 78 bb eb d3 df 3b 58 77 aa 3d
       0.03723205 -0.0037855338 0.0068306825 0.08323544
0000f0 9c f5 4b 3d ba 42 7f bb 59 80 c6 bc 8f 6d 4f bd
       0.04979478 -0.0038949684 -0.024231123 -0.050641593
000100 f4 cb 29 3d 31 6a b6 3d d6 d9 46 bd de 55 73 bd
       0.04145427 0.08906973 -0.04854759 -0.05940806
000110 eb 97 6b 3d 71 01 94 bd bd d5 ae 3d 58 ee 71 3c
       0.057517927 -0.072268374 0.08536861 0.014766298
000120 59 65 a7 3d bf fb 65 3b 5a e9 f5 3c bc f4 a8 bd
       0.081736274 0.003509268 0.030018497 -0.082498044
000130 ee aa 91 bc 6b 68 90 3d 61 53 00 bd fe d3 9e 3d
       -0.017781701 0.07051166 -0.031329516 0.07755278
000140 e2 36 65 bc 52 7e 48 bd e7 1f 45 bd 1c 05 95 bd
       -0.013990136 -0.048948593 -0.048126128 -0.07276365
000150 9f 57 fe 3c 84 84 48 bd 6d 9f 03 3d 46 cd e6 bc
       0.03104764 -0.0489545 0.032134462 -0.028174054
000160 d2 2d 52 3d e6 6f 70 3d 41 dc 88 bd 99 19 55 bd
       0.05131323 0.058700465 -0.06682635 -0.052026365
000170 9f 90 64 3d bc 27 e5 bc cc d7 96 bd b9 81 3e bd
       0.055801984 -0.027973048 -0.07365379 -0.046510432
000180 66 83 a5 bd c2 bf 6d bd dc bb 99 3b e7 d4 80 3d
       -0.08081703 -0.058044203 0.004691584 0.06290608
000190 6e a0 85 3c 32 d9 ef 3b b7 78 96 bb d3 92 47 bd
       0.01631185 0.007319593 -0.004592027 -0.048724007
0001a0 9a 42 1d 3d b6 0a 84 3d ed 87 02 3d 70 e5 9e 3d
       0.038393594 0.064473554 0.03186791 0.077586055
0001b0 54 06 ba 3d 24 23 ba 3b 1b 4b 50 bd fc a0 88 3d
       0.09083238 0.0056804586 -0.050852876 0.0667133
0001c0 fa 5f 5a 3c a7 08 61 bc af 66 6d bc 39 1f f8 3b
       0.013328547 -0.013734973 -0.014489814 0.0075720814
0001d0 6c 24 37 bd 8d 97 4a 3d 57 b9 92 bd 53 23 28 3c
       -0.04471247 0.049460936 -0.07164257 0.010262328
0001e0 37 aa bb bd e5 6b 1f 3d be 13 23 bd d8 c8 3a bc
       -0.09163325 0.038921256 -0.03981375 -0.011400424
0001f0 bc 85 95 3d 76 3b 80 3c 38 7f b5 3a 00 fb 00 3d
       0.073008984 0.015653353 0.0013847118 0.031489372

model.base_model.net.8.weight f4 [128, 128]
000000 5d 4c 96 3b 8e 0b 63 3d 5c 74 5b bb 51 04 81 3d
       0.00458674 0.05543094 -0.0033486104 0.062996514
000010 f7 a6 6d 3d a1 aa 18 bc aa 89 99 3d b3 f9 b3 3c
       0.05802056 -0.009318025 0.074969605 0.021969652
000020 96 07 84 3d 85 40 bd bd ff 6b c6 bd e8 1f 50 3c
       0.064467594 -0.09240822 -0.09688567 0.01270292
000030 f8 08 e0 3c e7 1c 0c bd 2a 32 9b bc 0b 32 1b 3d
       0.027348027 -0.03420725 -0.018944819 0.03788952
000040 8b ce 9f 3d d8 5c d9 3c 1f 19 ac 3d 6b 2c 97 3d
       0.07803067 0.02653353 0.08403229 0.07381519
000050 81 2e de 3c c9 e7 16 3c f9 7c cc bc a2 81 80 bd
       0.027121784 0.009210535 -0.024961935 -0.062747255
000060 44 ea 48 3d d8 4c 24 3b 65 0c 21 bd 63 82 89 bc
       0.049051538 0.0025070217 -0.03931846 -0.016785806
000070 b3 9a 59 bd bc e1 9e bb f6 c3 49 3d b1 0c 8e 3d
       -0.05312605 -0.004848687 0.04925915 0.069360144
000080 ef e9 7a bd fd cd 81 3c 85 3b 15 bd 7a 07 aa bd
       -0.061258253 0.015845293 -0.036433715 -0.08302207
000090 67 f1 32 3d b0 31 96 3d a8 4d 9c 3d 8a bc 92 3d
       0.04368725 0.07333696 0.07631999 0.07164867
0000a0 25 a6 09 bd f8 34 ae 3c 8a 3c e3 3c 7f d5 77 bd
       -0.033605713 0.021265492 0.027738828 -0.06050634
0000b0 61 de aa 3d c4 2a 8e bd 61 45 2e 3c 75 54 cf bc
       0.08343197 -0.06941751 0.010636658 -0.025308827
0000c0 53 6b 32 3d 76 b0 80 3d 38 3e b3 3b 64 b1 0b bd
       0.043559384 0.06283657 0.0054700635 -0.03410472
0000d0 29 ca 8e 3d 16 52 b9 bd be 10 14 bc ad 89 a3 bd
       0.06972153 -0.0904886 -0.009037195 -0.07985244
0000e0 99 d7 47 bb 2c ce 4e 3d 96 8e 2c 3d 1e 5c 1c bd
       -0.0030493496 0.05048959 0.042128168 -0.038173787
0000f0 a4 61 2e bd 3b 98 bb 3c a6 e4 58 bd 8c 44 9e bd
       -0.042573586 0.022899738 -0.05295243 -0.07727918
000100 c9 98 8d 3d 18 94 c2 3c 5c 6a 87 bd 47 8f a4 bd
       0.06913907 0.023752257 -0.06612083 -0.080351405
000110 db 12 ff 3c 0a 08 e6 bc 23 10 37 bd e0 44 b3 3d
       0.03113692 -0.028080005 -0.044693124 0.08753371
000120 98 ee 27 3d a2 75 9a 3d 4a 64 18 3c 0a 6d 1e bb
       0.040999025 0.07541968 0.0093012545 -0.002417388
000130 9c 3d 54 bd 04 a1 0f 3d 13 b3 17 bd 00 ac de bb
       -0.051816568 0.035065666 -0.037036013 -0.0067954063
000140 ac 6c 2b bc 48 9e 6c 3d 91 69 07 3d e2 0f b5 bd
       -0.010462921 0.057768136 0.03305966 -0.0884092
000150 d1 30 a1 3b d9 d1 8d 3d cf b8 55 bb 74 a1 94 3d
       0.0049191494 0.06924791 -0.0032611375 0.07257357
000160 cf b1 0a bd 1a d7 7e bd 29 f9 86 3d d9 bf fb bc
       -0.033860978 -0.062216856 0.06590492 -0.030731129
000170 d6 bc 6e 3d 6b 6d 8c 3d c9 c5 6b bd 9a b0 b0 bd
       0.058285557 0.06856807 -0.05756167 -0.08627434
000180 8b 06 3d bc 50 a1 4f bd 6b a9 82 3d 5f a6 39 3d
       -0.0115372045 -0.05069095 0.0637997 0.04532468
000190 ce 5f 92 3d e3 6a 6e bd 53 c2 62 3c 43 70 4b 3b
       0.071471795 -0.058207404 0.013840276 0.0031042255
0001a0 6d c7 75 bd be 9e 35 bd 6a 82 2b 3d 9e 41 07 3c
       -0.06000464 -0.04434084 0.04187242 0.00825539
0001b0 05 66 a1 3d c1 c7 a4 3b c5 46 e1 3c 01 0c ec 3c
       0.07880787 0.0050286953 0.027499566 0.028814318
0001c0 a8 f6 75 bd 4d a6 81 bd a2 78 4c bd 05 32 00 bd
       -0.060049683 -0.063305475 -0.049919732 -0.031297702
0001d0 d2 f2 d5 3c 58 bc 4c bd d4 08 93 bd 28 6b 16 bd
       0.026116762 -0.049984306 -0.07179418 -0.036723286
0001e0 14 08 9d bd 74 50 33 bc 3e cc c4 bd da a8 54 bc
       -0.076675564 -0.0109444745 -0.096092686 -0.0129797105
0001f0 1e df 8a bd 2c 1d ad bd 64 87 7c 3d 69 c5 b2 3d
       -0.067808375 -0.0845283 0.061652556 0.08729059
000200 e1 c4 69 bd 96 76 93 3c 23 d3 9b bd b8 9e 5e bd
       -0.057072524 0.018000882 -0.076086305 -0.054350585
000210 c0 e6 ad bd 91 0e 66 bd 1c 2a bb 3d 63 c1 c0 3c
       -0.08491278 -0.056166235 0.09138891 0.023529714
000220 61 0b 36 3d 55 96 57 bd 8a 81 01 3d 71 8c 01 3d
       0.044444446 -0.052633602 0.03161768 0.031628076
000230 64 8e 04 3d 24 78 1c 3c d3 40 3f bd 6f 0c 06 3d
       0.032362357 0.009550128 -0.04669268 0.0327267
000240 34 2a 9c 3d 76 cf 4d bc f6 67 ae 3d 76 5f f1 3b
       0.07625237 -0.01256167 0.08515923 0.007366116
000250 4f 2b d6 3c 07 03 64 3d 4a 33 94 bc 08 cd d0 3c
       0.026143698 0.05566695 -0.018090863 0.025488392
000260 20 88 98 bc 49 e0 87 bd 0a e1 70 ba 3c 93 06 3d
       -0.018619597 -0.06634576 -0.0009188807 0.032855257
000270 09 88 1d 3c 09 09 dc 3c 6d 3a ce bc eb 61 99 3d
       0.009614953 0.026859777 -0.025174344 0.074893795
000280 6b 2b 91 bd 01 1b ee 3b ec be 0f 3c 14 26 1b 3d
       -0.070883594 0.0072664027 0.008773547 0.03787811
000290 25 be ce bc d1 29 b2 3c aa 68 89 bd a4 f2 ca 3c
       -0.025237152 0.021748455 -0.06709416 0.024773903
0002a0 10 70 be bc fe 43 6b 3d a6 9f 92 3d 51 62 92 3d
       -0.023246795 0.05743789 0.07159357 0.071476586
0002b0 27 f1 5e bd c0 09 27 3d 2a dd 28 bd 72 07 8b 3c
       -0.0544292 0.040780783 -0.041226543 0.016971324
0002c0 e5 87 05 3d 5b 1a 9c bd 54 69 a5 bd e6 e2 1b 3c
       0.032600302 -0.076222144 -0.0807673 0.009514546
0002d0 af 57 dd 3b 6b 0a 83 bd 08 88 11 3d 89 91 77 3d
       0.0067548375 -0.063984714 0.03553012 0.060441528
0002e0 75 80 a4 bc 5c ce a1 bd 4b 8d 9f 3c 9a 08 57 bd
       -0.020080784 -0.07900688 0.019476553 -0.052498437
0002f0 1a 98 2c bc b4 4f 95 bc 51 b8 56 3d 34 20 c8 3c
       -0.010534311 -0.018226482 0.05242187 0.024429418
000300 d1 4d 8b bd 1a 36 ac bd 31 f2 24 bd 32 ec a6 bd
       -0.06801952 -0.084087566 -0.040270034 -0.081505194
000310 79 16 d8 bb 12 94 19 bd ca 4d 12 bd 66 03 ae bd
       -0.006594476 -0.037494726 -0.035718717 -0.08496742
000320 62 da 85 3d b7 c3 65 bd e0 d6 19 bd ae ff 88 3d
       0.06535794 -0.05609485 -0.037558436 0.06689392
000330 41 fe d5 bb 2b 57 d0 bc 63 66 18 3d 15 bd 1f bd
       -0.0065305536 -0.02543219 0.03720702 -0.038998682
000340 33 4b 6e 3d f2 9e 90 bb 4c fd 52 3d 32 9f 3a 3c
       0.058177184 -0.004413479 0.051511094 0.011390494
000350 6f 7f 34 bd 26 e6 06 bd 79 22 43 ba 74 16 a0 bc
       -0.044066843 -0.03293433 -0.00074437965 -0.019541956
000360 fb dc 50 3d 05 de 50 3d 13 87 3a bd 79 b5 3a bd
       0.050991993 0.050992984 -0.045538973 -0.045583222
000370 07 61 a0 bc f3 57 9f 3d c4 98 a9 3b 26 db 89 3d
       -0.019577516 0.07780447 0.005175682 0.06731252
000380 6b 98 fb 3c 3a 50 69 3b 10 bc 9f bd cd 89 0d bc
       0.030712327 0.0035600797 -0.07799542 -0.008638811
000390 fa 7d 50 bd 89 fe 50 bd 83 0b 3e 3d bd 77 47 bd
       -0.05090139 -0.051023994 0.046397697 -0.048698176
0003a0 e2 a9 40 bd d8 11 85 3d 2f a8 2c bd 16 4e 90 bd
       -0.047037013 0.06497544 -0.04215258 -0.07046144
0003b0 aa 46 ed bc dc 3d 56 3b 60 e5 8c bd d8 b5 ba bd
       -0.02896436 0.003269068 -0.06879687 -0.09116715
0003c0 83 20 aa bd 41 87 a4 3b 86 e0 32 bb ce ae 9c bd
       -0.08306982 0.0050210063 -0.002729447 -0.07650529
0003d0 9f cc 65 bd bf 4b a3 bb 5e 6e 97 bd ce 72 56 bd
       -0.056103345 -0.004983395 -0.07394098 -0.05235558
0003e0 b2 00 e1 bc 0e 66 be bd f3 f0 a0 bc c9 f7 c5 bc
       -0.027466152 -0.09296809 -0.019646144 -0.024166005
0003f0 44 11 21 3c a9 fb 6c bb 41 9d 27 3d 20 60 fb bc
       0.009830777 -0.0036160743 0.040921453 -0.030685484
