results/edm_swiss_roll/checkpoints/epoch=88-step=2848.ckpt (torch, 842042 bytes, 37 tensors)

model.base_model.time_embedding.frequencies f4 [4]
00000000: 0000 803f 971e 3e3d 6b31 0d3b 16b7 d138
1.0 0.04641589 0.0021544348 9.999999e-05

model.base_model.net.0.weight f4 [128, 10]
00000000: 8ddd 8a3e 2d25 b23e 3919 d3bd 807b 873e
00000010: 6fb1 c3bd 8350 3b3d f248 f0bd f7c6 603e
00000020: 5107 a03e 89f6 4abe c771 8f3e 3c6c 9b3d
00000030: 7668 853e 899c 8e3d 450f 323e 4002 33bd
00000040: 4f7d 873e a5d6 7b3d 3a18 08be d13b c33d
00000050: a4dd 5ebe a20c 12bd ee22 11be 6c05 4a3e
00000060: 00ae 83be 38da 14be 2bdf bebd 44a8 43be
00000070: 17f5 ec3c a662 a0be f8da ee3e e847 c8be
00000080: 2bc7 233e 4e2d d9bc 364a 35be 7e20 213e
00000090: 3c1f af3d 9970 953e 4b46 913d 63c5 81bd
000000a0: a701 083e 7e67 e6bd c885 de3d 0f7b 843e
000000b0: cb4c 233e 7a60 1cbe 83a9 3f3e 68fa 793d
000000c0: 9000 293e d1cf 40be 97eb c9be 3b53 0dbe
000000d0: b98d 72be 0f7f 883e 3867 ca3d 06ac 0c3e
000000e0: ab01 e43d b5bd 7e3b d883 833e e977 5cbe
000000f0: 3ac5 d53c caed 98be 3998 a53d 4dde fbbd
00000100: 6f28 af3d 099d 8abd f474 863e e549 3fbe
00000110: 8d7c 40be 897f 40be 535e b73e 08f0 233e
00000120: c06f 853e 8a90 9abe 3d8d b4be 8626 8abe
00000130: 1503 4ebe ce95 103e 5a60 013e 313f 8d3e
00000140: e95d 66be aff2 7ebe fa5e 343e 801d f2bd
00000150: 137e 4f3e cdeb 8abd dc5a 393e fdbf 7cbe
00000160: 918f 24be 8427 c33d e31c 063e 6839 bebd
00000170: 5f0b 223e da0f 3d3e 6c35 84be 4489 3abe
00000180: 933c 933e 2319 dbbd ef26 e6bd 04cd 9cbe
00000190: 5fd2 66be 8f08 873d 6667 a9bd 2d49 8abe
000001a0: 813c c0bc 78fb 61be c986 8cbe f28f 30be
000001b0: 43d1 8cbe e469 4cbe 6952 f13e 1bf3 dd3d
000001c0: 102d 823d ec16 a7be 9ad1 70be 2a55 f4bd
000001d0: 1aa7 c13d 310a 6fbe 2746 bbbd d7f8 13be
000001e0: 4891 47bd a8f5 24be 5887 5dbc ebd3 50be
000001f0: c020 54be 7284 36be 004f d7bd 54cc 7ebe
00000200: 2025 883e 5bf1 7dbd 9ccc a83e 29a7 183e
00000210: b123 a3be af13 2f3e b018 06be 1c12 11be
00000220: 594d 75be 98e4 93be 1e98 ed3d 6358 32bd
00000230: 890d da3d cd64 94be 47e9 823e a5ce 58be
00000240: 2e6a 0fbd 9766 9a3d 34f6 293e 4ce2 823e
00000250: cca9 933e c535 80be 6e82 a43d 788b 3ebe
00000260: 10db adbc 1528 64be daca 993e d1ac 6cbe
00000270: 98bd 303e 846d e23d 663d d13d 43ad 2fbe
00000280: 2684 d13e e3a1 ee3d 1897 433c 867d 9bbe
00000290: 3cec de3d 1a4c 7abd b5a0 dcbd 73d9 9c3e
000002a0: cd7c d73d 7b9c 0fbe ed79 58be 551b 65bd
000002b0: 3831 153e 74f7 e0bd 5397 50be c9b1 e5bd
000002c0: 7cf6 6cbe 0066 f63d 052f 813e 3391 94be
000002d0: 2c22 eb3d b061 533e a6bc 123d e809 08be
000002e0: f3f5 153e c460 213e c705 fd3d d0c7 4ebd
000002f0: 0b16 a1bd ac62 1f3d 3c27 eabd c0ed ddbd
00000300: 23a5 673e f1c2 963e 49b4 1fbc a6e5 76bd
00000310: 8814 3c3c 34d2 67bc fb61 a53d 4e2c bf3d
00000320: f00e a7be cd34 39be fca6 643e b24a ab3d
00000330: 49f2 3bbd 9468 4cbe 7d0c 2dbe cf30 84be
00000340: 3cbb 9fbd 8d0a 073e 75bd 893e 0cb4 523e
00000350: 5f0c a8be 6827 72be d2b8 c1bd a931 8e3e
00000360: 0651 673d 008a 8bbd 850f 143e 8d7c dabd
00000370: d5e5 8fbe e3db 5d3e 0a37 fdbd bb73 2cbd
00000380: dca6 96be ae2e 623e a942 853e 9555 073e
00000390: ec7a 50be 9b23 97be aa35 b5be 03f3 ab3e
000003a0: 3b66 383e 7e37 973e 7e74 3e3e d407 ab3d
000003b0: e6ec 6d3d fcfa 3fbe 222c 5fbe f99d 78be
000003c0: f2c2 343e e59e 46be cb4a ebbd 4c3a 6bbe
000003d0: 8eb8 cabd 24f0 73be 06cf 4dbe 8b82 e93d
000003e0: 6cc5 adbd f341 513e 7898 0dbe 7e2c 89be
000003f0: 437d cfbc db2e f8bd 22b5 87bd ed11 92be
0.27122155 0.34793988 -0.10307545 0.2646141 -0.09555327 0.04573108 -0.11732663 0.21950899
0.31255582 -0.19820608 0.28016493 0.075890034 0.2605626 0.069634505 0.17388637 -0.043703318
0.2646279 0.061483998 -0.13290492 0.095328934 -0.21764237 -0.03565658 -0.14173481 0.19728631
-0.2571869 -0.14536369 -0.0931991 -0.19107157 0.028925462 -0.31325263 0.46651435 -0.3911736
0.15993945 -0.02651086 -0.1770409 0.15735051 0.08550879 0.29187468 0.070934854 -0.06336477
0.1328188 -0.11250208 0.108653605 0.25875136 0.15947263 -0.15271178 0.18717007 0.06102982
0.16504121 -0.18829276 -0.39437553 -0.13801281 -0.23686875 0.26659438 0.09882969 0.13737497
0.11133131 0.0038870398 0.25686526 -0.21530117 0.026095022 -0.2986892 0.08085675 -0.1229826
0.08552634 -0.06768233 0.26261103 -0.18680532 -0.18797512 -0.18798651 0.3581415 0.16009533
0.2606182 -0.301884 -0.35264006 -0.26982516 -0.20118363 0.14119646 0.12634411 0.27587274
-0.22496761 -0.24897264 0.17614356 -0.11822033 0.20262937 -0.06783257 0.18101066 -0.24682613
-0.16070391 0.095290214 0.13096957 -0.09288293 0.1582465 0.18463078 -0.25822008 -0.18216425
0.28757152 -0.10698154 -0.11237895 -0.30625165 -0.22541188 0.06593429 -0.08271675 -0.27008954
-0.02346635 -0.22068584 -0.27446583 -0.17242411 -0.27503404 -0.19962269 0.47133186 0.10837384
0.06356251 -0.32634676 -0.23517457 -0.11930306 0.094557 -0.23343731 -0.0914424 -0.14450394
-0.048722535 -0.16109335 -0.013521038 -0.2039334 -0.20715618 -0.17823961 -0.10513115 -0.24882632
0.26590824 -0.061997753 0.32968605 0.14907517 -0.31863168 0.17097352 -0.13095355 -0.14167064
-0.23955287 -0.2888534 0.1160128 -0.043541323 0.10647113 -0.28983155 0.255686 -0.21172579
-0.03501337 0.07539099 0.16597825 0.25563276 0.28840482 -0.25041023 0.0803269 -0.1860789
-0.021222621 -0.22280915 0.30037576 -0.23112799 0.17259824 0.11056045 0.10216789 -0.17155938
0.40921134 0.11651971 0.011937879 -0.30369204 0.10884902 -0.061107732 -0.1077284 0.3063465
0.10521851 -0.14024536 -0.21140261 -0.05593427 0.14569557 -0.10984698 -0.20370226 -0.112155505
-0.23140901 0.12031174 0.25231186 -0.29017028 0.11481127 0.20642734 0.03582444 -0.13285029
0.14644603 0.1575957 0.123546176 -0.050483525 -0.078655325 0.03891246 -0.114332646 -0.10836363
0.22621588 0.29445603 -0.009747573 -0.060277604 0.011479504 -0.014149237 0.08075329 0.09334622
-0.32628584 -0.18086548 0.22329324 0.083638564 -0.045885358 -0.19961768 -0.16899295 -0.25818488
-0.07799384 0.13187619 0.26902357 0.20576495 -0.32821938 -0.23647845 -0.0945908 0.27772263
0.056473754 -0.06813431 0.14459045 -0.106682874 -0.28105035 0.21665911 -0.123640135 -0.042102557
-0.2942418 0.2208812 0.2602742 0.1321624 -0.20359391 -0.29519352 -0.35392505 0.3358384
0.18007748 0.29534525 0.18599126 0.083511025 0.058087252 -0.18748087 -0.21794179 -0.24279012
0.1765249 -0.19396551 -0.11488875 -0.22971457 -0.09898482 -0.23822075 -0.20098504 0.11401852
-0.08484921 0.20435314 -0.13827693 -0.26791757 -0.025328284 -0.12118312 -0.06626345 -0.285293

model.base_model.net.0.bias f4 [128]
00000000: 85b3 47be 55aa 83bd d2d9 febc cef5 0ebe
00000010: 399f 6abe 516a 633e f065 5c3e 4154 8cbe
00000020: 88c9 cb3d 4d73 033e 66b1 9a3e cd3b 693e
00000030: 603d 953e 98bb 9fbd 8a23 633e ea64 833e
00000040: ac1e 87be d935 7cbe af7f 8d3d 36a8 353e
00000050: 5331 07be 3708 473d fbb9 863c 6b39 083e
00000060: 3da7 24be b6a0 393e fbd6 573e 9fab 53be
00000070: 5e6b 8e3b b089 853c 29df d03d 28b8 953e
00000080: a83a b33d 6be6 5ebd 59f8 8f3e 78da f8bd
00000090: 940e a1bd cbfe 383d 8a50 6bbe 2336 4c3d
000000a0: 7cdb 45be fc6b 6e3d a54b 073d 7003 453d
000000b0: a4a0 71be b9c4 92be d884 073e 67c2 973e
000000c0: 0f89 90be c222 ff3d f6b0 5fbe 0659 063d
000000d0: 9d1a 973e ff1f 753e 06e1 60be 2a4d 433e
000000e0: 800c 463e 581b 5d3a 8a2b 983e 3dc5 d9bd
000000f0: 4357 8fbd cb3b 20be 88dd 5e3d 75a2 da3d
00000100: 3198 4e3d d44a 29be df36 08be 7482 c13d
00000110: f461 77be 20d2 33bd 8be3 b23a 0bec fbbd
00000120: 7fa3 053e 2d66 873c 0a44 6c3e 8525 c3bc
00000130: 4e87 3cbe 4a06 6e3e 8548 363d 9394 b6bd
00000140: 4633 4abe 3b72 a23d a75d 8bbe 933d c03d
00000150: f390 193e 848e 8fbe 6e14 55be bd43 61be
00000160: 993a 8b3e a6c5 903e 27cf f83c 042d 973e
00000170: a21b cebd 2354 99be e468 fd3d f8e1 ff3d
00000180: 8983 a23e b6f6 a03a c9da 723e 2df1 4d3e
00000190: ae11 703e 3cdb 9cbe 93d7 8c3e 5023 86be
000001a0: 5275 993e 9e1f 2bbb 8f8c 8ebe 47f4 e63d
000001b0: 8741 85bd bd5c 8dbe 3609 e3bd 2572 003d
000001c0: f6b3 7e3e 7853 a1bd ead6 3f3e d396 143d
000001d0: 9808 9e3c 2451 7d3d 4db2 4bbe 1a98 82be
000001e0: bc2c c2bd 0599 90be 25e2 0ebe d13c 813c
000001f0: b6c4 41be e419 fbbd d4d7 32bd 4b50 23bd
-0.19502075 -0.06428973 -0.031109724 -0.13960955 -0.22912301 0.22208525 0.21523261 -0.2740803
0.099505484 0.12836953 0.3021347 0.22776718 0.29148388 -0.077994525 0.22181526 0.2566293
-0.26390588 -0.24629916 0.06909119 0.17739949 -0.1320241 0.04859182 0.016446104 0.13303153
-0.16079421 0.18127713 0.21078102 -0.20670937 0.0043462953 0.016301006 0.101988144 0.29242063
0.08751422 -0.054418962 0.28119162 -0.121510446 -0.07864109 0.045164865 -0.22979942 0.049856316
-0.19322008 0.05820845 0.033031125 0.04809898 -0.23596436 -0.28665712 0.1323427 0.29640505
-0.28229567 0.124578014 -0.21844849 0.032799743 0.29512492 0.23937987 -0.2196084 0.19072405
0.19340706 0.00084345555 0.29720718 -0.10633323 -0.06999066 -0.15647809 0.054410487 0.106755175
0.05043811 -0.16532451 -0.13302182 0.0944871 -0.2415846 -0.043901563 0.0013648135 -0.12300881
0.1305065 0.016528213 0.2307283 -0.023821602 -0.1841099 0.23244587 0.044502754 -0.08915057
-0.19746122 0.07931944 -0.2721989 0.09386744 0.149967 -0.28038418 -0.20808575 -0.21998496
0.27193144 0.28275794 0.030372215 0.29526532 -0.10063864 -0.29947004 0.12373522 0.12494272
0.31740978 0.0012280557 0.23716272 0.20111533 0.23444244 -0.30636013 0.2750822 -0.26198816
0.2997232 -0.0026111375 -0.27841613 0.11277061 -0.06506639 -0.27609816 -0.11085741 0.031358857
0.24873337 -0.078772485 0.18734327 0.03627665 0.019291207 0.06184496 -0.19892235 -0.2550667
-0.09481189 -0.28241745 -0.13953455 0.01577607 -0.18922696 -0.122607976 -0.04366286 -0.039871495

model.base_model.net.2.weight f4 [128, 128]
00000000: 1015 00be 37fd 40bd 3942 54bc 062c dfb9
00000010: 6137 dcbb 7931 74bc 961b abbc 66af 7fbd
00000020: 2e4f 8abc a85a e83a 2b39 0ebc f25d 6abc
00000030: a9ad 0b3d e06b 163d beff a33b 65a9 78bd
00000040: de88 88bc 86e2 58bd 8985 82bd 6f07 9bba
00000050: 9340 0abd ddaa e5bd ccc9 ba3d af7f 363d
00000060: 775b 70bb 5bee d33d 73b7 cbbd 118c 603a
00000070: da97 973d 61f2 483d 0016 babd 2dcd 5d3b
00000080: 5dd4 59bd 70c1 98bd 78fb f8bb be91 e1bd
00000090: f1aa b2bd 390e 01be abb4 d33c e370 6a3d
000000a0: 4331 aebd b409 ccbc 7003 cebb 349c 00be
000000b0: 14ba fd3c 2d64 973d ea14 933c beca 01be
000000c0: d034 f73b 50bc 4e3c 28ed 853d bbe1 00bd
000000d0: 29c5 9ebd 43a7 bc3c 2690 043d a522 bfbc
000000e0: cd8c 6abd 2510 1ebd 8597 733d 3692 aebd
000000f0: 088f 913d 8cb3 373d 21f1 c53c f4e6 7b3c
00000100: e13c 6fbb 4b3c 0e3d 826f 5abd 8d7e 013d
00000110: ea62 c5bc 1fa3 a43c 50f9 0dbd bd28 27bd
00000120: 72d1 8fbc 2cfc ad3c a1e7 b8bd 5a11 b9bd
00000130: 06f7 ad39 cca2 d4bd 8866 343d 359c 6d3d
00000140: dcb3 7ebc 7c02 d33d 97f2 d8bd a88a c9bd
00000150: 1261 1bbd 5511 83bd dbeb 80bd 68cb d5bd
00000160: f37d ebbd 5edd 9a3c 3953 df3c ab6c d03d
00000170: c8f0 c83d e522 23bd 98da a13c e0dc febb
00000180: 94a6 6b3d 556c cfbd 6fe6 0b3d 7014 7abc
00000190: b4ed 12bb e4ea 833c c4a5 11bc 6d09 553d
000001a0: 70e8 753d d46b fd3c 954d 213d d3c1 303c
000001b0: 71cd c63d 936a 88bc f01c ac3d 2aa5 1e3b
000001c0: 0b74 9f3d dada db3c 4f39 b43c 86a8 d63d
000001d0: 481d e93b 25f4 bfbc 1166 76bd 43e5 953c
000001e0: d1fd 173d b33b 5ebd b499 d13d 27d1 cf3c
000001f0: adf8 62bd 348b bdbb 9edf 47bd 4697 6ebd
00000200: 363f 173d e4be 04bd 43a3 2cbd f91e 09bd
00000210: b171 2fbd 16fa a53d 7839 083d 84bf b93d
00000220: a72e 8e3c 36b7 273c 141b 233d b287 c83c
00000230: 18a5 92bd e188 0ebd 231f f6bc c132 48bb
00000240: fc70 353d 3fa9 0d3d 155a a33d 1cc2 ae3b
00000250: 0495 e9bc d384 3fbd 57ff 71bd af99 60bd
00000260: c27f 103d 1b4b 2f3d 875d a33d 6912 69bc
00000270: 6c04 00bc 977b 5fbc eb40 7f3c a6e0 023d
00000280: 4739 0539 2aae c43c 17a7 193c 095a f63c
00000290: 695e 8fbc 71ce 2bbd 5f79 e53c 1e6e 45bc
000002a0: fa54 0bbd ff71 173d 1838 243c b88a d037
000002b0: fb04 e0bc 39dc c83b b7e2 9bbd 51aa 033d
000002c0: a60f 453a 5f31 583d a11b 2d3c 9aa0 033b
000002d0: 5963 ca3c 4b60 923d 569d 45bd 995e 543d
000002e0: 013a 3b3d cbce 39bd 6bc2 e53c ac97 a3bc
000002f0: e17b 96bc ac9c 04bd b652 2dbd d01e 973d
00000300: 3e3d 9fbd f9e8 323d 6ff6 9cbd 503c 22bc
00000310: fc76 3a3c 8cb1 883d 0b49 ebbc 6de8 ee3c
00000320: 43b6 933c 8ea1 6e3d a2a2 3c3a 86a4 283d
00000330: 8018 4fbd 04de 21bd 75bd 903d 4f50 77bd
00000340: 7489 a439 31a8 90bc e54c ee3d 78ba abb8
00000350: 839e 8dbd 6f32 b9bc 6873 293d 0365 3f3d
00000360: 2027 963d 8a48 58bc f6a8 4d3d 3246 b0bd
00000370: 63bd 1a3d 665e 533d 872b 7f3d 9629 86bd
00000380: 3579 cfbc f689 b13c 42c0 92bd a9d2 4bbd
00000390: b495 98bd dc9d 6d3c b980 583d f8ec e83c
000003a0: f498 c93b 0a3b 263d a6d6 82bd 9474 f53c
000003b0: b428 b2bc 51d8 c9bc efd4 a63d 012f 91bd
000003c0: f0ab dd3b c717 98bd eb10 c0ba 1fbd 2bbd
000003d0: 4a2d 103d f7e0 5bbd 0edc b23d 35f4 8bbd
000003e0: b6e2 443d dd93 8cbd 9790 163d 0939 1dbd
000003f0: 3d34 213b 207c 6ebb ff7f ae3d 44b3 e73c
-0.12508035 -0.047116484 -0.012955242 -0.00042566675 -0.006720469 -0.014904373 -0.020887177 -0.062423132
-0.016883459 0.0017727213 -0.008680622 -0.014304625 0.034101162 0.03672397 0.005004852 -0.060708422
-0.016666826 -0.052950405 -0.06373126 -0.0011827777 -0.03375299 -0.1121423 0.09120521 0.044555362
-0.003667561 0.10348197 -0.099470995 0.00085657934 0.0740201 0.049059276 -0.090862274 0.0033844218
-0.05318104 -0.0745877 -0.007598337 -0.11014126 -0.08724011 -0.12603082 0.025842985 0.057236563
-0.0850549 -0.02490697 -0.006287031 -0.12559587 0.030972518 0.07392154 0.017954309 -0.12674996
0.0075441375 0.012618139 0.065393746 -0.031465273 -0.07752449 0.023028975 0.032364033 -0.02333195
-0.057263184 -0.038589615 0.059470672 -0.08523981 0.07107359 0.044848964 0.02416283 0.015374888
-0.0036504793 0.03472547 -0.053329 0.03161483 -0.024095017 0.020097313 -0.03466159 -0.040810335
-0.017555926 0.021238409 -0.09028555 -0.09036513 0.00033181178 -0.103826135 0.044043094 0.0580103
-0.0155458115 0.10303208 -0.10593145 -0.098409 -0.03793437 -0.0639979 -0.06294986 -0.10439187
-0.11498632 0.018904384 0.027261363 0.10176977 0.098115504 -0.0398282 0.019757554 -0.007777795
0.05753191 -0.101280846 0.034155305 -0.015263662 -0.0022419514 0.016103216 -0.008889619 0.052010942
0.060036123 0.030935206 0.03938063 0.010788399 0.097071536 -0.016652381 0.08403957 0.0024207332
0.07785805 0.026837755 0.021999983 0.10481362 0.0071140863 -0.023431847 -0.06015593 0.018297797
0.037107293 -0.054256152 0.10234395 0.025368286 -0.055412937 -0.0057844166 -0.048797242 -0.058249734
0.036925517 -0.03240861 -0.042147886 -0.033476803 -0.042833034 0.08104341 0.03325793 0.09069732
0.01735623 0.010236552 0.039820746 0.024478767 -0.071603954 -0.034798507 -0.030044144 -0.003054783
0.044297203 0.034585234 0.07976166 0.0053331982 -0.028513439 -0.04675753 -0.0590814 -0.054834064
0.03527809 0.042796236 0.07976823 -0.014225581 -0.007813554 -0.013640306 0.0155794425 0.031952523
0.00012705206 0.02400883 0.009378216 0.030072229 -0.017501073 -0.041944925 0.028011976 -0.01205018
-0.034016587 0.03697395 0.010023139 2.4860128e-05 -0.027346125 0.006129768 -0.07611602 0.03214485
0.00075172854 0.05278146 0.010565669 0.002008474 0.024705576 0.07147273 -0.04824575 0.051848028
0.045709614 -0.04536323 0.028046807 -0.019969784 -0.018369617 -0.032375976 -0.042315207 0.07378924
-0.07775353 0.04367921 -0.07664191 -0.009902075 0.011380907 0.066744894 -0.028721353 0.029163564
0.018031245 0.05825954 0.0007195865 0.041172527 -0.050560474 -0.03951837 0.07067386 -0.060379323
0.00031382928 -0.017658325 0.1163576 -8.188648e-05 -0.06914999 -0.022607056 0.041369826 0.04672719
0.07331681 -0.013200888 0.05020996 -0.08607139 0.03777827 0.051603697 0.06229737 -0.06550901
-0.02532635 0.02167223 -0.071655765 -0.049761448 -0.074504286 0.014502969 0.052857134 0.028433308
0.0061522666 0.040583648 -0.06388597 0.029962815 -0.021747924 -0.02463928 0.081460826 -0.070890434
0.0067648813 -0.0742641 -0.001465348 -0.041928407 0.03519944 -0.05368134 0.08733378 -0.06833688
0.04806777 -0.0686414 0.036758985 -0.03838447 0.0024597787 -0.0036389902 0.08520507 0.028283723

model.base_model.net.2.bias f4 [128]
00000000: 181e 65bb fb3b 2bbd 683d 72bd 5e5f 3abd
00000010: 957c 18bd 36ab b23d 7957 723b 6bfe 47bd
00000020: 9bc5 06bc 4f0c 91bb 60b6 a63c ee53 f03c
00000030: 06db 6a3d 207f 1bbd e250 a1bc e830 8ebd
00000040: 98bf fbbc e496 9dbd 2c71 27bc 9082 23bd
00000050: 4cd3 16bd 9659 ba3d efad a63d f42d bf3c
00000060: 713c 3d3d 897b 513d 9aeb 133c 0bcc 983c
00000070: f903 e0bb 6d07 93bd a9a1 8f3d 255d 7bbd
00000080: 6c68 d0bc fc36 94bd d79b 50bd 2e50 b73d
00000090: 5526 a7bb ff20 b63c bfa4 b23c 5f25 8c3d
000000a0: 78ac a53c 6ded bcba 9079 06bd 02d0 3a3c
000000b0: 126a c03c 18ac 62bd 5394 5bbd dd8c 1ebd
000000c0: fdb8 a33d ad79 373d 9cd6 463d 5ec1 863d
000000d0: 3cf1 51ba 8564 77bd bbeb af3d 0521 3f3c
000000e0: c834 eebc 61ba 083d 01d8 72bd 0046 623b
000000f0: fbc4 9f3d 2fde f83c 7f14 8dbd c46e a33d
00000100: 046e 7b3c 014c ecbc 1b2d 8a3d 6df0 1f3d
00000110: 0974 643d 1c2b 423d cd47 13bd 82c2 52bd
00000120: 4453 723d 4336 ebbb 05b4 a33d e02b 3a3d
00000130: e393 abbd afc0 563d 55e2 3f3d 97e0 a5bd
00000140: 1c82 ad3b bffc 90bd 85ad 483d ddd4 643d
00000150: 562a fb3c 5cbc 6d3d f65f 32bd 5223 2c3b
00000160: 9172 a0bc 3279 7d3d 6d5c 7b3d 6424 d0bc
00000170: dadf 86bd 2ddb 24b9 ffc2 9a3d 5546 b4bc
00000180: 22a4 123d b030 79bd b9f7 65bd 237c 95bd
00000190: 6beb 9bbd d271 0dbd b1ed 00bd 0d67 1d3d
000001a0: 8200 9c3d 17a3 f33b e5de 083d a29e 54bd
000001b0: a93d 00bd 2bc1 a4bd 35d9 a93d da08 4c3c
000001c0: 4c4a d2bc 01f7 99bd 3aee a73c 87a0 b4bd
000001d0: 9fc4 623d 92e6 a6bd ecce 8f3c 8489 563d
000001e0: a0f2 92bd 254a 813d 8c8e 9f3d e9d5 6f3d
000001f0: ad6e a83d ea95 17bd 4629 79bc 4fe0 a83d
-0.0034960564 -0.04180525 -0.059140593 -0.045501105 -0.037228186 0.08724062 0.0036978407 -0.048826616
-0.008225824 -0.004426516 0.020350635 0.029336896 0.057337783 -0.037963033 -0.019691888 -0.06942922
-0.030731007 -0.07694796 -0.010219853 -0.039919436 -0.036822602 0.090991184 0.08138644 0.023337342
0.04620022 0.051143203 0.00902834 0.018651983 -0.006836411 -0.07179151 0.07013256 -0.061368126
-0.025440417 -0.0723705 -0.05092987 0.0895084 -0.005101005 0.02223253 0.021807073 0.068430655
0.020223841 -0.001441402 -0.032830775 0.011402132 0.023488078 -0.055339903 -0.05360825 -0.038708556
0.07994268 0.044793773 0.04854451 0.065798506 -0.0008008664 -0.060398597 0.08589884 0.011665587
-0.029077902 0.03338087 -0.05928803 0.0034526587 0.07801243 0.030379383 -0.06888675 0.07980111
0.015346054 -0.028844835 0.067468844 0.039047647 0.055774722 0.047404394 -0.035957146 -0.05145503
0.05916144 -0.0071780994 0.079933204 0.045452 -0.083778165 0.05242985 0.046846706 -0.08099478
0.0052950513 -0.070794575 0.048993606 0.055867065 0.030659836 0.05804096 -0.043548547 0.002626617
-0.01958588 0.06188316 0.06136744 -0.025407977 -0.06585665 -0.00015721908 0.07556724 -0.022006193
0.03580106 -0.060837448 -0.05614445 -0.07299068 -0.07613262 -0.034532376 -0.03147668 0.038428355
0.07617284 0.0074352133 0.033415694 -0.051909097 -0.031308804 -0.08044656 0.08293382 0.012453282
-0.025670193 -0.075178154 0.020499337 -0.08819681 0.055363294 -0.081494465 0.017554723 0.05237724
-0.07175183 0.0631297 0.077908605 0.05855361 0.08224235 -0.037008204 -0.015207594 0.082459085

model.base_model.net.4.weight f4 [128, 128]
00000000: 393d 76bc 4e3e 60bd 4931 963d 3fb8 89bd
00000010: 8f05 43bd d01f af3c ffb0 bd3d df51 77bd
00000020: 7af6 e2bc 0b3f c6bc e821 09bd c661 1d3d
00000030: 54ee f4bb 035d 12be 313c f7bb 376b ff3b
00000040: 5300 6bbd 10a0 103d 152f dcbd ef5a a8bb
00000050: d48f e13c ae62 f83c 8faa ff3c 3339 e4ba
00000060: d017 9fbc 3d6b 3e3d 94ac dd3b 2b97 9d3d
00000070: 93a5 a43d 7daa d2bd c5b7 b23d 05e9 f73c
00000080: 6604 9cbd 5902 61bd efb4 76bd 5a78 013e
00000090: 0ec9 493d 503d 76bb 4e64 afbd 9937 60bd
000000a0: 374c 78bd c0dd 3bbc c50d 1ebe 7211 d7bd
000000b0: d407 60bd f4e5 183d 7d0a 5f3d 10b0 0e3d
000000c0: a1bd b73d 3093 843d 0589 25bd 59da 6c3d
000000d0: 8a06 1cbd b8a3 6e3d 8355 2fbd 26e0 a8bd
000000e0: ed69 f1bc 406d 9bbd 513c 28bd e122 84bd
000000f0: b924 1c3c a37c a7bc 5b86 40bd 7114 b7bd
00000100: 86c6 d3bd 32b5 d9bd c676 98bd 5d41 b03d
00000110: a40e f33c 27dd 4c3d acb0 ef3d 500d 7dbd
00000120: d33a 2ebd 333f 48bd a820 79bd 7763 863d
00000130: 5ebf daba fb78 01be 3c51 4b3d ee5b 9abd
00000140: befe 773d bb60 a23b a797 bc3c 6b89 9c3b
00000150: a0f9 45bd 7e43 46bb 12fe b3bc 41d9 abbc
00000160: 50df 74bd d52f 9abd 0034 38bd 2734 87bd
00000170: 1092 e4bd da8e fd3d 1e65 1bbe b454 7abd
00000180: f088 19bc cf1d 62bd 82de bbbd 0334 223a
00000190: e341 fdba 1133 07bd 8718 2b3e 6e95 3b3b
000001a0: 326a 84bb d447 703c b64a 20bd 02b9 36bd
000001b0: e36a ae3d 99ec 86bd 100e b1bd 4b59 74bd
000001c0: bcba c73c f31a 6b3d 0a8d f7bd 4f2b 84bd
000001d0: 440a 193d 3615 013e 994b 993a 1bbc 8cbd
000001e0: 2721 aa3d d631 24bd 93ee b5bd 7fcc 833d
000001f0: 25c4 a8bd 17a7 5f3d dc91 1fbd 82b2 833d
00000200: e3ed 2d3d e6cc fabc aadf 4f3d 503e e23d
00000210: aba8 18bd dfdb 523d 0fad 4ebd 40ad 41bd
00000220: d59b f9bc b072 b4bd a40b 693d 9c42 043d
00000230: 3637 41bd b636 1abd d94e 6d3d c7e4 9b3b
00000240: 2328 4dbd d3db d83b ab3b 93bc 964b ef3c
00000250: 1128 3dbd bb61 44bd 7574 e0bc 1a8e 97bd
00000260: c4ba 203c f374 4c3d e773 74bb e780 293d
00000270: 83f5 99bc 2253 10bd 29c9 6cbd 696f 97bd
00000280: 488d 86bd 4d76 efbc 296c bf3d d19e 9bbd
00000290: 1cd9 a73d 04e6 5e3d 352f 8f3d 77ee 583d
000002a0: 48c0 6d3d 4052 ac3d 90f1 833d c525 c03b
000002b0: 51c5 4e3d acfa 8b3c ca84 71bd 55ee 393d
000002c0: 3aae c53d b393 8e3d c88c 0cbd 6137 8f3b
000002d0: 316b 443d 42df 5e3d 6837 92bd 52d6 0b3d
000002e0: 1eb9 2e3c 4402 d13d 0b27 713c 3b98 cfbc
000002f0: fb46 1abc a8f9 ae3d d27f 07bd e60e e13c
00000300: 89e3 cd3d bf2a 69bd b0a7 7ebc 48c7 a3bd
00000310: effa ddbb de33 2c3d 1d97 8a3c 9d0b 8e3d
00000320: 5897 44bd c5fc 423d f837 63bd cba2 e63c
00000330: 7d2d d4bc a2ff d93d dcde ecbb 8f3d cb3c
00000340: 5f43 8dbd 3624 a13b 1170 893d 9181 b7bd
00000350: 8133 d23d c5a5 4d3d d671 acbc 572c 97bd
00000360: eb58 a03d 9c93 e9bb 836b 223d 6904 a2bb
00000370: d465 c63d 2d61 60bd e260 823c ec15 463d
00000380: 37bd 01bd 74a7 b5bc 6173 10b8 0ee6 bf3d
00000390: 406b 063d afe4 99bd b615 543c 48ec ed3c
000003a0: bf0b ed3c e413 f03d 6682 b6bc cd0f 2dbc
000003b0: d7f2 743d be93 9c3d e567 a0bc fbfd 693c
000003c0: d88e 023c 245d 7a3d 50eb 16bc 89ea 33bc
000003d0: 292b 643d 9936 d3bc 22b1 24bd ab7f 953d
000003e0: 9252 10bd f921 813d 9128 aabc ed33 a0bd
000003f0: 182d 4dbd 2cc5 97bb aab2 893d 4ea0 c1bc
-0.015029245 -0.05474692 0.07333619 -0.06724595 -0.047612723 0.021377474 0.09262275 -0.060380813
-0.02770542 -0.024199983 -0.0334796 0.038423322 -0.0074747 -0.14293294 -0.007545017 0.0077947634
-0.057373356 0.035308897 -0.10751168 -0.0051377933 0.027534403 0.030320492 0.031209258 -0.0017412066
-0.019420534 0.04648899 0.0067649577 0.076948486 0.08039393 -0.10286424 0.087264575 0.03026248
-0.076180264 -0.05493388 -0.060231145 0.12643567 0.049264006 -0.0037573166 -0.085640535 -0.054740522
-0.06061956 -0.011466444 -0.1543494 -0.10501374 -0.054694965 0.037328675 0.05445336 0.034835875
0.08971716 0.06473386 -0.040413875 0.05782542 -0.038092174 0.058261603 -0.04280616 -0.08245878
-0.029469455 -0.07589197 -0.041073147 -0.06451965 0.00953024 -0.020445174 -0.04700313 -0.08939446
-0.103406 -0.106302634 -0.07444529 0.08606217 0.029670067 0.050015595 0.11703619 -0.061780274
-0.042536568 -0.048888396 -0.06082216 0.0656194 -0.0016689112 -0.12643807 0.049638018 -0.075370654
0.060545675 0.004955379 0.023021532 0.0047771237 -0.048333764 -0.003025263 -0.021971736 -0.020977618
-0.05978328 -0.075286545 -0.044971466 -0.06601744 -0.11160672 0.123807624 -0.15175292 -0.061115935
-0.009371027 -0.05520421 -0.09173299 0.000618756 -0.0019322004 -0.033007685 0.16708575 0.0028623003
-0.00404098 0.014665563 -0.03913375 -0.04461003 0.08516481 -0.06588096 -0.0864526 -0.05965547
0.024381034 0.057398748 -0.12087448 -0.06453573 0.037363306 0.12605748 0.0011695503 -0.06871816
0.083071046 -0.04008659 -0.08883395 0.06435489 -0.082405366 0.05460271 -0.03895746 0.06430532
0.042463195 -0.030615281 0.050750412 0.110470414 -0.03727023 0.051479217 -0.05045801 -0.047284365
-0.030469814 -0.088109374 0.056895867 0.032290086 -0.047171794 -0.037649833 0.057936523 0.004757497
-0.050087105 0.006618002 -0.017972788 0.029210847 -0.04618079 -0.047944766 -0.027399281 -0.074001506
0.009810153 0.04991622 -0.0037300528 0.041382696 -0.018793827 -0.03523553 -0.05780903 -0.07394297
-0.06569916 -0.029231215 0.09346802 -0.07598651 0.08195707 0.05441858 0.06991426 0.052961793
0.0580447 0.084141254 0.06442559 0.0058638775 0.050481144 0.017087303 -0.05896453 0.045393307
0.09652372 0.06961765 -0.034313947 0.0043706154 0.04795379 0.054412134 -0.07139474 0.03413994
0.010664253 0.1020551 0.014718781 -0.025341144 -0.009416337 0.08543712 -0.033080883 0.027472924
0.100531645 -0.05692553 -0.0155429095 -0.07996994 -0.0067742984 0.042041652 0.01691776 0.06935809
-0.047995895 0.04760434 -0.055473298 0.028153798 -0.025900597 0.10644461 -0.0072287153 0.024809627
-0.06897616 0.0049176468 0.06710828 -0.0896026 0.1026373 0.05020692 -0.021050375 -0.07381504
0.0782946 -0.007128192 0.039653312 -0.0049443734 0.09687391 -0.054780174 0.015915338 0.04836075
-0.03167459 -0.022174574 -3.443973e-05 0.09370051 0.032817125 -0.07514321 0.012944629 0.029043332
0.028936265 0.11722544 -0.022278976 -0.010562849 0.059801903 0.07645367 -0.01958079 0.014281745
0.007968627 0.061123982 -0.009211376 -0.0109812105 0.055705223 -0.02578287 -0.04020799 0.07299741
-0.035234995 0.06305308 -0.020771297 -0.07822404 -0.050091833 -0.004631659 0.067235306 -0.02363601

model.base_model.net.4.bias f4 [128]
00000000: 624a 06bd 9e96 a33d d617 e6ba 4919 ae3d
00000010: 2b20 d9bc 3ea8 793d 1a9b 9dba 83e0 00bd
00000020: 369b 933d 79a6 87bd e20d 6ebb b83e 783c
00000030: 5364 5cbc c280 2ebd 7f6f abbc b71c 523d
00000040: 661e 1abc e829 1dbd c1c8 f9bc c512 81bd
00000050: 1479 6e3d 9da3 9bbd fa3c 28bd 0144 9b3c
00000060: a8c6 a03d 83c3 8ebd dafe 793c 1d19 82bd
00000070: ea7f 7c3d 36b9 903d db01 6b3d 0d5a 2bbd
00000080: 40dc 53bd 43f1 47bd cf1d e1bc d2e6 303d
00000090: c430 5ebc e46f a13d f3ae 9ebd 2b0e af3b
000000a0: 0aeb 8fbd 59f4 9dbd c52d 67bd 273b 193c
000000b0: 78ff a8bd 807a 87bb 13e8 2ebd dc5f 50bd
000000c0: ad51 a63d 8610 dcbc d83d a4bd 08b8 6b3d
000000d0: 80d2 b3bd b370 daba 0979 8dbd 5dca 483d
000000e0: dacf 053d a6cd 56bc 399e babc 530b 83bd
000000f0: 1933 82bd 7c5d 133d 9dff 82bd fe14 b9bc
00000100: bac0 833d e2ab a7bd 4494 d13a ec3c d9bc
00000110: e606 253d 740a eabc fec9 983d 76de e43c
00000120: aacf 57bd 7264 9d3c d3a2 b5ba f184 27bb
00000130: c4cf 4bbd 3e2d 3c3d 922f 8b3c e715 9dbb
00000140: f056 35bd f7f6 ac3d c9e9 92bd 6ab3 093d
00000150: 2d6d 9cbd f175 90bd ba85 083d c05b 8b3c
00000160: a567 44bc ae81 233d 77e1 e9bb 9de8 ed3c
00000170: 37a0 92bd a1a6 1f3d e95c b5bc 6e1b 733d
00000180: 1ab2 82bd 8ffc 7f3c 93a5 e5bc b884 153d
00000190: 9856 81bd 1bd9 8fbd 65db fc3c 7dd7 7e3b
000001a0: 745d 6dbd 9efc 6fbd 8977 90bd 125b aa3c
000001b0: fd0d 133d 9463 32bd 5a21 6c3d 6286 4e3d
000001c0: f7ac 433c 26c2 4bbd 192e 83bd e655 0cbd
000001d0: 2e97 5dbd 999d a63c a300 7e3d 167f 9c3d
000001e0: f366 2abd 5b5d 34bd 3c99 633c 8cf7 bbbc
000001f0: 6d82 5e3d a8e9 9abd d143 2b3d 96ee 983b
-0.03278578 0.07987712 -0.0017554711 0.085009165 -0.026504597 0.060951464 -0.0012024373 -0.03146411
0.072073385 -0.06623549 -0.0036324193 0.015151672 -0.0134516535 -0.04260326 -0.020927189 0.051296916
-0.009406662 -0.038370043 -0.030491235 -0.06302408 0.058220938 -0.07599566 -0.041073777 0.018953325
0.07850391 -0.06970885 0.015258515 -0.06352446 0.061645426 0.07066576 0.057374816 -0.041833926
-0.05172372 -0.04881407 -0.027480034 0.043188877 -0.013561431 0.078826696 -0.07748213 0.005342265
-0.07027252 -0.07712621 -0.056440134 0.009352482 -0.08251852 -0.004134476 -0.042701792 -0.05087267
0.08121047 -0.026863348 -0.08019608 0.057548553 -0.08780384 -0.0016665667 -0.06907851 0.049021114
0.032668926 -0.013110554 -0.022780525 -0.06398644 -0.06357402 0.035977826 -0.063964106 -0.022593018
0.06433244 -0.08187081 0.0015989621 -0.026518308 0.040289782 -0.028569438 0.07460402 0.027938109
-0.05268828 0.019212935 -0.001385773 -0.0025561417 -0.049758688 0.045941584 0.016990457 -0.0047938707
-0.044272363 0.08445542 -0.07173497 0.03361837 -0.07638011 -0.070537455 0.033330657 0.017011523
-0.011987601 0.039918594 -0.007137473 0.029041583 -0.07159465 0.03897727 -0.02213903 0.05935233
-0.063816264 0.0156241795 -0.028033054 0.036503524 -0.063153446 -0.070238315 0.030866334 0.0038885765
-0.057950452 -0.058590524 -0.070540495 0.020795379 0.035902012 -0.043551996 0.057648994 0.050421126
0.0119430935 -0.0497457 -0.06405277 -0.034261607 -0.054099254 0.02033882 0.062012326 0.07641427
-0.041602086 -0.044034343 0.013891514 -0.022945188 0.054323602 -0.07564098 0.04181272 0.0046671135

model.base_model.net.6.weight f4 [128, 128]
00000000: cd9d 6a3d ede3 0dbd e806 603c 9931 d73c
00000010: 136a 6cbd 191a 91bd fc72 4a3d 99ef 31bd
00000020: d4c2 363d 72e5 943c 3078 1e3c 44bc 8c3d
00000030: 6879 c3bc 47f6 e0bc 7263 1a3d ade8 1a3d
00000040: dca8 8f3d f72f ac3d 62bc b83d b781 143d
00000050: bf69 9ebc 63b0 9cbd 03c0 44bc 1bef 4ebc
00000060: 6e92 a43c 0fc8 87bd 9825 92bc 8e36 4c3d
00000070: 8c9c 6dbd 43ef 1abc 677f fe3b b01c 763d
00000080: 7865 f63c 2d29 d33d 303f 883d 5ee5 f13c
00000090: 8a24 c8bc 84bd 88bd 9374 483d 575d 90bd
000000a0: 1ec0 38bd 2848 5dbd e19c e83b 8c5f a03c
000000b0: 300d 2e3d 1c13 f23b 4df6 adbd 0671 223d
000000c0: 8166 60bd 3e7d 153c adbe 6fbd 4417 f53c
000000d0: 5a96 b6bd fcfd 7b3d fec3 493d f949 cdbc
000000e0: 7070 24bc 7904 583b 7b89 9abd 6c01 30bd
000000f0: a566 9c3c f978 653d d0f7 2b3d c540 803d
00000100: f027 853d 249a 763d 87c5 99bd cf6e 163d
00000110: 9c09 20bd b3ee 57bc df38 2bbd e5c7 253d
00000120: 396f d9bc fe21 223d b175 0c3d 76aa 4b3d
00000130: e484 863d 8702 d33c fe5c 13bd c114 363d
00000140: bb5e c13d 9d2c 573d 40f3 90bd 5205 5b3d
00000150: 8dc5 b2bc 0ae2 ec3d 0cef f6bc c172 08bd
00000160: 7507 333d 107c cfbd a5af 0f3d 705f 773d
00000170: 1a76 1e3b 7937 8ebd acf3 dbbd 48ba 90bd
00000180: d718 67bd 8024 193d 6a90 c1bc 75af 16bd
00000190: cd0a a23d 1a05 fc3b ef6c 9ebd ed22 563c
000001a0: 0ef4 393d 23f9 0fbd 30d9 ad3c 81d1 16bd
000001b0: 2328 aebd 521d 97bd 6f5d 02bd 0ef1 4f3d
000001c0: edb8 833d d9fb 83bd d8d2 823d 4cc8 86bc
000001d0: 4b2a 40bc 3883 333d 4317 043a 5495 113d
000001e0: 3a1d afbd 6f8e d73c 1168 cabd 85b4 863d
000001f0: 8c16 d43d fd49 b8bd fe16 853d c6b4 613d
00000200: 545f babd 338d 7f3b c708 8fbd 8b94 5cbd
00000210: a9d8 40bd d434 0abd 98e0 a6bd 5ea1 91bc
00000220: a302 a13d 94c3 4b3b a7dd 663c 21c8 95bd
00000230: 706b b03d e5b4 4b3d 4327 983b c008 043e
00000240: 7c22 0b3e f0bb 893d a9a2 afbd 7612 4fbd
00000250: 8035 23bd b1c4 a2bc 9cf8 d53b 93f5 12bd
00000260: 9140 31bb 4503 f4bc 4746 a5bd 6baf 9bbd
00000270: f513 0a38 6646 7e3d 726b a33d e53a ea3d
00000280: d9a7 90bd 3746 573c bca8 29bd be67 e93c
00000290: 8891 b43d 9a50 723d b664 323d b9c1 93bd
000002a0: 91ac a03d 8c73 95bd fcfe aabd 6f63 413d
000002b0: f88b a23d 51fc 153d 1a10 ddbd da38 463d
000002c0: b2cc e7bc d4f9 dfbb 8bb6 d8bc 672f 473b
000002d0: 5c73 02bd 0f10 9cbc 2c1b 673d 9574 5bbd
000002e0: 8035 62bd c05d 9f3d f13a 2ebd 903a c1bd
000002f0: a631 103d 1896 f73c d25e 43bc 71fc 02bb
00000300: 8520 dc3d 0e6a 833d 947b 2ebd 7ff1 783d
00000310: fca5 91bc 4891 76bd ca2c 023d 5cc0 89bd
00000320: 26f9 833d 4d4b b53c e624 d53c f897 5cbb
00000330: 3d63 883d 9992 013d eaf1 533d b34c 17bd
00000340: bc9f be3c 9a0c 693d b118 633d 1f0d 9b3d
00000350: c44e 77bd 1911 063e 0c32 af3c 99be 4bbd
00000360: 8572 d5bc 0abf dc3c 49a6 b63d 8044 9a3d
00000370: 1fe9 4e3d acd7 50bd 47fe cdbd 6ae3 cabb
00000380: 79ce 10bd 627c 97bd d1f9 b1bd 8481 0e3c
00000390: 7db5 c63c 372c a93c 1f98 7bbd 8140 8bbd
000003a0: b64b 28bc 9478 fe3c f542 023d 9acc da3c
000003b0: 78d2 02bd 7741 48bc 4256 043c 4bd6 213d
000003c0: 09fb 5c3d 9f86 05bc 81cf 4e3c 14f9 f83d
000003d0: f9fe 84bd 58c6 6d3d df84 a8bb 9d3a b2bc
000003e0: e975 39bc 20e2 5abd c023 d2bb 769a 713d
000003f0: 8361 b03d 9aac c73d 7383 b63d f44d 743d
0.057279397 -0.034641195 0.013673522 0.026268767 -0.057718348 -0.07085056 0.049426064 -0.04344139
0.044619396 0.018175814 0.00967221 0.06871846 -0.023861602 -0.027461184 0.037692495 0.037819553
0.07014629 0.08407586 0.09020306 0.03625652 -0.019337533 -0.076508306 -0.01200867 -0.012630249
0.020089354 -0.06629955 -0.017840192 0.049856715 -0.058010623 -0.0094564585 0.0077666524 0.060085952
0.030077681 0.10310588 0.06652677 0.029528316 -0.024431486 -0.06676772 0.0489393 -0.07049053
-0.045105092 -0.05402389 0.0070987795 0.01957681 0.042493045 0.007387532 -0.08494244 0.03965857
-0.054785255 0.009124098 -0.058531452 0.02991832 -0.08915396 0.061521515 0.04925918 -0.025059687
-0.010036573 0.003296165 -0.075457536 -0.042970106 0.019091913 0.05602357 0.04198438 0.06262354
0.06501758 0.060205594 -0.075083785 0.03672677 -0.039071664 -0.013179469 -0.041802283 0.040473837
-0.026542293 0.0395832 0.034291927 0.04972311 0.065683156 0.025758041 -0.035977356 0.044453386
0.094418965 0.05253278 -0.07077646 0.05347187 -0.021822715 0.11566551 -0.030143283 -0.033312563
0.043708283 -0.10131085 0.035079617 0.06039375 0.002417928 -0.06944174 -0.10739836 -0.0706678
-0.056420173 0.037388325 -0.023628432 -0.036788423 0.07912216 0.007691038 -0.07735621 0.01306985
0.045398764 -0.035149705 0.021221727 -0.036820892 -0.08503749 -0.07378639 -0.031827386 0.050766997
0.06431756 -0.064445205 0.063878715 -0.01645293 -0.011728833 0.04382631 0.00050388667 0.0355428
-0.085504964 0.026313035 -0.0988313 0.065774 0.10355863 -0.08998487 0.06498526 0.05510404
-0.09100214 0.0038994073 -0.06984096 -0.0538526 -0.047081623 -0.033741787 -0.081483066 -0.017777141
0.07861831 0.0031091915 0.014090932 -0.07313562 0.08614242 0.04973306 0.0046433522 0.12893963
0.13587373 0.06725299 -0.08575947 -0.050554715 -0.039845943 -0.01986918 0.0065298807 -0.03587873
-0.0027046541 -0.029786715 -0.08070045 -0.07601818 3.292035e-05 0.062078856 0.07979478 0.114370145
-0.070632644 0.013139299 -0.041420683 0.028491851 0.088168204 0.0591589 0.043553077 -0.07214684
0.078454144 -0.072974294 -0.08349416 0.047213968 0.07936853 0.03661758 -0.10794087 0.04839406
-0.028295849 -0.0068352018 -0.02645423 0.0030393244 -0.031848297 -0.019050626 0.056422397 -0.05357798
-0.055226803 0.07781553 -0.04253668 -0.09434998 0.0352036 0.030222937 -0.011924462 -0.0019986893
0.1074839 0.06416713 -0.042598322 0.060777184 -0.017779343 -0.060197145 0.031780995 -0.06726143
0.06444006 0.022130633 0.026018571 -0.0033659916 0.06659553 0.031633947 0.05174438 -0.03693838
0.023269527 0.056896783 0.05544347 0.07570862 -0.06037785 0.1309246 0.021386169 -0.049742315
-0.026055584 0.026946563 0.08918435 0.075325966 0.05051529 -0.05098693 -0.10058265 -0.0061916607
-0.035353158 -0.07396771 -0.08690227 0.008697871 0.024256462 0.020650966 -0.06142437 -0.067994125
-0.010271957 0.031063356 0.031802136 0.02670889 -0.031939 -0.012222639 0.008077206 0.039511006
0.053950343 -0.008149772 0.012622715 0.12156883 -0.06493945 0.058050483 -0.0051427926 -0.021756465
-0.011319616 -0.053438306 -0.006412953 0.058985196 0.08612349 0.09749718 0.08911791 0.059644654

model.base_model.net.6.bias f4 [128]
00000000: bff2 48bd 9390 a5bd c87e b9bc 1dc4 c83b
00000010: f6be 2f3c 0c10 bbba e0c0 b3bd 3456 dfbc
00000020: 16f9 4bbd 88d4 89bc 9f47 35bd 9b68 a3bb
00000030: 88bd 97bc 37ce 94bd 153b 2a3d b15e d33c
00000040: e752 cf3c e891 f83c ec4c b0bb 5392 b63c
00000050: 80d0 afbd 4db5 793d 2f21 953d 7d05 d7bc
00000060: f95c 943d 7ae1 e7bc e0d0 083d 929e 15bd
00000070: a867 56bd 43d5 22bd 8465 823d 7bfa efbc
00000080: 1266 8cbd 331e 0b3c 57d5 6abd 5743 6ebd
00000090: 6e82 54bd 5458 64bd 14c7 5cbd a89c 103d
000000a0: 5f6d 08bd 6cda b73c cdc7 a23d adf2 cd3c
000000b0: eb34 bc3d 48a3 8e3d cfe2 123c ff6d 1e3d
000000c0: 4bf1 a33d 8f23 73bd 46d6 51bd 3de0 7a3d
000000d0: 43f8 323d 1845 de3c def6 a33c 7b0e 52bd
000000e0: 2427 0d3d 634b 32bb 21b5 bd3b a6f5 a93d
000000f0: 2aef 443d 0ea0 08bb a087 abbc 966f 4bbd
00000100: fd31 2e3d 3cca b13d fc42 3ebd e7b4 64bd
00000110: bff5 693d 3962 92bd 73b4 ab3d 3190 6c3c
00000120: 5768 a73d 3d59 813b 583f fa3c 5b11 a5bd
00000130: 8dd4 7abc 76c1 8e3d 394e 06bd c0c5 9c3d
00000140: cef8 51bc fb4b 43bd 445c 38bd d719 90bd
00000150: bc8e f53c 1b55 42bd 78b5 003d 9e9a d7bc
00000160: 36b7 553d 6550 6b3d 248a 84bd 858e 48bd
00000170: 692e 653d aa6d d1bc e768 94bd ce2f 40bd
00000180: 3324 9dbd db2c 66bd 41a6 9c3b 9704 7f3d
00000190: 94af 8e3c dce7 043c b34d 6dbb 4495 40bd
000001a0: 6dac 233d 88e6 823d cf01 fa3c 3a79 9b3d
000001b0: 0173 bb3d 70de d13b c2ab 4bbd 1d9b 883d
000001c0: e47b 473c 7fc3 5dbc 40c2 4abc 93c0 1f3c
000001d0: 1a08 34bd 4039 493d b0fc 8bbd 57b9 1a3c
000001e0: bead b4bd 851b 1a3d 11a2 23bd 9ce3 18bc
000001f0: 9cb4 943d 6299 913c 57e9 7e3b eac2 f03c
-0.049059626 -0.08084216 -0.022643462 0.006126894 0.010726681 -0.001427175 -0.08777022 -0.027262785
-0.049798094 -0.016824976 -0.044257756 -0.004986835 -0.018522993 -0.07265895 0.04156025 0.025801988
0.025308086 0.030343011 -0.0053802636 0.02228657 -0.0858469 0.060963918 0.0728172 -0.026247734
0.072442956 -0.028305758 0.033402324 -0.036528178 -0.052344948 -0.039754163 0.06367019 -0.029294243
-0.06855406 0.008491087 -0.057332363 -0.05816969 -0.0518822 -0.0557483 -0.053900793 0.03530565
-0.03330743 0.022443019 0.07948265 0.02514013 0.09189781 0.06964737 0.008965208 0.03867912
0.08005007 -0.059360083 -0.051229738 0.061249007 0.043693792 0.027132556 0.020015176 -0.05128334
0.034461156 -0.0027205579 0.0057894145 0.08298807 0.048079647 -0.0020847353 -0.020938694 -0.049666964
0.04252814 0.08681151 -0.0464506 -0.055836584 0.057119127 -0.07147641 0.08384027 0.014438675
0.08174198 0.0039474056 0.030547783 -0.08059951 -0.015309465 0.069704935 -0.032789443 0.07654905
-0.012815667 -0.047679882 -0.045009866 -0.070361786 0.029975288 -0.047444444 0.031423062 -0.026318844
0.052176677 0.057449717 -0.06471661 -0.048964042 0.055952463 -0.025564987 -0.07246571 -0.04692059
-0.0767292 -0.05619512 0.004780561 0.062260237 0.017417707 0.00811192 -0.0036209642 -0.04701735
0.03995936 0.063916266 0.03051844 0.075914815 0.09152795 0.0064046904 -0.049724348 0.066702105
0.012175534 -0.013535379 -0.012375414 0.009750503 -0.04395304 0.049126863 -0.06835306 0.0094436025
-0.08822201 0.0376239 -0.03994948 -0.00933161 0.07261011 0.017773334 0.0038896406 0.029389817

model.base_model.net.8.weight f4 [128, 128]
00000000: 1a87 ad39 1d20 393d f83a b4bc ee3a 9e3d
00000010: f34e 503d 154a 1dba 38fe ac3d 1703 1d3d
00000020: 2fb2 873d 2016 dabd 54a5 f3bd afc9 71bc
00000030: 1697 c03c a406 35bd 9813 57bc 7da0 7e3d
00000040: 3aea b63d 34f6 e23c 3d5c e33d f27b 903d
00000050: e46c df3c b9e1 463c f916 cfbc 9def 39bd
00000060: 1444 043d 48a4 173c 6b07 53bd 92db 90ba
00000070: dab6 02bd eb92 043c e13d 4a3d d843 8a3d
00000080: 773d 84bd 665a 7c3c 1338 1bbd 90d7 abbd
00000090: 928a 2a3d d845 b03d da00 bb3d 53bf 943d
000000a0: a573 c1bc 0dfb de3c 8545 923c 21ac 77bd
000000b0: 6603 ba3d 9b25 34bd 09ea 053d 4f52 2cbd
000000c0: 0036 033d 752e 733d 825a 213b 2a21 1bbd
000000d0: 1c81 3c3d dee6 cfbd 30ee 85bc 0039 a5bd
000000e0: 877d cc3b f38e 083d 8560 2b3d f0d9 c8bc
000000f0: 40b6 3fbd a58e 243b 35f7 2bbd 5a6e a0bd
00000100: 8032 643d c0a9 cb3c 8ee9 7abd e1c3 bcbd
00000110: afe9 9a3c 6754 c3bc cc0a 2fbd a11f 9b3d
00000120: c2ed 133d 4880 dc3d 5b66 0ebc 259e 6c3b
00000130: 8fdd 26bd e7b3 103d eb90 1bbd 5c76 8dbb
00000140: 34d1 edbc a66b 593d 7def 203d 6446 cfbd
00000150: 723c 973b 70f7 b73d cbc4 5c3c c5b1 783d
00000160: d303 bcbc 24de 81bd 7316 3f3d a193 9fbc
00000170: fd2d 283d 12d1 993d a26e 5abd 426b b8bd
00000180: 1e21 22bc 5bbd 37bd 1a55 873d e965 603d
00000190: 2b38 4b3d 57f2 78bd 7e09 ea3c 528e 063b
000001a0: 45dd c8bc 5c45 4abd 87b4 2e3d a968 993b
000001b0: 31eb 923d 8ffc fe3b 42d6 033d a7cf c03c
000001c0: ec5f 90bd b0d9 5ebc 9fd4 bdbc 9c91 07bd
000001d0: 7a0c 463d 54dd 44bd 37b7 84bd d020 cdbc
000001e0: a983 8abd 67b5 f8bb 226a ccbd ada6 d2bc
000001f0: 76c2 7dbd 1a52 cebd 2da8 bb3d 5854 993d
00000200: 6a36 5fbd 3388 163c 202d d0bd 1d93 16bd
00000210: ec76 babd 366d 26bd 0afe d73d 4cc7 443d
00000220: 891d 503d ea75 99bd c085 a43b c176 8a3c
00000230: 25b9 023d 12a1 febb fafc 25bd 06f1 683d
00000240: 563c e63d d4e4 8c3b 205a f93d 648d 58bc
00000250: 555f ea3c 1290 663d f62a d6bc cc89 4d3d
00000260: 92c8 12bd 2d1d 53bd 6cc6 7cbc 720c 613d
00000270: 9f07 0f3d 646f 533d 7ac4 b9bc 58d8 913d
00000280: a4df a3bd 961a 8d3c 5835 513c fc85 353d
00000290: 6170 5cbc caf0 0e3d 78e9 4abd 1399 ea3c
000002a0: 6533 e5bb 7161 893d 5086 8c3d c719 833d
000002b0: 0254 5ebd 85c0 803d 946b ccbc 0ff6 a0ba
000002c0: 1737 8e3c 4de2 8cbd 5da2 aebd 7c6f 8a3c
000002d0: b9bc 033d 1b4b afbd ebbd c33c 0aa3 883d
000002e0: 0a61 37bc 2a02 c0bd 7511 b13c 0ac7 3bbd
000002f0: d5fe 6bbb a2d1 c1bc cb35 943d 4e27 1c3c
00000300: d40d afbd 11f0 a7bd 9727 cdbc 2e6f c7bd
00000310: b25e d2bc 5bce 39bd 3002 26bd 37a3 c6bd
00000320: c307 763d 45c1 04bd b6f0 5bbd 552e 9a3d
00000330: afe3 6b3c 82bc f5bc 24aa 2f3d 7d42 31bd
00000340: 5e13 323d 748e 87bb 1c59 753d cd50 eb39
00000350: 7db6 48bd 8321 20bc 5232 d73c 63c7 dabc
00000360: d145 3f3d c931 823d 4e92 42bd ae19 e8bc
00000370: 9cf4 7bbc ac39 be3d b5d0 593c 070a 833d
00000380: d750 3c3d 3e3c 5e3c 7eec abbd a84b 07bc
00000390: a442 82bd 557f 2ebd 02bc 823d 8fc0 76bd
000003a0: 51c3 13bb 84ca 733d 248f 3abd 0cae 91bd
000003b0: 6377 24bd 8d8d 1d3c 06ee 64bd 085a cdbd
000003c0: e888 cdbd 0bc5 e33c 216a a03c 3123 93bd
000003d0: 8767 01bd ec5c 8db9 e0ab 6abd 4715 18bd
000003e0: 534c 6bbc f552 bdbd b995 04bd dcce c8bc
000003f0: e990 ac3b 7d4c b6bc 3727 a33d 79c4 13bd
0.0003309779 0.04519664 -0.022000775 0.07726084 0.05085654 -0.0006000114 0.08446926 0.038333025
0.06625783 -0.10648751 -0.11896768 -0.014757558 0.023509543 -0.044195786 -0.01312723 0.062164772
0.08931394 0.02770529 0.111015774 0.07054891 0.027273603 0.012138777 -0.025279509 -0.04539453
0.032291487 0.009255476 -0.051520746 -0.0011051765 -0.031912662 0.008091669 0.04937542 0.067512214
-0.06457036 0.015402412 -0.037895273 -0.08390725 0.041636057 0.08607072 0.09131022 0.07263055
-0.023614714 0.02721932 0.017855415 -0.06046689 0.090826795 -0.043981176 0.032693896 -0.042070683
0.03203392 0.059370477 0.0024620597 -0.037873425 0.046021566 -0.10151456 -0.016348928 -0.080675125
0.00624055 0.033339452 0.041840095 -0.024517983 -0.046804667 0.0025109437 -0.041983802 -0.07833548
0.055712223 0.024861217 -0.06125789 -0.092170484 0.018910257 -0.023843957 -0.042734906 0.07574392
0.036115415 0.10766655 -0.008691396 0.0036105004 -0.04073864 0.03532782 -0.03798 -0.004317088
-0.02903042 0.053081177 0.039290894 -0.10120848 0.00461536 0.08982742 0.0134746535 0.06071641
-0.022951042 -0.06341198 0.04665227 -0.019479575 0.041059483 0.0751058 -0.053328164 -0.09004833
-0.009895591 -0.044858318 0.06608029 0.05478469 0.049614113 -0.06077799 0.02856898 0.0020531607
-0.024519572 -0.049382553 0.042652633 0.004681666 0.071737655 0.007781572 0.032186754 0.023536516
-0.07049546 -0.013601705 -0.023172675 -0.03309785 0.048351742 -0.048062637 -0.06480258 -0.02504006
-0.067633934 -0.007589984 -0.09981181 -0.025714243 -0.06195303 -0.100742534 0.09162936 0.074867904
-0.054495253 0.009187746 -0.10164857 -0.036761392 -0.09104714 -0.040631495 0.10546501 0.048041627
0.050809417 -0.074931934 0.005020827 0.01690233 0.03191485 -0.007770666 -0.04052446 0.056870483
0.11241977 0.0042997394 0.12175393 -0.013217304 0.028609911 0.05628974 -0.026143532 0.05018024
-0.03583581 -0.051541496 -0.015428167 0.05494351 0.034919377 0.051619902 -0.022676695 0.071213424
-0.080016404 0.017224591 0.012769066 0.04431723 -0.013454528 0.034897603 -0.04953906 0.028637445
-0.006994652 0.067080386 0.068615556 0.06401401 -0.054279335 0.0628672 -0.024953641 -0.0012280362
0.017360253 -0.06879101 -0.08527062 0.016898863 0.0321624 -0.08559247 0.02389427 0.06671722
-0.0111925695 -0.09375413 0.02161477 -0.045844115 -0.0036010046 -0.023659531 0.07236823 0.009530855
-0.085475594 -0.08200086 -0.025043292 -0.09738003 -0.02567992 -0.04536281 -0.04052943 -0.096990995
0.060065996 -0.03241088 -0.053696357 0.075283684 0.014397546 -0.029997114 0.042886868 -0.0432763
0.0434755 -0.004136855 0.059899434 0.00044882894 -0.04900216 -0.009773615 0.026269112 -0.026706403
0.04669744 0.06357152 -0.04750281 -0.028332558 -0.015378144 0.09288344 0.013294389 0.06398397
0.045975532 0.013564168 -0.08394717 -0.008257784 -0.06360367 -0.042601902 0.06383516 -0.060242232
-0.0022546838 0.059519306 -0.045546666 -0.07113275 -0.04015292 0.009616268 -0.05589106 -0.10026938
-0.100358784 0.027803918 0.019581856 -0.071844466 -0.031592872 -0.00026962848 -0.05729282 -0.037129667
-0.014361459 -0.092443384 -0.03236935 -0.0245127 0.005266298 -0.02225327 0.07966464 -0.036076043

model.base_model.net.8.bias f4 [128]
00000000: 7f95 8bbd cf49 6f3b 4121 2abd 5f3d b33c
00000010: 1543 9bbd 967f 3a3d 91cf 793d 4d04 923d
00000020: 8e9d a2bc 4e3c 6fbd 483f 533d 88e3 483d
00000030: de7f 0dbd b270 543d 64cc 9c3c 2c91 c6bc
00000040: df78 3d3d ebc7 483d 7b58 d23c 0c20 58bd
00000050: 146a 85bc 4238 a43d 50cb 79bb d11b a9bd
00000060: 4405 3a3b febe e3bc 253b 073d cff1 33bd
00000070: 055d 76bc 68b9 86bd a903 a1bd 2e5d 52bd
00000080: c158 54bd f462 c33c b1e9 163d 3299 723d
00000090: 4c9d 1dbd ced5 57bd ed69 cb3c 4957 3cbd
000000a0: 4381 56bd 86b5 9a3c 8ece 263d 423e b13b
000000b0: 0f9c 90bd 07e7 c73c cd2d 2e3d ef7f 56bc
000000c0: 30ce 44bd 372f 8d3c 6c38 633c f4b4 38bd
000000d0: 6f90 0dbd cf7e 2dbd 2ca8 88bc b474 013d
000000e0: b94f 21bd 3fbf a03b bee7 29bd bd65 d7bc
000000f0: edfc 2a3c 9171 183d 2aa4 643d 4e66 8dbd
00000100: b807 e0bb b0b5 93bc 23a6 813d 822a 02bd
00000110: f28a 9dbc d565 51bd fde7 3c3d d42f e1bc
00000120: f2b8 1e3c 18c7 edbc 59db 6dbd 129c 94bd
00000130: 3caf df39 4794 9c3b df82 c43a bbb1 963d
00000140: 0580 6cbd 77ba 8fbb 3e7d 4e3c c44f 803d
00000150: e4bc 623d 56be 763d e633 a0bd eda9 c73c
00000160: b044 98bd 1f13 ee3c d28f 8abd ed71 a13d
00000170: 6653 aa3d 91c9 883c d2ab 6c3c 7c6a 8dbd
00000180: 42ab 08bd 6c11 143b d2a4 45bc af6f b4bd
00000190: 6f32 4abd c09a 40bd 4879 2b3d ba52 603c
000001a0: 9116 27bd c19b 4a3d 55a7 91bd 84fd a53c
000001b0: 6925 613d 167b 18bc 3cf6 483c c7bd cebc
000001c0: 5f34 a4bc 6718 42bd eb5d 803c 3be2 20bd
000001d0: 6a86 debc cc21 8ebd 87de 313d 7f6b 98bd
000001e0: 8707 27bd 6927 323d cd6a a03d 3225 92bd
000001f0: 6523 b7bd 09d7 1a3d a587 e4bc 504d 0e3d
-0.068156235 0.00365125 -0.04153562 0.02187985 -0.07581154 0.04553183 0.060988966 0.071297266
-0.019850519 -0.05840712 0.05157402 0.049045116 -0.03454577 0.051865287 0.01914043 -0.024239145
0.04625785 0.04901878 0.025676956 -0.052764937 -0.016285934 0.08018543 -0.0038115568 -0.08257259
0.0028384486 -0.027801033 0.03301539 -0.04393178 -0.015036826 -0.06578332 -0.07862026 -0.051358394
-0.051842455 0.023850895 0.03684396 0.05922813 -0.038480088 -0.052694134 0.024830783 -0.04598168
-0.052369367 0.018885385 0.04072433 0.005409033 -0.07061016 0.024402155 0.042524148 -0.013092025
-0.0480482 0.017234428 0.0138684325 -0.045094445 -0.03456157 -0.042357262 -0.016681753 0.031605437
-0.03938267 0.004905611 -0.041480772 -0.02629363 0.010436279 0.03721768 0.05582062 -0.06904279
-0.0068368576 -0.018030971 0.06330516 -0.03177882 -0.019231293 -0.051122505 0.04611968 -0.027488627
0.009687649 -0.0290256 -0.058070514 -0.072563305 0.00042664434 0.004778418 0.0014992616 0.07358118
-0.057739276 -0.004386242 0.012603102 0.06265214 0.05535592 0.060240112 -0.07822399 0.02437302
-0.07434976 0.029061852 -0.06765713 0.07883058 0.08316688 0.016697677 0.014445262 -0.06905076
-0.03336645 0.0022593392 -0.012063222 -0.088103645 -0.049364503 -0.04702258 0.04186371 0.013691599
-0.040793005 0.049464945 -0.07111994 0.020262487 0.054967318 -0.00930669 0.012265738 -0.025236977
-0.020044504 -0.047386553 0.015669784 -0.03927825 -0.027163703 -0.0694004 0.04342511 -0.07442378
-0.040778663 0.043494616 0.07832871 -0.07136001 -0.08942298 0.03780273 -0.027896712 0.0347417
