results/edm_swiss_roll/checkpoints/epoch=4-step=160-v1.ckpt (torch, 386762 bytes, 49 tensors)

model.time_embedding.frequencies f4 [32]
00000000: 0000 803f e332 3e3f 934f 0d3f 4bfa d13e
00000010: 8001 9c3e 3ed0 673e a33a 2c3e 81eb ff3d
00000020: a923 be3d 4144 8d3d 7ae9 513d 03f5 1b3d
00000030: b1bd e73c d72c ac3c 03d7 7f3c 7014 3e3c
00000040: f438 0d3c afd8 d13b 84e8 9b3b 1fab 673b
00000050: 0e1f 2c3b 8fc2 ff3a 3705 be3a a52d 8d3a
00000060: e1c7 513a 0ddc 1b3a 9298 e739 4611 ac39
00000070: 0dae 7f39 01f6 3d39 5722 0d39 16b7 d138
1.0 0.74296397 0.55199546 0.4101127 0.30469894 0.22638032 0.16819243 0.12496091
0.092841454 0.06897784 0.05124805 0.03807546 0.028288694 0.021017475 0.015615228 0.011601552
0.008619536 0.0064040045 0.0047579426 0.00353498 0.0026263627 0.0019512939 0.0014497404 0.001077105
0.00080025016 0.0005945571 0.00044173427 0.00032819266 0.00024383534 0.00018116088 0.000134596 9.999999e-05

model.net.0.weight f4 [64, 66]
00000000: ca7d d73d d303 dd3d 9a7b 8ebc fc2b ff3d
00000010: 7a01 7cbc 1256 153d 8594 45bd 1510 ac3d
00000020: 6138 f63d 26fc a0bd d604 f33d 1508 0e3d
00000030: a503 d23d 4d5d e73c 622e 913d 59f3 c0bb
00000040: fec0 d93d 9d21 f23c 3d37 3dbd ad2b 2e3d
00000050: 2549 3bbd 5e6f 6fbb c6b0 21bd 0f19 bc3d
00000060: 25ef b2bd b95e 42bd 3c6e d5bc cf0b 87bd
00000070: 0543 9b3c ae90 ebbd 4e69 ef3d 0303 ccbd
00000080: 042b cb3d 2cc5 c33c 695c 15bd a2f8 a23d
00000090: fbf4 b93c 2ae3 d23d 1815 8b3c e392 10bd
000000a0: 0ee7 153d 2f92 f4bc 19a1 623d 1a4b e83d
000000b0: c2f1 983d 51f9 4dbd 6bbe 983d 084e d13c
000000c0: c63d 873d 3a6e 92bd b553 f2bd fd5a 34bd
000000d0: b223 babd 3a12 d63d 4da9 1f3d bc47 5f3d
000000e0: f3e4 2d3d b471 b53a 5c82 cc3d d8e4 abbd
000000f0: 92be 383c 91d7 a4bd 1be8 293d d230 1fbd
00000100: 42ee 283d dd33 b5bc b877 df3d 33c2 94bd
00000110: 7d47 b3bd 8224 b3bd d5ef c53d 6a6b dc3c
00000120: df86 d53d 5e06 edbd 4172 0bbe 82d7 e1bd
00000130: f9cb c5bd 9aa4 143d 668a fb3c b577 b63d
00000140: 16cc 9cbd 0405 c6bd 083e 583d 4dba 7dbd
00000150: 2bdc 803d 9cd9 25bd b5af 743d aa39 d8bd
00000160: 64e6 91bd 4b5a f03c b721 9a3c c6e5 19bd
00000170: aa8d 8b3d b091 a23d 32f3 bdbd 3e52 8cbd
00000180: f357 e23d ef4c 31bd 8c2c 38bd 6eb9 f5bd
00000190: 9945 a5bd 9732 a83c 70df d8bc dff2 cbbd
000001a0: e90c f1bb 2330 c1bd 72de eabd 4fd1 9fbd
000001b0: fca3 f1bd c286 b5bd 03fb e63d 33cd 543c
000001c0: c4ad e23c 8511 00be 2395 babd 00da 51bd
000001d0: 4a3b 133c 1fd6 f2bd 9fa2 81bd 5eef abbd
000001e0: c289 22bc cba3 65bd 62f0 99bc 2ad7 bfbd
000001f0: d90c c2bd 2116 a8bd bd9c 56bd 9efc dbbd
00000200: ea5a be3d 0818 0ebd f9e1 c33d 0020 e63c
00000210: c265 f5bd 62f1 963d 88cf 09bd 03a7 40bd
00000220: 5aef d0bd 7fc1 f9bd 1d11 123d 973f d9bc
00000230: 0fd6 453d 4cea cdbd 5b17 bc3d a76c b8bd
00000240: 0823 adbc 3f70 d23c 28e8 813d fd28 cb3d
00000250: 9c33 e53d 9267 c8bd 487b fb3c 211f 5abd
00000260: 7684 62bc 906b bdbd feda e43d 3add b9bd
00000270: 73e6 853d ec90 2f3d ac40 223d a3ff 88bd
00000280: 5985 e43d c126 db3c dbc1 7f3c de85 debd
00000290: 1ef0 523d aa57 98bc 3734 63bd 276b da3d
000002a0: 115a e83c 4497 89bd c569 7bbd 7b68 a2bb
000002b0: 89a5 8e3d 771e fabc 90f2 8dbd 31e0 28bd
000002c0: 4671 babd cc95 373d 7604 c53d c870 ebbd
000002d0: 32bf f13c de1d 843d 3066 be3c 8dc6 2fbd
000002e0: 1d77 853d 935d 863d c74d 403d 97a3 a9bc
000002f0: 6abb 01bd 4adb 663c 5c94 aabc 8878 12bd
00000300: d706 a33d 1089 da3d d28b 38bc ae37 dabc
00000310: 6622 323b 039f d2bb 3e26 593c 2df9 403d
00000320: 45eb 00be 51e4 73bd 211c b73d 0aba 093d
00000330: 60c0 a7bc a35f b5bd 31b4 b7bd bc29 ffbd
00000340: 7194 5ebd 32b4 e03c f7df 833d dd3b 2f3d
00000350: a87b fbbd c410 b4bd 4e03 08bd 10f8 d73d
00000360: d42a 903b 7e5b 38bd 1a40 1c3d 588d 72bd
00000370: 7748 bbbd c140 a13d efbf 87bd a3a8 0bbd
00000380: dc03 06be 9e9b 993d 9102 b23d 38f8 213d
00000390: 26c4 b8bd 060a 00be 0a6b d2bd 1c7b b73d
000003a0: 05e8 523d 6b8a c43d 0cea 683d 6cc0 c03c
000003b0: 62b6 10bc 9d56 cfbd 8b9b e7bd dc6a fbbd
000003c0: 3224 2f3d 7665 8bbd ccb9 04bd 91b5 a0bd
000003d0: 5044 f6bc 880f c1bd b759 b4bd 9ffb 073d
000003e0: ed19 35bd 31ff 8b3d 9901 41bd 578e c8bd
000003f0: 626f f0bc a4d4 89bd ad82 39bd b49e ffbd
0.10522039 0.10791745 -0.017392922 0.12459561 -0.015381211 0.036459036 -0.048237342 0.08401505
0.12022472 -0.078605935 0.11866157 0.034675676 0.102546014 0.028242731 0.07088925 -0.0058883843
0.106325135 0.029557044 -0.046195257 0.04252212 -0.045724053 -0.0036534886 -0.039475225 0.09184467
-0.087370194 -0.047453616 -0.02605354 -0.06594049 0.018952856 -0.11502205 0.11690007 -0.09961512
0.09920314 0.02389773 -0.036465082 0.07957579 0.022699824 0.10297234 0.016977832 -0.035296332
0.036597304 -0.029854862 0.055329416 0.113424495 0.07467987 -0.050286595 0.07458194 0.025549904
0.06603579 -0.0714993 -0.11832372 -0.044032086 -0.090888396 0.10452695 0.038979817 0.05451177
0.04245467 0.001384309 0.099858016 -0.08393258 0.011275904 -0.080489285 0.04148112 -0.038864918
0.041242845 -0.022119457 0.109115064 -0.07263603 -0.0875387 -0.08747198 0.09664885 0.026906688
0.10426115 -0.1157348 -0.13617803 -0.11027433 -0.09658045 0.03628979 0.030705642 0.08909551
-0.07656114 -0.096689254 0.052793533 -0.06194525 0.06291994 -0.04049073 0.05973788 -0.105578735
-0.07124022 0.02933993 0.018814905 -0.037572645 0.0681413 0.07937944 -0.092749014 -0.06851624
0.11051931 -0.04328626 -0.04496436 -0.119982585 -0.08069915 0.020531936 -0.02647373 -0.09958433
-0.0073562753 -0.094330095 -0.11468209 -0.07803594 -0.11798856 -0.08863594 0.112783454 0.012988376
0.027670749 -0.12506683 -0.09110477 -0.05123329 0.008986304 -0.118572466 -0.06329846 -0.08395265
-0.009920539 -0.05606441 -0.018791381 -0.09367211 -0.09475107 -0.08207346 -0.05239557 -0.10741542
0.09294684 -0.034690887 0.09564585 0.02809143 -0.119822994 0.07370259 -0.033645183 -0.047034275
-0.10201903 -0.121951096 0.03566085 -0.02651958 0.048299845 -0.10054454 0.09184142 -0.09005099
-0.021134868 0.025688289 0.063431084 0.09919927 0.11191484 -0.097853795 0.030698434 -0.053252343
-0.013825526 -0.092490315 0.11174582 -0.09075399 0.06538095 0.042862818 0.039612457 -0.06689384
0.111582465 0.026751878 0.015610184 -0.10865377 0.051498525 -0.018596489 -0.055469718 0.10664969
0.02836326 -0.06718305 -0.061380167 -0.0049563027 0.06965167 -0.030532105 -0.06931031 -0.04122943
-0.091036364 0.04482059 0.096199915 -0.11496121 0.029510114 0.06451009 0.023242086 -0.042913962
0.0651686 0.065608166 0.046949174 -0.020707889 -0.031672873 0.0140903685 -0.020822696 -0.03575948
0.07960289 0.10670674 -0.0112638045 -0.026637878 0.0027181148 -0.006427647 0.013253747 0.047112633
-0.12589748 -0.05954391 0.08940912 0.033624686 -0.020477474 -0.08856132 -0.08969916 -0.12459132
-0.054340784 0.027429674 0.06439202 0.0427817 -0.12279445 -0.0879226 -0.033206277 0.10545361
0.0043996368 -0.04500913 0.03814707 -0.059216827 -0.09144681 0.07873679 -0.06628405 -0.03409637
-0.1308741 0.07500385 0.08691896 0.03954336 -0.09021787 -0.12503824 -0.10274322 0.08959028
0.051490802 0.09596714 0.05686383 0.023529254 -0.008832546 -0.10123942 -0.11308964 -0.12276241
0.042759128 -0.068064615 -0.032403752 -0.07847131 -0.03006187 -0.094267905 -0.08806174 0.03319895
-0.044214178 0.06835783 -0.047120664 -0.09792774 -0.029349986 -0.06730011 -0.045290638 -0.12481442

model.net.0.bias f4 [64]
00000000: 3b6a a3bd c9f1 dbbd 0b15 b83d df8b be3b
00000010: 02ae f7bb fa00 e0bd 2153 ce3d bf5a 95bd
00000020: a2c1 663d 4391 5fbc 3e33 0bbb 43d9 553d
00000030: 3233 f0bc 7400 d3bc b1fc d83d a6ad cebd
00000040: d292 7e3d dde3 bfbc 7568 08bd f56e ac3d
00000050: 7ddf b73c d854 f0bd 6e75 f13d 1482 54bd
00000060: b737 d33d 8d64 0cbd 3aaf 033e 9e9e 183d
00000070: 2ce5 783b f3e5 313d bba3 09bc c74e 88bd
00000080: d75b 993d b8d1 b03d e58d 1bbc 8820 fe3d
00000090: ba7c 073c 5098 90bd 45fb 80bd d982 b53d
000000a0: 87c6 57bd 1e27 aa3d 57b0 fdbd 712b 2b3a
000000b0: a1b8 9fbd aed2 513d 4c96 c53d 7cda 5b3d
000000c0: d53b 12bd 54be f8bd f7ca 81bd ac17 91bd
000000d0: 24f7 f63d e5d3 8fbd e6f0 333d ca94 b93d
000000e0: 272f 413d 558f edbd 4618 b3bb 6752 19bd
000000f0: 455d b23d 8bf3 25bc 9f80 21bc e044 f03d
-0.07979246 -0.10739476 0.08988389 0.005815014 -0.007558585 -0.10937686 0.10074449 -0.07292699
0.056337006 -0.013645473 -0.002124026 0.05220915 -0.029321287 -0.025757052 0.10595072 -0.100917146
0.062151738 -0.023424083 -0.033302743 0.08419601 0.022445435 -0.11734933 0.11789976 -0.051881865
0.10313361 -0.03427558 0.12859812 0.037260644 0.0037978394 0.043432187 -0.008400853 -0.066556506
0.0748822 0.08633751 -0.0094942795 0.124085486 0.008269483 -0.07060301 -0.06297926 0.08862848
-0.052679565 0.08308242 -0.1238715 0.00065296056 -0.07798887 0.05122631 0.096478075 0.05367516
-0.03570159 -0.12145677 -0.063375406 -0.07084593 0.12058857 -0.070228375 0.04393091 0.090615824
0.04716411 -0.11599604 -0.00546554 -0.0374321 0.08709196 -0.010128866 -0.009857326 0.11731887

model.net.2.weight f4 [64, 64]
00000000: 4873 313d dabb 523d bcae 42bd 74f9 9a3d
00000010: fc3d 5d3c a3e6 20bc 9dc8 133c 907a b0bd
00000020: 624c 9cba 289f 443d 4dcf f4bd fa6b 93bd
00000030: ade2 973d a3f7 843c 8f72 d53b 60d4 a53b
00000040: d3e0 4cbd d936 e23d 27b6 dbba 27e0 24bd
00000050: 2d3e 893d 339d e7bd b9e0 5fbc a447 ea3c
00000060: bc42 37bd 0f68 983d bfff c9bd 425e 2bbd
00000070: 7190 19bd 3493 d43d d18a 353d 801b c1bd
00000080: 13dc 5d3d c2f7 50bc 1ba3 de3d 6e5a 9e3d
00000090: 42fa b7bd 0a80 da3d 4ca2 7cbc 0067 98bc
000000a0: da7f d13c ed72 073e e590 da3c 2484 08be
000000b0: bf9e 24bd 01de 023e c482 76bd ccb5 99bd
000000c0: d2c2 b8bd 4dcb 9cbd 4374 a4bd b09d c63c
000000d0: 7e82 8a3d 579f d33d 54f0 8c3d 130d d339
000000e0: 442d 703d b344 863d 6881 c0bd 3f29 943d
000000f0: d67d 99bd 327e e03d e0b0 7cbd a352 1c3d
00000100: 4763 5bbc 06f1 843d 9e1e d93c c6f1 abbd
00000110: 66b1 683d 79f0 743d 734a 58bd 3e5d bfbd
00000120: 8f5e a1bd d554 56bd a9c2 71bc 3d82 773c
00000130: b8ee 773b 1cca 38bd 106d 893d c28a 7b3c
00000140: 87ed a2bd e1cb 27bd 686a a9bd 300f 4bbd
00000150: 7319 f6bd 15f3 fc3c 8823 d8bd 50c5 0d3d
00000160: 78a6 c13d c14d cdbd c981 98bd 1049 c0bd
00000170: ccc5 953c f0ab 103d e37e 6ebd fe26 a03d
00000180: 9cec 3b3d 44c6 d2bd 0877 25ba 055a 7fbd
00000190: ecad d8bb 6f39 973d ffc8 abbc 7d82 c6bd
000001a0: 9949 ca3d 7e53 fbbd 2f95 06bd ddf3 753d
000001b0: b5ca e53d ce01 e13d 7986 72bc 97b5 603d
000001c0: a32d f4bd 313d 7ebc 375c e7bc 4332 293d
000001d0: d166 c8bd 5322 293d 6c72 9c3d 380f c73d
000001e0: 2109 4dbc e017 f83d 9bbd 05be a2c3 36bd
000001f0: 9cde 0e3d 99a3 a63c 7a49 883d cf09 c0bd
00000200: 937e b83d cf50 f6bd 3e8d b5bd 7232 30bc
00000210: 4383 f6bd a7e6 d6bd 031f f9bd 7b0e d13d
00000220: 058c ce3c f2af 41bd dfbf fcbb 94e3 e6bd
00000230: 1b1d f7bd 7fbb 98bd 0473 eabd ab18 a53d
00000240: 747c 2dbd f260 02bd 6f8f c5bd 5db0 c93c
00000250: 6951 9fbc 5775 b8bd 7ea1 b23d 8391 f13d
00000260: 5929 b0bd b848 933d cea5 87bc f631 d7bb
00000270: 670c 773d 47c4 fabc 57dc d53d 0ceb ae3d
00000280: ea75 9ebd a67c a1bd 8aab 01be 07eb 353d
00000290: a325 dbbd e2a4 e0bd abb6 9ebd 8e0e f6bd
000002a0: 2689 e1bd 0afe ea3d 9645 7d3d 3c13 d23d
000002b0: 6aef 86bd bf81 3ebd c741 61bd d085 26bc
000002c0: e389 adbd 847b 903c e194 bbbd 0597 813c
000002d0: 2816 053e a01f 023c 62eb a23d 98ef bdbd
000002e0: e493 bfbc 2883 a0bd ec07 caba 77bc 38bd
000002f0: 382a 90bd b672 e1bd db1e 4bbd 6d99 ed3c
00000300: 6064 aabc d658 e7bd 7601 c83d 261b c63d
00000310: 875d 8bbd 1825 493c f262 b73d b9ce 07be
00000320: deff dabd 1710 8f3d 325a 34bb b07f 2a3d
00000330: 3d46 51bd 2669 c03c 6762 a13d 3b2d c1bc
00000340: 794d 3cbd c8df ffbd dae9 88bc 4e57 a03d
00000350: 5290 f8bd d5f0 c4bb d43e b83d 869b 2fbd
00000360: 5af0 0bbd 909e 33bd 9420 62bd 0cfa 4a3c
00000370: fb6c 08be d3d4 513d 6653 dfbc 8875 19bb
00000380: e56d 30bc 8f58 9d3d 06bc 99bd 19d6 f0bd
00000390: 30c2 b0bd 351a bdbd d31a 86bd 51fe bb3d
000003a0: 43df c0bd 92b2 a0bd ea0e cdbd 8cd2 6fbd
000003b0: b75f 53bc 75d3 aabd 5d25 283c ec2e 323d
000003c0: b66d d1bc d54a 7d3d 13e4 de3c 35f6 f93d
000003d0: 4706 04bc babe e43d d964 bf3d 1c91 723d
000003e0: e5a2 953d 16d4 9fbd 2f45 acbd 8525 483d
000003f0: cbe3 053d 2d1a e33d 50e1 49bc 873a a8bc
0.04332283 0.05144868 -0.04752992 0.07567111 0.013503548 -0.009820613 0.009019998 -0.08617127
-0.0011924619 0.048003346 -0.11953602 -0.07198329 0.07416282 0.016231364 0.0065139006 0.0050607175
-0.050019097 0.110456176 -0.001676266 -0.04025283 0.06701312 -0.1130928 -0.013664418 0.028598614
-0.044741377 0.074417226 -0.09863233 -0.041837938 -0.037491266 0.10379639 0.04432184 -0.09429073
0.054164957 -0.012754383 0.10870954 0.07732092 -0.0898328 0.10668953 -0.015419554 -0.018603802
0.02557366 0.13227434 0.02668042 -0.13331658 -0.040190455 0.1278 -0.0601833 -0.07505378
-0.09021534 -0.07655964 -0.08029988 0.024245113 0.06763171 0.10333126 0.068817765 0.00040254797
0.05863692 0.06556072 -0.09399682 0.072344296 -0.074947044 0.1096157 -0.06169212 0.038164746
-0.013390369 0.06491284 0.026503857 -0.08395724 0.056809805 0.059799645 -0.052805375 -0.093439564
-0.07879364 -0.052326996 -0.014755883 0.015106735 0.0037831496 -0.04511462 0.06710255 0.015352907
-0.07955461 -0.04096592 -0.082722485 -0.04957503 -0.12016573 0.03087763 -0.10553652 0.034612
0.094555795 -0.10024596 -0.074466296 -0.093889356 0.018282793 0.035320222 -0.058226477 0.07819937
0.045879945 -0.102917224 -0.00063119875 -0.06234171 -0.00661253 0.073840015 -0.020969866 -0.096928574
0.09877319 -0.12271784 -0.032857116 0.06004702 0.11220304 0.10986672 -0.014802569 0.054860678
-0.11922767 -0.015517519 -0.028242214 0.0413077 -0.09785236 0.0412925 0.07639012 0.097196996
-0.0125143835 0.12113929 -0.1306061 -0.044620164 0.034880266 0.020341681 0.066546395 -0.09376871
0.09008517 -0.12027132 -0.088648304 -0.010754215 -0.12036755 -0.10493212 -0.12164118 0.1020784
0.02521325 -0.047286935 -0.0077133025 -0.11273876 -0.12066098 -0.07457637 -0.11447719 0.08061346
-0.042355016 -0.031830736 -0.096464984 0.02462023 -0.019448 -0.09006756 0.087222084 0.11795332
-0.086016364 0.071916044 -0.016558554 -0.006567235 0.060314562 -0.03061117 0.10442417 0.085409254
-0.07737334 -0.07885103 -0.12663093 0.044413593 -0.10700538 -0.10968949 -0.07749685 -0.12014495
-0.11012487 0.11474235 0.06183394 0.10257575 -0.06588633 -0.046510454 -0.05499437 -0.010163739
-0.084735654 0.017637022 -0.09159256 0.015819082 0.12996733 0.00794211 0.07955052 -0.092742145
-0.02338595 -0.07837516 -0.0015413738 -0.04510161 -0.070393026 -0.110082075 -0.049589973 0.029003823
-0.020799816 -0.11296241 0.09765904 0.09673147 -0.06804948 0.01227691 0.08954419 -0.13262452
-0.10693334 0.06985491 -0.002751958 0.04162568 -0.051092375 0.023487639 0.07880097 -0.023581138
-0.04597232 -0.12493855 -0.016713072 0.07829152 -0.12136902 -0.0060101547 0.089963585 -0.042872928
-0.034164764 -0.04385239 -0.05520685 0.012388717 -0.13322823 0.051228356 -0.027261447 -0.0023416001
-0.010768388 0.07682907 -0.07506566 -0.11759586 -0.08630788 -0.09233514 -0.06548085 0.091793664
-0.09417584 -0.078465596 -0.1001261 -0.058550403 -0.012901238 -0.083411135 0.010262814 0.04350178
-0.02556501 0.061838944 0.027208364 0.122051634 -0.008058137 0.11169191 0.09345407 0.05922042
0.0730646 -0.07804124 -0.08411633 0.048863906 0.032687943 0.11088977 -0.012321785 -0.02053572

model.net.2.bias f4 [64]
00000000: 40df 033e 4bea e43c d020 e93d 47a8 2a3d
00000010: a2ec 3138 0e3c 953d e71d 9d3d 5bc5 deba
00000020: e7da b53c 2c99 163b 7db9 bf3d 3ed1 803d
00000030: 947f 4dbc e05e fd3d 5770 003e 1463 da3d
00000040: 7ff1 e43c 23a0 6f3c 554c 78bd a52f b23d
00000050: bfd5 aabd 0d42 e4bd 8056 3b3d c7e8 e5bd
00000060: 7849 113d dcb4 88bd 5cc2 c4bb 63cf 57bd
00000070: 4d57 de3d 1012 b2bd 39c7 9d3c 5011 493b
00000080: 4c39 ffbd b397 c93d 533c dd3c 991e bfbd
00000090: bd5d 04be d25b 463d dd45 d93d ce85 afbc
000000a0: cfb2 edbc e801 d9bd 71f0 bb3d 05f4 52bd
000000b0: f186 82bd 915c 283d 63f8 d33d 564b 573d
000000c0: 0540 203d 21ba e83d 59ef 533c dad0 af3c
000000d0: de2d aaba 9e51 adbd e535 843c 27b7 6cbd
000000e0: 47c8 9f3d 7c0f bebd 8bb9 c3bd 38a8 febc
000000f0: 7e86 bd3d 1e8c b3bd 515d 3dbd 082e 26bc
0.12878132 0.02794375 0.113832116 0.041664388 4.242047e-05 0.07286845 0.07671719 -0.0016996072
0.022199107 0.002297948 0.09361551 0.0628991 -0.012542624 0.123716116 0.12542854 0.10663429
0.027947186 0.014625582 -0.06061967 0.08700494 -0.0834155 -0.11145411 0.04573679 -0.112260394
0.035470456 -0.06675121 -0.0060046148 -0.052688014 0.10856495 -0.086948514 0.019260036 0.0030680485
-0.124621004 0.098433875 0.027006304 -0.09332008 -0.12926383 0.04842741 0.106090285 -0.021426108
-0.029015927 -0.10596067 0.0917672 -0.051502246 -0.06373394 0.041103903 0.103501104 0.05256208
0.039123554 0.11363626 0.012935483 0.021461893 -0.001298364 -0.08462833 0.01613898 -0.057791855
0.07801872 -0.09280297 -0.09556874 -0.031086072 0.09254168 -0.087669596 -0.04623157 -0.010142811

model.net.4.weight f4 [64, 64]
00000000: f9fa 7cbd 675f 843d 1002 d53d a21d 933d
00000010: 57af 3abc 97df d8bd 6432 e4bd 0381 30bd
00000020: 10d5 10bd bf6e d8bd 9da3 ba3c eb94 3cbd
00000030: cc85 e93c d9f9 94bd b48f 96bc b690 43bd
00000040: dd43 8e3d 1353 fbbd 3826 39bd 0479 093d
00000050: f6d5 28bd e53c 1dbb 703c 9d3d b467 f23b
00000060: 2d56 dc3c ea83 473d ca3c 74bd b90c 27bd
00000070: c420 593d 87ca c23c 5adf a93d 82d1 c6bc
00000080: ba25 fa3d 6162 8e3d c932 20bd 06d4 7ebd
00000090: e66b 0c3d 0b83 cebd ec32 7fbd a285 083d
000000a0: ee8f ca3b ff68 7f3d 4838 77bd c1e9 e43d
000000b0: d3aa 83bd 4295 63bd 19bc 9e3d 25b3 70bc
000000c0: e092 1f3d 2adb e2bc d519 cdbd d91a a13b
000000d0: d27c 4a3d 383e ac3d 40af df3d e96f 293b
000000e0: ca01 9a3d 8f20 383d 49d1 82bb 216d 473b
000000f0: 7153 c4bc ef79 da3c 2f8f ebba a6c2 a83d
00000100: 93db 80bc a7d2 95bd b4fc 243d e7bb 93bd
00000110: 71d8 803d 8ec5 dc3d 13dd d73c 66b5 3fbc
00000120: 6971 ffbb 5b65 8f3d 6541 b6bd 2188 09bd
00000130: 7c34 94bd 9a49 dfbd 5b30 acbd f0c8 93bd
00000140: bb1c d03d 3992 b23d 8ea2 b1bd 34fa d2bd
00000150: 264d f23d c7b8 023d 9ddb 803d 7182 e73c
00000160: 3de2 61bd 1f84 a0bd fb33 7c3d 0ebb 08be
00000170: 9fed cabd b2bd 093d de3f 09bd 8e26 f43c
00000180: 63ad 833d 3519 8cbd 41b3 8cbd 7f5b 9ebd
00000190: 7f1d e9bd b44a 53bc b4d2 df3d c84a 10bb
000001a0: 7e82 913d 97a8 85bd dc95 973c 08bf c9bd
000001b0: 3f85 23bc a63e a23c 1941 49bd 03c8 da3d
000001c0: e06c f23c 57fc 863d 05e8 0a3e c077 363d
000001d0: 7448 9fbb cd87 793d 8264 e03d 4814 04be
000001e0: 9053 06bc 4d56 543d c04b bebc 2a86 cebd
000001f0: 48f7 80bd 6e82 66bd 61aa 493d 531e a43d
00000200: cb7c 04bc 3f60 dcbd f4ba bb3c f181 013d
00000210: b1b6 7ebd 883a 4f3d 4b65 30bd 0912 643d
00000220: 278a af3d fae4 963d 9b5f 7abb 985c f33d
00000230: f971 8ebb fc28 d8bd 2135 c63d 942b 013e
00000240: 5002 843d 1fb7 f43d 7dcc 823d 63c1 363d
00000250: bc5e a13d cf0e c3bd 5ee7 bf3b 883d 30bd
00000260: 4e64 be3c e638 fbbd d68a 1fb7 65fa 1f3d
00000270: c422 23bd e538 65bd c102 a9bd 90b6 2d3d
00000280: ba88 dfbd 56e5 a9bc 58ec 2b3c a795 0b3d
00000290: fbf5 ebbd ce62 b03c 366e 35bd f62f 1dbc
000002a0: f5de b2bd 89c8 d3bd b9dc cb3c f635 743c
000002b0: 8643 d43d 5b86 df3d ac2e c73d 3c41 203d
000002c0: 8bdc a03d 1aae 6f3d 3232 d6bd be46 a63d
000002d0: 99ea b43c e5cc fbbc bebd 51bd 8081 bb3d
000002e0: 4f6f d23d da95 aebc 6c6b 1cbd 020c 8abd
000002f0: dea9 ab3d 0804 88bd c776 b2bd 5b69 9cbd
00000300: 8206 323d 1681 b83d 1679 f83c 4a46 2e3d
00000310: 6630 edbd 34d7 a9bd 96d6 84bd 89da 88bd
00000320: 6fbc 75bd 2467 84bd 4a8f 05bd edce a1bd
00000330: 21eb 383d 2322 1f3c 5322 5f3c 1a89 813d
00000340: f840 d7bd 52b2 25bd 2fec 0abc a47b fdbd
00000350: bdbf 943d 3eeb bfbd b82b bd3d f097 093e
00000360: 20f4 623c e0d6 95bd 96c1 a43d be9c babd
00000370: 3115 543c dd84 943d cfe9 ec3d 43d0 903c
00000380: a573 6abc a3c3 b5bb cca2 efbd 4ced a53c
00000390: 73b9 ddbd 6a96 033c 30d7 c8bc 3842 ac3d
000003a0: 5634 3abd 7ee9 a93d c3ac b0bc e708 fdbc
000003b0: 9655 f2bd e2c0 cc3d 2603 8c3c a65f fabd
000003c0: 2596 643b 43bc 683d 84ad 6ebc cf45 bc3d
000003d0: 4e65 8c3d b914 82bc 9490 e33d 5551 a53d
000003e0: 8c18 aeb8 cff1 a8bc 1b19 413d 7312 35bd
000003f0: ef61 b63d dcd1 e2bd 74f5 92bd 9dde 613d
-0.061762784 0.06463509 0.10400784 0.071833864 -0.011394343 -0.105895214 -0.11142424 -0.043091785
-0.035359442 -0.10567998 0.022783095 -0.046040457 0.028506182 -0.07274217 -0.01837907 -0.04774543
0.06946538 -0.122717045 -0.045202464 0.033562675 -0.041219674 -0.0023992595 0.07677543 0.0073976163
0.02689656 0.048709787 -0.059628285 -0.040783618 0.053009763 0.023778213 0.08294554 -0.024269823
0.12214227 0.06952358 -0.039110932 -0.06221392 0.034282587 -0.10083588 -0.062304422 0.033330567
0.0061817085 0.06235599 -0.06035641 0.111773975 -0.064290665 -0.055562265 0.077507205 -0.014691149
0.03895843 -0.027692396 -0.10014693 0.0049165306 0.049435444 0.08410305 0.10922098 0.0025854057
0.075198725 0.044952925 -0.003992234 0.0030430036 -0.02396557 0.02666947 -0.0017971749 0.08240251
-0.015729701 -0.07315569 0.04028006 -0.07213574 0.06291283 0.10779868 0.026350534 -0.011700964
-0.007795502 0.07001754 -0.08899192 -0.03357709 -0.07236573 -0.1090271 -0.084076606 -0.0721606
0.1016173 0.08719296 -0.08673583 -0.10301629 0.11831121 0.0319145 0.06291888 0.028260441
-0.0551474 -0.078377 0.06157301 -0.13352606 -0.09908604 0.033628173 -0.033508174 0.02980354
0.06429555 -0.06840745 -0.068701275 -0.07732295 -0.11382579 -0.012896229 0.1092886 -0.002201723
0.071049675 -0.065262966 0.018504076 -0.098508894 -0.009980499 0.019805264 -0.049134348 0.106826805
0.029592931 0.06591099 0.13565071 0.044547796 -0.004860932 0.060920525 0.1095667 -0.12898362
-0.008198634 0.051840115 -0.02322948 -0.100841835 -0.06297165 -0.05627673 0.04923475 0.080135964
-0.008086394 -0.10760545 0.022916295 0.031618062 -0.062185947 0.05059293 -0.04306535 0.055681262
0.08571272 0.073678926 -0.0038203958 0.11882895 -0.0043470827 -0.10554692 0.09678102 0.1261428
0.064457536 0.1194899 0.06386659 0.04461802 0.07879397 -0.09524309 0.0058564385 -0.04302743
0.023241188 -0.12266712 -9.509464e-06 0.039057154 -0.039828077 -0.055962462 -0.082524784 0.042410433
-0.109147504 -0.020739239 0.01049336 0.034078266 -0.115215264 0.021531489 -0.04429456 -0.009593954
-0.08733932 -0.103409834 0.024885522 0.014905443 0.103644416 0.10914298 0.09725699 0.039124712
0.07854565 0.058515646 -0.10458793 0.08118962 0.022084521 -0.03073735 -0.051206343 0.091555595
0.10275137 -0.02131169 -0.038188383 -0.067405716 0.08382009 -0.06641394 -0.08714061 -0.076372825
0.043463238 0.09008996 0.030331176 0.0425475 -0.11581497 -0.08293 -0.064862415 -0.06682307
-0.059994157 -0.06464985 -0.032607354 -0.07900796 0.04514611 0.009712729 0.013619023 0.06324978
-0.10510439 -0.040453263 -0.008479162 -0.12377098 0.07263134 -0.09371041 0.09236854 0.13436866
0.013852149 -0.07316375 0.08044736 -0.091119274 0.012944506 0.07251904 0.11568033 0.017677432
-0.014309798 -0.0055470034 -0.11700973 0.020254754 -0.10826387 0.008031467 -0.024516672 0.08411068
-0.045460068 0.08296488 -0.021566754 -0.030888034 -0.118327305 0.09997727 0.017091345 -0.12225275
0.0034879532 0.056820165 -0.014567737 0.091930024 0.0685526 -0.015879022 0.111115605 0.080721535
-8.301539e-05 -0.020623116 0.047143083 -0.044207048 0.08905398 -0.11075184 -0.07175723 0.05514394

model.net.4.bias f4 [64]
00000000: dd3d 903d f10f d53d 86ce 2a3d 6fbe d53d
00000010: d816 63bd 767b b6bd 4841 bfbd 59a9 c7bc
00000020: 20c2 93bc 33e6 8ebd 4dd2 25bd d211 43bd
00000030: de02 013e 0e1a 7fbb d802 da3d a8db ca3b
00000040: 81fc 173d 6dfd a03d 902c f7bd 594c 80bd
00000050: 0d43 b3bd aaae 013e b78c 4f3d 1aff 5ebd
00000060: d86a b4bd 620f 953d 5ee4 ea3c 5110 8bbd
00000070: b6d4 c7bd da83 6cbd 293f c03c 8286 e6bd
00000080: f2c7 11bc 650e a63d e3ba 973d cecf 9f3c
00000090: c2e1 de3b 1c8f b43c 716e 633d bf19 bd3d
000000a0: 6101 e13c 380a 813d edc5 b73d e024 d2bd
000000b0: 6d23 90bd 9454 983d acf4 a13c fe56 88bd
000000c0: 08f1 353d 64b7 f5bd 2aaf 29bd 3e56 6f3d
000000d0: 1314 15bc 724e 9fbd 765a 643d a7d4 8f3b
000000e0: e820 b3bc b8c0 e5bd 4698 4abd 5af5 413c
000000f0: f41e 96bd 7631 d23c 6f4f c6bd bd7b b83d
0.070430495 0.10403431 0.041700862 0.10436713 -0.055441707 -0.08910267 -0.09338623 -0.024372743
-0.018036902 -0.06977501 -0.04048376 -0.047624417 0.1259875 -0.0038925442 0.10645074 0.006190736
0.03710604 0.07860837 -0.120690465 -0.06264562 -0.08753023 0.12664285 0.050671306 -0.054442503
-0.08809441 0.07278325 0.028673347 -0.067902215 -0.09757368 -0.05774293 0.023467617 -0.11256124
-0.008897768 0.08108214 0.07408693 0.019508269 0.006801815 0.022040896 0.055525247 0.09233426
0.027466478 0.06300777 0.08973298 -0.102609396 -0.07038007 0.07438007 0.019769989 -0.066572174
0.04441932 -0.119978696 -0.041426815 0.058431856 -0.009099024 -0.07778634 0.055750333 0.004389364
-0.021866277 -0.11218399 -0.049461626 0.0118382815 -0.073301226 0.02565835 -0.096831195 0.09007976

model.net.6.weight f4 [64, 64]
00000000: 1d4e d53d ed6e 8c3d a5fe afbc 7d1f 05be
00000010: 8aea 30bd 72d3 32bb f8a9 f7bd 9285 e23d
00000020: 2173 2f3d 2cf6 d03d 7dab d2bd 82bb 64bd
00000030: 4953 bd3c 224a 35bc 9e7f a3bd a4cb cb3d
00000040: 3294 7c3d c7e3 2fbc 684a fd3d 95d4 ebbd
00000050: 9229 e0bd 38ca 8f3c f90b da3d 8dd9 a03d
00000060: 50ed 8bbd 086f ab3d b94a 8d3d 5faa 6b3c
00000070: cd46 b13d 3db8 b23c c234 133c 7fbc f6bc
00000080: 242d 78bd 0413 a9bd 7680 c3bc 2181 c2bd
00000090: 84d3 843d 7d2c 2f3d 89f3 f1bd c8be c3bd
000000a0: 1509 bc3d b707 79bd 758e 13bc 3a6c 96bd
000000b0: d17f 9fbc d21e 693d 8b52 f53c 4f9a 7e3d
000000c0: f3cc afbc f03c bdbd a8d8 8a3b 51a5 8f3d
000000d0: aa6d 1b3d 4097 fc3c a4a1 163d efb7 dd3d
000000e0: 4736 803d ddd4 e4bc 236b 74bd 72ce e53d
000000f0: b0aa 6ebd 5531 b9bd 7a25 283d 5c45 a9bd
00000100: e977 ccbd fd1c dbbd d391 bf3c f21b aebd
00000110: bbcd ef3d a176 4d3b be76 6dbd 6020 83bd
00000120: f9db eebc 0384 ef3d d9c2 8fbd 4384 ddbd
00000130: c56d 003d 0673 053d 6fde e8bd 5c93 41bd
00000140: d0a5 f33d 2ef9 83bd f35d 6c3d 5b65 57bd
00000150: ec38 d8bd 95d7 03be f23a b33d 8026 403d
00000160: a3be 153d ca6f 143d 8fde 5b3d ec97 b93d
00000170: 3354 d53d b5fb bd3d b5d3 4d3d bad8 e13c
00000180: 53d4 083d a268 d9bd fbdb 423d 58cb a93c
00000190: 4cf1 873d 2be4 babc 640c de3d 6dc1 2c3c
000001a0: 592b e0bc a95e 863a ecb1 6ebd aabe 33bc
000001b0: 2ca1 ea3d 6c3c 103d 704f 80bc 5335 d63b
000001c0: ae89 693c 4238 83bd 8b49 7dbd 6c0f d83d
000001d0: 731d 233c 70a2 2f3d 5ab8 38bd 9004 aebd
000001e0: 91aa c53c 7e73 773d 5c4e dfbd 91a6 e7bd
000001f0: 04a0 0bbd fbee 953d 03c4 dfbd 9af9 c43d
00000200: 7ab8 ff3d 5a2f fabc 3b6e 813b bc6d 09bc
00000210: 8704 003e 717c 963c 4e04 af3c 6c77 10bd
00000220: e447 473b b4fd 7dbd 3bd7 423c e8c3 0fbc
00000230: 0faf a93c 256f 973c fd0b dabd 9e4d b53d
00000240: 4ec9 993d d1f7 ae3d 01a7 c03d e3ba 143d
00000250: 343d 8e3d 70b5 693d 64f1 8f3d 8140 90bd
00000260: 3ed3 623d ff34 5ebc 5903 553d 3aa4 4e3d
00000270: 0e71 b5bd f61d 86bd 7587 aabd bec2 fdbc
00000280: 92d4 313d eaa9 d93c 71de c13d de0a c5bd
00000290: 1807 453d 6e16 eb3d 0436 c1bd e71e c2bd
000002a0: 7d5c 1a3d 7105 25bd eb87 e03c c95d 67bd
000002b0: fa45 aa3c 24e4 dfbd 74e3 d43d fbb7 a6bd
000002c0: 2f7b 02be 980b 77bd cddf d73b d2e0 ee3d
000002d0: f1d8 003d bc49 c5bc a3bf a0bd 4246 793d
000002e0: 2bff 6f3b 92cd 3fbd 4d70 f6bc 1ac2 cd3c
000002f0: 0326 9f3d a5e3 a2bd d303 fdbc a24e 713d
00000300: 142f 9fbd 4d19 16bc b465 bf3d be74 a43d
00000310: 2624 bfbd d1ab 4dbd bc14 823c 8ebe bb3d
00000320: bd50 2abd 02be d7bd a7b0 a83b 2e29 af3d
00000330: a460 90bd a425 00be 691a 163a e67d e73d
00000340: 0979 b9bd b0fc ad3c 1495 ad3d 8d01 3c3c
00000350: 95c6 7dbd 2417 5cbd 7033 b9bd 4d0b 933c
00000360: 75ea 59bd c930 42bb 3f92 acbc 1ff8 9dbd
00000370: 7bbc 043e 45d5 cf3c 5a4d 943d da2b a33d
00000380: 0a7f 6a3d fb28 10bd 2cd0 3fbd 3835 a2bd
00000390: 2393 cbbd 0960 b2bd cb7d 2ebd 2a41 e73d
000003a0: ddcc efbd e919 98bd 43ad d8bd e182 a3bd
000003b0: 6116 e33d 5dfc d8bd 4cc8 b9bd 3e9c 90bd
000003c0: 2c05 a03c 999d fbbc ffb0 9bbd bd33 c93d
000003d0: 2e56 ea3c bfc3 aebd 042c 0cbd 1819 ad3d
000003e0: 3fce 343d 83b1 b0bd d9c2 5fbd 6ceb 1ebd
000003f0: f53b 643d 4ba2 ddbd c5a9 f43d 63bc 043c
0.104152896 0.06857095 -0.021483729 -0.13000293 -0.043192424 -0.0027286676 -0.12092966 0.11060633
0.042834405 0.102032036 -0.10286615 -0.055842884 0.023111003 -0.011065038 -0.079833254 0.09950951
0.061664768 -0.010735459 0.123677075 -0.11515156 -0.10945429 0.01755248 0.10646815 0.078539945
-0.06832373 0.08370787 0.06899018 0.014383881 0.08656082 0.021816367 0.008984746 -0.030119179
-0.060589924 -0.0825558 -0.023864966 -0.09497286 0.06485656 0.042767037 -0.11814029 -0.09557873
0.0918142 -0.060798373 -0.009006132 -0.07344861 -0.019470127 0.05691416 0.029946586 0.06215888
-0.021460032 -0.092401385 0.004237253 0.070139535 0.03794638 0.03083384 0.036775246 0.10826098
0.062603526 -0.027933532 -0.059672486 0.11221017 -0.05826825 -0.090426125 0.041051365 -0.082651824
-0.099838085 -0.106988885 0.023384964 -0.08501424 0.11709162 0.0031351226 -0.05797457 -0.064026594
-0.029157626 0.11695101 -0.07019586 -0.108162425 0.031354684 0.032580398 -0.11370551 -0.047259673
0.118968606 -0.06444012 0.057706784 -0.052586894 -0.10557732 -0.12875207 0.08751477 0.046911716
0.03655876 0.036239423 0.053679045 0.0906218 0.1041645 0.09276525 0.050250728 0.027569164
0.033405613 -0.1061566 0.04757307 0.020726845 0.066378206 -0.022813877 0.10842207 0.010544163
-0.02736442 0.00102516 -0.05827515 -0.010970751 0.11456522 0.035213873 -0.015662879 0.0065371185
0.014254017 -0.06407215 -0.061837714 0.105498165 0.009955752 0.04287952 -0.045097686 -0.08496964
0.024129184 0.060412876 -0.10903618 -0.11311067 -0.03408815 0.073209725 -0.10926058 0.0961792
0.12486358 -0.030540157 0.003949908 -0.008387979 0.12501727 0.018369885 0.021364357 -0.03527014
0.003040784 -0.06200953 0.011892135 -0.008774735 0.020713357 0.018485615 -0.10646818 0.08852695
0.07509099 0.08543361 0.094068535 0.03631104 0.06945267 0.057057798 0.070284635 -0.07043553
0.055377237 -0.01356244 0.052005146 0.050449587 -0.08859454 -0.06548683 -0.08326618 -0.03097665
0.043415613 0.02657028 0.094662555 -0.096212134 0.04810247 0.114788875 -0.09434131 -0.094785504
0.03768586 -0.040288392 0.02740856 -0.056485925 0.02078532 -0.10932186 0.10394946 -0.0814056
-0.12742303 -0.06031379 0.0065879584 0.11663975 0.03145689 -0.02408301 -0.07849052 0.06085802
0.0036620598 -0.046826907 -0.030082846 0.025116969 0.07770922 -0.07953576 -0.030885613 0.05891288
-0.07772651 -0.009161306 0.0934557 0.08030079 -0.09333067 -0.050212685 0.015879028 0.09167205
-0.041580904 -0.10534288 0.0051480117 0.08552776 -0.07049683 -0.12514359 0.00057259813 0.1130331
-0.09056289 0.021238655 0.084757 0.011474979 -0.06195696 -0.053733006 -0.09043014 0.017949725
-0.05320211 -0.002963113 -0.02106583 -0.07713341 0.12962525 0.02537025 0.07241316 0.079673484
0.05725006 -0.035195332 -0.046829388 -0.07920307 -0.099401735 -0.087097235 -0.042600434 0.11291726
-0.117089964 -0.07426817 -0.10579922 -0.079839475 0.11088253 -0.105950095 -0.09071407 -0.07061051
0.019533716 -0.030714797 -0.07602119 0.098243214 0.028605547 -0.08533429 -0.034221664 0.08452052
0.044142004 -0.08627608 -0.05462918 -0.038798735 0.055721242 -0.108219706 0.119464435 0.0081015555

model.net.6.bias f4 [64]
00000000: 4f01 99bd 0bc8 25bd ea28 f9bc 264b 9ebd
00000010: 0687 2a3c cfa6 0bbd 9c98 96bd 12f4 c7bd
00000020: 2af4 b1bd fa92 a0bc 9c51 d93d c841 07bc
00000030: 34d9 80bd 0cad cbbd 4c5d e13c 70f4 e53d
00000040: 1bd3 e3bd 38c6 d03d 232d ec3d 2c5a ff3c
00000050: 5f40 673d 8ce9 333d 8b51 e9bd 3eef 51bd
00000060: 9a34 cfbc 0af8 8cbd b848 103b 5459 f83c
00000070: 64da 0f3c 5180 813d bd4f 8abd b30b d63d
00000080: 2d17 6dbd 1453 c03d 7c6d dd3d a0e9 d7bd
00000090: 1da0 01be 431f c93d 2455 b33d 7685 a2bc
000000a0: 10e2 983c a333 a43c 2f61 37bd f223 833d
000000b0: 4ee4 423d 12da 02be f856 ffbc 4ec5 9fbd
000000c0: 3f24 5f3d a827 07be ca16 e8bd 0171 d7bd
000000d0: 2fc4 3cbd 8219 bbbd fadb f1bc ba02 9fbd
000000e0: 3599 b43d 6412 ef3d f04d 2a3d 7e34 5bbd
000000f0: 51cb 6d3d 068f cdbd 0600 86bd 5ba8 aabc
-0.07470953 -0.04047398 -0.030415017 -0.07729177 0.010408169 -0.034094628 -0.07353327 -0.097633496
-0.08689149 -0.019601334 0.10611269 -0.00825543 -0.06291428 -0.099451154 0.027510308 0.112282634
-0.111242495 0.10194057 0.11532047 0.031170927 0.056457873 0.0439239 -0.11392506 -0.05125355
-0.025293637 -0.06883247 0.0022016 0.030316032 0.008780096 0.063233025 -0.0675349 0.1045145
-0.05788343 0.09390846 0.10811898 -0.10542607 -0.12658735 0.09820416 0.08756474 -0.01983903
0.018662483 0.020044154 -0.044770416 0.064033404 0.04758101 -0.127785 -0.0311694 -0.07801305
0.054477926 -0.13198721 -0.11332472 -0.10519601 -0.046085533 -0.091357246 -0.029523838 -0.07764192
0.088182844 0.116734296 0.041578233 -0.053516857 0.058055226 -0.10037045 -0.06542973 -0.020832231

model.net.8.weight f4 [64, 64]
00000000: 2521 f5bd e8ed ea3d 10f3 a13d ec0a 633d
00000010: d95d 763d 418a f53d db54 4cbd c73f e63c
00000020: 38d8 35bd 1a77 8cbc 8893 ccbd bf31 9e3d
00000030: e753 b2bd ea86 6ebd 8216 e83d c7c2 91bd
00000040: 68d3 613c 64ac e5bd 15ea 8ebd 28a7 ef3d
00000050: 3a77 833d 7d56 ed3b 04ab 84bd 243c bf3d
00000060: faef ed3d 2429 bc3c ea21 9dbd 8369 ef3b
00000070: 519b 7c3d 6bfe 1d3d 0e5f e43d 674c eb3d
00000080: a825 793d ff32 afbd e4ca 95bb e7c6 b23c
00000090: 9825 36bd f534 233d dd20 ab3d da22 8bbd
000000a0: 5618 2ebd 9646 bdbd 468a 903c 8be7 9a3d
000000b0: f73b ed3d 15a1 893b f6f1 a23d dfe5 fbbd
000000c0: 498f 0dba 349d d5bc 7100 75bd 0b30 ee3d
000000d0: 8282 9b3d 05d2 d9bd d69f eebd 58e5 79bd
000000e0: afc7 373d ac79 7c3d 6e82 7f3d 4e12 c03d
000000f0: 9421 9dbd 6803 073c 229c 6ebd 61a5 7dbd
00000100: 2a7b e0bb d5d0 93bc 034e dfbd 9ce5 18bc
00000110: 6eb6 8c3d 944e d43d 6318 28bd 8f23 a03d
00000120: 77a5 13bd b914 a8bd de98 ed3d a076 d5bc
00000130: b696 c6bc 4197 ebbc ded0 dd3d 3fa8 3cbd
00000140: 9046 25bd 9fb0 6a3c 64b3 98bd 6308 6b3d
00000150: e404 cd3d f729 553d caed 18bd 5315 03bd
00000160: 6d0f 03be 2f17 d7bd d851 debc 3f48 a03d
00000170: 2a31 fd3d f37f 0ebb dfa5 8fbc 5864 bd3d
00000180: 36b9 0dbd f36a a7bd 9881 a03d 8ac0 7cbd
00000190: 7b97 c6bd 56c5 153c b5ba 9dbd c6c2 dbbd
000001a0: 356c 9fbd 12a2 51bb 9a26 053d 5c49 36bd
000001b0: 50ec e4bd e95e 4ebd da1b e03d fb74 11bd
000001c0: e005 acbd 48a7 5fbd 9da6 d83d e154 b93c
000001d0: f085 d5bc d476 eb3d 2838 883b 7d2d 323c
000001e0: c938 063e 2fd6 a1bb 2397 e0bc 6bbf b93d
000001f0: c59c 403d 4deb c1bd 819b 953d 3eaa 65bd
00000200: fdab ccbd d239 ee3d e129 b0bd 8db5 40bd
00000210: 3b12 ddbc 7a3f c43b 2a54 09bc a661 c93d
00000220: e920 cd3d 4d87 f4bd d8c2 fabd dbfb fbbd
00000230: ef39 d03d 4c48 12bc 8fb6 7cbd 352c b5bd
00000240: 3192 b53c a0a3 f53c fab1 863d 0b7e c03d
00000250: b5a8 e73d aa46 b6bd 3545 22ba b24e 95bd
00000260: ecd7 25bd c3c7 123c 7801 833d 77d7 81bd
00000270: 8e08 9cbd 9bb0 1dbd 8977 673d 3c9e 0abb
00000280: ea29 ce3d 3a4e eebd 74d7 203d 3fb9 ce3d
00000290: 3497 ae3d fb51 ecbd 6571 b5bd 6311 233c
000002a0: 0864 093c 60cf 8b3d 4843 e03d 29e0 6bbc
000002b0: 43ba 30bd 3bbe 983d 8cb3 9abd 2c06 53bd
000002c0: 9c57 1a3c 8162 70bc b74a a63d 90a9 c3bc
000002d0: 4ff5 a53c e8d6 293d d57b 67bb 7f45 09bd
000002e0: 2830 923d 3874 813d 3e2d 89bc a739 94bd
000002f0: c023 41bd 30dd bc3d 2b66 a13d d8b3 17bd
00000300: 34b6 813d b626 9ebc 1487 43bc 9511 82bd
00000310: a772 0e3c 4c93 ffbc e84b dd3c 2f5e fcbd
00000320: cfd9 4cbc f2a6 bbbd f6ae e3bd 2345 01be
00000330: 81c7 a9bc 361b 983c 9951 833c da83 0b3d
00000340: 6957 6ebd ac46 a0bd d0b7 b7bc 39cf b5bd
00000350: 32e1 69bc 41ca fa3c 2d90 513c 57a8 f2bd
00000360: ca45 eb3d adbd d33d 621c 52bd 49ff cebd
00000370: 1d4f b23c 0107 053d 71e9 19bd 631a 59bd
00000380: 96cd 873b 83fe 93bd fcfb 78bd ca27 103d
00000390: 48ed 153c 380d 633d b024 e13d cdb0 e6bb
000003a0: 02ba 153d a351 c03d f3e1 abbd 5faa b43d
000003b0: 2093 b93d 539a 57bd a74f bf3d 8caa 7cbd
000003c0: 0245 61bd 959d ad3d 6c32 5b3d 947a 43bc
000003d0: cdff d4bd dd87 883d 7092 cf3c 362e a3bd
000003e0: 7511 8639 b3ee c23d 6d3d 5c3d c882 81bd
000003f0: b573 623b b490 47bd 530f a03d e9a6 613d
-0.119692124 0.11471158 0.079076886 0.055430338 0.060148094 0.119892605 -0.049885612 0.028106583
-0.044395655 -0.017146636 -0.09989077 0.07724332 -0.08707409 -0.058234133 0.11332418 -0.07117229
0.013783313 -0.112145215 -0.06978241 0.117018044 0.06419225 0.007242976 -0.06477931 0.09337643
0.116180375 0.022968836 -0.07672484 0.007306279 0.06167156 0.03857271 0.11150943 0.11489182
0.060826927 -0.085546486 -0.0045713056 0.02182336 -0.044469446 0.039845426 0.083558775 -0.06793757
-0.042503677 -0.09241979 0.017644059 0.075636946 0.11583703 0.0042001107 0.07956307 -0.12299704
-0.00054000743 -0.026075937 -0.059814874 0.11630257 0.07593252 -0.10635761 -0.1165158 -0.061009735
0.044868167 0.061639473 0.062380247 0.09378491 -0.0767242 0.008240558 -0.05825437 -0.061925296
-0.00685062 -0.018043915 -0.109035514 -0.009332087 0.06870733 0.1036655 -0.041038882 0.07819282
-0.03604647 -0.082070775 0.11601423 -0.026057541 -0.024241786 -0.028758647 0.10830854 -0.04605889
-0.040350497 0.014324336 -0.07456091 0.057381045 0.100106984 0.052041974 -0.03733615 -0.03200276
-0.12798853 -0.10502469 -0.027138636 0.0782628 0.12362893 -0.0021743744 -0.017535148 0.09247655
-0.03460046 -0.08174696 0.07837218 -0.061707057 -0.09696861 0.009141287 -0.07701627 -0.107305095
-0.07784311 -0.003198747 0.032507516 -0.044503555 -0.111778855 -0.050383482 0.10942812 -0.035511952
-0.08399558 -0.05460289 0.10578654 0.022623481 -0.026064843 0.11497274 0.004157085 0.010875103
0.131076 -0.0049388628 -0.027415818 0.09069713 0.047024507 -0.09468708 0.07305051 -0.05607056
-0.09993742 0.11632122 -0.08601738 -0.04704814 -0.026986232 0.0059890123 -0.008381883 0.09833078
0.10016043 -0.11939869 -0.12244195 -0.12303897 0.101673 -0.00892837 -0.06169754 -0.088463224
0.022164436 0.029985249 0.06576915 0.09399041 0.11311475 -0.08900197 -0.0006190122 -0.072904006
-0.040489122 0.00895876 0.063967645 -0.06339925 -0.07618819 -0.038498502 0.056510482 -0.0021151444
0.10066588 -0.11636014 0.039267972 0.10093927 0.085249335 -0.11539074 -0.08859519 0.009952876
0.008385666 0.06826663 0.10950333 -0.014396706 -0.043146383 0.074581586 -0.07553777 -0.051519558
0.009420302 -0.014671923 0.081197195 -0.023884565 0.020258574 0.041464716 -0.0035321612 -0.033513542
0.07138091 0.06320995 -0.016745206 -0.07237559 -0.047153234 0.09221876 0.07880815 -0.037036747
0.063335806 -0.019305568 -0.011934061 -0.0635101 0.008694327 -0.031198166 0.027013734 -0.123226516
-0.0125031015 -0.09162702 -0.111173555 -0.1262403 -0.020725014 0.018567663 0.01603012 0.03406129
-0.05818883 -0.078259796 -0.022426516 -0.08877415 -0.014274882 0.03061402 0.012790722 -0.118485145
0.114879206 0.10338912 -0.0512966 -0.101072855 0.02176624 0.032477383 -0.037576143 -0.05300368
0.004144381 -0.07226279 -0.060787186 0.035194196 0.009150811 0.05543253 0.10993326 -0.0070401193
0.036554344 0.09390571 -0.08392706 0.08821558 0.09061265 -0.05263741 0.09341364 -0.061686084
-0.05499745 0.08477322 0.053514883 -0.01193108 -0.104003526 0.06666539 0.025338382 -0.079677984
0.00025571478 0.095181845 0.053769518 -0.06323773 0.003455383 -0.048721984 0.07815423 0.05509082

model.net.8.bias f4 [64]
00000000: ded4 48bd 3ccb 0e3d 30a2 953d 224a 3ebc
00000010: b4c4 bebc d129 d93d c22e f73d 8dc5 803d
00000020: 3619 123c d26e ba3b cc92 95bd 0d52 bb3d
00000030: 0bf9 5d3d a96c d33d 4765 9abd b7fb c13c
00000040: f92e 013d f1c1 30bd 0399 64bc 0d4a f33c
00000050: 6e2a 09bd 3f4e e93d b315 ebbd a6c2 2cbc
00000060: fe35 83bd 614e d13d ceb4 55bd a916 12bd
00000070: 0f7a e93d 9a98 e9bd 5334 48bd 84f2 e33d
00000080: 8914 c23d f66e ecbc 0551 e0bc 8280 88bd
00000090: a468 023d cfdb 2d3d f8d0 b63d 3af1 613d
000000a0: 5e4c 863d 6121 ddbc 4666 c2bd 6771 993d
000000b0: e5da f8bb c7a2 b2bd 6dd8 a63b abdb fd3d
000000c0: 5c1a a4bb 0095 dbbd e309 963d 8b2a b33d
000000d0: 74e1 b0bd caae dabd 20cc b8bd 7548 523d
000000e0: 8a9e 37bd b157 f2bd 5e91 09bc 5ec9 6abd
000000f0: a6df 34bd 37aa 35bd ed6d 3ebd ae07 adbd
-0.04903113 0.03486179 0.073063254 -0.011614354 -0.023287155 0.10603679 0.12069465 0.0628768
0.008917144 0.0056894803 -0.0730339 0.09146509 0.054192584 0.1032346 -0.07538848 0.023679597
0.031538937 -0.043153707 -0.013952496 0.029698396 -0.03348773 0.113918774 -0.11478748 -0.010544455
-0.064067826 0.10220028 -0.052174382 -0.03566614 0.11400234 -0.114060596 -0.048878025 0.111302406
0.09476573 -0.028861504 -0.027382383 -0.06665136 0.031838074 0.042445954 0.089265764 0.055161692
0.06557535 -0.026993455 -0.09492163 0.07492333 -0.0075944536 -0.087224536 0.005091718 0.12395414
-0.005008025 -0.10721779 0.073261045 0.08748349 -0.08636752 -0.106778696 -0.09023309 0.05133863
-0.04482893 -0.11833132 -0.008396475 -0.057320945 -0.0441586 -0.044351783 -0.046491552 -0.084487304

model.net.10.weight f4 [64, 64]
00000000: 74fd d4bc cfa0 a1bd 8e4f 80bc 289d a0bd
00000010: b68f 013c 667c b73d 4f79 4fbd 4786 7bbc
00000020: 52d2 dcbc 2742 34bd dc81 b2bd d996 023d
00000030: f1f4 16bc 0286 d63b 06f1 05bd 1689 a2bd
00000040: 910d 40bd 628a 833d 3cb1 af3d bf37 23bd
00000050: c3df 853d 8d97 91bd 750f ecbb 273d eabd
00000060: 4d3c 8ebc 1bdf 153d bb2c 9c3d 8e41 353d
00000070: 1960 713d bb42 ddbc 6059 fb3d 3b30 d4bd
00000080: 0b82 e5bc 1c4b b2bc 57b8 ab3d 8813 c83c
00000090: 2b87 f93d de38 adbd cc72 2a3d 1a3b d6bd
000000a0: 9cee 233d 8f70 69bd 31ab 60bd 2e32 643c
000000b0: ea4c 4c3c 8df1 fb3d c9fe d03d 02e6 de3b
000000c0: 5501 2d3d cd8b d13c 1e91 dabc 8b60 b7bd
000000d0: 116e cdbd 7759 3f3c 5528 48bd 9e76 f03d
000000e0: db5f 6ebd c8a3 093d 311c 75bd ab7e fa3d
000000f0: 9ebe 5b3d 95fb 8a3d 6d2e 0b3d 8a21 94bc
00000100: 7519 14bd c85d 81bd 57fa e8bd 9257 6ebc
00000110: 144d 32bd 8736 dc3d 9de6 e53d bd33 b5bd
00000120: aa42 c63b 7372 ddbd d75b 8a3d 22a9 b33d
00000130: 1cdf 9bbd bf14 c3bd 8119 82bc a089 e03d
00000140: fd14 a63d 3e01 6dbd 87ef 473c d770 d1bd
00000150: 4a81 fd3d 7540 453d 7565 32bd 80ee 493d
00000160: 91ea 853c ddb5 a6bd e6b7 e8bd d68e ad3d
00000170: c5d9 cdbd 4692 b73d 8b09 fabc 51c2 833d
00000180: 39fd 353d 209f a83d 7216 47bd 5fee 8c3d
00000190: f75f b43c d551 b7bb 803c 02bc f6d1 9bbb
000001a0: c6b2 873d 126c a93d 776a 1fbd 7eb9 1fbc
000001b0: 5b3e abbc 43ff 1bbd 715a 4b3d bcea de3d
000001c0: 0570 643d 6199 c7bc cae8 8a3d e611 eb3d
000001d0: 895a 243d b4b5 ef3d 451b 413d eebb e9bc
000001e0: f74b 363d 3110 173d f23f 363d fda9 d0bc
000001f0: 318c acbd 356b e0bd f8c9 96bd e53c a93d
00000200: 5a19 bebc b808 dfbd bfd4 b53d b855 debd
00000210: 04c4 f03c 194b d03d 24e3 8dbd 2cab 0bbc
00000220: 8e46 f73d 0013 cb3d 5e8d c43d d15f efbc
00000230: b720 8d3d 9f76 303d 280f 5c3c 8c3f ff3d
00000240: 321f e33c f037 b03d 3fbe b4bd 9356 fb3c
00000250: d495 ddbd f8ab 6a3c 18ca 263d 631a 873d
00000260: c09a 973d 010d 81bd b754 a73d 8062 efbd
00000270: 802b c63d 48b0 893d 9d01 49bc 498c f03c
00000280: 7ebc 7b3d 23cb c4bd 5ce4 b43d b430 373d
00000290: 5c41 e93d 4136 2abb 449b ad3b 8862 b13c
000002a0: 254a c13d 2fa5 c3bd 5f0e 9d3d fc74 843d
000002b0: ce41 39bb b781 9fbd 5c13 ba3d 52d1 8d3d
000002c0: 447d 15bd 17ae ed3c cf1d 3abd 1285 80bd
000002d0: 53dd 063e f77f 6a3d f4b1 743c 35d3 9c3d
000002e0: 73c4 ae3d 415d 973d 3215 823d a8d1 b4bd
000002f0: 0477 2ebd cb22 e13d 30e9 383d 008a 2a3d
00000300: 912d 9ebd fc1b 86bd 195b 52bd 4da5 813d
00000310: bbac 38bd 71ff ba3d 4253 c0bd 9abc d4bc
00000320: 69e2 d43d b0f2 6ebd f933 dc3b f44c 2abd
00000330: 7d7e 273d 0be8 8bbd 2fbd b7bd aa3d 22bd
00000340: 095c 353d d8bd d7bc 5b3a bbbd 28dd ffbc
00000350: b18b 4cbd bf3d cb3d 86cd 54bc 5c96 493d
00000360: a7e3 003e ef62 bebd 8121 5b3d 52f6 b93c
00000370: a311 ce3d 69a2 153c b4c7 2a3d 20e3 02be
00000380: b42c ea3d c825 bdbd d0b5 c83d 13f7 9bbd
00000390: 29ab ab3c 62e0 9cbb ac5f b43d de1d f9bd
000003a0: 2f6d cc3d 55f5 023e 36f1 2b3d 08ab e13d
000003b0: b0b1 d93d c6f0 383c 5be9 873d 810e 713b
000003c0: 9f7e cc3c 7199 a6bd 68d9 1fbd cb82 94bd
000003d0: 8b27 8bbd bec7 98bd 836c 45bd 41e2 a23c
000003e0: c6e2 25bb 3a81 7b3d 81c2 773d 0901 01bd
000003f0: fddd bf3d adad a9bd 1053 86bd 426e 013e
-0.025999762 -0.07892 -0.015662935 -0.07842475 0.0079077985 0.08959274 -0.0506528 -0.015351838
-0.026955757 -0.0440084 -0.08716175 0.03188214 -0.009213672 0.0065467367 -0.03270056 -0.07936303
-0.046887938 0.06422879 0.08578727 -0.039848085 0.0653682 -0.07108984 -0.007203991 -0.11437445
-0.017362738 0.036589723 0.07625719 0.04425197 0.058929536 -0.027009359 0.12272906 -0.10360762
-0.02801611 -0.02176433 0.083847694 0.024423376 0.12183984 -0.08458112 0.041613385 -0.104604915
0.040022478 -0.05699211 -0.05485076 0.013927979 0.01246951 0.123019315 0.102048464 0.0068023214
0.0422376 0.025579358 -0.026680525 -0.08953961 -0.10030759 0.011679045 -0.04886659 0.117413744
-0.058196884 0.03360346 -0.05984134 0.12231191 0.053648584 0.06786267 0.033979822 -0.018082399
-0.03615709 -0.063167155 -0.113758735 -0.014547246 -0.04353054 0.10752588 0.112256266 -0.08847759
0.0060504274 -0.10812845 0.06755798 0.08772494 -0.07610914 -0.095254414 -0.015881302 0.1096375
0.08109472 -0.057862513 0.012203104 -0.102266006 0.123781756 0.048157174 -0.04355379 0.049299717
0.016347202 -0.081401564 -0.11363201 0.084745094 -0.10051302 0.08963446 -0.030522129 0.06433547
0.044430945 0.08233476 -0.04860539 0.06881403 0.022018416 -0.005594472 -0.007948995 -0.004755254
0.06625895 0.08272566 -0.038919892 -0.009748815 -0.020903757 -0.038085233 0.0496468 0.10884616
0.055770893 -0.024365129 0.06782682 0.11478023 0.040125404 0.11704579 0.047145147 -0.028531995
0.04450604 0.036880676 0.044494577 -0.025471682 -0.08425177 -0.10957948 -0.07362741 0.08263568
-0.023205448 -0.10890335 0.08878469 -0.10856193 0.029390343 0.10170574 -0.06928089 -0.008524697
0.12074004 0.09915733 0.09597276 -0.029220494 0.068910055 0.043081876 0.013431348 0.124632925
0.027724836 0.08604419 -0.08825349 0.03068093 -0.10819593 0.014323227 0.040720075 0.0659683
0.07402563 -0.063013084 0.08170455 -0.11688709 0.09676266 0.06723076 -0.012268451 0.029363768
0.061459057 -0.09609058 0.088326186 0.04472418 0.113894194 -0.002597228 0.00529805 0.021653429
0.0943797 -0.09552991 0.07668757 0.064676255 -0.0028267982 -0.07788413 0.09085724 0.0692469
-0.036496416 0.029013677 -0.045438584 -0.06275381 0.13170366 0.057250943 0.014935005 0.07657472
0.085335635 0.07390834 0.06351699 -0.08829051 -0.04259397 0.10992964 0.04514426 0.041635513
-0.07723535 -0.06548306 -0.05135641 0.06330357 -0.045086604 0.09130753 -0.0939088 -0.025968838
0.10394747 -0.058336914 0.006720063 -0.041577294 0.040892113 -0.06831368 -0.08971631 -0.03960959
0.044277225 -0.026335642 -0.0914199 -0.031233385 -0.049937908 0.099238865 -0.012988454 0.04921566
0.12586842 -0.09296214 0.05349875 0.022700462 0.10061958 0.00913296 0.041694358 -0.12781954
0.11434308 -0.09235722 0.09800303 -0.07615485 0.020955639 -0.0047874907 0.088073105 -0.121639
0.099817626 0.12788899 0.041978084 0.1101895 0.10629594 0.011287874 0.06636306 0.0036782327
0.024962721 -0.081347354 -0.039025694 -0.07251509 -0.067946516 -0.07459973 -0.048199188 0.019883277
-0.002531217 0.061402537 0.060488228 -0.031495128 0.09368513 -0.08285079 -0.06558812 0.12639716

model.net.10.bias f4 [64]
00000000: 617e 05bd 2e2d febd ff92 b0bd 677f 82bd
00000010: 67fa e63d eca9 c4bd 198f 8f3d 2c61 67bc
00000020: 3cfd b13d 5609 79bd 30a3 7a3b 9188 18bd
00000030: 4b22 c63d c111 c5bd ea3f 013d 8471 f33d
00000040: cd61 e93d ed15 4bbc 4de0 a63c 6218 e33d
00000050: 734d eb3d 2634 b7bc 9bd2 59bc 9845 863d
00000060: 118a bfbd 7449 0abd 1129 e1ba 985a c2bd
00000070: a5c6 80bd abf1 eabd adf9 44bd f5bb 04be
00000080: ad3b 583d 7375 31bd e458 e2bc cf76 613d
00000090: 0f76 c9bd 1883 e7bc 4815 8abd d95d 5ebd
000000a0: 7cc8 8c3d 278e 513d 13f9 8ebd f278 3cbd
000000b0: 7583 83bd deb5 5bbc 45ab d039 2256 323b
000000c0: 0094 b3bc aa9e debb f90f ab3c d284 85bc
000000d0: 2b25 41bd 8fce 1b3d 07d3 bb3d 0228 1a3d
000000e0: f86b c5bd 049e 25bd 7082 dbbd 3523 b83d
000000f0: 7b5f bbbd 8449 96bd ac31 593d 29b8 a43d
-0.032591227 -0.12410961 -0.08621787 -0.06371956 0.11278229 -0.096027225 0.070097156 -0.014122289
0.08690879 -0.06079992 0.003824424 -0.037239615 0.096745096 -0.09622527 0.031555094 0.11886886
0.11395607 -0.012395364 0.020370627 0.11088635 0.11489382 -0.022363734 -0.013294841 0.06556243
-0.09352506 -0.033761457 -0.0017178376 -0.09489936 -0.062878884 -0.11471876 -0.048089672 -0.12962325
0.052791286 -0.0433249 -0.027630277 0.055044945 -0.09836971 -0.028260753 -0.0674234 -0.05428872
0.06874177 0.051160958 -0.06981101 -0.04601378 -0.06421558 -0.01341006 0.00039800457 0.0027211984
-0.021921158 -0.0067938166 0.02088164 -0.016298685 -0.047154587 0.038038787 0.0917111 0.03763581
-0.09639734 -0.0404339 -0.10718238 0.0899109 -0.09149071 -0.07338241 0.053025886 0.08042938
