results/edm_swiss_roll/checkpoints/epoch=0-step=32-v6.ckpt (torch, 841725 bytes, 37 tensors)

model.time_embedding.frequencies f4 [4]
00000000: 0000 803f 971e 3e3d 6b31 0d3b 16b7 d138
1.0 0.04641589 0.0021544348 9.999999e-05

model.net.0.weight f4 [128, 10]
00000000: abd8 793e da0b 873e 027a 94bd 0373 953e
00000010: aa2e 8bbd 5a13 843d 554f 1cbe 1a84 3f3e
00000020: b566 8f3e c237 6cbe ced8 8d3e 3d23 7a3d
00000030: e99e 6e3e df43 2c3d d162 1b3e eb6c 38bd
00000040: 2374 7a3e 57c0 423d 9a58 16be fcba a63d
00000050: ce05 13be f22a 0fbd dccc 05be e2ab 543e
00000060: 6cca 80be 040b 16be 1781 b9bd 270a 44be
00000070: c3cd e93c 1d95 a0be a654 933e 0173 8abe
00000080: 8209 7c3e 6b17 5f3d 85a5 cebd a570 493e
00000090: c410 4f3d 9077 833e 0fce 123d aea4 c9bd
000000a0: 6371 b23d c33f b0bd 7919 093e 3ed3 903e
000000b0: caaf 3b3e 4a4c 0dbe 99de 3b3e cc84 6b3d
000000c0: d162 253e 906d 44be 1970 a1be ccb9 f7bd
000000d0: 7b45 76be 36f5 853e dbd7 be3d f391 073e
000000e0: 47be cd3d 2c48 a5bb dfe3 7d3e c49b 65be
000000f0: d71d ad3c f24c 5fbe 9a4d cc3d 2b79 dabd
00000100: 8cf1 ca3d 2945 83bd f7e6 863e c1af 3ebe
00000110: 28e2 3fbe 24e5 3fbe 7d11 913e 464b dc3d
00000120: 63c7 9a3e 819d 86be e391 a1be 31d8 7ebe
00000130: f793 5abe d466 023e 3563 e63d b927 863e
00000140: 481e 25be 9430 5dbe 1ecc 2a3e e6e5 03be
00000150: d496 433e 7bb8 9abd 647b 393e e75b 7bbe
00000160: 792d 23be f9eb c53d 6833 8d3d 4cc9 a0bd
00000170: 27c6 3e3e bddd 593e 9c0d 6dbe b998 2ebe
00000180: f4c6 933e de76 dcbd 2f87 e7bd 0825 9dbe
00000190: a7a0 3bbe 2c18 a63d a8d3 27bd 8874 6abe
000001a0: d0d9 023c 92e4 5cbe 1553 89be 123d 32be
000001b0: abaa 8dbe 871c 4ebe 8411 a13e 0231 6c3d
000001c0: 9feb c93d 584a 96be a44a 53be 70ba d5bd
000001d0: 9c89 493d f596 8ebe ffc4 0bbe c81a 42be
000001e0: da4a 9aba 0126 eebd 4d90 b8bc 41ec 5bbe
000001f0: ccbd 5ebe de3f 3dbe d95c debd 1cec 7fbe
00000200: f495 873e 0f36 81bd 85b1 8a3e 351e c73d
00000210: 75bf 89be abe4 5f3e b17d b2bd 9058 f8bd
00000220: 59db 86be 466c a1be bc74 b73d 964f 8fbd
00000230: 7417 f83d 03fb 83be 393f 6f3e 75ce 6ebe
00000240: ae04 64bd 1479 853d cf77 263e ab5b 823e
00000250: c823 933e babb 80be d5fa 9e3d 238b 09be
00000260: cd0e 13bd b276 73be 51f3 923e 536b 6ebe
00000270: 0f31 2c3e 2bdb e13d 63b4 d03d d1f1 2fbe
00000280: cf33 943e 2602 8a3d ea8e 2e3d dbc8 8dbe
00000290: a8ab 093e f5b6 3dbd 3783 13be a97d 8b3e
000002a0: e411 923d f351 32be 231f 26be 77f8 56bc
000002b0: 1611 363e 5bc7 a2bd 1774 37be 4704 dcbd
000002c0: 9de4 71be f104 e73d 65ac 7a3e 136a 98be
000002d0: 6232 923d f778 293e 7cd3 653d 0b2c e9bd
000002e0: 40c8 273e ef5d 293e 624b f13d bb5c 65bd
000002f0: 595f acbd 24d0 083d 3fee 6cbd d4d6 bcbd
00000300: 993f 4d3e 9c40 8a3e a047 07bd c4c1 93bd
00000310: 4554 7b3b a11b a1bc 3c17 9a3d 8fe1 b33d
00000320: a1e8 93be a6aa f3bd da92 893e d37d 003e
00000330: bd2f 5dbc 3bc5 41be 9833 44be e811 90be
00000340: 3a41 cfbd fc8e de3d 6cf5 4d3e e5c7 173e
00000350: a01b 90be cc90 44be 2b59 53bd f627 9c3e
00000360: 3d19 393d 6fdc a8bd 9c65 053e 85d0 f7bd
00000370: 6b5c 53be 7541 6a3e 3d07 11be 9d0c 7bbd
00000380: 7306 a0be cd0a 5a3e a411 763e 9182 ed3d
00000390: 870c 61be 816c 9fbe 63ad 82be 7016 733e
000003a0: 9873 1a3e e804 883e a734 293e e57c a33d
000003b0: b7f7 5bbb bc87 76be 04da 8abe e692 97be
000003c0: 7ffa 023e f636 21be 0c81 7bbd a707 38be
000003d0: 23f4 62bd e266 62be 85c3 52be f882 d83d
000003e0: 3fca bebd aabf 483e c2bb cbbd 4a73 6fbe
000003f0: 8f33 62bd 29ca 1cbe fed0 c5bd 9011 9abe
0.24399059 0.2637623 -0.07249834 0.2918931 -0.0679601 0.064490035 -0.15264638 0.18702736
0.28008047 -0.23068145 0.2770447 0.061068762 0.23302807 0.042056914 0.15174414 -0.045025747
0.24458365 0.04754671 -0.14682236 0.08141133 -0.14357683 -0.034953065 -0.13066429 0.20768693
-0.25154436 -0.1465264 -0.09057825 -0.19144498 0.028540498 -0.31363764 0.2877552 -0.27040866
0.24613002 0.054465692 -0.10090164 0.19671877 0.0505531 0.25677156 0.035841044 -0.09845863
0.08713033 -0.086059116 0.13388623 0.28286165 0.18328777 -0.13798633 0.18346633 0.05749969
0.16150977 -0.1918242 -0.31530836 -0.12095985 -0.24049942 0.26163644 0.09318515 0.13239269
0.10046058 -0.005044004 0.24793957 -0.22422701 0.021132393 -0.21806696 0.09975739 -0.10667642
0.09909353 -0.06409676 0.26348087 -0.18621732 -0.18738616 -0.18739754 0.28333655 0.10756545
0.30230245 -0.2629204 -0.31556615 -0.24887158 -0.21345507 0.12734538 0.11249391 0.2620218
-0.16124833 -0.21600562 0.16679427 -0.12880668 0.19100505 -0.07554718 0.18113476 -0.24546777
-0.15935315 0.09664149 0.068945706 -0.07850894 0.18630277 0.21275993 -0.23149723 -0.17050447
0.28862727 -0.107648596 -0.11305081 -0.30692315 -0.18323003 0.08110079 -0.040973336 -0.22896016
0.007986501 -0.21571568 -0.268212 -0.17406109 -0.27669272 -0.2012807 0.31458676 0.057663925
0.09859394 -0.29353595 -0.20633942 -0.10435951 0.0492035 -0.27849546 -0.13649367 -0.18955529
-0.0011771575 -0.116283424 -0.022529745 -0.21476842 -0.2175209 -0.18481395 -0.10857553 -0.24992412
0.26481593 -0.06309139 0.27088562 0.097225584 -0.26903883 0.21864574 -0.0871538 -0.12126267
-0.26339224 -0.3152792 0.08957812 -0.06997602 0.12113848 -0.25777444 0.23363961 -0.23320945
-0.055668525 0.065172344 0.16256641 0.25460562 0.28738236 -0.25143224 0.07762686 -0.13431983
-0.035902787 -0.23775747 0.2870126 -0.23283128 0.1681559 0.11028131 0.10190656 -0.1718209
0.28945777 0.06738691 0.042616762 -0.27692303 0.13444388 -0.04631706 -0.14405523 0.2724431
0.071323186 -0.17414074 -0.16222815 -0.013120762 0.17779955 -0.0794818 -0.17915379 -0.10743003
-0.23622365 0.112802394 0.24479826 -0.29768428 0.07138516 0.1655005 0.05610989 -0.11385354
0.16384983 0.16539739 0.11781956 -0.055996638 -0.084166236 0.033401623 -0.057844397 -0.09220663
0.20043792 0.27002418 -0.03302729 -0.07214692 0.003834979 -0.019666495 0.07523963 0.08783256
-0.2888842 -0.11897783 0.2686985 0.12547998 -0.013500151 -0.18922894 -0.19160306 -0.2813866
-0.10119863 0.10867116 0.20113152 0.14822347 -0.28146076 -0.1919586 -0.05159871 0.30499238
0.045190085 -0.08245169 0.13027042 -0.12100319 -0.20640723 0.22876532 -0.14162917 -0.061291326
-0.3125492 0.21293183 0.24030167 0.11597169 -0.21977435 -0.3113747 -0.2552291 0.23739028
0.15083158 0.26566243 0.16523992 0.07982806 -0.0033564398 -0.24075216 -0.27119458 -0.29604262
0.12790869 -0.15743622 -0.061402366 -0.17971669 -0.05540861 -0.22109559 -0.20582397 0.10571855
-0.09315919 0.19604364 -0.09947921 -0.23383823 -0.05522495 -0.15311493 -0.09659003 -0.30091524

model.net.0.bias f4 [128]
00000000: 27f4 68be 5f2d a0bd 9201 01bd e3e5 32be
00000010: d63c 6ebe 0146 5a3e 53ff 5c3e 196c 93be
00000020: fb8e ce3d 96c3 023e 81d8 993e a019 3b3e
00000030: ccad 943e 40de d5bd 9f17 623e 8642 833e
00000040: 8779 98be bff3 81be fe34 823d 2b03 303e
00000050: a5f3 1ebe 605e 0c3d 5076 8a39 d863 a33d
00000060: 1e29 2dbe 4d4d 373e c820 563e fd1b 5fbe
00000070: b2d1 2b3b f98e 0c3b 9cd2 ce3d 5f47 973e
00000080: d4d5 bb3d 3d3e 91bd ff10 913e df96 f7bd
00000090: d5a5 b8bd 61e2 b63c 3ff7 77be 0a1a 123d
000000a0: ac41 5bbe 3579 023d 92c2 ed3c 2ff6 313d
000000b0: 6a85 88be 2ae6 98be 6d55 143e 4046 8a3e
000000c0: 6956 90be b808 f13d 546f 6ebe c133 a33c
000000d0: 67fd 963e d10c 753e 87bb 6bbe c98c 473e
000000e0: 3515 283e e2a7 c2ba 0548 9c3e 0034 00be
000000f0: 29ab 96bd f90b 25be 1a8a 3b3d f138 ae3d
00000100: 85bb d93c 8dd2 34be 622d 11be cf02 dd3d
00000110: 5202 8dbe 6602 48bd 5939 c2bb fd18 03be
00000120: 6757 ec3d 77b1 ac3c a737 633e 7569 e7bc
00000130: 3ce2 4abe c47a 643e 3e9f 373d 93f7 b9bd
00000140: b4e6 54be 79d7 993d 8d61 9abe 3206 a83d
00000150: 0515 213e bf0e 8ebe a029 53be 8010 69be
00000160: 6500 883e 020f 8a3e 8fc9 a53c f273 973e
00000170: 68b9 d8bd 3988 9cbe c54b e43d f721 e43d
00000180: de7e 9f3e 4cc9 e238 0eb8 773e c27e 463e
00000190: adca 6b3e cf0e a0be 3209 863e a084 8abe
000001a0: d625 913e 7a42 5bbc a2ba 8fbe 06c7 b63d
000001b0: 4c90 86bd 6ce7 91be 25fa eabd 3e5f 0a3d
000001c0: 5dd6 7b3e 8725 c5bd e542 403e b89d 1f3d
000001d0: a006 2c3c 964b 7b3d 967d 55be 5d58 86be
000001e0: e743 cbbd 0f2c 97be a61f 17be bc44 663c
000001f0: 1ea2 54be b5c3 04be b7e0 67bd 7a1e 13bd
-0.22749387 -0.07821154 -0.03149564 -0.17470507 -0.23265395 0.21315767 0.21581773 -0.2879341
0.10085865 0.12769923 0.30047992 0.18271494 0.29038846 -0.104427814 0.22079323 0.2563669
-0.29780218 -0.25381276 0.06357764 0.17188708 -0.1552263 0.03426969 0.0002640956 0.07978028
-0.16910216 0.17900582 0.20910943 -0.2178802 0.0026217517 0.0021447523 0.10098764 0.2954664
0.09171644 -0.07091949 0.2833328 -0.12089323 -0.09016005 0.022324743 -0.2421541 0.035669364
-0.2141177 0.031853873 0.029023442 0.04344767 -0.26664287 -0.298631 0.14485712 0.27006721
-0.28190926 0.11769241 -0.23284656 0.01992214 0.29490206 0.2393067 -0.23020755 0.19487299
0.1641434 -0.0014851058 0.30523697 -0.12519836 -0.07356865 -0.16117848 0.045786 0.085069545
0.026578674 -0.17658444 -0.14177468 0.10791551 -0.27540833 -0.048830412 -0.0059272465 -0.12802501
0.11540108 0.021080716 0.22189198 -0.028248528 -0.19812864 0.22312456 0.0448296 -0.09080424
-0.20791131 0.07511801 -0.3015255 0.08204307 0.15730675 -0.27745625 -0.20621347 -0.227602
0.265628 0.26964575 0.020237712 0.29580647 -0.105822384 -0.3057268 0.111472644 0.11139291
0.3115148 0.00010814014 0.24191305 0.19384292 0.23026533 -0.31261298 0.2617889 -0.2705431
0.2834918 -0.0133825485 -0.28072077 0.089246795 -0.06570491 -0.28496873 -0.114734925 0.033782236
0.24593492 -0.096262984 0.18775518 0.03896877 0.010499626 0.06135138 -0.20848688 -0.2623929
-0.09925061 -0.29525802 -0.14758167 0.0140544735 -0.20764968 -0.12965281 -0.05661079 -0.035917737

model.net.2.weight f4 [128, 128]
00000000: a812 51bd 1ae8 033b 0ef0 4cbc 8d5d c33c
00000010: 6369 1e3b 410f 2cbd 2d7c eabc fb68 59bb
00000020: 148c 58bd d9cb c13b 1501 d6bb a56a 043d
00000030: 9379 ba3c 2177 843d d7e6 f6ba ea0f 84bd
00000040: 534b 193d abda 72bd 1e5f 6abc de9c dcbc
00000050: 4875 06bd 9758 0fbd 01fe a63d 6043 4d3d
00000060: 1ada bf3c 01df ad3d 25d1 a6bd c0f8 613c
00000070: d665 703d 2f64 703d cff1 8cbd df1b f63c
00000080: c681 4ebd 0c1e b9bb 2155 8bbc a73c 9bbd
00000090: e224 acbd aa2e 77bd dd3b 203d 8c5a 2b3d
000000a0: 363d 9fbd 9797 05bd 775c b63a c3bc a0bd
000000b0: dfbe 463d 4c55 a73d 7bbc 823c 4121 8bbd
000000c0: b385 a73c 2186 fb3c 9da6 8e3d debf 38bd
000000d0: b70c a2bd 3b46 213d 3369 f23b cd17 e7bc
000000e0: b10a 1dbd 02f0 31bd ef59 933d 71c6 8ebc
000000f0: cc45 853d ef7f 9e3d 3a97 573c 81c2 9b3c
00000100: dfd7 8fbb 6f99 713d ad90 9ebd a6c6 0b3d
00000110: 8da8 7abc f5c8 1f3d a382 1abb a358 0abd
00000120: 3d33 2bbc ceea 413d 3682 81bd f22c 6cbd
00000130: 0205 98bc bea9 0cbd b19e 123d f411 713d
00000140: d4c3 22bc 3ce7 ad3d 81fb 1fbd 14a2 52bd
00000150: 0ea7 1cbd 514c 77bd cb8a 78bd 90bc a4bd
00000160: 247a a4bd 5691 bf3c ddf1 543d b991 ac3d
00000170: 5d84 9e3d 952d dcbb 0e12 943c 3a43 4fbd
00000180: 51f6 133d 06e8 aebd c7a0 2b3d af70 6d3c
00000190: aa36 d43c 05c3 093d 2ee5 1cbd 27de 983d
000001a0: 9a44 323d dd80 673d a4b3 5c3c 463d 5b3d
000001b0: c6f1 7c3d c83d 1b3d ff5f 8d3d 65f3 65bc
000001c0: 74f7 743d ba21 ac3c 5bb5 523d 76d8 b23d
000001d0: cf91 993c 3752 02bd d62f 34bc 5a51 c43c
000001e0: f61e 893c a17a d5bc c1c3 913d 1c04 533d
000001f0: 2580 61bd a142 adbb d9d6 27bc e3cf 62bd
00000200: 0ca9 763c fb50 d3bc 4b68 39bd f31c f8bc
00000210: 7a7d 08bd 864b a93d ae8b 023d 3959 b63d
00000220: 04e7 b43c cce3 9c3c f289 173d 9a63 883c
00000230: 521a 92bd 4b96 51bd 33db bbbc 9da6 fa37
00000240: 9759 0f3d 2e49 0c3d b9b0 933d f58c 863c
00000250: eeac f7bc 9acb 83bd 9dd2 80bd 659a 54bd
00000260: 4b5a d03c c9f0 3b3d 0c2c 9b3d 0264 e8bc
00000270: 026a 14bc cf7e d7bc 2334 16bb 0451 ec3c
00000280: d4bf d2ba 6e23 c53b 29c7 203c d92a 0e3d
00000290: 9ea8 dcbc 647d 51bd c6f3 aa3c 26f2 3bbc
000002a0: bdee 1fbd d0b4 163d 826a 2f3a 1b85 43bc
000002b0: c88d 27bd 3a5f 5cbc 78a0 99bd 7c46 b63c
000002c0: fc2a 8d39 5ae0 5e3d e6d4 c43b 6bc2 a33b
000002d0: 73fa c83c 4b8d 853d 37bb 30bd 77d2 573d
000002e0: 8c8f ba3c b14d 79bd 3177 ec3c e954 50bd
000002f0: 91c3 dbbc da86 31bd 18fc 78bd 13c4 8e3d
00000300: e0fb a5bd 2660 313d 6a9c a2bd 1ef0 1abc
00000310: 75fd c33b 97f5 823d 7ef9 09bd 30cf d93c
00000320: 2a86 733c f7e4 4c3d e3ff c03b ac2a 0c3d
00000330: 098e 5cbd bbf7 72bd c47f 9e3d 793b 80bd
00000340: 0fe5 58bc 34db 39bc e14c b53d ae55 93bc
00000350: 0b57 8dbd f809 c0bc f6ad 323d dd6d 173d
00000360: b771 983d 4982 99bc 8239 313d 888d a7bd
00000370: 6275 0d3d a171 283d 43ca 683d 887b 58bd
00000380: e231 ccbc 53b7 b13c a504 84bd b0e6 8bbd
00000390: 3c34 afbd 0b9a 3e3b 032b 583d a230 ba3c
000003a0: f1a8 c53b cdad 013d d504 60bd 4c4c 363c
000003b0: 07cd c3bc 1e6c 2bbd 48fb 9e3d 2b12 90bd
000003c0: 1192 3a3c 768e 9bbd dfed 8fbb 7507 20bd
000003d0: 47c4 f83c 64f1 4ebd 3999 703d 238e 90bd
000003e0: 3e12 533d 3080 8bbd ba51 3e3d 1e79 16bd
000003f0: 0f06 7039 d239 94bc 874b 723d dbe0 ed3c
-0.051043183 0.0020127357 -0.012508405 0.02384832 0.0024171702 -0.042006735 -0.028623665 -0.0033174146
-0.052867964 0.005914193 -0.0065308907 0.032328267 0.02276305 0.064680345 -0.0018837106 -0.06448348
0.03742535 -0.05929057 -0.014304904 -0.026930269 -0.032826692 -0.034996595 0.08153916 0.050113082
0.023419429 0.084898 -0.0814536 0.013792217 0.05869087 0.058689293 -0.06882059 0.030042587
-0.05041673 -0.005649334 -0.017008366 -0.07579928 -0.08405472 -0.060347237 0.03911959 0.0418344
-0.07775347 -0.03261527 0.0013913055 -0.078485034 0.048521873 0.08170566 0.015959015 -0.06793452
0.020449495 0.030703606 0.06965373 -0.045104854 -0.079125814 0.039373618 0.0073977946 -0.028209591
-0.038340274 -0.04344178 0.07194888 -0.017428609 0.06507453 0.07739245 0.013158614 0.019013645
-0.0043897475 0.058984216 -0.077424385 0.034124993 -0.015298975 0.039010007 -0.00235764 -0.033775937
-0.010449228 0.047343068 -0.06323664 -0.05766005 -0.018557075 -0.034341566 0.03579587 0.058855012
-0.009934384 0.0849137 -0.039058212 -0.0514241 -0.038245253 -0.060375515 -0.06067924 -0.08043778
-0.08031109 0.023384731 0.05198847 0.08426232 0.0774009 -0.006719301 0.018075015 -0.05060122
0.036123578 -0.08540349 0.041901376 0.014492198 0.025904972 0.03363325 -0.0383045 0.07464247
0.043522455 0.056519378 0.013470564 0.05352523 0.06175401 0.037900716 0.069030754 -0.014035081
0.059806302 0.021012176 0.051442485 0.08732693 0.018746285 -0.031816687 -0.010997733 0.023964573
0.016738396 -0.02605945 0.07117415 0.05151759 -0.05505385 -0.005287484 -0.010244095 -0.055374037
0.015054952 -0.02579545 -0.045265477 -0.030287242 -0.03332279 0.08266358 0.03187149 0.089037366
0.022082813 0.01915159 0.03699679 0.016649056 -0.071339265 -0.05116872 -0.02293167 2.9879908e-05
0.03499755 0.034249477 0.072114415 0.016424635 -0.030233826 -0.06435318 -0.06290171 -0.051905055
0.02543368 0.045883927 0.07576761 -0.028368 -0.009058477 -0.026305584 -0.002291926 0.028847225
-0.0016078898 0.0060161864 0.0098131085 0.03470883 -0.026935872 -0.051144972 0.020868193 -0.011471307
-0.039046038 0.03679353 0.0006691591 -0.01193359 -0.040906698 -0.013450438 -0.0750131 0.022250406
0.00026925642 0.054413177 0.006006825 0.0049975417 0.024533486 0.0652109 -0.043147292 0.05269095
0.022773527 -0.060865108 0.028865429 -0.050862227 -0.026826652 -0.043341495 -0.06078729 0.06970992
-0.08104682 0.043304585 -0.0793999 -0.009456662 0.005981142 0.06394499 -0.0336852 0.026588053
0.01486353 0.050023045 0.005889879 0.034220383 -0.053846393 -0.059318285 0.07739213 -0.062613435
-0.013238206 -0.011343766 0.08852554 -0.017985191 -0.06901368 -0.023442253 0.043622933 0.03697001
0.074435644 -0.018738883 0.043267734 -0.08181292 0.034535773 0.04112399 0.056833517 -0.052852184
-0.02492613 0.021693861 -0.064461984 -0.068311095 -0.08554885 0.0029083516 0.052775394 0.022728268
0.0060321023 0.03165989 -0.05469211 0.011126589 -0.023901476 -0.041851155 0.07762772 -0.07034715
0.011387364 -0.07595532 -0.00439237 -0.03906961 0.03036703 -0.050523177 0.058739875 -0.070583604
0.05153107 -0.06811559 0.04646466 -0.0367366 0.0002289044 -0.018093977 0.05915406 0.029037884

model.net.2.bias f4 [128]
00000000: e380 f9bb 23a6 20bd 41c3 8abd d2cd 4dbd
00000010: a5bd 45bd 5f49 ab3d 85cd 573a 3e79 4fbd
00000020: 2260 d2bb e39b 4cbb cb63 b53c 8515 ee3c
00000030: 8e49 663d d8d8 32bd 3ca7 9abc 1604 9cbd
00000040: 9913 00bd 4993 9dbd 6e91 06bc 8ab7 58bd
00000050: a9eb febc 40e6 a83d ff43 a53d f735 353c
00000060: ac8a 3b3d 48b6 663d d4a4 923b c7d6 903c
00000070: add4 a8bb b756 91bd 1d95 903d 9d64 87bd
00000080: 3f17 d3bc 0631 98bd a907 59bd e160 b53d
00000090: 4ddc e9bb 09d0 dc3c ff69 b43c 104b 8f3d
000000a0: b37f 9c3c 5664 233b 2daa 21bd 2c11 7e3c
000000b0: 5a0b a43c 62e3 75bd 4377 81bd 766d 20bd
000000c0: c04a 9d3d 192f 0f3d e71d 493d 2866 753d
000000d0: 05ee d1ba 16ac 70bd 3e57 ae3d 4870 743c
000000e0: ac4b 01bd 3e64 103d 0f60 80bd 74ae 2d3b
000000f0: 9387 a63d fc4e f53c 4d55 a8bd 18cd 9f3d
00000100: ab3c 963c e41f c7bc b8c6 8c3d 627f 1d3d
00000110: 6d1f 573d a8f6 333d 8e25 49bd ba0a 82bd
00000120: ec82 803d 693f cfbb f210 943d c01c 313d
00000130: a85d afbd 1a6c 493d 2d25 363d 5fd0 acbd
00000140: b4fd 963b 1cfe 91bd 508a 333d 8fc4 433d
00000150: 8660 e43c 0764 653d 6166 46bd 05fe 7dbb
00000160: 9351 bcbc df1d 893d ff2f 823d a7a4 fbbc
00000170: 64cc 98bd 83c7 21bb b274 8f3d 53e1 a4bc
00000180: bab5 063d c522 82bd d1be 71bd c37f 9bbd
00000190: aeaa 9abd 4abb 15bd 965f 18bd 04b1 083d
000001a0: 1112 973d 67d3 3a3c e672 0e3d 936d 65bd
000001b0: d508 1bbd 95f9 aabd fdaa a73d cbca 283c
000001c0: 29f6 bfbc d7b5 a3bd c60d 8a3c bb24 b2bd
000001d0: bd8d 713d 2702 abbd 08d7 953c f926 5d3d
000001e0: 4eb9 92bd 67bb 833d 55e5 ab3d 20d0 793d
000001f0: bf7d a53d dc04 29bd 6280 6fbc 3105 a43d
-0.0076142414 -0.03922094 -0.06775523 -0.050245114 -0.048276562 0.08363604 0.0008232224 -0.050652735
-0.0064201513 -0.0031220845 0.022142312 0.029062996 0.05622249 -0.04366383 -0.018878572 -0.07617967
-0.03126869 -0.07694108 -0.008213384 -0.05290941 -0.03111823 0.08247042 0.0806961 0.0110602295
0.045786545 0.05632618 0.0044752154 0.017680539 -0.005152306 -0.07096618 0.07059691 -0.06610987
-0.02576792 -0.074312255 -0.05298582 0.08856369 -0.0071368576 0.026954668 0.0220232 0.06996739
0.01910386 0.002493163 -0.039468933 0.015507024 0.020024944 -0.060031302 -0.063215755 -0.03916689
0.07680273 0.034957025 0.049100783 0.059911877 -0.001601637 -0.058757864 0.08512734 0.014919348
-0.031566307 0.03525185 -0.06268322 0.0026501687 0.081313275 0.02994489 -0.08219395 0.078027904
0.018339476 -0.024307199 0.0687384 0.03845156 0.052520204 0.0439364 -0.04910808 -0.06349702
0.06274971 -0.0063246978 0.072297946 0.04324031 -0.085627854 0.04917536 0.044469047 -0.08438181
0.0046078805 -0.07128546 0.043833077 0.047794875 0.027878057 0.056003597 -0.04843748 -0.0038756144
-0.022988116 0.066951506 0.06356811 -0.03071816 -0.074608594 -0.0024685569 0.0700468 -0.020126974
0.03288815 -0.06354288 -0.059019867 -0.07592728 -0.07552086 -0.036555566 -0.037200533 0.03337194
0.07376493 0.011402941 0.034777544 -0.0560127 -0.03785022 -0.08348385 0.0818691 0.010302256
-0.023432808 -0.079936676 0.01685227 -0.08698412 0.058973063 -0.0835002 0.018291011 0.053992245
-0.0716425 0.064322285 0.08393351 0.0609895 0.08080625 -0.0412644 -0.014618011 0.08008803

model.net.4.weight f4 [128, 128]
00000000: 8f19 243d fdfa 71bd ae3e b03d 86a0 86bc
00000010: 03e4 f5bc 84bc 4d3c adc4 ab3d 7db7 3bbd
00000020: 69a3 0d3c 09b1 24bc 08d9 cabc ece4 283d
00000030: 2ab9 ce3b 867a 98bd 799e dfba 7085 5d3d
00000040: f5d0 22bd 11f2 9d3d d05b 98bd 7792 e43c
00000050: 56a7 643d cc07 033d 4d30 153d 6fd9 363c
00000060: 54f9 8ebc 8d5d 843d abc5 b0bc c7d2 933d
00000070: b7cb af3d 41d1 9dbd 96a6 973d 1141 af3c
00000080: 2cff 76bd eb66 4dbd f1e0 51bc b581 ad3d
00000090: d040 5b3d 31e2 b3bc e050 4fbd 55ca 63bd
000000a0: 68cf 3cbd c03a 6dba 9356 9dbd d6fe a5bd
000000b0: 4e81 5bbd 0f35 d93c 7172 f93c 34b3 e13c
000000c0: d1a5 983d 3afd bd3c 9973 09bd eb48 183d
000000d0: 774a 29bd da08 9e3d 29c9 0bbd 411b 5ebd
000000e0: 36db 8dbc 3fa7 41bd d417 18bc 5e9d 7bbc
000000f0: 68b6 2d3c 3b2e 32bc cfc8 7fbd a048 a5bd
00000100: 42d7 83bd aefe abbd db8b b0bd 706b b13d
00000110: 2112 5c3d 3dac 293d 3c9d 663d 1dd7 d23c
00000120: 7dea e7bc 9b37 31bc 920e 19bd 48ca 243d
00000130: da58 b83c 2acc 9bbd 84db 6d3c f4e2 8cbd
00000140: 6434 863d f67d 0e3c 81af 2738 7521 58bd
00000150: e14c 523c a8b1 163c d44e b13c 0a4c 80bd
00000160: 8383 1dbd 4c5b 7bbd f314 5dbd 743e 47bd
00000170: 58da 92bd 8ce1 b53d bd68 afbd 539e bebc
00000180: 8c97 b83b 4c85 15bd e978 d1bc 288f 2a3d
00000190: 23a8 9bbc 50f8 28bc b3fb a33d 889c 04bd
000001a0: 7cf9 0dbb 7c88 6e3d 5475 9dbc 4366 94bd
000001b0: 83a6 883d 9235 9bbd 7c04 b1bd 5efc 3abd
000001c0: eab7 503c d18f 923d ec54 8bbd 9dce 36bd
000001d0: fc05 a13d 52aa 8f3d 41a2 0a3d b89c 95bd
000001e0: 709e 4c3d 78d6 b7bb d1f2 87bd ce64 903d
000001f0: f3e0 78bd 4438 543c f3c4 3fbd b3c7 993d
00000200: 71bf 973b 4dd6 bfbc 25d8 483d 517d a23d
00000210: 4d15 04bc b968 723d eab3 06bd 76d0 45bd
00000220: 16c5 3cbd f66f aebd 130c a43d 7939 b83c
00000230: 051c 7abd 3ee2 98bd 627f 5c3d a15a 3d3b
00000240: 7d4c 70bd 7167 17bc 8e6d 0bbd ef40 1a3c
00000250: 8b28 14bd ecbd 24bd a2a4 4cbd 9e6c 1cbd
00000260: 882a 2c3b de38 373d 74ab 883c 0720 5e3d
00000270: 0a33 d5bc 5ce9 ebbc 203b 52bd 6883 9cbd
00000280: d857 64bd b2eb 99bc aee0 ab3d 7300 acbd
00000290: 1320 873d e214 403d e881 3c3d d7a1 463d
000002a0: 31af 393d 7289 9e3d 8a9e 0e3d 5d99 a5bc
000002b0: 1f57 123d f471 99bb 3ca9 33bd 9d13 0a3d
000002c0: fc48 b73d 1b15 853d 1466 19bd ffec bfbb
000002d0: a80b 053d 192d 413d 94fe 9ebd bec6 5f3c
000002e0: 9de8 3cbc 7303 b23d 3fce c33c e9ce 25bd
000002f0: 01d1 debc d309 963d f54b dfbc 25b7 973c
00000300: 14c5 9e3d e2d1 a1bd 5a55 a8bb 9cea a1bd
00000310: 1728 cabc 02ae 0b3d aaad acba 21db 323d
00000320: c9ab 6ebd 0851 253d 7e73 22bd 26fc 623d
00000330: 6eab b8bc 6b9c 963d 7337 023c 5c3d f33c
00000340: 4a92 88bd 48df 393c 49fd 873d 867c 8dbd
00000350: fc4b 893d 45dc fd3c 6db7 16bd a9f0 6fbd
00000360: 2e38 5d3d 13de d5bc e342 303d 692c 263c
00000370: 1e59 a93d da71 75bd 7766 31bc de7a 213d
00000380: 9e2f 29bd ea59 cdbc 398c 97bc 9017 b53d
00000390: fdec 223d 59d2 a5bd 9a45 ba3c 66e3 943d
000003a0: 49be 353d dee5 a83d da83 9ebc f397 db3b
000003b0: 748d ac3d 3d1e a63d b761 d7bc 6ffa 9e3c
000003c0: 54e0 953b c2a5 9e3d c10b 16bd 4304 2abc
000003d0: cf53 033d 7e19 4cbc f191 29bd 9995 9d3d
000003e0: 8a00 03bd 8eda 653d 07fc 96bc 38be aebd
000003f0: 76bb 7bbd 0464 a93c bd95 843d 0f46 32bc
0.040063437 -0.05907725 0.08605705 -0.016433965 -0.030015951 0.012557153 0.08387122 -0.045829285
0.008644917 -0.010051974 -0.024761692 0.041233942 0.0063086944 -0.074452445 -0.0017060778 0.054082334
-0.03975006 0.07712186 -0.07439387 0.027901871 0.055823646 0.031989858 0.036423016 0.011160239
-0.017452873 0.06463156 -0.02157863 0.07217937 0.085837774 -0.07705928 0.074048206 0.02139333
-0.060301945 -0.05014698 -0.012809978 0.08472005 0.053528607 -0.021958442 -0.050614238 -0.05561288
-0.046096236 -0.0009049587 -0.07682528 -0.08105247 -0.05359011 0.026514558 0.030450078 0.027551271
0.07453502 0.023192037 -0.03355751 0.037178915 -0.04133078 0.07716532 -0.03412739 -0.05422521
-0.017316442 -0.04727864 -0.009283025 -0.0153573435 0.010602571 -0.01087528 -0.062447365 -0.08070493
-0.064375415 -0.08398186 -0.08620425 0.0866307 0.053728227 0.041424025 0.056302294 0.02573734
-0.028310055 -0.01081648 -0.03736741 0.040231973 0.022503305 -0.076073006 0.014517669 -0.068792254
0.065529615 0.008697024 3.9979353e-05 -0.052766282 0.012835712 0.00919763 0.021644033 -0.06264503
-0.038455497 -0.061366364 -0.053975057 -0.048643544 -0.07170552 0.0888091 -0.08564899 -0.023268854
0.0056333 -0.036504075 -0.02557035 0.04164043 -0.019001072 -0.010313109 0.08006992 -0.032375842
-0.0021663597 0.05823563 -0.019220985 -0.072460674 0.066723846 -0.07578577 -0.086434335 -0.045650832
0.012739161 0.07156337 -0.06803307 -0.044630636 0.078624696 0.07014908 0.033846144 -0.07305282
0.049955785 -0.0056102835 -0.066381104 0.07050477 -0.060761403 0.012952868 -0.046818685 0.07508793
0.004630976 -0.023417616 0.049034256 0.079340585 -0.008061719 0.059181903 -0.032886423 -0.048294507
-0.046086393 -0.085174486 0.080101155 0.022488343 -0.061061878 -0.07465027 0.05383242 0.002889313
-0.058666695 -0.009240971 -0.034040026 0.009414895 -0.036171477 -0.040220186 -0.049961694 -0.038189523
0.0026270468 0.044731967 0.016683318 0.054229762 -0.026025314 -0.028797798 -0.051325917 -0.07642251
-0.055747837 -0.018789146 0.083924636 -0.08398523 0.065979145 0.046894915 0.046022326 0.048494186
0.04533309 0.07741059 0.034819163 -0.02021473 0.035727616 -0.0046827737 -0.043862566 0.03371011
0.089494675 0.06498166 -0.037450865 -0.0058571096 0.03248182 0.04716215 -0.07763401 0.013658224
-0.011530069 0.08692064 0.023902057 -0.040480528 -0.02719927 0.073260926 -0.027257899 0.018519947
0.077524334 -0.0790136 -0.005137128 -0.07906076 -0.02467732 0.034101494 -0.0013174315 0.04366601
-0.058269296 0.04036048 -0.039660923 0.05541625 -0.022542682 0.07354053 0.00794779 0.029692344
-0.066685274 0.011344738 0.06640107 -0.069085166 0.06703946 0.030988822 -0.036796022 -0.05857912
0.054008655 -0.02610687 0.04303254 0.010142424 0.08268951 -0.05992303 -0.010827652 0.039423816
-0.041305177 -0.025067288 -0.01849948 0.08842385 0.03977679 -0.08096761 0.022738267 0.07269935
0.044370923 0.08246969 -0.019349981 0.0067014634 0.084254175 0.08111236 -0.026291711 0.019406525
0.004573861 0.077464595 -0.036632303 -0.010376993 0.032062348 -0.01245725 -0.041398946 0.07694549
-0.031982936 0.056116633 -0.018430723 -0.08532375 -0.061458074 0.020677574 0.06473873 -0.010880961

model.net.4.bias f4 [128]
00000000: b2b6 20bd 5d17 a13d 159e 96bb a09e b33d
00000010: 5b07 f1bc 8148 703d 3712 173a 01ab 0ebd
00000020: 7079 893d 04e3 99bd ef5c e5bb 58e9 943c
00000030: ae6c 56bc 754e 46bd a26a afbc 1568 6b3d
00000040: 3638 12bc d7aa 13bd b8a8 09bd 271c 85bd
00000050: 2673 623d 3e73 a5bd 7590 1bbd cdd3 7e3c
00000060: c7dd a43d c307 93bd 5cec 433c 339c 80bd
00000070: 5aef 813d 4dbc 893d 6883 633d b7ad 20bd
00000080: dfc7 89bd 0726 52bd fa2b f4bc 5746 263d
00000090: d37b 69bc bd55 9e3d ae0f a9bd 7bc9 9f3b
000000a0: e29f 98bd 3916 aabd 2464 80bd aa9e 213c
000000b0: 1a2e a8bd 821e 26bc 0868 23bd a648 48bd
000000c0: 3583 9f3d 2a52 06bd b9aa aebd 92f4 753d
000000d0: db78 b4bd b540 94bb 1c24 8abd 0f55 393d
000000e0: 2681 fc3c 485d 36bc a752 cbbc 4fd1 81bd
000000f0: 9bff 7ebd 2af3 0a3d faf9 80bd f86e 01bd
00000100: e31a 943d e079 a6bd a659 6c3a e3b4 ecbc
00000110: b30b 343d c6fa edbc 332e 913d b0bd cf3c
00000120: 5402 4fbd 77da 873c ccde 29bb fc28 64bb
00000130: dd96 44bd 2697 353d a6d5 783c cb1a 6abb
00000140: ff72 3dbd 7e36 ae3d ac46 9ebd 651f 193d
00000150: cf74 a4bd 4ff7 8bbd f800 033d d989 b93c
00000160: 8325 72bc 4462 1b3d d98d 02bc 5f7a f03c
00000170: 1e25 99bd dda9 2d3d 499a c0bc 32c2 6b3d
00000180: a167 a1bd 7cfd 1d3c efa6 edbc b638 103d
00000190: d98d 83bd dbc1 8fbd ff50 ee3c 924e a8bb
000001a0: 5700 81bd a441 84bd 77da 8fbd 7271 933c
000001b0: 5d49 1a3d 33d5 2cbd 493c 6f3d 4a14 613d
000001c0: f205 563c 36c7 5ebd bfe7 89bd b878 05bd
000001d0: 9d2d 59bd 93d8 b13c ffee 6f3d 754f a53d
000001e0: dc4b 34bd 652d 2ebd c16f 403c c04c 9abc
000001f0: 875b 673d 8528 a6bd 443f 323d 6544 4b3b
-0.03923673 0.07865784 -0.0045964816 0.0877049 -0.029422453 0.058662895 0.0005762907 -0.03483105
0.067126155 -0.07514003 -0.006999604 0.018177673 -0.013087435 -0.048414666 -0.021413151 0.057472307
-0.008924535 -0.036051597 -0.03360817 -0.0649951 0.055285595 -0.08078621 -0.03797956 0.015553427
0.08050113 -0.07179215 0.011958208 -0.06279793 0.06344481 0.06725369 0.05554524 -0.039228167
-0.067275755 -0.051305797 -0.029806126 0.040594425 -0.014250713 0.07731197 -0.08254944 0.0048763133
-0.0745237 -0.0830502 -0.062691 0.009864489 -0.08211918 -0.01013911 -0.039894134 -0.048897408
0.07788698 -0.0327932 -0.085286565 0.060047694 -0.08812114 -0.0045243152 -0.067451686 0.045247134
0.030823302 -0.011130638 -0.024819685 -0.063387506 -0.062255483 0.033923306 -0.06297679 -0.03159997
0.07231691 -0.081287146 0.0009016044 -0.028894847 0.04395647 -0.029050242 0.0708889 0.025359005
-0.05053933 0.016583664 -0.002592015 -0.0034814468 -0.047995437 0.0443336 0.0151876565 -0.0035721536
-0.046252247 0.08506487 -0.07728323 0.037383456 -0.08030092 -0.0683428 0.031983346 0.022648739
-0.014779451 0.03793551 -0.007968389 0.029355226 -0.07477783 0.042398322 -0.023511069 0.057558246
-0.07881094 0.009642955 -0.029010264 0.035210334 -0.0642354 -0.07019397 0.029091356 -0.0051363194
-0.06298893 -0.064578325 -0.07024091 0.01799843 0.03766762 -0.04219551 0.0584071 0.05495099
0.013062941 -0.0543892 -0.06733655 -0.03258583 -0.053022016 0.021709716 0.058577534 0.08071796
-0.044017658 -0.04252376 0.011745394 -0.018835425 0.05648377 -0.08113197 0.043517366 0.0031016108

model.net.6.weight f4 [128, 128]
00000000: 305d 973d af30 ebbc 6f55 0e3d c6db 9b3c
00000010: 4464 62bd 3590 81bd 0189 5b3d 36dc 1ebd
00000020: b583 823d f017 713c 5239 263c 4130 5c3d
00000030: 091a cdbc e182 cdbc ee33 023d f57f 8d3c
00000040: 22c6 2c3d bfc2 723d 7f2a 9f3d 787d 573d
00000050: 50dd 0abb b7af 97bd 7f39 06bd 2517 25bc
00000060: b8d8 bd3b 56d2 53bd adb8 05bd fb94 853d
00000070: 4779 4bbd 04a6 9d3b 0556 903c 25e5 c63b
00000080: cda2 d93b 882c a63d 3718 843d 30fd 503d
00000090: 59d1 ffbc 9e5b 8bbd c292 793d 7c31 76bd
000000a0: dfc0 39bd 64b9 3ebd 5863 22bb 2169 be3c
000000b0: 2661 0c3d c780 8a3c 7e89 97bd 4953 d73c
000000c0: 7389 56bd c21d 2e3d ca15 90bd a488 5e3c
000000d0: 7e6d b1bd 6351 8c3d dd68 113d 0872 efbb
000000e0: 7237 11bb 0500 30bb f812 7abd d729 76bd
000000f0: 9b52 4d3a b352 773d c607 2f3d dc12 6f3d
00000100: 46bc 8c3d 8c2f ef3c 06c4 74bd 4d16 c23c
00000110: 45b5 3bbd 9513 52bc 21d2 5dbd c0da 323d
00000120: 8293 4dbd d49e 563d 6c0c 1b3d 2d67 453d
00000130: 6e94 5e3d 58a3 873c ecaf 16bd 771d 1c3d
00000140: 313f 943d 5a65 6a3d 9772 6fbd 4a17 013d
00000150: f0ae f4bc 4fed 903d 0375 10bd c28e 80bc
00000160: d2e5 ef3c e94a a5bd 09a9 983c bde6 433d
00000170: b274 7fbc 045e a8bd 7ee1 afbd 7ab0 87bd
00000180: 1cad 9abd 46b3 273d c5a8 cebc adaf c6bc
00000190: 2641 7a3d 92c1 953c b218 81bd 84cf 963c
000001a0: 5731 213d fd3d 25bd 783f 9d3c 3a23 0fbd
000001b0: f236 a2bd 0554 5bbd 7fa7 48bd 26cd 563d
000001c0: 7e95 9d3d ff22 74bd 8db9 553d 662b 18bd
000001d0: 597e 64bc f377 e23b 34d6 9d3c 2ebb 6a3c
000001e0: 249a a9bd cb1b a23c e229 b7bd 81d5 af3d
000001f0: 33be ad3d 7278 a3bd f2ce 1f3d d92c 783d
00000200: de46 63bd 4e75 993c c133 24bd eb9f 7cbd
00000210: 009b 16bd ff35 23bd 1717 80bd 4b41 90bb
00000220: dd92 af3d 1eab a83c 2871 0bbb 632e aebd
00000230: 5539 273d 0fbf a53d 354d 29bc d3cc aa3d
00000240: 21fe b03d 3777 003d e463 9cbd 6ef0 b9bc
00000250: 94e6 aabc af5c c337 7919 15bd 1489 05bd
00000260: 91ee f6bc 302e 2dbc 4636 94bd ad4c 4fbd
00000270: 0b56 c53c 7a49 8f3d dac4 a13d c3d0 7b3d
00000280: c367 b1bd e48e 74bc 9a0c 0cbd 3b49 153d
00000290: d9f9 b13d 78e5 723d 1b2e 633d 3176 43bd
000002a0: c61b 993d 3ea9 78bd f1ea 85bd 00ed 143d
000002b0: 6d95 8b3d f732 463d 1aa0 b4bd 13f0 453d
000002c0: db9b f3bc b735 9b3c 1968 24bd 5011 3cbd
000002d0: 307a c6bc 365d 3e3b d887 283d 3482 35bd
000002e0: 9a46 0fbd 3e63 4b3d ed21 15bd c7d7 81bd
000002f0: f115 063b 1ea1 203d abdc 3ebc 426d b83b
00000300: 4238 a53d 22ac 153d 5d9e 1b3b e438 7a3d
00000310: 9f4c 77bc 5b89 36bd 3035 0a3d 2840 86bd
00000320: bb6e dd3c b68d 203d fedf 3d3d be89 553c
00000330: 22e9 6e3d 6ea9 653d b9d4 443d 8ad9 82bd
00000340: a9ae 8e3c d86a 273d 7118 913d d25b a43d
00000350: 37ca a9bd 4a7d 9c3d 3f8b a33c 637f 43bd
00000360: c0e5 9fbd 8708 0d3d 1aa5 873d 7d79 7d3d
00000370: ad3e 4d3d fe20 8cbd ad80 afbd 30d3 97bc
00000380: 4970 2fbd e367 6bbd 0e57 a8bd ae27 073d
00000390: 0a5d e53c f9ba 2b3d 8deb 42bd db7e 62bd
000003a0: 83f5 793b ebf0 4a3d ad56 1a3d 09cf eb3c
000003b0: 945f cfbc 5d20 843c cbe0 f0bc 2c81 753d
000003c0: d729 833d e95a 933b c4e6 11bc 3b95 9e3d
000003d0: 4ba2 79bd 8373 213a 5a6d 4b3c 96fd e9bc
000003e0: c6ff 27bb 8913 6abd d524 f23a eedf 433d
000003f0: a4ed 763d 93c0 833d 4baa 133d 630e ac3d
0.07390821 -0.028709738 0.034749445 0.019025695 -0.055271402 -0.063263334 0.053597454 -0.03878423
0.063727774 0.01471518 0.010145502 0.053756956 -0.025036829 -0.025086822 0.031787805 0.017272929
0.04218114 0.059267756 0.07771777 0.05260989 -0.0021189041 -0.07406562 -0.032769676 -0.010076319
0.005793657 -0.051714264 -0.032646824 0.065225564 -0.049676206 0.0048110504 0.017619142 0.0060697966
0.006641722 0.081139624 0.06449931 0.05102271 -0.031227754 -0.06804584 0.060930975 -0.060105786
-0.04534995 -0.04656352 -0.0024778452 0.023243489 0.034272335 0.016907109 -0.073992714 0.02628483
-0.052377176 0.042508848 -0.07035406 0.013582382 -0.08663462 0.06851461 0.035500396 -0.0073072948
-0.0022158292 -0.002685548 -0.061053246 -0.060098495 0.00078324386 0.060381602 0.042732023 0.058367595
0.06871848 0.029197477 -0.059757255 0.023692274 -0.04582717 -0.0128220515 -0.054155473 0.043665648
-0.050189503 0.052397564 0.037853643 0.0481941 0.054340772 0.01655738 -0.036788866 0.038114037
0.07238615 0.057225563 -0.05845889 0.03151635 -0.029868573 0.07076513 -0.03526784 -0.015693072
0.029284392 -0.080709286 0.01863529 0.04782747 -0.015591787 -0.08221057 -0.08587931 -0.06625457
-0.07552549 0.040942453 -0.02522696 -0.02425369 0.061097287 0.018280778 -0.063035384 0.018409498
0.039353695 -0.04034232 0.019195303 -0.034945704 -0.07920636 -0.053546924 -0.04898786 0.05244174
0.07694529 -0.059603687 0.05217891 -0.037150763 -0.013946139 0.0069112717 0.01926718 0.014326854
-0.08281353 0.019788643 -0.089435354 0.085856445 0.08483543 -0.079819575 0.039015718 0.060589645
-0.055487506 0.018732693 -0.04008842 -0.061675947 -0.036768913 -0.039846417 -0.06254404 -0.004402315
0.08572934 0.020589408 -0.0021277163 -0.08504941 0.04082616 0.08093082 -0.010333349 0.08339848
0.08642221 0.031363692 -0.0763624 -0.022697654 -0.020861901 2.328897e-05 -0.036401246 -0.03260143
-0.030143054 -0.010570094 -0.07236914 -0.050610233 0.02408888 0.069964364 0.078988746 0.061478388
-0.08662369 -0.014926646 -0.034191705 0.03644679 0.08690233 0.05930087 0.05546389 -0.047720138
0.074760005 -0.060708277 -0.06538952 0.036358833 0.0681561 0.048388448 -0.088195994 0.048324656
-0.029737404 0.018946512 -0.040138338 -0.045914948 -0.024228185 0.0029047257 0.041145176 -0.044313625
-0.03497944 0.04965519 -0.036409307 -0.063399844 0.0020459855 0.039216153 -0.011649291 0.005628259
0.08067371 0.03654111 0.0023745515 0.06108941 -0.0150939515 -0.044564586 0.03374213 -0.065552056
0.02703034 0.039197646 0.046356194 0.013033329 0.0583278 0.056069784 0.04805443 -0.063891485
0.017417269 0.04087338 0.0708474 0.08025326 -0.082905225 0.076410845 0.019963859 -0.047728907
-0.07807493 0.03443196 0.066232875 0.06188344 0.0501086 -0.0684223 -0.08569465 -0.01853332
-0.042831693 -0.05747212 -0.08219729 0.032996826 0.027998466 0.041926358 -0.04758792 -0.05529676
0.003814072 0.049546164 0.037680317 0.028785245 -0.02531413 0.016128713 -0.029404065 0.05993764
0.06404465 0.0044969213 -0.0089051165 0.07743307 -0.06094579 0.0006158875 0.012416208 -0.028563302
-0.002563463 -0.057147536 0.0018474112 0.047820978 0.060285226 0.06433215 0.036051076 0.084011815

model.net.6.bias f4 [128]
00000000: 1488 41bd a478 b1bd 4d65 d4bc 19d5 063c
00000010: bd43 c93b 4f12 e538 e517 b4bd ac6a d1bc
00000020: b3f1 4ebd 2fa6 aabc 4a9b 47bd 7e56 63bb
00000030: 4dc9 89bc 2424 a4bd a1ae 233d a746 dc3c
00000040: b996 b83c 71f8 053d 491a 87bb 877b 913c
00000050: e753 b2bd a85d 6d3d fd3a 903d 7f18 0ebd
00000060: a5a2 953d 4a9c e2bc c50f 0f3d f10e 0abd
00000070: 5dc9 4dbd e458 38bd f57d 763d d6fb e4bc
00000080: 9a03 8fbd 3fad 213c 7872 63bd 02cb 66bd
00000090: 26b9 4cbd c300 5cbd 33dd 65bd 38fd 083d
000000a0: 0604 ffbc 1bd0 b23c 40b5 993d dae6 b53c
000000b0: 678c b33d 1598 943d 78d0 013c b549 263d
000000c0: 69fc ab3d 7126 83bd ff98 64bd d8ad 803d
000000d0: 848d 343d e43d d43c 2be6 6f3c a391 50bd
000000e0: d4f2 0a3d bc67 d8bb 88ab 8a3b 1f69 a33d
000000f0: 2d88 3b3d adfb 1e37 583e a4bc 9cb5 5cbd
00000100: 5be4 173d 8e8a ae3d 2190 37bd b00a 7cbd
00000110: 9d34 683d 25c7 9bbd cec8 a63d 3ad2 333c
00000120: e8f2 9d3d 3c61 d13b 4747 d43c ef76 a8bd
00000130: e389 69bc 6487 883d 4c26 0fbd 3fda 963d
00000140: 4e9d 5cbc 1a52 36bd dd73 35bd 5a01 8ebd
00000150: 9f11 dd3c 9a96 45bd 7fb5 123d b8fd cbbc
00000160: 669b 413d c6fb 7d3d 7532 86bd b851 56bd
00000170: 8333 713d 6f2b c5bc 9283 95bd 5443 4dbd
00000180: e6c0 abbd 744c 66bd 9070 4a3a 1415 813d
00000190: 1e95 833c cb51 033c e733 3fbb 2bc4 56bd
000001a0: a6ee 263d 4f1c 773d 5284 f23c 7ded 973d
000001b0: a272 b03d 906d 183c 779e 44bd b18d 813d
000001c0: ca10 1f3c 5bd1 8bbc 8103 36bc 5a0c 363c
000001d0: 5168 2ebd b249 583d 8eec 8abd e30c f43b
000001e0: cfbb b3bd dc9e 0f3d c71e 27bd da93 f9bb
000001f0: fc79 8d3d ef34 733c dd49 9d3b d78e 0d3d
-0.047248915 -0.086655885 -0.02592721 0.008229517 0.0061421082 0.00010922981 -0.0879362 -0.02556356
-0.05052347 -0.020831196 -0.04873208 -0.0034689005 -0.01681962 -0.08014706 0.03996146 0.026889158
0.022532808 0.032707635 -0.0041230065 0.017759098 -0.08707409 0.057950646 0.07042501 -0.03469133
0.073064126 -0.027662415 0.03492715 -0.033705655 -0.050240863 -0.045006648 0.060178716 -0.027952116
-0.06983109 0.009867965 -0.055529088 -0.056345947 -0.04998126 -0.053711664 -0.056119155 0.033444613
-0.031129848 0.021827748 0.07505274 0.022204805 0.08767014 0.0725557 0.007923238 0.040597636
0.08397753 -0.064038165 -0.05580997 0.06283158 0.044080272 0.025908418 0.014642279 -0.05092014
0.033922985 -0.006604163 0.004231874 0.07979035 0.045784164 9.476132e-06 -0.020049259 -0.053884134
0.03708301 0.08522521 -0.044815186 -0.06153363 0.0566908 -0.07606343 0.08143769 0.010975415
0.07712346 0.006389765 0.025912894 -0.0822581 -0.014254066 0.06666449 -0.034948632 0.07365846
-0.013465239 -0.044511892 -0.04429995 -0.069338515 0.026985941 -0.048239328 0.03581762 -0.024901256
0.04726734 0.062007688 -0.06552593 -0.052324027 0.058887016 -0.024068562 -0.07300486 -0.050113037
-0.08386402 -0.056225255 0.00077224616 0.063028485 0.016062316 0.008015106 -0.0029175223 -0.052433174
0.040754937 0.06032973 0.02960411 0.07418344 0.086156145 0.0093034655 -0.048002686 0.063258536
0.009708593 -0.017067602 -0.011109234 0.011111343 -0.042579953 0.052804656 -0.067834005 0.0074478253
-0.08776056 0.03506361 -0.040800836 -0.0076165022 0.06908032 0.014844163 0.004800065 0.03456005

model.net.8.weight f4 [128, 128]
00000000: ac0c a63b dba6 673d 0384 ec3b 9a4d 623d
00000010: e831 713d b7b4 40bc d19e 953d e959 823c
00000020: 464a 833d 3cb4 a9bd 5175 acbd d9a6 d03c
00000030: 1d9c da3c 7010 07bd f621 b5bc 8321 b33c
00000040: d202 a33d 9fa6 a73c 40b6 993d 407e 9d3d
00000050: cfc6 d53c f7b4 043c a7dc bebc f1fa 82bd
00000060: 8c16 4d3d 99cc 9f38 c820 14bd d8eb a2bc
00000070: 1bbf 54bd feec 02bc 1821 513d 0a82 903d
00000080: 764f 6cbd 9198 603c 09db 11bd a416 acbd
00000090: bf18 473d c2f2 8f3d c538 973d 28c7 983d
000000a0: 6efa fcbc afc1 a33c d0f3 f93c 49f5 77bd
000000b0: bfbe a23d 4a89 9abd 6a6d 9c3b 4d42 e2bc
000000c0: f7ac 223d cf8e 893d b0af 033c ae5a 23bd
000000d0: bf5d 8b3d 1c23 afbd fa3a babb 23c2 a4bd
000000e0: 3177 dcba 5970 833d 7d91 2a3d f334 29bd
000000f0: 7bb9 2dbd 8ab8 e13c 869e 62bd c34e 9abd
00000100: 9f43 8f3d ce92 d63c a887 8abd 2f8a a7bd
00000110: 9707 f93c bcec e3bc 4ff6 3ebd 49af b53d
00000120: b9b9 343d 7d3a 8c3d fd94 703c b04b 2abb
00000130: 39eb 68bd d3f4 113d 070d eabc 2a76 09bc
00000140: 965b ba3b 98de 853d cfba 043d 5d80 b2bd
00000150: 7468 043b 011e 833d fbec 99bb c2f9 963d
00000160: 8a97 17bd ea0f 83bd 0622 a33d b9f0 02bd
00000170: 25fd 853d f992 883d 65d5 71bd 36c6 a3bd
00000180: 26fc 35bc ef80 4cbd 9556 863d c116 353d
00000190: 0308 9d3d dbc6 29bd 4715 813c 0ada c73a
000001a0: 4581 83bd 1723 2dbd 80cb 2a3d 5f8e ff3b
000001b0: 2221 a13d 4175 c53b 7e6f db3c e2a2 033d
000001c0: a7dc 7abd ccf8 87bd 6a7e 62bd b136 04bd
000001d0: fcf5 df3c 6d2f 40bd 31b2 91bd 07bd dbbc
000001e0: 782b 9bbd 2884 e5bb b4af abbd 856a 3fbc
000001f0: 50dd 8abd c716 a4bd 8758 823d ffef b03d
00000200: 3fd0 7cbd 81e1 6e3c 9078 97bd f14e 75bd
00000210: 257d a0bd 5291 7fbd 9843 b13d c0a2 b23c
00000220: fc08 253d a39f 52bd fb91 123d ca9d fa3c
00000230: 4532 da3c 9324 df3b c5d8 2fbd 4457 063d
00000240: bd4e 8e3d 608b 86bc 7a9c 9b3d 0ff5 603c
00000250: eb9b b03c d495 773d c558 53bc 73ab a23c
00000260: dec6 8abc 0d97 93bd 6f1d a73b 3e9d d23c
00000270: e77d 8b3b f16d ad3c 7419 a7bc 02ca 923d
00000280: a44b 96bd 2fa0 b03a d1e9 923b 79df 063d
00000290: c3dd efbc 366c 8e3c 0de6 93bd 3274 fd3c
000002a0: 003c e8bc cb77 783d 0f35 9c3d 8245 9e3d
000002b0: 62ec 51bd ae0c 263d 2bdb 20bd 3bf6 683c
000002c0: 166d 053d a70b 9abd 51a9 a9bd b012 e43b
000002d0: 5fd4 1c3c 7a39 6cbd 5073 2f3d 0a42 643d
000002e0: 4908 80bc 8038 a3bd 73b4 be3c 0fbf 47bd
000002f0: 4f88 d9bb 0354 a9bc 4660 403d 6454 c93c
00000300: 3e18 7fbd 46a8 a1bd 0c5c 3bbd 187c afbd
00000310: 4c41 9bba b8b3 1fbd dd2b fbbc 6655 a5bd
00000320: 0efc 913d 9d86 60bd 88ee febc 9713 7f3d
00000330: 5c89 49bc c8e8 a3bc a4d4 2c3d a74a 11bd
00000340: 5a6a 803d 20f6 d1bb c72f 3e3d 9736 d63b
00000350: b06d 24bd 6c35 23bd 5ea2 5e3b f371 bfbc
00000360: f294 5c3d ce1a 583d ad6d 42bd 1fe7 4cbd
00000370: 3160 80bc d372 923d 0299 b739 04ca 913d
00000380: aabd dc3c fb9c 3239 0b1f 94bd 5744 a2bb
00000390: ba39 6abd 240a 3dbd 8bbf 373d 4ee5 50bd
000003a0: 71d2 3ebd 9b6f 8e3d fc6c 1abd c369 88bd
000003b0: 7847 c3bc cfe2 13bb 7f90 99bd 61d3 aebd
000003c0: 72f3 9abd 6d50 bb3a 00ef 20bc 5700 a8bd
000003d0: 09a8 68bd 8cf6 d139 dd25 9fbd 7603 4cbd
000003e0: 057d 00bd 02d0 b1bd d3f2 6ebc cfe1 f1bc
000003f0: ca1a 723c df43 553b 7d43 213d d79d debc
0.0050674286 0.05655561 0.0072178855 0.055249788 0.058885485 -0.011761836 0.073056825 0.015912013
0.06410651 -0.0828633 -0.08420814 0.025470184 0.026685769 -0.03297466 -0.02211092 0.021866566
0.07959522 0.020465193 0.075054646 0.07690096 0.026095776 0.008099786 -0.023298575 -0.063955195
0.05007033 7.61982e-05 -0.036164075 -0.01988785 -0.051940065 -0.007991074 0.05105695 0.07056053
-0.057692967 0.01370825 -0.03560928 -0.08402756 0.048607584 0.07028724 0.07383875 0.07459861
-0.030881133 0.019989816 0.030511767 -0.060536657 0.07946538 -0.07545717 0.0047737854 -0.027619505
0.039715733 0.06716692 0.008037493 -0.0398814 0.0680499 -0.085516185 -0.0056833 -0.08044841
-0.001682019 0.06417913 0.041642655 -0.041310262 -0.042413216 0.027553815 -0.05532696 -0.07534554
0.069953196 0.026193049 -0.067641556 -0.08180653 0.030399127 -0.027822845 -0.046621617 0.088713236
0.04412243 0.06847093 0.014683959 -0.0025985055 -0.05686495 0.035633873 -0.028570665 -0.008389989
0.0056871874 0.06536597 0.032404717 -0.087158896 0.002020386 0.06402207 -0.0046974397 0.07371856
-0.037009753 -0.0639952 0.07965474 -0.031967852 0.06542424 0.06668658 -0.0590414 -0.0799679
-0.01110748 -0.04992765 0.06559483 0.044211153 0.07667544 -0.04144941 0.015757216 0.0015247476
-0.064211406 -0.042269792 0.04169798 0.0077989544 0.07867648 0.0060259406 0.026786562 0.03213776
-0.061245587 -0.06639251 -0.05529634 -0.03227872 0.027338974 -0.04692023 -0.071140654 -0.026823534
-0.075766504 -0.0070042796 -0.08383122 -0.011683111 -0.06780493 -0.08012157 0.063645415 0.086395256
-0.061722036 0.0145801315 -0.07396042 -0.059889738 -0.078363694 -0.062394448 0.086554706 0.02180612
0.04029177 -0.051421773 0.03578375 0.030592818 0.026635299 0.00680978 -0.042931337 0.032798067
0.06948612 -0.016423881 0.07598205 0.0137303015 0.021558722 0.06044562 -0.012899582 0.019857144
-0.01694053 -0.07206545 0.0050999443 0.025709745 0.004256952 0.021170588 -0.02039788 0.07167436
-0.07338646 0.0013475473 0.0044834395 0.032927964 -0.029280549 0.017385583 -0.07221613 0.030939195
-0.028348923 0.06066112 0.076273076 0.07728101 -0.051250823 0.040539436 -0.039271515 0.014218862
0.032574736 -0.07521754 -0.08284248 0.0069602355 0.009572118 -0.057672 0.04283458 0.055727042
-0.01562895 -0.07969761 0.023279404 -0.048766192 -0.0066385637 -0.020669943 0.046966814 0.024576373
-0.06227898 -0.07893424 -0.04574208 -0.08568591 -0.0011845022 -0.038989753 -0.030660564 -0.08072929
0.07128154 -0.054815877 -0.0311196 0.06227454 -0.012300815 -0.02000846 0.042194977 -0.035471585
0.06270285 -0.006407514 0.046432283 0.0065372693 -0.04014367 -0.03984587 0.003397129 -0.023369765
0.053852983 0.052759938 -0.047467876 -0.0500251 -0.015670868 0.07150807 0.0003501848 0.071186095
0.026945908 0.00017033883 -0.072324835 -0.0049519944 -0.05718396 -0.04615225 0.044860404 -0.050999932
-0.04658741 0.06954881 -0.03770159 -0.066607974 -0.02383779 -0.0022565608 -0.074982636 -0.08536411
-0.07565965 0.0014290937 -0.009822607 -0.0820319 -0.056800876 0.00040047278 -0.07770894 -0.049807988
-0.031369228 -0.086822525 -0.014584261 -0.02952662 0.014776895 0.0032541675 0.039371002 -0.027174873

model.net.8.bias f4 [128]
00000000: 742a 8cbd c7e1 d23b 4b75 1fbd 134f 913c
00000010: 26f9 96bd 7936 353d 4d18 853d 8e3e 993d
00000020: 0885 8fbc 5779 80bd bc39 463d 5d6a 4e3d
00000030: 180e 21bd c9cc 423d 13a0 903c 696f e0bc
00000040: d2ae 553d 4902 383d 5298 c03c 8508 53bd
00000050: 9e1e 59bc 519d 9e3d 710b 81ba ad1d aebd
00000060: 92d3 133b 3650 07bd fca9 003d 3dd7 40bd
00000070: 4d49 a3bc aa98 8fbd 4807 a4bd ab81 61bd
00000080: 7638 57bd e907 a23c cb9a 183d f762 623d
00000090: 2a40 34bd e6e6 5bbd 51cd e53c 9ab2 35bd
000000a0: 859a 6abd c11d 873c c7e4 353d 8c49 df3b
000000b0: b719 9bbd 8125 da3c 03af 253d baba 29bc
000000c0: a48e 40bd c13b 5f3c 5773 883c 76e9 2ebd
000000d0: a6d6 01bd b399 31bd 836e b0bc 544d 0b3d
000000e0: faea 17bd e232 ea3b bf0f 3abd 9a10 ccbc
000000f0: abac 2c3c 22bf 243d d690 713d 28b4 95bd
00000100: 7065 95bb 5d0a b1bc 81f1 783d d495 15bd
00000110: 1296 cabc 1d59 68bd 240f 303d c6cf c9bc
00000120: 6509 8f3b 8e05 04bd d570 62bd ac7c 98bd
00000130: ac92 3dbb 5e0f b13b b405 873b b8be 9d3d
00000140: 5c64 7fbd 91d0 22bc 3a2a 023c 3f4f 833d
00000150: 9b50 5a3d 01b7 623d cb0c 9cbd d80e e13c
00000160: 28f2 96bd f624 df3c 2bf2 95bd 396d 9c3d
00000170: d427 b23d 8ec1 833c dfec 333c a6c9 96bd
00000180: 5069 fabc da02 73ba 5e17 36bc db93 adbd
00000190: 119b 59bd ed0f 35bd dd3d 373d c1fb 8e3c
000001a0: 490d 3abd 3853 3c3d 7d71 91bd 2ba2 953c
000001b0: 3c35 723d 6f2e 5fbc 9d77 173c 4839 ebbc
000001c0: 7518 8cbc fca3 41bd a5ca 863c f534 16bd
000001d0: a265 c8bc ba09 95bd 2cf7 243d b20e a0bd
000001e0: 6d25 39bd a7e6 1e3d 0c51 a63d 815c 8ebd
000001f0: 6fc3 b3bd e376 233d 6f61 04bd abfc 183d
-0.06844035 0.006435606 -0.03893022 0.0177379 -0.0737174 0.044241402 0.06498776 0.074826345
-0.017519489 -0.06273144 0.048394904 0.050394405 -0.03932008 0.04755858 0.017654454 -0.027396875
0.052168675 0.044924054 0.023510132 -0.051521797 -0.013251929 0.077448495 -0.0009845329 -0.08501754
0.0022556526 -0.03303548 0.03141211 -0.047080267 -0.019932413 -0.0701154 -0.08009201 -0.0550553
-0.05254408 0.019779162 0.037256997 0.05527016 -0.044006504 -0.053687 0.028052004 -0.04435978
-0.057276268 0.01649368 0.044407632 0.0068141874 -0.07573264 0.026629211 0.040450107 -0.0103594605
-0.047011033 0.013625086 0.01665656 -0.042703114 -0.031698845 -0.04335947 -0.021537071 0.034009293
-0.037089325 0.007147179 -0.045425173 -0.02491026 0.010539214 0.04022134 0.058976017 -0.07309753
-0.0045592114 -0.021611387 0.06077719 -0.03651984 -0.024729762 -0.05672561 0.04298319 -0.024635207
0.0043651336 -0.03223186 -0.055283386 -0.07445654 -0.0028926535 0.0054034432 0.004120553 0.07702392
-0.06235157 -0.009937421 0.007944638 0.06411599 0.053299528 0.055350307 -0.076196276 0.027472898
-0.073704064 0.027239304 -0.073215805 0.0763802 0.08699003 0.016083505 0.010981767 -0.0736268
-0.030567795 -0.0009270139 -0.01111397 -0.08475467 -0.0531264 -0.04420464 0.04473673 0.01745403
-0.045422826 0.0459778 -0.07101724 0.018265804 0.0591328 -0.0136219105 0.009244827 -0.028713837
-0.017101506 -0.04727553 0.01645405 -0.036671598 -0.024462525 -0.07277246 0.040274784 -0.07815303
-0.045201708 0.038794186 0.08120927 -0.069512375 -0.087775104 0.0399083 -0.032319482 0.037350338
