results/edm_swiss_roll/checkpoints/epoch=0-step=32-v1.ckpt (torch, 841533 bytes, 37 tensors)

model.base_model.time_embedding.frequencies f4 [4]
00000000: 0000 803f 971e 3e3d 6b31 0d3b 16b7 d138
1.0 0.04641589 0.0021544348 9.999999e-05

model.base_model.net.0.weight f4 [128, 10]
00000000: 384b 763e a512 873e d2f9 94bd a85d 953e
00000010: 3dcc 8cbd 6dc5 823d d64c 1dbe 264e 3e3e
00000020: bbcb 8e3e ba6d 6dbe 0c8b 8c3e b9db 793d
00000030: be10 713e a257 363d 1719 1d3e 5784 36bd
00000040: cd9e 783e bb02 3b3d 0a48 18be 10dc a23d
00000050: 01fd 13be 769d 13bd ef19 02be 2feb 573e
00000060: 4d68 7fbe a645 15be 8b48 b9bd 9500 44be
00000070: dd19 ea3c 5e90 a0be 2237 923e 80e8 88be
00000080: f5fd 7a3e e966 5b3d 5e1a d1bd c52a 483e
00000090: 571d 4d3d 4d23 833e f12b 103d bbf5 cabd
000000a0: ebca af3d 1976 adbd 270a 0a3e 2d60 913e
000000b0: 0116 3c3e 457a 0dbe 027a 393e 8f9a 613d
000000c0: 34e8 223e 2de8 46be b479 a1be e8df fcbd
000000d0: ed5f 7abe 9ee8 833e 0d27 b83d 9bfb 053e
000000e0: 3e84 cf3d 15ef 86bb 9cd6 7e3e 07a9 64be
000000f0: 57c0 9a3c 90b6 5dbe d2da c43d cab8 e1bd
00000100: 9ec7 c43d 561e 87bd 38a1 873e 4247 3dbe
00000110: b479 3ebe b07c 3ebe 4aa5 913e f54d d63d
00000120: e856 9c3e 051b 85be 7849 a0be 3047 7dbe
00000130: e571 5cbe d899 003e 42c9 e23d 3b41 853e
00000140: ccf3 24be d256 5bbe 8710 2e3e 86d2 00be
00000150: 937c 453e 1188 99bd 5b56 363e cd86 7ebe
00000160: 6658 26be 2496 bf3d b9c8 8b3d 61db a2bd
00000170: 5304 433e df0c 5e3e 338e 69be a5b8 2cbe
00000180: c0c7 923e 756b e0bd d77b ebbd 3322 9ebe
00000190: 2162 38be 5502 a03d b3d7 29bd 76e7 6abe
000001a0: 5406 f43b 8131 5dbe 0e9c 8abe 9ab3 34be
000001b0: e2e5 8ebe f692 50be e69a a23e 5897 733d
000001c0: 3d24 c43d bed4 97be 1db7 55be 85ce d7bd
000001d0: 86c8 543d 6231 8dbe eef9 08be b74f 3fbe
000001e0: 9659 3c39 d719 f0bd f462 b2bc 0447 5bbe
000001f0: 3a3d 5ebe 98ea 3cbe 52a3 ddbd 9f8f 7fbe
00000200: 2cc4 873e 2a7d 80bd 24a6 8b3e 8287 c63d
00000210: dd82 89be 0d57 5f3e faca b2bd 314d f8bd
00000220: 3a70 86be abf9 a0be 283f b93d 2a85 8dbd
00000230: 8505 fa3d 9808 85be cbd5 6f3e b944 6ebe
00000240: 9c6a 61bd 011f 873d ede8 263e 3a9c 823e
00000250: 5764 933e 2b7b 80be 6888 a03d 1829 0cbe
00000260: 35f4 13bd 90d2 73be 21f4 923e a8d1 6dbe
00000270: 59ef 2d3e 8481 e53d a95a d43d aa1e 2ebe
00000280: 8f3e 933e f4a1 903d 86b2 233d e102 8fbe
00000290: b1a4 073e ff68 42bd 5d0d 12be 2f2c 8c3e
000002a0: bbcb 943d 0bf5 30be 5fad 23be 1a53 83bc
000002b0: 2958 343e 698f a6bd f622 39be a6df ddbd
000002c0: 39fd 73be 5c14 e33d 3eb4 783e 2766 99be
000002d0: 9861 973d 8f00 263e 0595 6f3d 10b5 e4bd
000002e0: 1695 293e ef39 2a3e b1c3 ec3d 1e2b 6ebd
000002f0: 81c6 b0bd d301 003d ab2d 64bd 9aa7 c0bd
00000300: cba0 4f3e 5371 8b3e b1b4 fdbc 45ed 90bd
00000310: 0023 453b b789 a7bc c97b 983d 1c46 b23d
00000320: a1c6 93be 4063 f1bd d199 873e 52bd f93d
00000330: 3d49 83bc b23f 43be d2b1 44be 9e49 90be
00000340: fa1f d0bd 3eb0 dd3d ee9c 4f3e 8a2e 143e
00000350: 1b7f 8ebe fc92 41be b709 4abd d2a5 9c3e
00000360: 007a 303d 6c0e adbd a04c 033e 7602 fcbd
00000370: a4ab 53be c5ac 6c3e 1448 15be 4aa8 85bd
00000380: f094 a1be ec9f 583e e718 783e 7c8c f13d
00000390: 8e07 5fbe 036a 9ebe 2a8c 83be 53b2 733e
000003a0: 7247 1c3e bc99 883e 65c6 293e 24ed a33d
000003b0: 2ff9 09bb 9b6d 75be f44c 8abe d605 97be
000003c0: 708f 033e 8fa8 20be 12e5 86bd 2b7e 3cbe
000003d0: 99d8 70bd bc07 64be 31f6 50be 3e1c dc3d
000003e0: 0731 bbbd 418c 4a3e 048f d1bd be0d 6cbe
000003f0: 023e 63bd d99f 1cbe 0cb0 c5bd cb1e 9abe
0.24052131 0.26381412 -0.07274212 0.29173017 -0.06874893 0.06385312 -0.15361342 0.18584499
0.2788981 -0.23186389 0.27449834 0.06100056 0.23541543 0.044517167 0.15341602 -0.044559803
0.24279328 0.0456569 -0.1487123 0.0795213 -0.14451982 -0.03603884 -0.12705205 0.21085809
-0.24942131 -0.1457735 -0.090470396 -0.19140847 0.028576786 -0.31360143 0.28557688 -0.26739883
0.2451094 0.05356494 -0.10210107 0.19547565 0.05007681 0.2561287 0.035198156 -0.099101506
0.085836254 -0.08469791 0.13480435 0.2839369 0.18367769 -0.13816173 0.18112949 0.05507904
0.15908891 -0.19424506 -0.31538165 -0.12347394 -0.24450655 0.2576341 0.08991823 0.13084261
0.10132645 -0.0041178563 0.24886554 -0.22330104 0.018890543 -0.21651673 0.09612049 -0.11021574
0.096083865 -0.06597583 0.26490188 -0.18484214 -0.18601114 -0.18602252 0.28446418 0.10464088
0.30535054 -0.25997177 -0.31306052 -0.24734187 -0.21527822 0.12558687 0.11073543 0.2602633
-0.16108626 -0.21419838 0.16998492 -0.12580308 0.19285803 -0.07496656 0.1780638 -0.2485611
-0.16244659 0.09354809 0.06825394 -0.079519995 0.19044618 0.21684597 -0.22808151 -0.16867311
0.28668022 -0.10957996 -0.1149823 -0.30885467 -0.18006183 0.07812945 -0.041465472 -0.22939858
0.0074470434 -0.21600915 -0.27072185 -0.17646638 -0.27909762 -0.20368561 0.31758803 0.059470505
0.095772244 -0.29654497 -0.20870633 -0.10537437 0.051949047 -0.2757674 -0.1337659 -0.18682753
0.0001796245 -0.117236786 -0.0217757 -0.21413809 -0.21703044 -0.18448865 -0.108221665 -0.24957131
0.26516855 -0.06273873 0.27275193 0.09693815 -0.26857653 0.21810551 -0.08730121 -0.12124098
-0.26257497 -0.31440482 0.09045249 -0.06910165 0.12208084 -0.2598312 0.234214 -0.23268403
-0.05503331 0.065977104 0.16299792 0.25509816 0.2878749 -0.2509397 0.078385174 -0.13687551
-0.036121566 -0.23810792 0.2870188 -0.23224509 0.16985835 0.11206344 0.103688546 -0.17003885
0.28758666 0.0706214 0.039965175 -0.27931884 0.13246419 -0.047463413 -0.1426291 0.2737746
0.07265421 -0.17280976 -0.15984105 -0.016030837 0.17611755 -0.08132822 -0.18079743 -0.10833673
-0.23827066 0.110878676 0.24287507 -0.2996075 0.073916614 0.1621115 0.058491725 -0.111673474
0.16560778 0.16623662 0.11560763 -0.05814659 -0.086316116 0.03125174 -0.055707615 -0.094069675
0.20276181 0.27234897 -0.03096995 -0.070765056 0.0030080676 -0.02045141 0.07445485 0.087047786
-0.2886248 -0.117865086 0.2648454 0.12194313 -0.016026134 -0.19067267 -0.19208458 -0.28181165
-0.10162349 0.10824631 0.20274708 0.14470878 -0.2783135 -0.18903726 -0.04932567 0.3059526
0.0430851 -0.084500164 0.12822199 -0.12305157 -0.20670944 0.23112781 -0.14578277 -0.06526239
-0.31558943 0.21154755 0.2422825 0.117943734 -0.21780226 -0.30940256 -0.25692874 0.23798494
0.15261629 0.2667979 0.16579588 0.08004215 -0.0021053066 -0.23967592 -0.27011836 -0.2949664
0.12847686 -0.156893 -0.065866604 -0.18407504 -0.058800314 -0.22268575 -0.20406415 0.10747574
-0.091402106 0.19780065 -0.10232356 -0.23052117 -0.055479057 -0.15295352 -0.09652719 -0.30101618

model.base_model.net.0.bias f4 [128]
00000000: 322a 6abe 450c a4bd 55db 00bd 808e 33be
00000010: 75b7 70be c738 5b3e d367 5e3e 8d52 94be
00000020: 1439 c83d 43c9 003e 4f9d 983e b6e4 3d3e
00000030: fddb 943e b313 d4bd c998 623e 122c 843e
00000040: 0dcb 97be dbef 82be 9d9b 7b3d 7f35 2f3e
00000050: 0f63 1fbe 9cfa 033d 1289 123b 0c98 a53d
00000060: 8d5c 2bbe 19fe 383e 61b2 543e 5603 5ebe
00000070: bbd4 b73a a879 643b 1e50 ca3d c908 983e
00000080: cb99 b83d aa6f 8ebd 6ef3 8f3e e21f fbbd
00000090: c7b5 b6bd 8ec7 c13c cd32 79be d606 173d
000000a0: 771d 59be a07b f83c 70af e13c 3a9e 273d
000000b0: 2dc5 88be e46b 98be a898 123e a0eb 893e
000000c0: e9a8 90be e4ff f33d e28d 6fbe 2318 ad3c
000000d0: 20f5 973e cca5 773e 7ec0 69be 63e4 483e
000000e0: e897 2b3e 5e76 56bb d2e7 9b3e 64cd 01be
000000f0: 4ac9 94bd 2c59 26be c770 463d a8e1 ad3d
00000100: e156 e53c ebb2 33be 95ef 0ebe 15ea df3d
00000110: c5da 8ebe 05e4 3ebd 0508 97bb 65d4 02be
00000120: c889 e53d aa45 9c3c 7115 663e 3508 d1bc
00000130: 0fcb 49be fbd8 613e c295 393d 565f bfbd
00000140: 36f7 52be fcd6 9d3d 753b 99be 7de8 a63d
00000150: d2be 223e acd8 8cbe 7904 53be 7575 6bbe
00000160: 258b 893e 7ec9 8a3e 7eb4 b83c 8d69 973e
00000170: 01af ddbd c22c 9ebe c7d0 df3d 5709 e23d
00000180: 9112 a03e 0073 2dbb 650a 783e 9d32 493e
00000190: 9c60 6a3e 8195 9fbe c1ca 863e ead1 88be
000001a0: 0d81 923e 0c37 7ebc 3ff9 90be c0e0 b03d
000001b0: 5491 89bd cdde 91be 92bc efbd 68d2 103d
000001c0: 2eb6 7c3e fcb0 cabd f269 3d3e 6b87 163d
000001d0: 8a53 fd3b e4bc 803d 434a 53be a097 86be
000001e0: 7309 c6bd c432 98be 116e 19be 9d3a 553c
000001f0: ffdb 56be 94d3 03be e4d9 73bd bbdd 09bd
-0.22867659 -0.08010153 -0.03145917 -0.17534828 -0.23507483 0.21408378 0.21719293 -0.2896923
0.09776512 0.12576775 0.29807517 0.18544278 0.29074088 -0.1035532 0.22128595 0.25814873
-0.29647103 -0.2557362 0.0614277 0.17110251 -0.15565132 0.03222142 0.0022359532 0.08085641
-0.16734524 0.1806568 0.20771171 -0.2168096 0.0014025191 0.0034862552 0.098785624 0.29694203
0.09013709 -0.06954892 0.2811541 -0.122619405 -0.0892139 0.023654725 -0.24335785 0.036871754
-0.21202646 0.030332386 0.027549475 0.04092238 -0.26712933 -0.29769814 0.14316046 0.2693758
-0.28253868 0.11914042 -0.23393968 0.021129673 0.29679203 0.2418434 -0.22827336 0.19618373
0.16757166 -0.003272436 0.30450302 -0.12676007 -0.07264955 -0.16244954 0.048447397 0.08490306
0.027995529 -0.1754872 -0.13958581 0.109333195 -0.27901283 -0.046604175 -0.0046091103 -0.12776335
0.1120792 0.019076187 0.22469117 -0.025516609 -0.19706367 0.22055428 0.045308836 -0.09344356
-0.20602116 0.07707021 -0.29928175 0.08149812 0.15893105 -0.27509058 -0.20607175 -0.22994025
0.2686397 0.2710685 0.022547003 0.29572716 -0.10824395 -0.30893523 0.10928493 0.11036938
0.31264165 -0.002646625 0.24222715 0.19648214 0.22888416 -0.3116875 0.26326564 -0.26722652
0.28614083 -0.015516054 -0.2831516 0.08636618 -0.06717172 -0.28490296 -0.11705889 0.03535691
0.24678871 -0.09897038 0.18497446 0.03675024 0.007730906 0.06286028 -0.20633797 -0.26287556
-0.09669771 -0.2972623 -0.14983393 0.013014463 -0.2098236 -0.1287368 -0.05953397 -0.033658724

model.base_model.net.2.weight f4 [128, 128]
00000000: d930 52bd 8440 6e3b 3fcb 7bbc ad1e cc3c
00000010: 2805 df3a bea9 28bd e3c2 02bd 832b 59bb
00000020: 2fce 5bbd 3c1d 853b 4106 16bc 924a 003d
00000030: eee6 c03c 2152 813d fd83 fcb8 b1d9 7fbd
00000040: a0d3 153d 8e42 80bd cd59 4bbc 73fb d1bc
00000050: 8729 15bd 8dc3 08bd 0e7a a53d f095 433d
00000060: 6570 b63c 05de af3d 89c1 a8bd fb91 393c
00000070: 17be 723d 5a9c 643d b0f2 8ebd 4465 0c3d
00000080: ab5d 5abd d17c c0bb 0016 7ebc 82b3 96bd
00000090: 26b2 b2bd 718b 67bd d02c 183d f210 1a3d
000000a0: 9d7c a3bd f4f5 13bd 4dce c2ba 155a a1bd
000000b0: b2cd 423d 9f7b a23d 7a7f 983c 6526 8cbd
000000c0: f4dc be3c 1bde 0e3d 3f31 893d 402c 37bd
000000d0: e229 9cbd b45c 203d 5392 0b3c 7559 d3bc
000000e0: 8308 24bd e3ab 38bd 8a20 963d 2a91 90bc
000000f0: 74ff 873d 7b68 9d3d 5b07 543c bafd 813c
00000100: e0a3 fcbb 2647 6e3d 47d5 9ebd e52b 043d
00000110: ee96 8ebc 7b84 2f3d 8857 10b9 0926 12bd
00000120: da21 4cbc 7a34 453d d6e7 71bd fcc2 59bd
00000130: 231d b8bc 56bd 02bd 4e16 1a3d b2d5 6a3d
00000140: de4f e6bb 6a5d b13d 6c8f 22bd fee7 55bd
00000150: 54fe 16bd edb4 6dbd 1e43 83bd 5c1f 9fbd
00000160: 32c0 9cbd fa15 a73c 7892 503d b18a ae3d
00000170: ee88 9c3d 34a9 fcbb 0c26 6c3c 0db8 4dbd
00000180: 5c2e 183d 7994 a7bd 2451 333d 5ece 643c
00000190: 35d6 ca3c d0e0 043d d9a5 1abd f6bb 953d
000001a0: c370 373d fda3 613d 22c2 653c b727 573d
000001b0: f3c0 7b3d 04b3 2c3d 0de0 8e3d ca5d 58bc
000001c0: 263d 7a3d f1c6 a23c bb73 503d 00ce b53d
000001d0: 74a1 8b3c ff28 f4bc fd7b 03bc 68e4 b33c
000001e0: aea7 923c e2cc d1bc 176c 933d cd84 643d
000001f0: 75fd 6cbd 5dd1 00bc ee53 3abc 7cb3 56bd
00000200: 58f7 713c 7bf2 e6bc e79f 2fbd 21d7 ebbc
00000210: 528f f0bc 5172 a73d dfc8 113d e1c5 b43d
00000220: 374a c03c 4c4a ba3c e2e1 1f3d 0030 933c
00000230: 41ef 92bd e15c 4abd 129a c4bc 3b5d a6ba
00000240: d497 133d 3846 163d fcda 8d3d 4081 783c
00000250: a665 e1bc 3442 89bd 5671 82bd 216d 4dbd
00000260: 63a6 ed3c 48ae 383d 301b a33d f875 cdbc
00000270: b915 1abc c084 bfbc 6738 02ba 753e d33c
00000280: 7c20 513a 1758 c63b 0b42 0b3c d9f6 003d
00000290: c6a7 c4bc d1f0 5fbd 6a81 c23c 65e1 ffbb
000002a0: a8d2 18bd 6f28 233d 92b9 713b 2171 2fbc
000002b0: 1982 26bd 2740 28bc 9fce 9fbd 9a75 b73c
000002c0: b280 8eba 7095 503d 608a 0b3c e5fd a03b
000002d0: 96e1 ad3c 12d9 883d 44eb 36bd f26c 4c3d
000002e0: 69f9 c73c a2d3 6fbd 73d2 ed3c ac07 51bd
000002f0: 1ab8 fabc f949 24bd d7a2 77bd 2931 943d
00000300: 5e26 9ebd 112b 3f3d e48b a5bd 7940 05bc
00000310: 29a8 043c de3a 763d b703 06bd efae e63c
00000320: 7e29 863c 38be 523d d785 383b de69 fa3c
00000330: 5736 50bd 96e5 7fbd dfcf 9b3d 065c 7fbd
00000340: 8fba 8ebc 25de 5ebc 52ff b53d 1ab6 85bc
00000350: 27d1 8ebd afc1 ccbc e590 433d 5a6b 093d
00000360: 47c5 903d 06f4 79bc abd4 353d e704 afbd
00000370: a361 0d3d 32e9 313d 8f36 743d c6c9 58bd
00000380: fcbb d8bc beaf 983c 20fb 84bd fba9 8bbd
00000390: 18ff a8bd 2e90 a33b 0f44 563d 78d4 d13c
000003a0: 222f 363b ebfd 093d 19ef 6cbd d1e2 453c
000003b0: 02e7 bbbc e7d3 3bbd b246 973d f460 91bd
000003c0: 7bc7 263c ceb5 9cbd 1030 47ba 5ba5 2cbd
000003d0: c25d 023d 32c2 56bd dc71 653d c95d 8dbd
000003e0: a9e4 4d3d 7e3f 86bd 4223 363d 5fe9 22bd
000003f0: 31e0 253b 91d7 73bc 23f2 753d 3044 d63c
-0.051316116 0.0036354372 -0.015368282 0.024916971 0.0017015086 -0.041177504 -0.03192414 -0.0033137507
-0.05366343 0.004062323 -0.0091567645 0.031321116 0.023547616 0.06314493 -0.00012040881 -0.062463466
0.036578774 -0.06262694 -0.012411547 -0.025632596 -0.036416557 -0.033389617 0.08079921 0.047750413
0.02227039 0.08587269 -0.08240039 0.011326308 0.059263315 0.05581317 -0.06979883 0.034276262
-0.053311985 -0.0058742543 -0.015508175 -0.07358457 -0.08725385 -0.056529466 0.03715211 0.037613817
-0.079827525 -0.03612323 -0.0014862508 -0.0787851 0.047559448 0.07933735 0.018615473 -0.06843261
0.023298718 0.034879785 0.06698846 -0.044719934 -0.07625176 0.03915091 0.008518773 -0.025799492
-0.04004718 -0.0450858 0.07330425 -0.017647345 0.06640521 0.07685944 0.012941207 0.015868057
-0.007709965 0.05817332 -0.07755523 0.032268424 -0.017405953 0.042850953 -0.00013765518 -0.035680804
-0.012459243 0.04814575 -0.059058987 -0.053164467 -0.022474831 -0.031918846 0.037618928 0.057332702
-0.007028564 0.086603954 -0.03968756 -0.052223198 -0.03686364 -0.058033872 -0.06409286 -0.07769653
-0.07653846 0.020396221 0.050920933 0.08522547 0.07643305 -0.0077106003 0.014413368 -0.050224353
0.037153587 -0.08182616 0.043778554 0.013965217 0.024760345 0.03244096 -0.03775582 0.07311241
0.044785272 0.055088032 0.014023336 0.05252811 0.061463308 0.04216291 0.06976328 -0.013205955
0.061093472 0.019870253 0.05089162 0.08877182 0.01704476 -0.029804705 -0.008025167 0.021959499
0.017902222 -0.025610391 0.07198351 0.05579071 -0.057858903 -0.007862416 -0.011372549 -0.052417263
0.014768444 -0.028191796 -0.042877104 -0.028789105 -0.029365215 0.08176101 0.035591956 0.08826805
0.023472888 0.022740506 0.039033778 0.017967224 -0.0717454 -0.049404982 -0.023999248 -0.001269258
0.036033466 0.03668806 0.069265336 0.015167534 -0.02751429 -0.0670208 -0.06369273 -0.0501529
0.029010003 0.045088083 0.0796417 -0.025080666 -0.009404593 -0.02337873 -0.0004967511 0.025786618
0.0007977558 0.0060529816 0.008499633 0.031485412 -0.024005782 -0.05467302 0.02374335 -0.0078088515
-0.037310272 0.039833482 0.003688429 -0.010708124 -0.040651415 -0.010269201 -0.07803082 0.022394944
-0.0010872094 0.050923765 0.008516878 0.004913079 0.021225732 0.06682028 -0.04465796 0.049908586
0.02441092 -0.05855144 0.029031014 -0.051032707 -0.030605365 -0.04010961 -0.06045803 0.07235939
-0.07722162 0.04667193 -0.08083323 -0.008133047 0.008096733 0.060114734 -0.032718387 0.028159587
0.016377207 0.051450938 0.0028155947 0.03056806 -0.050833073 -0.06247481 0.07608008 -0.06234362
-0.017422942 -0.013602768 0.08886589 -0.016322184 -0.069734864 -0.0249947 0.047745604 0.033549644
0.07068878 -0.015255934 0.04439227 -0.08545857 0.03451694 0.043435283 0.059622344 -0.0529268
-0.026456825 0.018638488 -0.06493211 -0.068195306 -0.0825178 0.004991553 0.052311 0.025614008
0.002779909 0.03368942 -0.05784521 0.012078003 -0.022937302 -0.045856383 0.07386531 -0.070985705
0.010179396 -0.07651864 -0.00075984094 -0.042149883 0.031827696 -0.052431293 0.056016788 -0.06902654
0.050266895 -0.06555079 0.04446722 -0.03977334 0.002531063 -0.014882938 0.060045373 0.026155561

model.base_model.net.2.bias f4 [128]
00000000: c5dd afbb 9c7b 29bd 3d55 90bd 46bc 45bd
00000010: 0ad1 48bd 739e a83d dcbf 933a e1cd 59bd
00000020: 1daa fcbb 24e3 b2bb 2f03 b03c 71dd fe3c
00000030: 478d 6c3d 98a1 28bd 64aa 84bc 924b a0bd
00000040: 4053 eebc ab6f 99bd 06f6 15bc 903b 53bd
00000050: 9d2c 05bd aac0 ac3d 07f8 a63d 6c31 0e3c
00000060: 62c8 433d edb5 613d 0d23 d23b bd56 773c
00000070: 97fb 45bb f674 94bd 8379 8a3d 05ce 8bbd
00000080: 00a9 d9bc 8448 9cbd 1bd6 5bbd 225c b13d
00000090: 0cd2 b4bb e68d ce3c a36c c63c d62d 933d
000000a0: 73b2 a23c 4b4e 3d3b 431f 1abd aea3 5b3c
000000b0: 853f b13c 2890 6dbd 3fcc 82bd 7cc9 25bd
000000c0: 0105 a13d a751 1b3d 273a 503d d953 7b3d
000000d0: a100 8bba c9f8 7bbd f437 b33d 63dc 823c
000000e0: 4c7f ecbc ab93 063d 0bb4 7bbd b8a8 ac39
000000f0: 0e4f a23d bdd9 023d 8534 a5bd a352 a23d
00000100: 6cef 8a3c 3de9 d6bc d2cb 893d 3b2e 173d
00000110: 2f7c 5e3d 520c 3d3d c520 3fbd 2323 7bbd
00000120: bd80 783d 670c f7bb c587 983d d808 293d
00000130: 1b1b b0bd 2a93 513d 0fe3 2f3d 5ab1 abbd
00000140: 6c25 273b 8658 94bd 0a88 393d 664b 463d
00000150: 3865 f13c a286 6d3d b9cc 3cbd a940 b9bb
00000160: 135c b0bc a187 853d e64e 803d 9810 e8bc
00000170: a49a 94bd 5dcc 00ba 1f82 933d 8140 a2bc
00000180: 5cfc 103d f219 83bd 6f63 72bd 0a8e 98bd
00000190: 40a4 9ebd 99b2 17bd 6418 25bd 7efe 023d
000001a0: d43e 9a3d fbc8 0d3c 3101 073d 6c88 6cbd
000001b0: 994c 12bd 949a aebd 4064 ae3d 3786 443c
000001c0: 5df5 b1bc 3fc6 9fbd e00c 9f3c f14d b7bd
000001d0: 7652 6c3d da8a afbd fe1a 973c f4df 583d
000001e0: 08ec 97bd bd1a 803d 8073 aa3d 6037 733d
000001f0: d145 aa3d 7c51 35bd 6c2d 51bc aff4 a33d
-0.005367013 -0.04137765 -0.07047508 -0.048275255 -0.04902748 0.08233347 0.0011272389 -0.053174857
-0.007710709 -0.005459206 0.021485893 0.03111145 0.05775192 -0.041169733 -0.01619453 -0.07826914
-0.029092431 -0.07492002 -0.009152895 -0.051570475 -0.03251325 0.08435185 0.08152776 0.008678775
0.04779852 0.05510514 0.00641287 0.015096364 -0.0030209774 -0.07248871 0.06761458 -0.068264045
-0.026569843 -0.07631019 -0.053670984 0.08660151 -0.0055182036 0.025214147 0.024221724 0.07186477
0.019860482 0.0028885778 -0.03762747 0.0134057235 0.021636734 -0.057998806 -0.06386613 -0.040475354
0.078622825 0.037919667 0.05083671 0.06135926 -0.0010605046 -0.061516557 0.087509066 0.01597423
-0.028869294 0.03285567 -0.061451 0.00032932102 0.07925235 0.031945933 -0.08066658 0.07925918
0.016959868 -0.026234264 0.06728329 0.036909323 0.05431765 0.046154328 -0.04666211 -0.061312806
0.06066965 -0.0075393203 0.07447771 0.0412682 -0.0859892 0.051165737 0.04294115 -0.083834365
0.0025504483 -0.07243447 0.045295753 0.04841175 0.02946721 0.057989724 -0.046093676 -0.00565346
-0.02152828 0.0652001 0.06265049 -0.028328225 -0.07256058 -0.0004913265 0.07202553 -0.019806148
0.03539692 -0.06401433 -0.05917686 -0.07448967 -0.07746172 -0.03703556 -0.040306464 0.031980984
0.07531515 0.0086538745 0.03296012 -0.05774729 -0.03571758 -0.08525577 0.08515215 0.01199489
-0.021723444 -0.07801484 0.019415319 -0.08950413 0.05769583 -0.08571406 0.018445488 0.052947953
-0.07418066 0.062551 0.08322811 0.05937898 0.08314098 -0.044267163 -0.012767177 0.08005654

model.base_model.net.4.weight f4 [128, 128]
00000000: 9c53 2a3d 1ce8 72bd 83cf ae3d f7e0 86bc
00000010: 6a9e f8bc 641b 663c 4cf5 aa3d 5e0d 3dbd
00000020: ec50 1a3c 97ac 4cbc 5cf3 e8bc 06d9 2e3d
00000030: b0d7 e93b 01b0 91bd 6f45 2aba c95e 5f3d
00000040: a253 31bd b05e 9d3d 72c6 97bd 51d0 f23c
00000050: 28d4 573d 6dd9 053d 45d4 153d 284c 403c
00000060: a825 8bbc 81c9 843d 3e52 a2bc 1ff2 983d
00000070: 1f5c b03d 3226 a0bd 4773 903d 6ded c53c
00000080: b802 7fbd c343 50bd aefd 66bc 5be3 a93d
00000090: 9c3e 563d 90c4 b4bc 52fb 5dbd 639b 64bd
000000a0: e8e1 37bd 0488 c6b9 d91f 9fbd d590 9ebd
000000b0: 571a 5ebd b4b9 ba3c 988e f33c 54c6 e33c
000000c0: 6b27 9a3d 8f83 b43c f004 05bd 7640 113d
000000d0: 2059 20bd 832f 9e3d 09d4 02bd 7066 5bbd
000000e0: 3571 6fbc 95e4 4dbd 7654 32bc 0f37 88bc
000000f0: 9e5c 493c 3e8f 23bc b8ae 81bd d9ad a8bd
00000100: a23d 7dbd f3e4 a3bd e95b b3bd aa79 ab3d
00000110: 058c 583d 0d74 2b3d 2f63 623d b063 ce3c
00000120: fc82 e2bc 8ce2 18bc 2fc5 1bbd 203a 293d
00000130: 0762 aa3c e33d 99bd c1ff 7e3c e51e 8fbd
00000140: bb51 843d 9225 013c c2ff 3b39 bfe5 5cbd
00000150: e4ae 483c e352 4d3c 7e0c ca3c 3bf9 81bd
00000160: d92b 1fbd eb2d 74bd 461c 5cbd deb8 4fbd
00000170: e0e0 95bd 20ca b33d e5bd aabd 2338 aebc
00000180: 2b61 9c3b 92ca 18bd 22bd d6bc 531b 213d
00000190: 89ab 99bc 35f1 49bc 1b5c 9d3d 2c65 f8bc
000001a0: 0cc9 c5bb e12f 673d 6076 b7bc ed12 92bd
000001b0: b84b 893d 7f05 a0bd 389e aebd efd7 42bd
000001c0: 0a5a 5b3c 9584 8e3d 6771 8bbd e4d0 3bbd
000001d0: f2ec a73d a17a 903d fa11 103d e32c 97bd
000001e0: 55bb 4d3d 3fef f0bb 6258 88bd c3f1 903d
000001f0: 2484 6fbd af75 533c f30a 3fbd 3f72 953d
00000200: c6f7 993b a089 c1bc 1932 403d 1133 a03d
00000210: b51e 1dbc 9e61 803d 7a79 0cbd b95d 4ebd
00000220: 4055 38bd adba b3bd bab4 9e3d d3fe ca3c
00000230: 33d0 73bd 43eb 97bd 7f60 6d3d d022 f33a
00000240: b9cb 7ebd 0015 2abc 187b 0ebd 53a5 403c
00000250: 1f3c 21bd 77ca 1dbd ca9c 48bd c57e 1fbd
00000260: c079 8a3b f10d 3b3d 239c 943c ae56 643d
00000270: aaa7 cbbc afaf 05bd d4c6 61bd 7f74 96bd
00000280: 4536 69bd 9249 aebc aec2 a43d 2abe aebd
00000290: edd4 813d e85d 433d cc00 343d a4fa 4a3d
000002a0: 8d42 443d 9a24 a23d 8b53 0a3d 369d 89bc
000002b0: a526 143d 6471 0bbc b6ab 3abd 76d4 0b3d
000002c0: 7cde ba3d 1cd4 873d b274 10bd 191f dbbb
000002d0: a599 143d 58de 3d3d 67c8 97bd 9058 733c
000002e0: 1ee1 04bc 8c20 ad3d 8069 b63c bf34 2ebd
000002f0: f3bf cfbc ee8d 993d 8d2e edbc aa2e 923c
00000300: 832d a43d c920 9bbd 00c9 e4bb 689a a8bd
00000310: 3428 c8bc 467b 103d 609d 31bb 4c0a 293d
00000320: 237e 6bbd e395 2c3d 8ba1 28bd 2d7c 6f3d
00000330: 2f83 d3bc c65f 953d b45e 223c b3f2 e03c
00000340: cbcb 8ebd 277c 253c 4e2c 8b3d 72d7 8fbd
00000350: d626 833d ca34 0c3d 362f 0ebd bde3 77bd
00000360: 29ec 533d 26e1 c4bc bbd0 3a3d 72c3 043c
00000370: 2157 a33d 633a 72bd eb9a 2abc 7616 2a3d
00000380: 477d 27bd 0ad1 ddbc 99ab b2bc de78 ad3d
00000390: 98a1 293d 7d7f adbd 3b68 b33c bd81 9b3d
000003a0: e48d 2c3d d6fd a73d 3396 a3bc 5c99 d73b
000003b0: 755f ac3d 36f8 a03d 36a3 bdbc 9a54 843c
000003c0: 7817 d13b e8e1 993d 59e5 13bd ce78 60bc
000003d0: 5ab4 0f3d a798 37bc ec44 1fbd f89f 9c3d
000003e0: 2342 f8bc 1b78 563d 963e 8fbc 8302 adbd
000003f0: 447a 6ebd aea1 a23c e72b 873d 631e 66bc
0.041583642 -0.059303388 0.085356735 -0.016464693 -0.030348975 0.014044616 0.08347568 -0.046155326
0.009418707 -0.0124923205 -0.028436355 0.04268744 0.0071363077 -0.07113648 -0.0006495332 0.054533754
-0.04329265 0.07684076 -0.07410897 0.029640349 0.052692562 0.032678057 0.03657939 0.011736907
-0.01698573 0.06483746 -0.019814607 0.07468056 0.08611321 -0.07819785 0.070532374 0.024161065
-0.062258452 -0.050845873 -0.014098568 0.08295318 0.052305803 -0.022066385 -0.054194756 -0.05581225
-0.044893175 -0.00037866842 -0.07769746 -0.07742468 -0.05422434 0.022793628 0.02973108 0.027804531
0.0752705 0.022035388 -0.032475412 0.035461865 -0.039147496 0.07723906 -0.031940494 -0.05356449
-0.014614393 -0.05026682 -0.010884395 -0.016627816 0.012290148 -0.009982882 -0.06332153 -0.08236284
-0.061826356 -0.08002653 -0.08757765 0.08372815 0.052867908 0.04185872 0.05527037 0.02519402
-0.027650349 -0.009331357 -0.038029846 0.041315198 0.020798696 -0.07482507 0.015563906 -0.069883145
0.06460901 0.007882493 0.00017928987 -0.05393004 0.012248728 0.012531969 0.02466416 -0.06346365
-0.038860176 -0.059614103 -0.0537379 -0.050713412 -0.07318282 0.08778787 -0.08337001 -0.021267002
0.0047723255 -0.03730256 -0.026213232 0.0393327 -0.018758552 -0.012325575 0.07683583 -0.03032168
-0.0060359295 0.056442145 -0.022395313 -0.07132516 0.06703895 -0.07813548 -0.085262716 -0.04756921
0.013388166 0.06958882 -0.06808739 -0.04585351 0.081994906 0.070546396 0.035173394 -0.07381608
0.050227482 -0.007352739 -0.06657483 0.070773624 -0.05847563 0.012906476 -0.0466413 0.07297181
0.0046987263 -0.023625195 0.046922777 0.0782224 -0.009589841 0.06268619 -0.034295537 -0.05038235
-0.045003176 -0.0877584 0.077493146 0.024779713 -0.059524726 -0.074179195 0.057953354 0.0018549804
-0.062206004 -0.010380983 -0.03478536 0.011758166 -0.039363977 -0.038523164 -0.04897765 -0.038939256
0.0042259395 0.045667592 0.018140858 0.055746727 -0.024860222 -0.032638248 -0.055121258 -0.073464386
-0.05693652 -0.021275315 0.08044945 -0.08532365 0.063394405 0.047696978 0.043946072 0.049555436
0.04791503 0.079171374 0.03377108 -0.016798597 0.036169667 -0.008510921 -0.045573913 0.034138165
0.09124467 0.066322535 -0.03526754 -0.0066870567 0.03627934 0.04635462 -0.074112706 0.014852658
-0.008110313 0.084534734 0.022267103 -0.04253077 -0.025360083 0.07497774 -0.028952861 0.017844517
0.08016493 -0.07574613 -0.006981969 -0.08232576 -0.024433233 0.035273813 -0.002710186 0.041269585
-0.05749334 0.04213513 -0.041169684 0.058468033 -0.02581939 0.07293658 0.009910274 0.027459478
-0.06972464 0.010100401 0.0679556 -0.07023515 0.06403892 0.03423003 -0.034712993 -0.060519923
0.05173889 -0.02403314 0.045609217 0.008103238 0.07975603 -0.059137713 -0.010412912 0.041525327
-0.04089096 -0.027077217 -0.02181034 0.08470319 0.041413873 -0.08471582 0.021900287 0.07593105
0.042127505 0.08202712 -0.019969082 0.006579561 0.084166445 0.078598425 -0.023149114 0.016153622
0.0063809715 0.07513791 -0.036107395 -0.013700677 0.035084106 -0.011205829 -0.03888409 0.07647699
-0.030304974 0.052360635 -0.017485898 -0.08447745 -0.05822207 0.019852486 0.066001706 -0.014045331

model.base_model.net.4.bias f4 [128]
00000000: 1283 1cbd c657 a53d 905d 31bb b347 af3d
00000010: 92c8 edbc 5e3e 743d b3f6 b1ba 1880 11bd
00000020: 9edb 8c3d a135 97bd f3ef aebb 93d2 873c
00000030: 42ef 73bc 9b56 3bbd 2a80 b2bc d50b 653d
00000040: 969a 3cbc 4802 1cbd 25be 10bd a310 89bd
00000050: 9457 6a3d 86ca a5bd 1670 23bd 2022 953c
00000060: f20b a03d f326 90bd 1f72 233c 4344 85bd
00000070: d2b8 833d 258a 8d3d 4c9f 6a3d bf41 24bd
00000080: 77bb 86bd ec32 50bd 82fa e2bc 43fa 283d
00000090: ebe7 85bc f0cc a23d 4e49 a5bd 18fe d63b
000000a0: 93dd 97bd 00c6 a7bd 2909 79bd 9724 e73b
000000b0: caf8 abbd ff1a 16bc 9c29 29bd 6ce8 51bd
000000c0: c209 a43d 0a8f fdbc 3eb9 aabd 6273 6f3d
000000d0: 0fa3 b8bd 0809 27bb a31b 90bd 8158 403d
000000e0: ac23 013d 5252 51bc c185 c4bc bbb0 81bd
000000f0: 7201 83bd 9390 163d 764c 85bd 2cd6 fcbc
00000100: a8ec 903d 3615 abbd 59a8 1739 634d ffbc
00000110: 63d9 303d 6aed 00bd d2ba 953d 973b dc3c
00000120: 0819 56bd 9d70 973c 4eb5 b3bb 91bf babb
00000130: 3048 50bd 37b8 2f3d d2fe 8d3c d2c6 b8bb
00000140: 9f08 39bd e083 ae3d e16d 9abd fdc9 133d
00000150: 7388 a1bd 4574 8ebd d2be f53c 8d3c ac3c
00000160: 6eb1 6bbc c782 1a3d cdd6 23bc a82b e13c
00000170: 434b 95bd 4c91 263d e89b b8bc 534a 733d
00000180: 62cb 9ebd c700 2a3c cfbf 02bd 8e5a 123d
00000190: 77ea 87bd b21e 93bd 13a1 f43c 5184 1fbb
000001a0: 821c 78bd db43 82bd 18fd 93bd 6671 aa3c
000001b0: ec2f 0e3d 7ec7 2abd 3593 663d 8c09 593d
000001c0: 713f 313c 751c 5bbd a12b 89bd dfd9 0cbd
000001d0: b248 63bd b1e6 a43c 28c9 6a3d a52c a23d
000001e0: 746d 2dbd 4193 39bd 6be2 633c 137b a7bc
000001f0: d46a 643d 794c a3bd 3411 2d3d fe76 913b
-0.038210936 0.08073382 -0.0027063824 0.085585974 -0.029026303 0.05962979 -0.001357755 -0.03552255
0.06877826 -0.07383276 -0.005338663 0.016579902 -0.0148885865 -0.04573689 -0.021789629 0.055919487
-0.011511466 -0.038088113 -0.035337586 -0.06692626 0.057212427 -0.08095269 -0.039901815 0.018204749
0.078147784 -0.07038679 0.009975939 -0.065071605 0.06431736 0.069111146 0.057280824 -0.040101763
-0.06578725 -0.050829813 -0.027707342 0.041254293 -0.016345939 0.07949245 -0.080706224 0.006561052
-0.07415309 -0.081920624 -0.06079975 0.0070539224 -0.08397062 -0.00916171 -0.041299447 -0.051247045
0.08009674 -0.030951995 -0.083361134 0.058459647 -0.09015476 -0.002548756 -0.07036521 0.046959404
0.03152816 -0.012775974 -0.02398956 -0.06332537 -0.0639676 0.03675897 -0.065087244 -0.030863844
0.070763886 -0.08353655 0.00014463197 -0.03116483 0.043176066 -0.031476416 0.07311024 0.026883883
-0.052269965 0.018486315 -0.0054842597 -0.005699106 -0.050850093 0.04290029 0.017333422 -0.0056389356
-0.045174237 0.08521247 -0.07540489 0.036081303 -0.07887354 -0.069557704 0.029998217 0.021024967
-0.014385564 0.037722375 -0.009999943 0.027486637 -0.07289746 0.04066591 -0.02253528 0.059397053
-0.07753636 0.010376162 -0.031921204 0.03573089 -0.066365175 -0.07183589 0.029861962 -0.0024340341
-0.060574062 -0.06360599 -0.07226008 0.020806026 0.03471367 -0.041694157 0.05629273 0.05298762
0.010818348 -0.053493936 -0.06697775 -0.034387466 -0.05548925 0.020129533 0.057320744 0.079186715
-0.04234071 -0.045306448 0.013908963 -0.020444429 0.05576594 -0.079735704 0.042252734 0.004439234

model.base_model.net.6.weight f4 [128, 128]
00000000: dbe2 9c3d 8aa8 f4bc aa15 033d 00e1 8c3c
00000010: 070f 5abd c894 83bd bf48 583d 865f 1bbd
00000020: 5a41 803d 513e 813c 0785 343c 2989 543d
00000030: 9ec7 ecbc 9a96 c2bc e463 053d 3b28 893c
00000040: 2d7d 2c3d ea3e 7c3d daeb 9f3d 3ada 5c3d
00000050: 98f1 a2bb 29cb 94bd bea0 efbc 4a9a 37bc
00000060: be43 9e3b 171c 4dbd 03cb 10bd 0ee6 7f3d
00000070: dd4c 55bd fb0f 643b ddac 863c 0e6c 0e3c
00000080: 5485 2c3c 2783 a93d 64f6 813d 0e1a 4c3d
00000090: 8d21 f6bc 8c66 8fbd 9b37 803d 5491 82bd
000000a0: b472 2cbd 2b93 38bd 17e7 e6b9 4862 b23c
000000b0: bff5 113d b3b1 993c f1cf 94bd db3c e13c
000000c0: 97df 59bd 6f32 303d 9c5f 8dbd a88e 443c
000000d0: d893 aebd ce26 883d fc44 1b3d ef3f a6bb
000000e0: a3ac 94bb e39d 2ebb 5be5 6cbd 1fd9 6fbd
000000f0: a7ac 2a3b 1994 703d d3e3 2f3d 29c9 753d
00000100: 404c 883d fdb2 fd3c db85 74bd b8f7 c53c
00000110: 6f78 41bd 7222 4bbc d494 51bd d16b 283d
00000120: 4b92 43bd abeb 4e3d f07f 253d 358f 403d
00000130: 658c 633d 6e0b 793c e3e0 13bd 2224 1e3d
00000140: cafc 943d b31e 6a3d e99a 68bd 5671 fc3c
00000150: a292 e3bc 4277 993d 8e96 0bbd 9694 8abc
00000160: d508 f73c 0e34 a7bd a28c a23c fdb6 483d
00000170: 7d19 69bc 9adf aabd 7277 adbd a4dc 87bd
00000180: 819e 97bd 319e 293d 94bb acbc f899 d8bc
00000190: db8b 7f3d 04d8 683c 8598 86bd d263 9a3c
000001a0: 5338 263d 26eb 23bd b9f2 a93c 9cd0 14bd
000001b0: d95c 9abd ebd7 5fbd 7362 4ebd 4c36 4a3d
000001c0: da11 9a3d 515f 6ebd a250 5a3d 1b2c 0ebd
000001d0: bce5 3fbc c25c de3b 73d5 be3c 0e9e 593c
000001e0: d37d afbd 189d b03c ed08 b0bd f62e a93d
000001f0: dc72 ad3d 619e 9ebd 9c65 273d eade 6d3d
00000200: 39ba 69bd f6f6 b13c 1534 27bd 17a1 72bd
00000210: 8217 22bd 3853 15bd 861a 79bd 4128 aabb
00000220: ee59 b43d 266a 923c 44b5 a2bb 9ccd abbd
00000230: 8c08 203d 6f00 9f3d 679e 5dbc c650 af3d
00000240: d9a2 b13d 088a ed3c 4fbe a3bd cd22 c6bc
00000250: 6193 a0bc 9e03 92ba 8bb4 16bd 43bf f7bc
00000260: 5a06 dcbc 89c9 2bbc e574 90bd 8013 55bd
00000270: ae5c cf3c 3635 953d 13dd a73d 664f 703d
00000280: 52a7 adbd c74d 8cbc efd7 04bd f4e1 213d
00000290: 1542 af3d c644 7c3d 3472 5a3d ba2c 41bd
000002a0: 9717 973d 744f 81bd e84d 8bbd 95d6 223d
000002b0: 6da3 873d 7477 393d bec3 b8bd 2f4d 3c3d
000002c0: 8b59 dcbc 6ab5 913c 12f9 2cbd c415 35bd
000002d0: 6aab d7bc 7e4d a63a 38a0 1e3d 7200 32bd
000002e0: 28b8 0abd b71c 3e3d 90d9 19bd 3108 89bd
000002f0: 6706 43b9 9d85 2a3d 0ff8 61bc 649d 263b
00000300: 9f72 a83d 5d28 123d dcfd 993b 02c1 743d
00000310: 7ade 61bc b3fc 3cbd 44b5 043d 8c75 83bd
00000320: 63e1 c53c 00d4 253d 3501 3b3d 7ba2 4e3c
00000330: 6f4a 643d 62ad 5d3d 89fb 403d 570e 8abd
00000340: e7e1 663c 2caa 2e3d 3873 8e3d 34d3 a53d
00000350: b3e6 acbd 11d0 983d 3477 993c a726 3cbd
00000360: dbda a3bd 079a 123d 1a4e 853d ff6c 743d
00000370: c609 523d 8b3a 89bd dbca afbd d803 83bc
00000380: 1cd8 38bd 8659 6fbd d79c a8bd 3efd 0a3d
00000390: 250f cd3c 8bb7 243d 8106 3cbd c4bf 66bd
000003a0: 2047 763a 64e6 483d f361 103d 5b35 fe3c
000003b0: 71ce d8bc 691c a63c 6be6 dbbc d83e 783d
000003c0: 0264 833d 2b4d 103b 520e 36bc a47d a03d
000003d0: fc38 7ebd 3754 34ba 975b 4c3c 5fc9 dcbc
000003e0: 79fd 5837 ae4c 70bd d2c5 ff3a 6856 453d
000003f0: b815 803d 805e 803d fb57 1d3d 2edb ae3d
0.07660457 -0.029865522 0.032003082 0.017197132 -0.053236987 -0.06424862 0.05280375 -0.037932895
0.06262465 0.015776785 0.011018044 0.05188862 -0.028903779 -0.023753453 0.032565966 0.016742816
0.042111564 0.061583437 0.07808657 0.053919055 -0.004972648 -0.07265312 -0.029251453 -0.011206219
0.004829853 -0.050075617 -0.035349857 0.062475257 -0.052075256 0.0034799564 0.01643985 0.008692754
0.010529835 0.082769684 0.063458234 0.049829535 -0.030045295 -0.07001981 0.06260606 -0.063753754
-0.042101577 -0.045062225 -0.00044041194 0.02177538 0.035634752 0.018761491 -0.07266224 0.027494838
-0.053191748 0.043016847 -0.06903002 0.0119969025 -0.08524293 0.066480264 0.037907586 -0.0050735394
-0.0045371815 -0.00266444 -0.057835918 -0.058556672 0.002604285 0.058734987 0.04294188 0.060006294
0.066551685 0.030969137 -0.059697967 0.024165973 -0.047233995 -0.012398349 -0.051167324 0.041118447
-0.047746938 0.05051772 0.040405214 0.047011573 0.055553813 0.015200479 -0.03610314 0.038608678
0.07274778 0.057158183 -0.05678836 0.030815762 -0.02777988 0.0749345 -0.034079127 -0.016916554
0.030155579 -0.081642255 0.01984245 0.049002636 -0.014227268 -0.0834343 -0.08470048 -0.06633881
-0.07403279 0.04141063 -0.021085538 -0.026440606 0.062389236 0.014211658 -0.065720595 0.018846426
0.04058106 -0.040019177 0.020745622 -0.036331758 -0.075372405 -0.054649275 -0.050386857 0.049368188
0.07522936 -0.05819637 0.053299554 -0.03471003 -0.011712488 0.00678596 0.02329514 0.013282312
-0.08568921 0.021559283 -0.085954525 0.0826091 0.08469173 -0.07745052 0.040868387 0.058073916
-0.05706236 0.021724205 -0.040821154 -0.05923566 -0.0395732 -0.036456317 -0.06081631 -0.005192787
0.08806215 0.017872881 -0.004965456 -0.08388826 0.03907065 0.077637546 -0.013526536 0.08560328
0.08673639 0.028996482 -0.07995283 -0.024186516 -0.019601526 -0.0011139994 -0.036793273 -0.030242568
-0.026858497 -0.010485061 -0.07053546 -0.05202055 0.025312748 0.0728554 0.081964634 0.05866947
-0.084791794 -0.01712693 -0.032432493 0.039522126 0.08557526 0.061589025 0.05333157 -0.047161795
0.07377546 -0.063139826 -0.06801969 0.039755423 0.06622968 0.045279935 -0.0902171 0.045972046
-0.026898166 0.0177867 -0.04222972 -0.04421021 -0.026326854 0.0012687889 0.038727015 -0.043457456
-0.03386703 0.046414103 -0.037561 -0.066910155 -0.00018599034 0.04163133 -0.013792052 0.0025423402
0.08224987 0.035683025 0.004699452 0.05975438 -0.013785953 -0.04613943 0.03239943 -0.06418905
0.024155324 0.040485382 0.045655448 0.012611981 0.055735048 0.05412043 0.047114883 -0.06741016
0.014091945 0.042642757 0.0695557 0.080969244 -0.0844244 0.074615605 0.018733598 -0.0459353
-0.08000728 0.035791423 0.06509037 0.05967426 0.051278852 -0.06700619 -0.085836135 -0.015993044
-0.045127973 -0.058434986 -0.0823304 0.033932917 0.025031636 0.040214103 -0.04590464 -0.056335226
0.0009394754 0.049047843 0.03524966 0.031031301 -0.026465626 0.020277219 -0.02684327 0.060606807
0.06415559 0.0022018652 -0.011111813 0.07836464 -0.062066063 -0.0006879004 0.012473009 -0.02695149
1.29336195e-05 -0.058666877 0.0019513911 0.048178107 0.062541425 0.062680244 0.038413983 0.08537899

model.base_model.net.6.bias f4 [128]
00000000: 1fd4 47bd 5df1 acbd ea1e c5bc 09ae ca3b
00000010: 1d5b 0c3c 704c fdba 9f74 b9bd 3502 e3bc
00000020: 964d 57bd b998 97bc a4e2 40bd 28ff 99bb
00000030: 9329 99bc 4cf1 9fbd cfbe 253d 62ab cb3c
00000040: b4aa be3c a973 fa3c 5008 d9bb ea6b a23c
00000050: fb80 b6bd 4134 753d 2d81 933d 1316 05bd
00000060: fadc 943d dbd4 f4bc 813c 0b3d a71d 15bd
00000070: 58e0 55bd 4f71 36bd c6ea 803d 83b4 f0bc
00000080: 077c 8ebd df36 fb3b ea78 6cbd adfb 6dbd
00000090: 1581 52bd a606 64bd 13ea 67bd 2b9d 143d
000000a0: 9b2c 0cbd 3725 b53c 83cb 9e3d 2e7a c43c
000000b0: 1b22 b73d b546 8f3d 6674 073c cb88 1f3d
000000c0: b568 a83d 49f1 7bbd 845b 5bbd 1cd1 793d
000000d0: e3e7 2e3d e0e5 da3c 6b7f 8c3c 0efd 57bd
000000e0: d147 113d 98d1 96bb 2536 a93b 722f a63d
000000f0: cb0b 463d 08a5 eaba ec31 bbbc 8cdd 53bd
00000100: 3820 233d 10af b23d 41e9 41bd 465d 73bd
00000110: fdf2 673d dbcf 97bd 0b84 aa3d df74 5d3c
00000120: d5ab a33d 5558 833b 18c5 ea3c c909 a9bd
00000130: 5bdb 85bc dd46 8c3d 585b 04bd 7ad6 9a3d
00000140: a70f 50bc f859 40bd 87af 3ebd 303a 91bd
00000150: 90a4 ed3c c3e0 48bd cc85 0b3d 10c0 d7bc
00000160: 99c3 483d 57d9 773d 535e 86bd 0cb9 55bd
00000170: 8792 6b3d 6363 dcbc 1d69 96bd 17b3 45bd
00000180: fc1f a9bd b577 68bd 6203 283b 8f12 7f3d
00000190: 5c3d 903c 76eb 063c 2323 56bb 2bc5 4fbd
000001a0: 2f2c 203d 6da3 803d 1856 f83c 7bf5 9a3d
000001b0: 4f35 b63d f1b2 fa3b f55f 4cbd cae6 853d
000001c0: 52fc 393c 4c74 75bc 7ded 57bc 60f5 173c
000001d0: 743f 31bd 183d 523d 63ba 8ebd a032 243c
000001e0: 641a b8bd 9d43 173d 3a8f 22bd 446f 1cbc
000001f0: df81 913d 4769 7a3c 185c 1f3b 88a4 083d
-0.04878628 -0.08444474 -0.024062593 0.0061852974 0.008566645 -0.0019325148 -0.09055447 -0.027711013
-0.052564226 -0.018505441 -0.04709114 -0.0046996064 -0.018696582 -0.078096956 0.040465172 0.024861995
0.023274757 0.03057273 -0.0066233054 0.019826848 -0.0891132 0.059864286 0.07202373 -0.032491755
0.072687104 -0.029886654 0.033993248 -0.03640523 -0.052215904 -0.044541653 0.062947795 -0.02938295
-0.0695725 0.0076664533 -0.0577325 -0.058101345 -0.051392633 -0.055670403 -0.056619715 0.0362827
-0.034222227 0.022112472 0.077536605 0.023984041 0.08942052 0.06995908 0.008267498 0.038948815
0.08223096 -0.061509404 -0.053554073 0.060990438 0.042701613 0.026720941 0.017150601 -0.052731566
0.03546888 -0.0046026222 0.0051639252 0.08114518 0.04835109 -0.0017901966 -0.022850953 -0.051724955
0.039825648 0.08724797 -0.04734159 -0.059415124 0.056628216 -0.07412692 0.083259664 0.013516634
0.07991759 0.0040083327 0.028658435 -0.082538195 -0.016339948 0.068494536 -0.032313675 0.075604394
-0.012699044 -0.0469608 -0.046554115 -0.070911765 0.029009134 -0.049042474 0.034063146 -0.0263367
0.04901466 0.060510006 -0.0656096 -0.052178428 0.057512786 -0.02690286 -0.073442675 -0.048266497
-0.08258054 -0.056754787 0.0025636782 0.06227356 0.017607383 0.008234849 -0.0032674752 -0.050725143
0.039104637 0.06281171 0.03031449 0.07566353 0.088968866 0.007650726 -0.0498962 0.0653816
0.011351662 -0.014981341 -0.01317918 0.009274811 -0.043273404 0.051327795 -0.06969144 0.010021836
-0.089894086 0.036929715 -0.039687373 -0.009548012 0.07104849 0.015283889 0.0024316367 0.033360034

model.base_model.net.8.weight f4 [128, 128]
00000000: 7a3c c23b 3a09 683d 50bf bc3b 6275 6e3d
00000010: d775 703d 3bd1 52bc 34b1 953d afc8 8f3c
00000020: 5a97 833d 002a aebd 69ac abbd 1165 c73c
00000030: 74db df3c e3fa 06bd 6c1a b6bc 7b29 ba3c
00000040: 70fb a23d d63d a83c f5da 973d a040 9e3d
00000050: 85df d63c e9d2 043c 9e9d bfbc f103 83bd
00000060: 2c8f 4b3d 82f7 99b8 ea31 13bd ad91 b5bc
00000070: e95e 54bd 8afb 01bc 0f0b 503d cd9d 913d
00000080: d646 6cbd 40b3 623c d7f4 10bd eb56 abbd
00000090: e0e7 473d c214 903d 4402 983d ab9e 9b3d
000000a0: cd59 02bd 3dd9 9f3c 5ce7 f73c 891d 79bd
000000b0: c851 a23d cfa2 9abd 1c1c 733b 08aa dabc
000000c0: 8975 223d 557f 8a3d 526c 053c 5935 24bd
000000d0: 10e7 8d3d cd13 b0bd 0c49 d1bb 1dd5 a3bd
000000e0: f3d9 f7ba 79ea 823d 65b6 283d 4e39 29bd
000000f0: 810d 34bd 5736 f03c 96b2 5fbd 1bc9 9abd
00000100: 3b07 8f3d e51f d53c c232 8bbd 2722 a7bd
00000110: 9167 fb3c 6bc3 e3bc 5f1a 3ebd c818 b43d
00000120: fd99 353d e34c 8b3d a64a 6c3c d218 25bb
00000130: 51ea 68bd 4248 123d 8017 f5bc e685 0ebc
00000140: 50c7 623b 07ab 863d 9716 053d 41e5 b2bd
00000150: b49b f93a e5f9 823d d1e9 96bb 934d 973d
00000160: e10b 19bd 5ec7 83bd fc66 a23d ded2 02bd
00000170: c8f9 863d 77b3 873d b361 71bd fa33 a5bd
00000180: ed41 34bc 2540 4cbd 6fe0 843d 5ffe 333d
00000190: cfdb 973d 3aad 27bd 4723 893c 2cc0 c73a
000001a0: 3588 83bd c0ae 2fbd 087a 283d ee6f ef3b
000001b0: 3e5c a13d ada1 cf3b ac8c cf3c a4bf 023d
000001c0: 833b 74bd dfc3 88bd 03cf 5fbd d70f 03bd
000001d0: 018a e43c bd36 40bd 2af1 90bd 6458 d9bc
000001e0: 8102 9bbd eb6f ecbb 0ad6 acbd a55e 38bc
000001f0: 20ec 8abd 0a2d a5bd 8b2a 833d 7e4a b13d
00000200: c7c5 71bd eacc 893c b8c5 92bd a648 73bd
00000210: da2f a6bd 8dc8 7bbd 346e b53d 1937 b03c
00000220: e5c0 2d3d 52cc 4abd 5924 203d 70c4 f23c
00000230: 5df8 ee3c a079 143c f7d5 3abd 8e19 f53c
00000240: 81b7 8c3d 4f55 9ebc 2ad4 9c3d b335 4f3c
00000250: 6167 c13c 58ec 6c3d e82d 70bc 1d77 b33c
00000260: d1a5 9fbc 0391 8fbd eb3f 513b 81f6 d83c
00000270: 99dc f73b 6fee bd3c 7e49 b9bc c83f 963d
00000280: 096b 91bd 6918 2a3b 5214 e03b e19f 0e3d
00000290: 0516 d3bc 1b29 9f3c 3e81 8fbd 44a0 f33c
000002a0: 9919 cfbc 5dc2 6e3d 00d4 973d 249a 993d
000002b0: fe29 5dbd d27e 1d3d c0fe 30bd 28c0 463c
000002c0: 158a f93c 7e0b 96bd 8619 a5bd 2054 8c3b
000002d0: 8547 fb3b 8ff3 73bd a863 253d eb35 6e3d
000002e0: f314 90bc 1c88 9ebd 3eb3 ab3c cd54 51bd
000002f0: 7c53 28bc 37b8 91bc 4eb8 493d 7533 d93c
00000300: 043c 84bd f4bb a5bd a881 33bd 69e7 abbd
00000310: dc4b 65bb c3e4 17bd c3a1 07bd 88ab a9bd
00000320: ab55 8e3d 3ee1 68bd e0e4 07bd b052 843d
00000330: ef9b 3cbc 31c4 b3bc c286 343d b61e 1bbd
00000340: 056f 843d 5f84 33bb db17 473d a463 0f3c
00000350: ad61 2fbd 43a0 1cbd 542d 823a 3d26 adbc
00000360: 24af 533d d072 4e3d cd83 34bd 0150 44bd
00000370: 6bc0 8ebc 8f27 963d 07cf 223b e9e3 953d
00000380: 70eb ed3c dbdb 203b 415b 98bd a0ab e9bb
00000390: 85b8 64bd cbd4 2ebd 6a4a 433d 4687 48bd
000003a0: 59a9 47bd 7cc6 893d 69ab 23bd bd45 8dbd
000003b0: bbde d6bc fdff 5f3a 5aea 95bd 0d89 b3bd
000003c0: 463e a1bd 12aa 4b3b 4ff3 fdbb 8f17 a4bd
000003d0: a3a4 61bd 2d68 d4ba d485 9abd c383 43bd
000003e0: d607 eebc fab3 b4bd e1ea 3abc 1d2a dabc
000003f0: 1df2 4d3c 4343 8a3a 0745 1e3d dad3 f0bc
0.0059276195 0.056649424 0.005760111 0.058217414 0.05870613 -0.012867267 0.073091894 0.017551748
0.064253524 -0.085041046 -0.08382494 0.024340184 0.027326323 -0.032954108 -0.022229396 0.022724858
0.07958114 0.020537298 0.074148096 0.0772717 0.02622963 0.0081069255 -0.023390587 -0.06397236
0.049697086 -7.3417104e-05 -0.035936274 -0.02216419 -0.051848326 -0.007933507 0.050791796 0.07110176
-0.057684742 0.013836682 -0.035389747 -0.08366188 0.048805118 0.07035209 0.07422307 0.07598623
-0.031823922 0.019512767 0.030261688 -0.060819183 0.07925755 -0.075505845 0.0037095612 -0.026692405
0.03966287 0.06762568 0.008143501 -0.04008994 0.06928837 -0.08597527 -0.0063868817 -0.079996325
-0.0018909558 0.06392378 0.04118957 -0.041314416 -0.04395819 0.029322786 -0.054613672 -0.07557889
0.06983801 0.026016185 -0.06796791 -0.08160811 0.030689033 -0.027803143 -0.04641187 0.08793789
0.044336308 0.06801774 0.014422094 -0.0025191796 -0.056864087 0.03571344 -0.029918432 -0.008698916
0.0034603663 0.065755896 0.032492246 -0.08735133 0.0019043596 0.0639532 -0.00460551 0.07387843
-0.037364844 -0.06434511 0.07929799 -0.03193938 0.06590611 0.06626027 -0.058931064 -0.08066554
-0.011002046 -0.04986586 0.0648812 0.04394376 0.07414972 -0.040936686 0.016740454 0.0015239767
-0.06422464 -0.042891264 0.041132003 0.007307044 0.07878922 0.006336412 0.025335632 0.031921044
-0.059627067 -0.066779844 -0.05464078 -0.031997528 0.027897837 -0.046927202 -0.070772484 -0.026531406
-0.07568837 -0.00721549 -0.08439262 -0.011253034 -0.067833185 -0.08065231 0.06404599 0.086567864
-0.059026506 0.016821343 -0.07166618 -0.059395455 -0.08114596 -0.061470557 0.0885891 0.021510648
0.042420287 -0.04951126 0.039097164 0.029634684 0.029171163 0.009062201 -0.04561421 0.029919412
0.06870938 -0.019327788 0.076576546 0.01264708 0.023608865 0.057842582 -0.014659382 0.021907384
-0.019488247 -0.07010081 0.0031928967 0.02648473 0.007564139 0.023184983 -0.022618052 0.07336384
-0.071004935 0.002595449 0.00683836 0.03482044 -0.025767336 0.01942878 -0.07007073 0.029739507
-0.02528076 0.058290828 0.07413483 0.07500103 -0.053995125 0.038451023 -0.0432117 0.012130775
0.03046135 -0.07326411 -0.08061509 0.0042824894 0.007668438 -0.059558447 0.040378243 0.05815689
-0.017588114 -0.077408046 0.020959493 -0.051106263 -0.0102738105 -0.017788036 0.049248032 0.026513794
-0.064567596 -0.0809249 -0.04382482 -0.08393747 -0.0034987843 -0.0370834 -0.033113252 -0.0828467
0.069499336 -0.056855433 -0.033177257 0.06461084 -0.011511787 -0.021944137 0.044073828 -0.037871085
0.06466488 -0.0027392132 0.048606735 0.0087517835 -0.04281776 -0.038238775 0.0009931722 -0.021136397
0.0516807 0.050402462 -0.044071008 -0.04792786 -0.017425736 0.07331764 0.0024842636 0.07318861
0.02904293 0.0024545107 -0.0743928 -0.007131055 -0.055840034 -0.042683404 0.04767839 -0.04895713
-0.048745487 0.06727311 -0.03995839 -0.06898067 -0.026229253 0.000854492 -0.0732009 -0.08766375
-0.07873206 0.0031076712 -0.007749952 -0.08012306 -0.05508865 -0.0016205363 -0.07545057 -0.04773308
-0.02905647 -0.0882339 -0.011408539 -0.02663141 0.012569931 0.001054861 0.03864005 -0.029397894

model.base_model.net.8.bias f4 [128]
00000000: 4f57 8cbd 2cbc 8a3b 7c8e 27bd 3486 a23c
00000010: a749 9abd 7a25 3b3d a13e 803d 48a5 943d
00000020: b046 a1bc dcf0 79bd bc61 4e3d e444 4a3d
00000030: e4e1 17bd 4d8c 4b3d 2dfb 9d3c f12f d5bc
00000040: 2a53 4c3d d0f2 3f3d b162 c73c 43f5 56bd
00000050: 353d 77bc 4d13 a13d 8cfa 2ebb 943f acbd
00000060: dfba 2b3b 8481 f9bc cfb4 033d 9755 3bbd
00000070: cae8 8cbc e54d 8bbd bac1 a3bd 3668 5abd
00000080: 7360 56bd 611b b53c 017b 173d ef22 6b3d
00000090: e4fe 28bd c75d 5cbd 9257 d33c 1aa8 3abd
000000a0: c04d 60bd b70b 903c 4562 2c3d f39b a63b
000000b0: 1783 96bd f815 d03c d7c7 293d 7668 4dbc
000000c0: 1eb7 47bd df3a 833c 0d54 6f3c 9252 36bd
000000d0: dc63 0abd 75bf 31bd b2ec 9dbc 1d27 023d
000000e0: 5ace 1ebd ecad 8f3b 0ae7 32bd 9f05 d5bc
000000f0: a902 2a3c 3d2f 1d3d 938e 683d 2113 92bd
00000100: d005 dbbb 78bf a0bc c816 7e3d 8c10 0bbd
00000110: f735 b4bc 64c8 60bd 15f4 373d b10a dbbc
00000120: 63c9 e93b 8016 fabc 73a8 6abd 6954 97bd
00000130: b4f3 a3ba ff33 9c3b 43ae 0d3b ded4 993d
00000140: 5e09 78bd 5760 ebbb 0fd0 253c 6c0a 823d
00000150: de04 5e3d f90c 6c3d a293 9ebd efd3 cf3c
00000160: 1824 99bd d8bc e43c 193b 91bd 363d 9f3d
00000170: a395 ad3d 0df3 843c 7b86 513c cc4c 92bd
00000180: 41e2 04bd 1d8d 2939 6cf1 42bc 1a66 b2bd
00000190: f655 52bd 1b70 3cbd b3be 2f3d 2e08 813c
000001a0: 458c 31bd 8526 433d c35d 92bd 2d70 9d3c
000001b0: b177 6a3d 3846 3fbc cfae 2e3c 615d ddbc
000001c0: 901d 9dbc f8d9 42bd bb19 813c 94a1 1dbd
000001d0: b12d dfbc a2cb 91bd 087b 2b3d 6e02 9dbd
000001e0: f6c8 31bd f1b2 273d 73a9 a13d 250f 91bd
000001f0: ec34 b7bd 29cc 1d3d 2652 f7bc 8a34 103d
-0.0685259 0.0042338576 -0.040907368 0.019839384 -0.07533579 0.045690037 0.062619455 0.072580874
-0.019687027 -0.061020717 0.050386176 0.049382105 -0.03708066 0.049694348 0.019284809 -0.026023837
0.049884 0.046862423 0.024339052 -0.052479994 -0.0150902765 0.078650095 -0.002669963 -0.08410564
0.0026203913 -0.030457266 0.032154854 -0.04573592 -0.017200846 -0.068019666 -0.07995935 -0.05332204
-0.052338075 0.022107782 0.03698254 0.057406362 -0.041258708 -0.05380037 0.025798593 -0.04557047
-0.05476165 0.017583711 0.042085905 0.0050845086 -0.07349222 0.0254011 0.041450348 -0.012537112
-0.04875862 0.016019283 0.014607442 -0.04451234 -0.03378664 -0.04339548 -0.019277904 0.031775583
-0.03877101 0.004384747 -0.043677367 -0.026003657 0.010376611 0.038375128 0.056776594 -0.07132555
-0.0066840425 -0.01962255 0.062033445 -0.033951327 -0.021998389 -0.054878607 0.04491051 -0.026738496
0.007134603 -0.030528307 -0.057289552 -0.07389147 -0.0012508542 0.0047669406 0.002161876 0.07511304
-0.06055581 -0.0071831155 0.010120406 0.06349644 0.05420386 0.05762956 -0.077430025 0.025369613
-0.074775875 0.027922079 -0.0709135 0.07775347 0.084758066 0.016229177 0.01278841 -0.07143554
-0.032442335 0.00016169665 -0.01189838 -0.087108806 -0.05135151 -0.04600535 0.042906474 0.01575097
-0.043346662 0.047644157 -0.0714679 0.019218529 0.057243053 -0.011674456 0.010661795 -0.027022066
-0.019179136 -0.047571152 0.01575934 -0.03848417 -0.027243467 -0.07118918 0.04186538 -0.07666479
-0.043404542 0.040942136 0.07893648 -0.07082967 -0.08945641 0.03852478 -0.030190539 0.035206355
