results/edm_swiss_roll/checkpoints/epoch=14-step=480.ckpt (torch, 387402 bytes, 49 tensors)

model.base_model.time_embedding.frequencies f4 [32]
000000 00 00 80 3f e3 32 3e 3f 93 4f 0d 3f 4b fa d1 3e
       1.0 0.74296397 0.55199546 0.4101127
000010 80 01 9c 3e 3e d0 67 3e a3 3a 2c 3e 81 eb ff 3d
       0.30469894 0.22638032 0.16819243 0.12496091
000020 a9 23 be 3d 41 44 8d 3d 7a e9 51 3d 03 f5 1b 3d
       0.092841454 0.06897784 0.05124805 0.03807546
000030 b1 bd e7 3c d7 2c ac 3c 03 d7 7f 3c 70 14 3e 3c
       0.028288694 0.021017475 0.015615228 0.011601552
000040 f4 38 0d 3c af d8 d1 3b 84 e8 9b 3b 1f ab 67 3b
       0.008619536 0.0064040045 0.0047579426 0.00353498
000050 0e 1f 2c 3b 8f c2 ff 3a 37 05 be 3a a5 2d 8d 3a
       0.0026263627 0.0019512939 0.0014497404 0.001077105
000060 e1 c7 51 3a 0d dc 1b 3a 92 98 e7 39 46 11 ac 39
       0.00080025016 0.0005945571 0.00044173427 0.00032819266
000070 0d ae 7f 39 01 f6 3d 39 57 22 0d 39 16 b7 d1 38
       0.00024383534 0.00018116088 0.000134596 9.999999e-05

model.base_model.net.0.weight f4 [64, 66]
000000 36 6c 01 3e bc a1 07 3e 19 5c 7f bc 55 8d 01 3e
       0.12638935 0.1324529 -0.015585923 0.1265157
000010 4f fa 5b bc 63 6d 1d 3d a0 b0 3d bd 35 f7 af 3d
       -0.013426377 0.038434397 -0.04631102 0.08592073
000020 36 26 fa 3d 15 08 9d bd 99 02 f7 3d 4d 11 16 3d
       0.122143194 -0.07667557 0.12061042 0.036637593
000030 53 0b d6 3d 21 6e f7 3c 30 27 95 3d d1 af 82 bb
       0.10451379 0.03020388 0.07282865 -0.003988244
000040 89 83 dd 3d a8 36 00 3d 22 9a 36 bd b2 14 34 3d
       0.10816104 0.031302124 -0.044580586 0.04396505
000050 66 4e 36 bd 1e ec 31 bb bf 2f 1f bd 22 98 bc 3d
       -0.04450836 -0.0027148793 -0.038863894 0.092087045
000060 b7 46 b3 bd b1 a6 44 bd 48 fa dc bc f2 a5 89 bd
       -0.08753722 -0.04801053 -0.026974812 -0.06721105
000070 c0 e3 8e 3c 29 f9 ee bd 10 e9 eb 3d 86 79 cf bd
       0.017442584 -0.11668617 0.115190625 -0.10130601
000080 5a ee c7 3d 51 7c b8 3c e8 9a e5 bc b2 f0 b1 3d
       0.09762259 0.022520216 -0.028027967 0.08688487
000090 dc b7 f0 3c 29 df df 3d ad 6d bd 3c 65 ac ef bc
       0.029384546 0.10931236 0.023123587 -0.029257009
0000a0 0c 68 2e 3d 2e d7 c3 bc 5b ee 7a 3d fe 6b f4 3d
       0.042579696 -0.023906317 0.06126247 0.119346604
0000b0 66 10 a5 3d 48 c1 35 bd 1b d9 a4 3d 72 da 00 3d
       0.080597684 -0.04437378 0.08049222 0.031458326
0000c0 ab 57 93 3d 58 54 86 bd d3 39 e6 bd 4f 27 1c bd
       0.07194456 -0.06559056 -0.11241498 -0.038123425
0000d0 d0 09 ae bd 1a 2c e2 3d fa dc 37 3d 69 7b 77 3d
       -0.08497965 0.11043568 0.044888474 0.060420427
0000e0 a0 18 46 3d e4 f9 ee 3b 3c 9c d8 3d f8 ca 9f bd
       0.048363328 0.007292973 0.10576674 -0.07802385
0000f0 a9 c6 8c 3c b1 bd 98 bd c8 1b 42 3d 25 fd 06 bd
       0.017184572 -0.07458056 0.047389776 -0.03295626
000100 ef 21 41 3d 79 cc 84 bc 2e e9 0f 3e 85 b2 52 bd
       0.047151502 -0.016210781 0.14053795 -0.05143978
000110 c7 ff 7f bd 3c c8 80 bd d2 b4 f7 3d 03 d0 50 3d
       -0.062499788 -0.06288192 0.120950356 0.050979625
000120 a8 2f 03 3e 7a eb bc bd 4e b2 e7 bd 0a c2 b3 bd
       0.12811148 -0.09224601 -0.11313306 -0.087772444
000130 e3 18 99 bd 6b 04 6b 3d d0 07 51 3d 7d 80 de 3d
       -0.0747545 0.05737726 0.05103284 0.10864351
000140 75 cd 6c bd c3 56 a1 bd a1 ff 8e 3d 4b c9 3b bd
       -0.057813127 -0.078778766 0.06982351 -0.045846265
000150 8c ce 9f 3d 9a 8a d8 bc 8f e0 94 3d fd 18 c0 bd
       0.078030676 -0.026433278 0.07269394 -0.09379766
000160 55 71 78 bd aa 69 1e 3d bd 76 dc 3c 32 7e fb bc
       -0.060654957 0.038674988 0.026912088 -0.030699823
000170 a3 54 97 3d b0 2e ac 3d 71 33 b6 bd 46 20 86 bd
       0.0738919 0.084073424 -0.088965304 -0.065491244
000180 42 2c e7 3d 67 9d 29 bd c0 5b 32 bd 88 c7 f3 bd
       0.112877384 -0.041409876 -0.04354453 -0.11903292
000190 58 d9 a4 bd 39 39 aa 3c 5a 85 d6 bc 89 4e cb bd
       -0.080492675 0.020779239 -0.026186634 -0.09927089
0001a0 02 06 e6 bb 62 79 c0 bd 7a 24 ea bd 44 15 9f bd
       -0.007019759 -0.09398152 -0.114327386 -0.07767728
0001b0 bd e6 f0 bd c4 c6 b4 bd fe bb e7 3d 7f d9 5a 3c
       -0.1176276 -0.08826974 0.113151535 0.013357519
0001c0 67 b5 e5 3c 83 61 ff bd 4f d3 b9 bd 49 56 50 bd
       0.028040601 -0.12469771 -0.09073507 -0.050863538
0001d0 91 4a 19 3c 3c 14 f2 bd bd e0 80 bd 7a 2d ab bd
       0.009356157 -0.11820266 -0.062928654 -0.08358283
0001e0 79 7a 1c bc fa 1f 64 bd b4 e8 96 bc 44 15 bf bd
       -0.009550684 -0.055694558 -0.018421508 -0.09330228
0001f0 f3 4a c1 bd 3b 54 a7 bd ec 18 55 bd b8 3a db bd
       -0.094381236 -0.081703626 -0.05202572 -0.10704559
000200 d0 1c bf 3d 36 94 0c bd df a3 c4 3d a9 27 e9 3c
       0.093316674 -0.034321032 0.096015684 0.028461294
000210 e5 00 a4 bd 71 f0 e5 3d cc f9 c0 bc 96 1b 16 bd
       -0.08007983 0.11227501 -0.023556612 -0.0366474
000220 fb 6c bb bd 3d a3 e4 bd bb 67 3c 3d 63 a2 83 bc
       -0.09151646 -0.11163948 0.045997363 -0.016068643
000230 0a be 70 3d 64 93 b8 bd d9 8e d1 3d e2 8c a2 bd
       0.058774985 -0.090124875 0.10232324 -0.079370275
000240 a8 4d 27 bc 7e c9 16 3d 0c fe 98 3d 35 70 e2 3d
       -0.010211386 0.03681325 0.074703306 0.11056558
000250 e7 92 fc 3d 81 0f b1 bd 0f 02 2c 3d 14 aa 2c bd
       0.12332707 -0.08645535 0.04199415 -0.042154387
000260 e4 bc 47 bb fd 49 a8 bd 46 c0 f8 3d f4 6a a7 bd
       -0.0030477578 -0.08217237 0.12146048 -0.081746966
000270 1d 98 96 3d d7 26 4d 3d 58 ef 3b 3d 8a 45 7c bd
       0.07353232 0.05008587 0.045882553 -0.061589755
000280 1f 85 ed 3d 45 ba f8 3c 02 52 97 3c 37 eb d9 bd
       0.115976565 0.030362258 0.018471722 -0.10640567
000290 8b 38 5a 3d 42 2f 8d bc 99 aa 27 bd 39 ff f5 3d
       0.05327658 -0.017234448 -0.04093418 0.120115705
0002a0 72 e6 28 3d 65 cc 5f bd c7 c4 48 bd fd 6d ef 3b
       0.041235395 -0.054638285 -0.049015786 0.007306813
0002b0 69 a6 a7 3d f8 59 96 bc 48 14 6a bd f5 30 ee bc
       0.08186037 -0.018353447 -0.057148248 -0.029076079
0002c0 0f 91 a1 bd bd 53 69 3d d7 e1 dd 3d d2 93 d2 bd
       -0.07888996 0.056964625 0.10834091 -0.10282101
0002d0 6a 99 2a 3d bf fa 9c 3d eb ec 10 3d 57 19 fc bc
       0.041650213 0.076650135 0.035382193 -0.030773802
0002e0 08 54 9e 3d 7e 3a 9f 3d b5 07 72 3d b1 5f 0c bc
       0.077308714 0.077748284 0.05908938 -0.0085677365
0002f0 07 03 a0 bc 66 e1 d6 3c 3a 41 0e bc 3e 7d c1 bc
       -0.019532694 0.026230525 -0.008682543 -0.02361929
000300 c2 e3 bb 3d fb 65 f3 3d f5 ba 65 3a e0 87 6d bc
       0.09174301 0.118846856 0.00087635155 -0.014497727
000310 14 70 73 3c 02 30 bb 3b 1a 89 f5 3a 95 19 a7 3b
       0.0148582645 0.00571251 0.0018732876 0.005099485
000320 c6 e4 fa bd ae d7 66 bd bf a5 bd 3d 66 d8 16 3d
       -0.12250666 -0.056358032 0.09260129 0.036827467
000330 8d 88 8d bc fc de ae bd d7 1b b1 bd f0 a8 f8 bd
       -0.017277027 -0.08538625 -0.08647888 -0.12141597
000340 c3 e3 51 bd 00 f9 f9 3c 54 4f 8a 3d 4c 94 3c 3d
       -0.0512426 0.03051424 0.06753412 0.046039864
000350 db 72 f4 bd 05 87 ac bd c6 26 ef bc 12 0c e1 3d
       -0.119359694 -0.084241904 -0.029193293 0.1098863
000360 8f c9 18 3c dd f9 21 bd 9a d3 34 3d 75 03 58 bd
       0.009325399 -0.03954493 0.04414711 -0.052737672
000370 92 4b ad bd f2 a0 af 3d d1 d1 72 bd d5 c2 df bc
       -0.084616795 0.0857562 -0.059282128 -0.027314583
000380 5f 06 ff bd e4 6c a5 3d 0a 77 bc 3d dd e4 33 3d
       -0.12452387 0.0807741 0.092023924 0.043919433
000390 95 3c b1 bd 5d e6 f9 bd d1 91 cd bd 86 5d bb 3d
       -0.08654133 -0.122021414 -0.10037578 0.091486976
0003a0 5f a3 3c 3d d2 b6 bb 3d 19 c8 59 3d c4 49 a5 3c
       0.04605424 0.091657296 0.053169344 0.020176776
0003b0 56 88 44 bc 87 9b d5 bd 74 c2 ed bd a1 c0 00 be
       -0.011995396 -0.10430055 -0.116093546 -0.12573482
0003c0 62 08 23 3d b8 6d 91 bd 69 c4 10 bd 0a b8 a6 bd
       0.039802916 -0.07101005 -0.03534356 -0.081405714
0003d0 5b 25 07 bd d3 10 c7 bd fd 5a ba bd 5c f2 f7 3c
       -0.03299461 -0.09720006 -0.09099386 0.030266933
0003e0 5b 1c 41 bd ff fd 85 3d 06 04 4d bd 89 8f ce bd
       -0.047146183 0.065425865 -0.050052665 -0.10085971
0003f0 1d 3a 04 bd d8 d5 8f bd 1a 85 45 bd ed cf 02 be
       -0.032281984 -0.07023209 -0.04822264 -0.1277463

model.base_model.net.0.bias f4 [64]
000000 6b 50 97 bd bd 30 db bd 25 f2 d0 3d f9 fa 3c 3b
       -0.073883854 -0.107026555 0.102024354 0.0028836115
000010 5d 04 8c bc b3 41 d4 bd ce da dc 3d b2 6e 91 bd
       -0.017091924 -0.10364094 0.10783921 -0.071011916
000020 d8 ab 51 3d 53 8e 9f b9 63 39 f9 ba 92 83 69 3d
       0.051189274 -0.00030432883 -0.0019014295 0.05701024
000030 41 71 06 bd e2 bf 94 bc 06 aa e4 3d 04 6e d7 bd
       -0.03282285 -0.018157903 0.11165242 -0.10519031
000040 cd 44 8c 3d ae 4c a7 bc ae 17 da bc e9 d9 ba 3d
       0.0684906 -0.020422306 -0.02662262 0.09123594
000050 85 ae f2 3c fb f7 ec bd f7 d3 fd 3d 2e e8 41 bd
       0.029624233 -0.11570736 0.12393945 -0.047340564
000060 26 59 c4 3d 33 b8 e2 bc 7c df 07 3e bd 07 3f 3d
       0.09587316 -0.027675724 0.13268846 0.04663824
000070 e9 09 00 3c 40 1e 3a 3d 87 2d 87 bc 89 17 8b bd
       0.007814863 0.045439005 -0.016501201 -0.06791598
000080 29 4c a5 3d 8e 8a bc 3d a3 07 00 bc 70 d4 03 3e
       0.08071167 0.09206115 -0.007814321 0.12874007
000090 df 2a 9c 3c 58 6e 92 bd e4 55 6b bd 58 64 b9 3d
       0.019063411 -0.07149953 -0.05745496 0.09052342
0000a0 24 ad 58 bd 9b 72 b4 3d 1a 34 e8 bd 7e 75 aa ba
       -0.052899495 0.08810922 -0.113380626 -0.0013004986
0000b0 62 b7 9c bd 87 3c 41 3d 07 5c c2 3d 70 9c 7e 3d
       -0.07652165 0.047176864 0.09490209 0.06216091
0000c0 ce 26 04 bd c2 d4 03 be d3 cf 79 bd 5c bb 99 bd
       -0.03226357 -0.1287413 -0.060989212 -0.07506439
0000d0 c3 14 01 3e 02 f8 87 bd 43 2c 6e 3d 67 fe b4 3d
       0.12605576 -0.066391006 0.05814768 0.08837586
0000e0 7f 91 7f 3d f5 78 00 be e8 df 19 3b 12 f8 0b bd
       0.062394615 -0.12546141 0.0023479406 -0.034172125
0000f0 27 fe bb 3d e0 2c a7 bb 64 ad 33 bc 55 1f ff 3d
       0.09179335 -0.005101785 -0.0109666325 0.12457148

model.base_model.net.2.weight f4 [64, 64]
000000 e3 da 75 3d 57 2c 3d 3d 36 cb 01 bd d4 6c 90 3d
       0.0600232 0.046184864 -0.031687938 0.07052007
000010 c2 3f 1c 3c 0c e6 d7 bb 7a f2 e2 3c 68 e4 c0 bd
       0.009536685 -0.006588703 0.027703512 -0.09418565
000020 2c 5e d6 bb 46 ca 62 3c fb ac 01 be 4c 05 a9 bd
       -0.006541988 0.013842171 -0.12663643 -0.082529634
000030 13 b9 82 3d 17 f2 ec 3c b0 26 4f 3c 55 f3 55 3a
       0.06382956 0.028924031 0.012643501 0.00081615645
000040 15 02 3d bd f0 89 ec 3d 5a 54 0b 3c bc 75 ee bc
       -0.046144564 0.11549747 0.008503998 -0.029108874
000050 a0 70 98 3d 02 a7 f5 bd bf 6e 52 bb d5 3a 0f 3d
       0.074433565 -0.11994745 -0.0032109467 0.034968216
000060 d8 7c 3c bd 7e 43 a1 3d 33 de bc bd ab c5 fc bc
       -0.046017498 0.07874201 -0.09222069 -0.030855974
000070 97 3a 23 bd 5d 0e c4 3d d5 45 20 3d b4 d0 b1 bd
       -0.039850798 0.09573052 0.039129097 -0.08682385
000080 5f d5 88 3d 00 c4 3c bb 36 a0 cd 3d 95 c0 aa 3d
       0.06681322 -0.0028803349 0.100403234 0.08337513
000090 52 60 98 bd d8 b9 c6 3d 72 b5 23 bc 07 6b 90 bc
       -0.07440247 0.09703416 -0.00999199 -0.01762916
0000a0 e7 a1 97 3c 7d 2f 0c 3e 01 90 1b 3c f8 f5 0a be
       0.018509818 0.1368999 0.009494782 -0.13570392
0000b0 a9 5e 9f bd 5e 4f 02 3e 11 a0 7f bd ed 3b b4 bd
       -0.07781727 0.12725589 -0.06240851 -0.088004924
0000c0 09 da a9 bd b3 84 a1 bd e4 f9 c0 bd 29 47 85 3c
       -0.0829354 -0.078866385 -0.09422663 0.016269283
0000d0 e7 35 91 3d bf 08 b3 3d 3d d8 1c 3d 3a c1 2f bc
       0.07090359 0.087419026 0.03829216 -0.010727221
0000e0 22 96 07 3d f9 f7 7b 3d 20 c4 a4 bd d0 48 97 3d
       0.033102162 0.061515782 -0.080452204 0.07386935
0000f0 05 2d 9c bd 9a d7 f2 3d 48 0e 89 bd bc 90 54 3d
       -0.07625774 0.11857529 -0.06692177 0.051895842
000100 09 36 db bc 19 a7 7b 3d b9 52 99 3c b1 5d b3 bd
       -0.026759164 0.061438654 0.018716203 -0.087581046
000110 27 65 53 3d 70 f8 7a 3d 54 87 7d bd e6 a3 a1 bd
       0.05161014 0.061272085 -0.061896637 -0.07892589
000120 b3 b8 a8 bd 2b c8 a3 bc 8b ec ea ba c8 18 94 3c
       -0.082383536 -0.019992908 -0.0017923279 0.018078223
000130 8a 62 bb 3b 0a 8f 5b bd 46 89 8b 3d 59 94 3b 3c
       0.005718534 -0.05360321 0.06813292 0.011448943
000140 11 2e 99 bd 1b 31 1a bd ea 7d b3 bd 1e 56 56 bd
       -0.074794896 -0.037644487 -0.087642506 -0.05232822
000150 4d 38 f3 bd 48 52 f9 3c ff 24 df bd 06 33 df 3c
       -0.11875973 0.030434743 -0.10895728 0.02724601
000160 3d 96 b0 3d c7 93 c4 bd b2 09 95 bd 4f 8b c6 bd
       0.08622406 -0.09598499 -0.0727724 -0.0969454
000170 6a 5a e0 3c f9 d6 1c 3d d6 81 7d bd ed 36 7f 3d
       0.027386863 0.03829095 -0.0618914 0.06230824
000180 53 5e 28 3d 04 f3 d9 bd fd 1b 83 ba 26 11 77 bd
       0.04110558 -0.10642055 -0.0010002848 -0.06031909
000190 9c 95 68 bc 3f 70 9c 3d aa bb 94 bc d1 1f b9 bd
       -0.014195826 0.07638597 -0.018155891 -0.090392716
0001a0 80 92 ce 3d da eb f3 bd 04 e0 8a bc 87 8f 66 3d
       0.100865364 -0.119102195 -0.016952522 0.056289222
0001b0 97 e2 17 3e c5 70 ed 3d d0 81 5b bc 0c 0f 95 3d
       0.14832531 0.11593775 -0.013397649 0.072782606
0001c0 cc 58 f3 bd 20 e2 b2 bc 8c 47 85 bc 71 a3 28 3d
       -0.11882171 -0.02183634 -0.016269468 0.041171495
0001d0 9c f2 c9 bd 08 88 74 3d 0c 25 de 3d 1c ab d1 3d
       -0.09860727 0.059700042 0.1084691 0.10237715
0001e0 f0 cb 2d 3c fa 12 ee 3d a3 66 0f be 5d 64 1f bd
       0.0106077045 0.11624713 -0.14003997 -0.038914073
0001f0 39 85 34 3d 9a 77 89 3c 6a b2 81 3d 38 76 d3 bd
       0.044072364 0.016780663 0.06332858 -0.10325283
000200 5d 04 db 3d 25 f2 01 be 70 8d a3 bd e4 9a 8f bc
       0.106941916 -0.12690027 -0.079859614 -0.017529912
000210 c2 ff 02 be 37 ba ca bd ff fe e3 bd ac c4 e0 3d
       -0.12792876 -0.09898799 -0.11132621 0.10975012
000220 41 ad 97 3c 05 c3 a5 bd 2a b2 a1 bc df f1 fa bd
       0.018515231 -0.08093838 -0.019738276 -0.122531645
000230 93 1b 05 be 79 93 79 bd ac 9a d6 bd de d9 92 3d
       -0.129988 -0.060931657 -0.1047872 0.07170461
000240 f1 54 12 bd 77 9e c1 bc aa 7d b1 bd f4 8c 0e 3d
       -0.035725538 -0.023635132 -0.08666547 0.034802392
000250 4c a8 51 bc 5f 39 cc bd 13 57 ca 3d 42 74 07 3e
       -0.012796473 -0.0997188 0.09879889 0.13227943
000260 af 70 c4 bd 6a 28 a3 3d 59 0f f3 bb 99 b4 89 3a
       -0.09591805 0.07966693 -0.007417601 0.0010506093
000270 32 3b 8f 3d 2f 18 2e bd 93 ca c7 3d 86 b8 a8 3d
       0.069937125 -0.042503532 0.09755435 0.0823832
000280 51 cc 85 bd 19 c1 93 bd e2 a3 0a be dd 2a 59 3d
       -0.06533111 -0.07214565 -0.13539079 0.053019393
000290 b8 ee c7 bd 77 e9 ef bd 78 93 8e bd 61 a0 e8 bd
       -0.09762329 -0.11714452 -0.06961721 -0.11358715
0002a0 9a 4e f6 bd 22 ea fa 3d a1 3b 2c 3d 68 f6 c3 3d
       -0.12026711 0.122516885 0.042049054 0.09568483
0002b0 59 4b c4 bd 88 15 27 bd e5 5f 88 bd 1e 2c cb bc
       -0.09584684 -0.04079202 -0.066589154 -0.02480131
0002c0 af cd 98 bd 54 ef 21 3c 28 ec d8 bd b2 94 04 3c
       -0.07461106 0.00988372 -0.10591918 0.008092092
0002d0 3b f7 0d 3e e3 86 44 bc 98 0d 43 3d 2f 63 cb bd
       0.13863842 -0.01199505 0.047620386 -0.09931027
0002e0 44 fb 4c bd 97 d2 ae bd 14 ac 5d 3c 4c 98 22 bd
       -0.050044313 -0.085362606 0.013529796 -0.039696023
0002f0 3f 75 7a bd 5d 4b ca bd 0b 4d 69 bd 8f ec 2d 3d
       -0.06114697 -0.09877656 -0.05695824 0.042461928
000300 55 4f 1e bd 9e 4f eb bd 85 bd b8 3d bf 5e c1 3d
       -0.038649876 -0.11489795 0.09020523 0.094418995
000310 0f ee 97 bd 30 13 42 3c a2 82 a4 3d de 1f f4 bd
       -0.07418453 0.011845395 0.08032729 -0.11920141
000320 52 0a df bd 4e 8c cd 3d 56 08 0f 3c 91 0e 4a 3d
       -0.1089064 0.100365266 0.008730015 0.049330298
000330 46 85 36 bd 65 7e 34 3c 68 ce a3 3d 21 de e3 bc
       -0.044560693 0.011016463 0.07998353 -0.02781588
000340 e0 ed 25 bd b8 69 fa bd dc b7 ee bc 78 a6 90 3d
       -0.04051006 -0.122271955 -0.029140405 0.070630014
000350 89 93 f6 bd f9 86 a2 bb 2e c6 a9 3d f9 cf 73 bd
       -0.12039859 -0.0049599377 0.08289753 -0.05952451
000360 d6 c0 43 bd 79 ec 1e bd f7 67 60 bd 80 ca 4e 3c
       -0.047791325 -0.038799737 -0.05478665 0.012621522
000370 18 fc fe bd 96 c6 5f 3d 5c 38 f9 bc 06 65 bd bc
       -0.12450427 0.054632746 -0.030422382 -0.02311946
000380 b9 b3 ba bc 58 ad 67 3d bb ea 92 bd 99 78 ee bd
       -0.022790777 0.056561798 -0.071736775 -0.11644096
000390 a0 f8 b9 bd d3 30 b0 bd fa 69 81 bd 3a 82 d0 3d
       -0.090806246 -0.086030625 -0.063190416 0.10181089
0003a0 e5 51 b8 bd 4f 74 99 bd e7 cf aa bd de 44 80 bd
       -0.08999995 -0.07492887 -0.083404355 -0.062631354
0003b0 15 d6 bc 3c 44 ff 8f bd 41 76 b5 3c ac 96 37 3d
       0.023051301 -0.0703111 0.022151114 0.044821426
0003c0 1e 6f d8 bc f2 81 5b 3d 4b 00 3b 3d 42 f4 fe 3d
       -0.026420172 0.053590722 0.045654576 0.12448932
0003d0 62 32 87 bc 0c 05 04 3e 14 60 f4 3d 8e d5 85 3d
       -0.016503517 0.1289255 0.11932388 0.06534873
0003e0 5e f3 bf 3d 50 05 ac bd 47 b6 cc bd 12 08 6d 3d
       0.093725905 -0.08399451 -0.09995704 0.057869025
0003f0 83 05 3f 3d f2 4f d4 3d 4e b8 68 bc 73 ac 2b bd
       0.046636116 0.10366811 -0.014204098 -0.041912507

model.base_model.net.2.bias f4 [64]
000000 7e 09 09 3e cd ca 01 3d 67 11 f6 3d 2e c9 33 3d
       0.13382527 0.031687547 0.12015038 0.04389303
000010 b4 e6 19 3b ab 99 9e 3d d9 a5 a1 3d e3 5c 5b bc
       0.0023483457 0.077441536 0.07892961 -0.013388845
000020 9d cd b6 3c bd 4c d4 3b 26 69 c9 3d cd ac 64 3d
       0.02231484 0.0064788745 0.098345086 0.05582886
000030 e2 ba 12 bc 7a 24 02 3e 23 3d 07 3e 41 e2 e4 3d
       -0.008955689 0.12709227 0.13206916 0.11175967
000040 b5 40 0c 3d 77 9d ab 3c 31 94 6f bd ed 5a ad 3d
       0.034241397 0.020949109 -0.058490936 0.08464608
000050 23 2a 9e bd 37 2c f0 bd 4f 30 4a 3d b0 0d dc bd
       -0.07722881 -0.11727183 0.049362477 -0.10744798
000060 d3 7e 0b 3d a6 96 8a bd 44 4b d3 bb 61 30 61 bd
       0.034056496 -0.06767015 -0.0064481813 -0.05497778
000070 52 4b e4 3d 74 7f a7 bd a4 4e 70 3c 80 52 eb 3b
       0.11147179 -0.08178607 0.014667187 0.0071814656
000080 02 0b 02 be c5 f1 d9 3d 1b 49 ff 3c 11 50 d1 bd
       -0.12699512 0.10641817 0.03116279 -0.102203496
000090 ce 46 09 be ff 10 44 3d cb b3 e6 3d 27 52 9f bc
       -0.13405916 0.04786777 0.112647615 -0.019448353
0000a0 1f 31 d2 bc a5 c0 ca bd 2c 4f c3 3d f7 12 50 bd
       -0.025658188 -0.09900025 0.09536585 -0.050799336
0000b0 0d 87 89 bd 1d cc 2c 3d c2 83 d4 3d 0a 6a 5b 3d
       -0.06715212 0.042186845 0.10376693 0.053567924
0000c0 5c d3 3a 3d b2 24 f3 3d 70 27 99 3c fb 28 ef 3c
       0.045611724 0.118722335 0.018695563 0.029194346
0000d0 2a 5a 7e 3b 31 f0 b7 bd 49 a7 8e 3c 75 d0 81 bd
       0.0038811066 -0.0898136 0.017413752 -0.06338588
0000e0 21 94 a6 3d 1b 71 be bd a6 52 b7 bd 85 f0 0a bd
       0.08133722 -0.09298917 -0.08951311 -0.033920784
0000f0 44 99 b1 3d ae 14 a9 bd 38 b7 42 bd 0c c6 d1 bb
       0.08671811 -0.082558975 -0.047538012 -0.006401783

model.base_model.net.4.weight f4 [64, 64]
000000 c3 06 85 bd 23 42 8c 3d bb 2d bf 3d b1 6e 99 3d
       -0.0649543 0.06848552 0.09334894 0.07491816
000010 7e 4d 76 bb 1a 17 e7 bd f1 79 ef bd 04 7a 0a bd
       -0.003758281 -0.11283703 -0.1169318 -0.03380777
000020 17 84 ed bc 1c 1c de bd cb bb 71 3c 2f 62 18 bd
       -0.02899365 -0.10845205 0.014754246 -0.03720301
000030 c5 87 cb 3c e6 7b 9f bd 4c 91 cc bc 83 5e 58 bd
       0.024845013 -0.077873036 -0.024971627 -0.05282451
000040 96 5e 79 3d af b8 02 be 5d 8f 34 bd 12 65 23 3d
       0.06088122 -0.12765764 -0.044082034 0.03989131
000050 53 f3 46 bd df 15 7b 3b 2b 89 90 3d 30 2d 4d 3b
       -0.048571896 0.0038312597 0.07057413 0.0031307451
000060 cb b0 09 3d 6f f9 5e 3d eb af 52 bd d5 ea 0d bd
       0.03361587 0.054437097 -0.0514373 -0.03464778
000070 9f 3b 3a 3d b4 67 07 3d ac f8 b9 3d c4 6c 06 bd
       0.045467015 0.033057883 0.090806335 -0.03281857
000080 fd 34 00 3e 7c 87 81 3d 1e ee 41 bd 4a fd 82 bd
       0.12520213 0.0632467 -0.047346227 -0.06395967
000090 44 1c 0d 3d 1e 3b c2 bd 7b 68 8a bd 5a e3 dc 3c
       0.034450784 -0.09483932 -0.06758209 0.026963878
0000a0 a9 b3 9f 3b 65 ed 74 3d 21 d7 8c bd a8 27 ed 3d
       0.004873712 0.05979671 -0.0687697 0.115798295
0000b0 21 01 71 bd 1f ac 49 bd 3a 3c a9 3d 1a e1 df bb
       -0.058838967 -0.049236413 0.082634404 -0.006832254
0000c0 67 10 d8 3c c6 7b 07 bd 1f 4a e0 bd 50 4b c4 bb
       0.026375009 -0.033077024 -0.109516375 -0.0059904233
0000d0 51 13 32 3d 8e 14 bc 3d 79 5f ea 3d 9f 78 b5 3c
       0.043475453 0.09183608 0.11443991 0.022152243
0000e0 06 c6 6b 3d 13 52 5f 3d f1 8b 33 bc 94 fc 03 3c
       0.057561897 0.05452163 -0.010958658 0.008055825
0000f0 58 64 12 bc a0 a4 a8 3c 78 0c ec 3a 58 63 ae 3d
       -0.008935057 0.020586312 0.0018009087 0.08515042
000100 26 26 ec bb 5a ec a4 bd 89 d3 5b 3d 16 6f 9c bd
       -0.007206696 -0.08052893 0.053668533 -0.076383755
000110 4a 4a 59 3d 76 68 f2 3d 1d a8 11 3d 5d 30 b5 bc
       0.053049363 0.118363306 0.035560716 -0.022117788
000120 16 e1 91 bc 22 bb 9a 3d 2f 7f 9f bd 98 7d 37 bd
       -0.017807525 0.07555224 -0.0778793 -0.04479751
000130 bd 22 7f bd 29 e4 cc bd 3a 62 98 bd 91 04 82 bd
       -0.06228899 -0.100044556 -0.0744061 -0.06348527
000140 8f cc e5 3d 00 ea be 3d a4 9c bc bd 6f 62 e7 bd
       0.11220657 0.09321976 -0.09209564 -0.112980716
000150 7c 96 01 3e 80 d3 b3 3c a5 3b 95 3d 0a 23 14 3d
       0.12655061 0.021951437 0.07286767 0.03616623
000160 23 8d 87 bd c6 f5 b1 bd 43 5f 4b 3d b5 d1 0e be
       -0.066187166 -0.08689456 0.049651396 -0.13947184
000170 8f 95 b4 bd 94 58 be 3c 82 80 30 bd 67 51 2f 3d
       -0.088175885 0.023235597 -0.043091305 0.04280224
000180 12 4f 6a 3d e2 72 70 bd a3 de 69 bd 4d 4c a2 bd
       0.057204314 -0.05870331 -0.05709709 -0.079247095
000190 d5 6f f6 bd cc f0 a2 bc d5 a1 f1 3d 5b 52 27 3b
       -0.12033049 -0.019890212 0.11798445 0.0025531265
0001a0 49 18 9d 3d fa 03 8a bd 76 a2 f7 3c cf 54 d9 bd
       0.07670648 -0.0673904 0.030228835 -0.10611879
0001b0 fe 7e 9f bc fc 29 3b 3c 9b e8 52 bd 84 13 c5 3d
       -0.019469734 0.011423584 -0.05149136 0.09622863
0001c0 fd b1 3b 3d 9a b8 99 3d c1 9b 16 3e 3c 13 58 3d
       0.04582404 0.07505913 0.14707853 0.05275272
0001d0 d9 b0 a2 3b b5 c2 53 3d 91 45 d1 3d cd 65 18 be
       0.0049649295 0.05169936 0.10218347 -0.14882584
0001e0 cd ac 29 3c a3 50 23 3d 0d ab 55 bc e1 13 de bd
       0.01035614 0.039871823 -0.01304127 -0.10843635
0001f0 22 8f 9e bd d0 10 45 bd 4c 04 2c 3d 38 31 98 3d
       -0.07742144 -0.048111737 0.041996285 0.07431263
000200 87 9a 9a ba c9 f7 ea bd 32 e2 14 3d 2e 75 f2 3c
       -0.001179532 -0.114730425 0.03634853 0.029596891
000210 88 18 90 bd 48 15 77 3d 90 7e 0e bd bf b7 2f 3d
       -0.07035929 0.06032303 -0.03478867 0.042899843
000220 79 df 9b 3d 5e 3d a1 3d 9c 12 df 3b 01 50 db 3d
       0.076109834 0.07873033 0.0068076383 0.10708619
000230 ac ad 47 3b 98 13 c7 bd a5 9b d9 3d 32 f4 08 3e
       0.0030468507 -0.09720534 0.1062539 0.13374403
000240 b2 70 9a 3d 67 d1 00 3e 6f ad 71 3d 19 61 11 3d
       0.07541026 0.1257988 0.05900329 0.03549299
000250 a8 16 b5 3d 62 a3 d7 bd 12 87 76 3c a5 1b 13 bd
       0.08842212 -0.1052921 0.015046852 -0.035915036
000260 d7 7f 68 3c 66 be 05 be 49 29 34 bc 6d fa 00 3d
       0.014190636 -0.13060912 -0.010996171 0.031488825
000270 1c f5 f1 bc d1 5a 83 bd 42 d3 be bd fb c7 5d 3d
       -0.029535823 -0.06413806 -0.09317638 0.054145794
000280 f6 25 ed bd 5e 9a 38 bc 52 68 b3 3c 59 85 01 3d
       -0.11579506 -0.011267273 0.02190033 0.03162131
000290 18 43 f4 bd a7 e8 68 3c 3b 77 12 bd 1c 4b c1 bb
       -0.119268596 0.014215625 -0.03575824 -0.0058988463
0002a0 cb 32 aa bd e1 d2 d4 bd 30 dd 12 3d 13 9e fc 3b
       -0.08310469 -0.103917845 0.035855472 0.0077092736
0002b0 0a d3 c1 3d 8e a7 cd 3d b0 50 be 3d 41 21 ee 3c
       0.09464081 0.10041724 0.09292734 0.029068591
0002c0 e8 19 c2 3d 57 92 89 3d 65 48 bf bd bf 61 bc 3d
       0.094775975 0.06717365 -0.0933998 0.09198331
0002d0 cb 92 fe 3c 93 41 2a bd 09 79 6f bd e0 f9 91 3d
       0.031075856 -0.041566443 -0.058465037 0.07127738
0002e0 3f f6 f6 3d cb ac 07 bd a9 64 ea bc 75 98 9b bd
       0.120586865 -0.033123773 -0.028612452 -0.07597438
0002f0 81 fb 87 3d 93 08 6e bd 6d e6 c0 bd 33 f0 a8 bd
       0.066397674 -0.058113646 -0.0941895 -0.08248939
000300 19 b7 4b 3d 46 90 a9 3d 24 58 34 3d 09 46 2d 3d
       0.049735162 0.08279471 0.04402937 0.04230312
000310 57 b9 fc bd b5 0a 96 bd 66 02 68 bd b7 15 a4 bd
       -0.12340038 -0.07326261 -0.056642912 -0.08011954
000320 8b a8 8e bd 6d 7b 73 bd 96 a8 b3 bc d0 5e ba bd
       -0.06965741 -0.05944388 -0.021930974 -0.09100115
000330 00 d4 52 3d d3 95 93 3c 67 5c be 3c 0a ce 90 3d
       0.05147171 0.018015778 0.02323742 0.07070549
000340 67 14 c0 bd 81 0e 07 bd fe e1 5b bc d3 db 07 be
       -0.093788914 -0.032972816 -0.01342058 -0.1326745
000350 f3 fb a9 3d 14 a1 d4 bd ae c4 cf 3d 9b da 10 3e
       0.083000086 -0.10382286 0.101449355 0.14145891
000360 38 84 b5 3b b0 f7 a5 bd ea 79 8e 3d a5 cb cc bd
       0.0055394433 -0.08103883 0.06956847 -0.099997796
000370 65 cb bd 3c bf 6f 84 3d ba cc d5 3d fd be ef 3c
       0.023168275 0.064666264 0.10439439 0.029265875
000380 0a d0 ab bc df 6c 85 3b 4b 4c d8 bd d2 fb 8c 3c
       -0.020973224 0.0040718163 -0.10561427 0.017209921
000390 b0 51 e4 bd 12 65 f4 39 d2 b9 81 bc 5e be b1 3d
       -0.11148393 0.0004661461 -0.015835676 0.08678888
0003a0 be 18 2c bd a7 4d a9 3d 00 32 2f bc 2b 78 1c bd
       -0.042015783 0.08266764 -0.010693073 -0.03820054
0003b0 dc 34 02 be 1c 6f ba 3d 62 45 56 3c 76 65 07 be
       -0.12715477 0.09103224 0.013078066 -0.13222298
0003c0 a1 9c 9a 3c b9 2b 86 3d 8c b3 59 bb 91 2c d3 3d
       0.018873515 0.06551308 -0.003321859 0.10311235
0003d0 ff 96 9e 3d 23 ff df bc 71 15 d4 3d 78 a0 74 3d
       0.07743644 -0.027343338 0.10355652 0.059723347
0003e0 ad 86 8e 3c e0 05 05 bd 9f 7d 68 3d 8b d2 59 bd
       0.017398203 -0.032476306 0.056760427 -0.053179305
0003f0 a8 da 90 3d b9 54 d1 bd ec a6 a1 bd e3 66 47 3d
       0.07072955 -0.10221238 -0.07893166 0.048682105

model.base_model.net.4.bias f4 [64]
000000 a1 da 8c 3d 26 7f e0 3d 16 6c 40 3d 1c 02 e1 3d
       0.06877638 0.10961752 0.04697808 0.109867305
000010 0e ad 5c bd 9a 08 b8 bd 6a e1 b4 bd bf f3 e2 bc
       -0.053875975 -0.089860156 -0.08832057 -0.027704118
000020 2b de a4 bc 54 b8 8d bd ae 70 0e bd b9 4a 4e bd
       -0.02012547 -0.069199234 -0.03477543 -0.05036423
000030 46 46 06 3e 3e 08 7f 3a 00 5a e4 3d f7 51 98 3b
       0.13112745 0.0009728706 0.11149979 0.004648443
000040 b9 4f 0f 3d 71 1a a9 3d df d6 fd bd 2f 20 82 bd
       0.03498814 0.082569964 -0.12394499 -0.06353795
000050 de f4 ab bd 50 eb 05 3e 6e 2c 4d 3d eb 56 5d bd
       -0.08396314 0.13078046 0.0500912 -0.05403797
000060 b9 c0 bc bd 74 e2 9c 3d 4b 8e d4 3c 68 b2 8a bd
       -0.092164464 0.0766038 0.025946757 -0.067723095
000070 61 15 cb bd fe b2 5e bd 2d df b2 3c a1 37 ed bd
       -0.09916187 -0.05436992 0.021834934 -0.11582876
000080 e2 ae f4 bb cf d4 b0 3d c7 e0 9f 3d c9 0d c1 3c
       -0.0074671367 0.0863434 0.07806545 0.023566144
000090 9a 68 bb 3b 2f 74 0b 3d b5 da 78 3d 9b 1f bb 3d
       0.0057192566 0.03404635 0.06075545 0.09136888
0000a0 78 8d d3 3c ea d2 82 3d 4b 3b c2 3d f7 51 d2 bd
       0.025824293 0.06387885 0.094839655 -0.1026954
0000b0 9d 88 96 bd 42 55 9e 3d b2 44 94 3c 5a 62 84 bd
       -0.07350276 0.077311054 0.018099163 -0.064640716
0000c0 25 f6 33 3d a7 34 fd bd ea 73 1d bd f1 00 65 3d
       0.043935914 -0.12363558 -0.038440622 0.0559091
0000d0 29 6f 16 bc 44 50 9e bd 74 8c 62 3d ff bd 57 3a
       -0.009181776 -0.07730153 0.055309728 0.0008229911
0000e0 40 04 d6 bc dd 0a dc bd 3e d0 4b bd 47 c0 16 3c
       -0.026125073 -0.107442595 -0.049759142 0.009201116
0000f0 00 7c 96 bd b7 6a 06 3d 14 7a cd bd 14 c9 b8 3d
       -0.0734787 0.032816615 -0.1003305 0.090227276

model.base_model.net.6.weight f4 [64, 64]
000000 aa 5d d7 3d ea 7e 7b 3d 27 63 e4 bc 21 d1 09 be
       0.10515912 0.06140033 -0.02787931 -0.13458683
000010 61 8d 18 bd c8 96 31 3b 11 48 01 be c9 da ea 3d
       -0.037244204 0.002709793 -0.12625147 0.11467511
000020 f0 37 47 3d d1 93 da 3d d5 b0 c7 bd a0 6e 49 bd
       0.04863733 0.10672725 -0.09750525 -0.049177766
000030 4b 72 96 3c fa 70 90 bc 0e ca b0 bd 4f 63 d7 3d
       0.018365046 -0.017631996 -0.08632289 0.105169885
000040 9c de 89 3d c7 77 99 bc 0d 1e 03 3e 3f 92 e0 bd
       0.067319125 -0.018733872 0.12804432 -0.10965394
000050 0b f2 ec bd 62 fe 3e 3c de 6d d1 3d 3f 00 ae 3d
       -0.115696035 0.011657329 0.10226034 0.08496141
000060 4d d6 89 bd f3 ed 9d 3d e2 eb a1 3d 7c 6f aa 3c
       -0.06730328 0.07711401 0.07906319 0.020805113
000070 fc a4 bb 3d 06 b8 61 3c c0 73 61 3c c8 0a b5 bc
       0.09162328 0.013776785 0.013760507 -0.022099867
000080 d4 37 63 bd 21 b6 b9 bd db e6 02 bd 1c e3 ce bd
       -0.055473164 -0.090679415 -0.031958442 -0.101019114
000090 17 08 8e 3d bc 1c b4 3c a9 8d 09 be 8c d4 b4 bd
       0.06935137 0.021986358 -0.13432945 -0.088296026
0000a0 c0 5e c5 3d 3b 14 72 bd 42 dc 83 bc 64 40 8a bd
       0.09637213 -0.059101325 -0.016096238 -0.06750563
0000b0 0b 1d 57 bc 1e 0f 4e 3d 12 0e 1f 3d 9d c6 5e 3d
       -0.013129483 0.050307386 0.038831778 0.05438863
0000c0 f9 82 8a bc b5 84 b1 bd a1 a9 08 bc 7d 23 a3 3d
       -0.016908156 -0.0866789 -0.008341224 0.07965753
0000d0 a0 dd 34 3d c4 2c d7 3c ab 50 1d 3d 1c 48 eb 3d
       0.04415667 0.026266463 0.03840701 0.11488363
0000e0 51 76 a2 3d 4c 4f 06 bd b7 37 5a bd e9 b5 f0 3d
       0.07932723 -0.032790467 -0.05327579 0.117534466
0000f0 eb c4 57 bd 52 58 cb bd 7c 86 42 3d 66 fb 99 bd
       -0.05267803 -0.09928955 0.047491536 -0.075186536
000100 47 29 c9 bd a1 6a eb bd fa d5 85 3c 11 6a b8 bd
       -0.09822326 -0.11494947 0.016337384 -0.090046056
000110 08 6a fd 3d a8 68 18 3c e0 83 85 bd 13 28 73 bd
       0.123737395 0.009302296 -0.06519294 -0.05936439
000120 5f 19 bb bc 2e 9a fa 3d 86 53 83 bd 38 a8 cb bd
       -0.022839246 0.12236439 -0.06412415 -0.099441946
000130 aa f3 d3 3c c8 45 cf 3c 3a ce f7 bd c5 72 27 bd
       0.025873024 0.025301829 -0.120998815 -0.040880937
000140 d0 7e 00 3e f5 6f 96 bd 77 de 80 3d 5e 61 3d bd
       0.12548375 -0.07345573 0.06292432 -0.046235435
000150 00 3e e8 bd 0c 94 0a be 7c 66 a9 3d 11 9f 5d 3d
       -0.113399506 -0.13533038 0.082715005 0.054106776
000160 2e c2 1b 3d 6f 67 ed 3c 05 1e 82 3d 22 3a c8 3d
       0.03802698 0.028979985 0.06353382 0.09776713
000170 ad 11 e1 3d e8 95 ac 3d cc ee 61 3d 9d 31 15 3d
       0.109896995 0.0842703 0.055159375 0.036424268
000180 f6 18 21 3d 82 f8 ea bd 36 8f 1e 3d 8b ea 63 3c
       0.039330445 -0.1147318 0.038710795 0.0139109
000190 ba 3d 93 3d cf 24 3c bd b4 a5 b5 3d 65 e2 a1 3c
       0.07189508 -0.04593354 0.08869496 0.019761274
0001a0 d4 76 af bc 86 49 72 3b af 91 87 bd 78 a3 8b bb
       -0.021418966 0.0036970093 -0.06619584 -0.0042614304
0001b0 e5 7c f9 3d db 4c ea 3c fe 3c b6 bb 00 15 61 bb
       0.12182025 0.0286011 -0.00556147 -0.0034344792
0001c0 f0 25 9d 3c 3c dc 6b bd 7d 55 9d bd 1e 97 ef 3d
       0.01918313 -0.05758308 -0.07682321 0.11698745
0001d0 08 d8 8b 3c 16 3a 15 3d a1 ac 2f bd 43 d6 9f bd
       0.017070785 0.03643235 -0.04288924 -0.07804539
0001e0 20 3c 2f 3d 91 0d 5e 3d 79 48 d0 bd de 74 da bd
       0.04278195 0.054212157 -0.10170073 -0.10666822
0001f0 db f4 e3 bc d7 66 82 3d 61 1a d0 bd c2 3f d8 3d
       -0.027826717 0.063672714 -0.101612814 0.10559036
000200 da 95 01 3e 47 fe 1b bd f1 93 29 bb 78 29 56 bc
       0.1265482 -0.038084295 -0.0025875533 -0.01307141
000210 a8 f5 06 3e 00 6b c9 3c 14 49 69 3c c2 04 e4 bc
       0.13179648 0.024587154 0.014238615 -0.0278343
000220 d7 34 19 3c 43 58 66 bd 21 16 96 3c b2 33 fa ba
       0.009350977 -0.056236517 0.018321099 -0.0019088893
000230 de 06 77 3c fc 8b 3a 3c b7 ac e8 bd 46 9f c2 3d
       0.015077321 0.011385914 -0.11361068 0.09503035
000240 95 f4 a7 3d 0e 62 9e 3d f2 c1 cb 3d c5 9d 2d 3d
       0.08200947 0.07733546 0.099491015 0.04238679
000250 74 eb 80 3d b9 4b 4f 3d bd ba 85 3d 5a 59 81 bd
       0.06294909 0.050609324 0.06529758 -0.063158706
000260 5a 91 71 3d 1c 5d a6 bc 0c 1f 73 3d 52 3d 6c 3d
       0.05897651 -0.02030807 0.05935578 0.057675667
000270 5c a7 a9 bd db 29 95 bd 75 78 9f bd e8 05 b8 bc
       -0.082838744 -0.07283374 -0.07786647 -0.022463754
000280 f0 5b 4c 3d fe 81 9d 3c cf 1b b0 3d e9 fc d2 bd
       0.049892366 0.019227024 0.08599054 -0.10302145
000290 03 c6 60 3d bc 00 b9 3d 42 00 e3 bd 89 db ad bd
       0.05487634 0.09033343 -0.110840335 -0.08489139
0002a0 94 93 2f 3d 40 ba 21 bd 4b 15 9d 3c c7 b5 4b bd
       0.04286535 -0.039484262 0.019175192 -0.049733903
0002b0 82 0b e8 3c 19 cf eb bd 98 98 e5 3d 01 e6 bd bd
       0.0283258 -0.1151411 0.112107456 -0.092723854
0002c0 ef 41 00 be ad ee 5b bd b3 23 33 bc 8c ee 03 3e
       -0.12525152 -0.053694416 -0.010933804 0.12883967
0002d0 6e cb 1e 3d b9 83 f6 bc 2b 4c 97 bd ef e6 89 3d
       0.038768224 -0.030092107 -0.07387575 0.067335
0002e0 76 aa c3 3c 9f 12 5b bd 91 34 ba bc f1 c8 fc 3c
       0.023884993 -0.053484555 -0.022730144 0.030857535
0002f0 55 1d ac 3d 3e a8 b4 bd 36 0e bc bc fc 2b 8c 3d
       0.08404032 -0.08821152 -0.022955995 0.06844327
000300 c3 63 9e bd f7 83 7f bc e6 41 b4 3d 51 9e 9d 3d
       -0.07733872 -0.015595428 0.08801632 0.07696212
000310 c2 8d b4 bd 2a 2c 3a bd 55 16 16 3c f3 d8 c2 3d
       -0.08816101 -0.045452274 0.009160598 0.09514036
000320 44 8c 16 bd 3a df cf bd 9e 02 22 3c c9 c4 bf 3d
       -0.03675486 -0.10149999 0.009888319 0.09363706
000330 7d 86 98 bd 5f 20 06 be ef e2 aa bb 23 d0 f1 3d
       -0.074475266 -0.13098286 -0.005215041 0.11807277
000340 0d 76 ae bd 33 d5 5e 3c e1 a5 b5 3d 01 ce 86 3c
       -0.0851861 0.013600635 0.088695295 0.016455652
000350 3f 47 8d bd 19 b9 70 bd dd 67 bf bd 1a 70 c2 3c
       -0.06898355 -0.058770273 -0.09345982 0.023735095
000360 1c df 57 bd c6 5f 0d bc 32 d5 5b bc c5 3c 92 bd
       -0.052703008 -0.008628791 -0.013417529 -0.07140497
000370 1f 17 09 3e 3b a7 97 3c 70 1f 9b 3d d6 06 b2 3d
       0.13387726 0.018512359 0.075743556 0.0869271
000380 fb 99 7d 3d 02 c4 2c bd 96 51 5e bd 88 4d ad bd
       0.061914425 -0.042179115 -0.054277025 -0.084620535
000390 97 0a c2 bd 2e 77 e0 bd 28 35 80 bd 18 40 f9 3d
       -0.09474676 -0.10960232 -0.06260139 0.12170428
0003a0 73 a6 e5 bd 3c 6d 95 bd 50 97 e5 bd a2 78 98 bd
       -0.11213388 -0.072962254 -0.11210501 -0.07444884
0003b0 a5 2a ef 3d e3 6c e2 bd d9 25 a8 bd 2d 2e a4 bd
       0.11678056 -0.11055925 -0.08210344 -0.0801662
0003c0 24 38 cc 3c e5 bf d1 bc f6 e2 b9 bd cb 71 df 3d
       0.024929114 -0.025604198 -0.090764925 0.10910376
0003d0 51 19 0d 3d cf 84 bc bd df 6a 08 bd 88 04 b8 3d
       0.03444797 -0.09205019 -0.033305045 0.08985239
0003e0 4a d9 7e 3d df e9 bb bd da a9 46 bd b9 93 08 bd
       0.06221894 -0.09175467 -0.048501827 -0.033344004
0003f0 91 4d 78 3d f7 1d ee bd 06 17 01 3e 3f 47 8d 3c
       0.060620848 -0.11626809 0.12606439 0.017245887

model.base_model.net.6.bias f4 [64]
000000 9b c8 9e bd b6 16 34 bd ed b8 0c bd fd bc a2 bd
       -0.07753106 -0.04396697 -0.034356046 -0.07946203
000010 57 ea 62 3c a2 4b 0e bd 89 06 a0 bd 64 ef c4 bd
       0.013849816 -0.034740098 -0.078137465 -0.09615973
000020 b7 46 bd bd 81 ab 83 bc a8 6a df 3d dd 5c e1 bb
       -0.092420034 -0.01607299 0.10909015 -0.0068775252
000030 c4 1e 6e bd fe 2d d3 bd 71 7c f6 3c cd 7f ec 3d
       -0.05813481 -0.10311507 0.030088635 0.115478136
000040 19 28 e7 bd 54 7b d8 3d 77 16 ef 3d 01 b1 0d 3d
       -0.11286945 0.10570398 0.11674207 0.034592632
000050 7a 6b 64 3d 0a a9 44 3d 23 5c f2 bd f5 57 64 bd
       0.05576656 0.04801277 -0.1183398 -0.055747945
000060 a8 93 e2 bc 67 c4 83 bd fc fa c1 3b 4a d2 0d 3d
       -0.027658299 -0.06433945 0.0059198122 0.034624375
000070 95 de 69 3c f4 e2 77 3d 6d c6 89 bd cb 98 d7 3d
       0.014274259 0.060519174 -0.067273 0.1052719
000080 21 a7 74 bd 74 1c be 3d bb 6a de 3d 5f 4c dc bd
       -0.0597297 0.09282771 0.10860201 -0.10756754
000090 bc f0 02 be 6c 70 d2 3d 49 ee ad 3d d2 a7 b2 bc
       -0.12787145 0.10275349 0.08492715 -0.021808539
0000a0 fb c5 84 3c 05 2a cc 3c 71 94 3d bd a9 10 7f 3d
       0.016207686 0.02492238 -0.046284143 0.062271748
0000b0 00 46 4e 3d 8b 08 05 be 64 d6 07 bd a1 7a ab bd
       0.050359726 -0.1299154 -0.033163443 -0.08372999
0000c0 d4 6a 73 3d e4 aa 08 be e2 7d ed bd e8 e4 d0 bd
       0.05942805 -0.1334644 -0.11596276 -0.101999104
0000d0 d0 84 33 bd 32 b3 b9 bd af 7f 07 bd e4 a0 a1 bd
       -0.04382783 -0.09067382 -0.033080753 -0.078920156
0000e0 09 4e bd 3d cd b3 f6 3d 5b 7e 26 3d d8 56 52 bd
       0.092434 0.12046013 0.040647846 -0.051352352
0000f0 bd b4 79 3d 67 57 c9 bd b4 26 8e bd c1 9d 86 bc
       0.06096338 -0.09831124 -0.06940976 -0.016432645

model.base_model.net.8.weight f4 [64, 64]
000000 65 1e f5 bd b5 66 ea 3d 3b 7a a0 3d 86 bc 60 3d
       -0.11968688 0.11445371 0.078358136 0.05486729
000010 a4 8d 7e 3d d3 d7 fa 3d b8 be 4b bd 91 5d f3 3c
       0.062146798 0.122481965 -0.04974243 0.029707702
000020 e0 3d 36 bd a9 e2 97 bc 6e 15 cd bd 7f a4 a0 3d
       -0.044492602 -0.018540697 -0.10013853 0.07843875
000030 31 5f b0 bd 36 ea 6e bd 69 2d de 3d 27 00 91 bd
       -0.08611906 -0.05832883 0.10848505 -0.07080107
000040 b7 f2 5e 3c cf 56 e6 bd 8b ad 8f bd 10 36 ed 3d
       0.013607672 -0.11247026 -0.070155226 0.11582577
000050 c1 8f 85 3d 26 ca 0f 3c 21 b7 84 bd 56 d2 bd 3d
       0.065215595 0.008776223 -0.064802416 0.09268634
000060 e5 b3 ea 3d a3 e1 df 3c 94 42 9a bd 6a 49 cf 3b
       0.114600934 0.027329272 -0.0753223 0.0063258903
000070 e2 9b 85 3d bf dc 0d 3d 95 c9 ec 3d 2a 54 df 3d
       0.06523873 0.034634348 0.11561886 0.10904725
000080 10 ef 77 3d 36 4c b4 bd 69 c5 90 bb d5 c4 af 3c
       0.060530722 -0.088035986 -0.0044180644 0.021456162
000090 22 89 34 bd 49 81 26 3d 34 46 a6 3d 22 ea 8f bd
       -0.044076093 0.04065064 0.08118859 -0.07027079
0000a0 95 7f 2f bd 20 cf bc bd 98 de 84 3c 1f fc 97 3d
       -0.04284628 -0.092191935 0.016219422 0.07421135
0000b0 5c 97 ee 3d cc e8 83 3b 0e ee a1 3d 67 8c fc bd
       0.11649963 0.0040255543 0.079067335 -0.12331467
0000c0 5b e2 aa 39 f3 d7 d4 bc f0 b5 74 bd d0 a2 ef 3d
       0.00032593575 -0.025981879 -0.05974382 0.11700976
0000d0 ba 04 9b 3d 51 af d8 bd 52 2e ee bd 5d 6d 7b bd
       0.07569261 -0.10580314 -0.11629929 -0.061383594
0000e0 33 f0 39 3d 7a 3d 7e 3d ae e3 7d 3d bc d8 c1 3d
       0.045395087 0.062070347 0.06198471 0.09465167
0000f0 f3 b0 9c bd 06 4f 24 3c ad 73 70 bd 19 70 6f bd
       -0.07650938 0.010028606 -0.058704067 -0.058456514
000100 80 e6 51 bc f0 34 c1 bc 58 f7 ed bd 52 78 81 bc
       -0.012811303 -0.023584813 -0.11619443 -0.015804444
000110 81 38 9f 3d d7 a8 d0 3d 5f d3 3c bd 80 2d a4 3d
       0.07774449 0.10188454 -0.046100017 0.08016491
000120 22 59 28 bd 81 79 9a bd 02 99 f7 3d 9f 54 b4 bc
       -0.04110063 -0.07542706 0.12089731 -0.022013007
000130 7c f2 8f bc 56 d1 0a bd 5a f8 d0 3d 3f aa 28 bd
       -0.01757168 -0.033891045 0.10203619 -0.041177984
000140 b0 de 39 bd ae 44 93 3c f2 65 8e bd 56 23 81 3d
       -0.045378387 0.017977085 -0.06953038 0.06305568
000150 db 97 c8 3d c6 07 72 3d b9 1e 2e bd a2 3d 1c bd
       0.09794589 0.059089445 -0.04250977 -0.038144715
000160 08 1d 0c be a1 4c cd bd 77 f6 8e bc e6 cc ac 3d
       -0.1368295 -0.100243814 -0.017451508 0.08437519
000170 36 d1 08 3e 63 d9 ba bb 10 ae 25 bc 00 e4 a8 3d
       0.13361058 -0.005702184 -0.0101123005 0.082466125
000180 1e 85 29 bd 16 9e b3 bd b9 c5 ac 3d 62 01 8a bd
       -0.041386716 -0.08770387 0.0843615 -0.06738545
000190 49 d1 d0 bd 76 b0 83 3c 5e 7f a6 bd bb 1f eb bd
       -0.10196168 0.016075354 -0.08129762 -0.114806615
0001a0 0b 64 b0 bd fe b9 8c 3b b1 36 d2 3c 22 06 3d bd
       -0.08612832 0.004294633 0.025660845 -0.046148427
0001b0 d0 6a d7 bd 5e d3 64 bd a1 77 d5 3d da f1 25 bd
       -0.1051842 -0.055865638 0.10423208 -0.04051385
0001c0 5d c3 9f bd 75 9d 75 bd fb 73 d3 3d 3f 5d d3 3c
       -0.078009345 -0.059964616 0.10324856 0.0258013
0001d0 9d 6e 03 bd 04 7a e3 3d 1f 29 05 bb 15 81 9e 3b
       -0.03208791 0.11107257 -0.00203187 0.004837165
0001e0 2f d4 0c 3e f9 84 cd 3a 3f 7d f7 bc a6 85 af 3d
       0.13752817 0.0015679888 -0.03021109 0.08570413
0001f0 7c 48 59 3d 18 6e c1 bd 10 ad 89 3d 31 c6 51 bd
       0.053047642 -0.09444827 0.06722462 -0.0512144
000200 e2 20 d3 bd e0 5d ea 3d 1f 3d b7 bd b3 9d 4d bd
       -0.10309006 0.114436865 -0.08947205 -0.05019922
000210 1b 2e b3 bc f9 52 9a 3b 21 c5 2a bc 9e a8 cc 3d
       -0.02187257 0.004709598 -0.010422976 0.09993099
000220 df fa c7 3d 78 39 e9 bd 98 60 f5 bd 95 20 ea bd
       0.09764647 -0.113879144 -0.119813144 -0.11431996
000230 82 2a df 3d 76 5c 38 bc a8 fc 95 bd 1a f0 b0 bd
       0.108967796 -0.011252513 -0.07323581 -0.08639546
000240 05 6a a4 3c a6 9a fe 3c b1 44 8b 3d 58 cf c9 3d
       0.020070085 0.031079601 0.06800211 0.09854001
000250 2d 3d d4 3d 15 0c b1 bd 85 10 2f bb b3 44 9c bd
       0.10363231 -0.086448826 -0.0026712727 -0.07630291
000260 3d a7 32 bd ca f6 42 3c e5 8a 89 3d ce 4a 71 bd
       -0.043616522 0.011899659 0.06715945 -0.05890923
000270 72 f7 93 bd 23 74 22 bd 35 8f 76 3d 1a 58 a1 bb
       -0.07224931 -0.039661538 0.060195167 -0.0049238326
000280 84 d7 c6 3d e6 cb f8 bd d2 7a 2e 3d a1 d3 c8 3d
       0.09709075 -0.121482655 0.0425976 0.0980599
000290 4e 10 a9 3d f4 84 e4 bd 98 18 ba bd db 31 ae 3b
       0.08255063 -0.11158171 -0.09086722 0.005316002
0002a0 3d 65 89 3b 52 f9 93 3d 21 6c d7 3d db 8d 84 bc
       0.0041929767 0.072252885 0.10518671 -0.016180923
0002b0 80 34 23 bd 99 24 93 3d 26 81 9f bd 21 88 58 bd
       -0.03984499 0.07184715 -0.07788305 -0.052864198
0002c0 1f b3 49 3c cd 26 90 bc 68 92 a6 3d 9b ec 6d bc
       0.012310772 -0.017596627 0.081333935 -0.014521743
0002d0 e1 18 85 3c ea 94 22 3d e4 10 f6 bb 40 dd 16 bd
       0.016247215 0.039692797 -0.0075093377 -0.036832094
0002e0 c2 87 99 3d 52 23 89 3d 01 5b de bc 56 33 9c bd
       0.07496597 0.0669619 -0.027143003 -0.07626979
0002f0 83 b1 37 bd 50 cd be 3d dc 18 9c 3d 0a 5d 02 bd
       -0.044847023 0.09316504 0.07621929 -0.03182701
000300 11 59 89 3d 91 93 8b bc 96 16 fc bb 63 98 75 bd
       0.06706441 -0.017038139 -0.007693122 -0.05995978
000310 fa 5e 00 3b a4 55 f3 bc dc 30 f0 3c 91 db ff bd
       0.001958786 -0.029703923 0.029320173 -0.12493051
000320 67 33 1d bc be aa c9 bd 4d 79 e9 bd 0a 39 07 be
       -0.009594775 -0.098470196 -0.114000894 -0.13205352
000330 ab a9 e6 bc 2e 3a ad 3c 63 29 d1 3c 78 d8 02 3d
       -0.028157076 0.021145906 0.02553243 0.031944722
000340 26 76 65 bd 1e 5a a2 bd d1 2a cb bc d4 74 bf bd
       -0.05602088 -0.07927345 -0.02480069 -0.09348455
000350 85 f8 f3 bb 16 4e e2 3c 44 4d 77 3c a5 8a ea bd
       -0.0074453973 0.027625125 0.015094105 -0.114522256
000360 a8 b2 f3 3d a3 c3 cd 3d 72 f6 65 bd 8c 12 da bd
       0.1189931 0.1004708 -0.05614323 -0.10648069
000370 90 5d 85 3c 78 ac 09 3d 8c 72 28 bd 83 8e 4c bd
       0.016279966 0.033611745 -0.041124865 -0.049940597
000380 f8 3c 0f 3c e5 57 8a bd 06 f3 83 bd 08 d2 1c 3d
       0.008742563 -0.06755046 -0.064428374 0.03828624
000390 09 e6 46 3c 60 a9 50 3d 92 1b e6 3d 72 22 6e ba
       0.012139806 0.05094278 0.11235727 -0.0009084112
0003a0 92 c1 2d 3d 55 38 b6 3d f0 f1 a0 bd 50 0e b8 3d
       0.04242093 0.08897463 -0.07858646 0.08987105
0003b0 cd a6 b1 3d 16 00 4b bd b4 08 c4 3d c5 5a 76 bd
       0.08674393 -0.04956063 0.095719725 -0.06014516
0003c0 bb fa 6d bd cb 20 b4 3d 62 c8 59 3d bf 60 9f bc
       -0.058100443 0.08795317 0.053169616 -0.019455312
0003d0 d0 c1 cb bd ab 39 8c 3d 87 0d f7 3c 76 4f 9b bd
       -0.09949076 0.06846937 0.030157818 -0.07583515
0003e0 19 96 78 bb 9d 7d ba 3d ea 5d 7b 3d ef 79 70 bd
       -0.0037931262 0.0910599 0.06136886 -0.058710035
0003f0 fc 02 35 3a 31 15 4c bd bc 71 a5 3d ef 22 4f 3d
       0.0006905047 -0.049824897 0.08078334 0.050570425

model.base_model.net.8.bias f4 [64]
000000 8c 74 4b bd 07 83 1b 3d 33 80 97 3d ef 13 4d bc
       -0.049671695 0.037966754 0.07397499 -0.01251696
000010 be bf e8 bc 70 cf d5 3d d9 5f 00 3e fb 14 7a 3d
       -0.028411742 0.10439956 0.12536563 0.061055165
000020 f0 33 2b 3c 17 ae 01 3c 0b ff 96 bd 94 35 bf 3d
       0.010449395 0.007915041 -0.07372864 0.09336391
000030 ac a3 67 3d 31 06 d9 3d d1 b7 97 bd 99 6a b0 3c
       0.056552574 0.10596884 -0.07408107 0.021535205
000040 fb 0e 13 3d 66 5d 35 bd f5 5a 42 bc c2 b7 0e 3d
       0.03590296 -0.044278525 -0.011862506 0.034843214
000050 d9 85 ed bc ec 54 e1 3d a4 f7 f3 bd 41 9e f6 bb
       -0.028994488 0.11002526 -0.11912468 -0.0075261896
000060 0b 69 8b bd 56 20 d8 3d 30 fb 5f bd 21 ee 18 bd
       -0.06807145 0.105530426 -0.05468291 -0.037336472
000070 43 d2 ee 3d 61 ca ee bd db ea 51 bd 1c 70 ec 3d
       0.11661198 -0.116596945 -0.051249366 0.11544821
000080 30 dd c9 3d 23 81 e4 bc d9 c0 fa bc 9a 6d 8c bd
       0.09856641 -0.027893608 -0.030609535 -0.06856842
000090 38 e9 0d 3d 13 44 44 3d 0b ec be 3d 39 0d 70 3d
       0.034646243 0.047916483 0.093223654 0.05860636
0000a0 2a 3b 87 3d 6e f3 ec bc c0 73 c7 bd d1 e0 9e 3d
       0.066030815 -0.02892467 -0.097388744 0.07757724
0000b0 e3 70 f0 bb d3 62 ba bd 73 c4 6a 3b b4 c8 02 3e
       -0.007337676 -0.091008805 0.003582266 0.12771875
0000c0 1c a9 23 ba 3b 1b db bd 70 57 99 3d 2c ef b1 3d
       -0.0006243156 -0.10698553 0.074873805 0.086881965
0000d0 7e 20 b5 bd 0f 17 d1 bd ac 1d c0 bd 24 d4 45 3d
       -0.08844088 -0.10209476 -0.093806595 0.048298016
0000e0 74 4b 33 bd af 49 ef bd eb 1c 30 bc b0 57 61 bd
       -0.04377313 -0.11683976 -0.010749082 -0.055015266
0000f0 d9 d8 3d bd fe 43 2f bd 50 8a 50 bd 2a 26 b4 bd
       -0.04634938 -0.04278945 -0.050913155 -0.08796342
