results/edm_swiss_roll/checkpoints/epoch=44-step=1440.ckpt (torch, 842042 bytes, 37 tensors)

model.base_model.time_embedding.frequencies f4 [4]
00000000: 0000 803f 971e 3e3d 6b31 0d3b 16b7 d138
1.0 0.04641589 0.0021544348 9.999999e-05

model.base_model.net.0.weight f4 [128, 10]
00000000: 5568 7a3e dfd7 963e 3d2c a7bd 664d 913e
00000010: 8c2b 9dbd a66c 723d 72ec 08be ac0f 513e
00000020: fe2b 983e 3dad 5abe 1493 853e 2be4 823d
00000030: 27f3 8e3e 34bc b43d 09e7 443e 9e3e edbc
00000040: 5d82 853e fce9 683d 67d3 0cbe 59c5 b93d
00000050: fff1 29be 96b0 07bd 7c8e 14be 3361 463e
00000060: d26b 85be 909e 16be e080 ccbd 3af7 4abe
00000070: f278 b23c 640a a4be 0711 bd3e 1770 a0be
00000080: ff37 593e b7a3 af3c 94b6 05be 483b 3f3e
00000090: c881 953d 4c24 8f3e ca31 703d c6f2 9abd
000000a0: 16e1 ce3d 80a2 bdbd 868e 083e b674 903e
000000b0: d596 3a3e b7ba 0dbe fa7d 3d3e 1420 703d
000000c0: e589 263e 7c46 43be 367c b9be 2e98 fbbd
000000d0: 7901 77be 1a0e 863e 22bc c03d dabe 083e
000000e0: f6d0 dc3d f1aa 5c3a b3f4 813e 2f96 5fbe
000000f0: 770f a43c 0264 74be edaa 9d3d b3d6 03be
00000100: b8d9 a33d f762 90bd b248 863e 3ddb 3dbe
00000110: 2c0c 3fbe 280f 3fbe 4a61 a03e 72fe eb3d
00000120: 4f2f 8f3e bdea 91be 6509 acbe cf97 83be
00000130: d779 55be a62b 093e 36ee f33d 7f8a 893e
00000140: 3e38 42be 729d 5fbe 3180 2c3e cdd9 01be
00000150: 7308 473e e9aa 93bd 488b 313e 85aa 81be
00000160: 2025 2bbe 86fc b53d f219 c33d b4ef aabd
00000170: 47c1 353e a626 503e 0829 76be 361f 31be
00000180: 4ba2 923e 413d debd b74a e9bd e795 9dbe
00000190: f770 4fbe db10 863d ad2e b4bd 0af2 8cbe
000001a0: ff44 e9bc eddc 64be a8a7 8dbe ee2b 33be
000001b0: 951f 8ebe 6106 4fbe 5e69 db3e b8c0 a73d
000001c0: 4eac 9b3d f54d a1be 225b 65be afa0 e0bd
000001d0: 805a bb3d ac14 73be 525a c3bd f102 18be
000001e0: 91a0 a8bc 36f5 f5bd f910 aebc 890a 5abe
000001f0: a626 5dbe 6eb4 3cbe ebd2 dbbd 0b38 7fbe
00000200: cbef 873e 9f9c 7fbd d292 9c3e 254d ef3d
00000210: 9e7c 9ebe 4360 363e 59c1 fdbd 1718 0bbe
00000220: b0e6 7abe 3228 96be a78a e43d 5473 44bd
00000230: 38c1 da3d 2714 8abe bab6 843e f1c9 54be
00000240: d8c7 febc 9cb9 a13d dcf3 2b3e 9a74 833e
00000250: c63b 943e 8f47 7fbe 39a0 7e3d 253a 1dbe
00000260: 3ceb aebb d657 54be 9a7d a13e 15d4 62be
00000270: d44b 2f3e b99e df3d eb71 ce3d 0413 31be
00000280: 55a7 b93e 23f5 ae3d 6a0f d93c 3c19 95be
00000290: 0323 f83d e77c 52bd ce8b e6bd e981 9a3e
000002a0: c820 ce3d 774a 14be 898e 3bbe eb68 f1bc
000002b0: 7b7b 113e 0da2 eabd ee3c 55be c4c3 eabd
000002c0: 7aa1 75be 2e92 e73d 6af5 7a3e 8945 98be
000002d0: 784f a63d 1ddf 263e bce9 613d 5321 ebbd
000002e0: dc92 273e 3f5d 2a3e b4d6 f23d 9932 64bd
000002f0: 53ca abbd 3cfa 093d e2e6 afbd 3e75 bfbd
00000300: 00df 663e eb12 973e 8ca7 15bc 30a1 74bd
00000310: 436e f73b 2e8a 9bbc 5978 9b3d ac42 b53d
00000320: 4fa8 99be 60f4 05be 209a 6e3e 83c2 bb3d
00000330: 1211 1cbd 6aa8 47be 201e 3ebe 0539 8cbe
00000340: f3da bfbd 45f5 ed3d 3e89 743e c283 2a3e
00000350: 01aa a0be 906d 65be cc80 a8bd 077d 933e
00000360: 4c31 493d b908 99bd 0251 0d3e 97f9 e7bd
00000370: 6652 78be e830 613e 0c78 01be 65bd 38bd
00000380: 8c24 98be 0a66 603e dfde 813e cdbb 003e
00000390: b614 57be 8770 9abe 59a2 95be 99af 893e
000003a0: da17 3a3e 0dd1 973e 717d 3f3e bd78 ab3d
000003b0: ca32 f53c 8400 5bbe 1131 7abe 72d1 89be
000003c0: fe6c 1e3e 6d48 2fbe 669b e5bd 59d5 6abe
000003d0: 77f0 c9bd 0b80 73be 4ed6 4ebe c5f8 eb3d
000003e0: 504d abbd 0c7e 523e e21b fabd a6d3 6fbe
000003f0: 961c 04bd d149 04be aa8c 97bd c647 94be
0.24453862 0.29461572 -0.08162735 0.28379363 -0.076743215 0.059185646 -0.13371447 0.20416135
0.29721063 -0.21355148 0.26088774 0.06391176 0.27919886 0.088249594 0.19228758 -0.028960522
0.26076022 0.05686377 -0.13752519 0.09070844 -0.1659622 -0.03312739 -0.14507478 0.19373016
-0.26058823 -0.14708924 -0.099855185 -0.19820872 0.021786187 -0.32039177 0.36927053 -0.31335518
0.21212767 0.02144037 -0.1305793 0.18674958 0.073001444 0.2795738 0.058641233 -0.075658366
0.101015255 -0.0925951 0.13335618 0.28214043 0.182216 -0.13840757 0.18505087 0.058624342
0.1626354 -0.19069856 -0.36227578 -0.12284885 -0.24121656 0.26182634 0.094108835 0.13354054
0.10782044 0.0008417806 0.25382003 -0.21834634 0.020026905 -0.23866275 0.07698617 -0.1287487
0.08000511 -0.07050126 0.26227337 -0.18540664 -0.18656987 -0.18658125 0.31324226 0.11523141
0.2796578 -0.28499404 -0.33600917 -0.25701758 -0.2084726 0.13395557 0.119106695 0.26863477
-0.18966767 -0.21837404 0.16845776 -0.1268074 0.19436817 -0.07210333 0.17338288 -0.2532541
-0.16713381 0.08886056 0.09526433 -0.08346501 0.1774951 0.20327243 -0.2403909 -0.17297062
0.28639445 -0.10851527 -0.11391204 -0.3077843 -0.20257936 0.06546184 -0.08797965 -0.2752841
-0.028475283 -0.22349901 -0.27666974 -0.17497227 -0.2775847 -0.20217277 0.42853826 0.08191055
0.07601224 -0.3150479 -0.22398046 -0.10968148 0.09148121 -0.23738354 -0.095387116 -0.14844872
-0.020584377 -0.12009661 -0.021248328 -0.21293081 -0.21596774 -0.18428203 -0.10733589 -0.24923722
0.26550135 -0.062405225 0.30580765 0.11684636 -0.3095445 0.17810158 -0.12390394 -0.13583408
-0.24502063 -0.29327542 0.11159258 -0.047961548 0.10681385 -0.269685 0.2592066 -0.2078016
-0.031101152 0.0789673 0.16792244 0.25674897 0.28951854 -0.24929641 0.06216452 -0.15354212
-0.0053381007 -0.20736632 0.3154114 -0.22151215 0.1711877 0.10918946 0.10080322 -0.1729241
0.36260477 0.0854285 0.026496608 -0.29120815 0.12116053 -0.051388647 -0.112571344 0.3017724
0.10064846 -0.14481531 -0.18316092 -0.029468974 0.1420726 -0.1145669 -0.20824024 -0.114631206
-0.2398738 0.113071784 0.2450768 -0.2974055 0.08120626 0.16296048 0.055154547 -0.114809655
0.16364616 0.16637133 0.118573576 -0.055712316 -0.083882 0.033685908 -0.08588959 -0.09348534
0.22546005 0.2950662 -0.009134185 -0.059724033 0.007550986 -0.018986788 0.07591314 0.08850607
-0.30011222 -0.13081503 0.23300982 0.091679595 -0.038102217 -0.19497839 -0.1856618 -0.27387252
-0.09367933 0.11619047 0.23880479 0.16651824 -0.31379703 -0.22405076 -0.08227691 0.28806326
0.04911928 -0.07472367 0.13800433 -0.11326902 -0.24250183 0.21991313 -0.1264345 -0.045102496
-0.29715383 0.21913925 0.2536535 0.1257164 -0.21003994 -0.30163977 -0.29225424 0.26891783
0.18173161 0.2965168 0.18700196 0.083726384 0.029931445 -0.21386915 -0.2443278 -0.26917607
0.15471265 -0.17117472 -0.112112805 -0.22932948 -0.09860318 -0.23779313 -0.20198938 0.115220584
-0.083643556 0.20555896 -0.122123495 -0.23420581 -0.032253824 -0.12918784 -0.073998764 -0.2896101

model.base_model.net.0.bias f4 [128]
00000000: 7769 57be 9c20 8dbd 7ba9 1cbd 008d 1bbe
00000010: c315 6dbe e94b 603e bcd5 5d3e 2809 90be
00000020: 449e be3d 7be1 013e 4363 993e 7231 653e
00000030: fc07 953e 1fc8 a8bd 2548 643e bfb1 823e
00000040: e175 89be 80cf 81be 64c9 823d 02b4 303e
00000050: 9840 17be de0c 2c3d e3d8 233c 4c69 da3d
00000060: c96a 23be 1bf3 393e 810d 563e e6f2 5bbe
00000070: 1306 7e3b d2a3 843c 9447 d03d 7dbc 983e
00000080: c912 aa3d ff01 62bd 39d0 8e3e f4c4 fdbd
00000090: 0539 a7bd 6582 153d 19f9 6fbe edfb 323d
000000a0: b174 4abe 0a51 0e3d 4bde 013d f73a 403d
000000b0: cff9 87be d8bc 94be 02f4 0e3e df18 913e
000000c0: 351d 8fbe 0044 f93d cfb9 68be 1839 c63c
000000d0: 2291 973e 96b8 783e 656d 67be be58 463e
000000e0: 9397 3c3e fda6 2139 d083 9a3e c2b1 e4bd
000000f0: e1eb 90bd e72b 1fbe 3975 5d3d e786 bf3d
00000100: 6740 1a3d 998d 29be 31b4 0abe 263b ce3d
00000110: 69d4 81be 06c7 3bbd 58e7 083b 9ff2 02be
00000120: 25b3 e63d f0d4 b23c 0cb4 6a3e 1ad0 b6bc
00000130: 9eb9 43be d166 683e a57c 3b3d 4d35 c1bd
00000140: 1821 4bbe 0192 a23d 6c1a 8fbe 93b5 be3d
00000150: 21f1 203e e8be 8dbe 017b 54be 6e72 69be
00000160: d148 8a3e 2dfc 8d3e 25fc d13c 4c6b 983e
00000170: 4cc7 d2bd 445e 98be 4eeb ed3d b7a6 f03d
00000180: c1ec a13e 4133 cfba 55fd 763e 7ac7 4a3e
00000190: 5d15 703e 1250 9bbe a988 8a3e 595a 85be
000001a0: f7c3 943e 09b8 3fbb 0f27 91be 6a40 d33d
000001b0: f6d9 8cbd 249f 8ebe 87ab e8bd 50bc 0e3d
000001c0: 78e9 7d3e 4b3e b1bd d19d 3f3e 37eb 123d
000001d0: 20d1 343c 5846 7c3d 63b9 4bbe 74e9 87be
000001e0: 4e38 c1bd 3268 92be 4c5c 14be 5996 873c
000001f0: ee60 50be 8ba4 01be 2e05 49bd ba3b 14bd
-0.21036325 -0.06890985 -0.038247567 -0.15190506 -0.23152833 0.21903957 0.21663564 -0.28131986
0.093075305 0.1268367 0.29958543 0.22382143 0.29107654 -0.08241295 0.22293146 0.25526235
-0.26847747 -0.25353622 0.063860685 0.17256168 -0.14770734 0.04200446 0.01000044 0.10664615
-0.15958704 0.18159144 0.20903589 -0.21479377 0.0038760945 0.016191397 0.101699024 0.29831305
0.08304364 -0.055177685 0.27893236 -0.123910815 -0.081651725 0.036501307 -0.23434867 0.043697286
-0.19771077 0.034745254 0.031706136 0.046931233 -0.26557776 -0.29050326 0.13960269 0.28339288
-0.2795197 0.12171173 -0.2272713 0.024197146 0.29602915 0.24289164 -0.22600324 0.1936979
0.18417196 0.00015416364 0.3017869 -0.11166717 -0.0707624 -0.15544091 0.05406687 0.093519025
0.037659075 -0.16557921 -0.135453 0.100698754 -0.2535737 -0.0458441 0.0020889845 -0.12787865
0.11264638 0.021830052 0.22920245 -0.022316027 -0.19113776 0.22695471 0.045773167 -0.094339944
-0.19836843 0.07938004 -0.27949846 0.09311976 0.15716983 -0.27684712 -0.20750047 -0.22797558
0.2700868 0.27731457 0.025632927 0.2976936 -0.10291919 -0.2975942 0.116171464 0.11750548
0.3162594 -0.0015808122 0.24120076 0.19802657 0.2344565 -0.30334526 0.27057388 -0.26045492
0.2905576 -0.002925398 -0.28350112 0.103150204 -0.0687751 -0.2785579 -0.11360841 0.034847558
0.24796093 -0.086544596 0.18712546 0.03586885 0.011036187 0.061590523 -0.19894938 -0.26545298
-0.094345674 -0.2859512 -0.14488333 0.016551184 -0.20349476 -0.12660424 -0.049077205 -0.036189772

model.base_model.net.2.weight f4 [128, 128]
00000000: 68ed b6bd 320b cbbc d15b 76bc c26b b93b
00000010: 8731 0ebc 5080 bdbc 6ad7 0abd 5dfa 0abd
00000020: 157f 05bd 9ca5 95b8 fa83 08bc a4c8 373c
00000030: de91 c93c 4ddd 4c3d a4b2 8839 f9c8 82bd
00000040: 9f71 2e3c 104d 67bd 3237 12bd 86f2 27bc
00000050: 36b9 09bd 5816 9bbd 8c2b c53d 845b 4c3d
00000060: ce88 05bb e7f7 c13d 9ee4 cabd 6a86 5dba
00000070: 7263 833d ea6d 333d 4eeb bdbd 64ac 963c
00000080: c420 5abd 1189 35bd a48c 40bc 9b0a b6bd
00000090: e133 bdbd 4e74 bdbd 44bf d63c e864 373d
000000a0: e2d5 a9bd 7104 04bd e9ae 2fbc 7bea e0bd
000000b0: ea25 373d 0c90 823d 92f0 c03c 661a c6bd
000000c0: 3690 393c 54a1 cf3c 2cb9 813d 478b 2ebd
000000d0: 8467 94bd 527f a43c cd9b d63c fb61 a8bc
000000e0: b448 45bd b31d 46bd 3ff8 6e3d 646c 55bd
000000f0: 44c9 983d 6eac 513d bcae 933c b127 683c
00000100: 87ee 67bc 7150 273d a364 68bd 012c 053d
00000110: 2292 aebc 05f1 0c3d c775 cfbc 38d1 1dbd
00000120: afef 62bc 62b4 c53c 94a1 9cbd d021 92bd
00000130: f7a4 26bc e2ae 91bd 1657 263d 5780 823d
00000140: 6bd6 b9bb ae2d ce3d 1c42 93bd a861 a5bd
00000150: 7aff 28bd 63c4 80bd c4fd 8dbd 8c3f acbd
00000160: 0b6d c3bd 8836 653c ce39 1a3d a417 d83d
00000170: fc6d c53d 7fa3 eabc 7427 893c 71d0 afbc
00000180: 1f80 583d 1180 b8bd ea82 0c3d 5865 7d3b
00000190: 5ee5 503a 5000 483c aa15 98bc 01bc 663d
000001a0: c83c 7d3d 88a6 293d 5e5c 233d 2be5 043d
000001b0: 12a3 a63d deec 463c 552e b13d 7b7c cfbb
000001c0: 5831 913d 6a77 0b3d 5377 f03c 8f47 d93d
000001d0: 1c82 423c 97f2 cbbc b01f 1dbd 1dca a53c
000001e0: 939b f93c 16a4 3bbd 4c5f c83d 88c0 223d
000001f0: a767 69bd 53dd 8dbc 0ff2 f9bc 8b4d 54bd
00000200: 6d8c a43c e1a0 10bd b7c1 31bd 8ffc f3bc
00000210: 445e 21bd c1f1 a03d a8b2 023d 767c a73d
00000220: 1cd8 233c ff1d 4e3c d876 1f3d 07cc 4d3c
00000230: d7ed 8cbd 8b59 4abd a210 debc 13f6 fdb9
00000240: 6547 0a3d b806 063d 2dd8 8f3d 7da6 ca3b
00000250: 44c6 05bd 04e5 63bd c268 7cbd fdc7 59bd
00000260: 0661 203d cf3f 313d 6475 a53d 66ce 9cbc
00000270: 4670 ebbb 659c 5cbc 08c9 9c3c 6637 fc3c
00000280: 13d4 0cbb 49d2 8d3c ef61 343c fccc bc3c
00000290: a706 a8bc 032b 46bd bb4c da3c c5b2 6cbc
000002a0: 9397 14bd f0f3 0c3d 49b1 223c 465b 17ba
000002b0: ac07 15bd 1c58 503b f37c 9fbd e4f1 893c
000002c0: 7f9e 523b bff3 4d3d e3f6 083c ab44 0c3b
000002d0: ff8a bd3c 5884 9b3d c836 45bd 9d4e 533d
000002e0: da38 a63c 72d7 5abd 48da 033d d159 19bd
000002f0: f005 aabc ae02 f5bc fbf2 29bd 8975 903d
00000300: 51fb a3bd 9880 363d 5ed3 9fbd 4736 43bc
00000310: e8fe dd3b 6d51 803d 4ec2 d3bc 6ba9 d73c
00000320: f604 773c 3c6d 7f3d 67f4 07b9 e964 193d
00000330: 89aa 59bd 9560 43bd 137c 953d faf3 81bd
00000340: 848f 72bb c995 8cbc 0d59 c63d c2df 92bb
00000350: 9661 87bd 463c a9bc da98 2b3d 71e7 123d
00000360: 3bb7 8e3d d499 41bc 0879 1c3d a7c4 b9bd
00000370: b2d3 133d f336 4a3d fe53 733d 91a1 90bd
00000380: c1e3 d0bc 1af1 a43c 0c9a 8bbd 29c5 77bd
00000390: 80fc 92bd 342a 923c bd60 493d 9c82 f23c
000003a0: ad38 383b c095 0c3d 5f85 8abd 8b82 363c
000003b0: c3be c9bc d922 05bd 9dee a03d 2ba3 91bd
000003c0: 4815 fe3b b633 9bbd 1571 ae38 fcff 36bd
000003d0: f82d f63c b0b3 56bd aea5 aa3d 86ae 8fbd
000003e0: a509 483d d0d6 88bd cf74 0f3d 0fac 22bd
000003f0: d395 8c3a a3e6 06bc f2f1 8b3d eecd e43c
-0.089320004 -0.024785612 -0.015036539 0.0056585977 -0.0086788 -0.023132473 -0.03389684 -0.03393017
-0.032591898 -7.135721e-05 -0.008332247 0.01121727 0.024605688 0.050015736 0.0002607304 -0.06385989
0.010647207 -0.056469977 -0.03569717 -0.010250693 -0.033623897 -0.07572621 0.096274465 0.049891964
-0.0020375731 0.09471112 -0.099068865 -0.000845051 0.06415452 0.043805994 -0.092733964 0.01839275
-0.053253904 -0.04432017 -0.011752281 -0.088887416 -0.09238411 -0.09250699 0.02621425 0.044773966
-0.08292748 -0.0322308 -0.010722854 -0.109822236 0.044713892 0.06375131 0.023552213 -0.09673004
0.0113258865 0.025345482 0.06334147 -0.042613294 -0.072463065 0.020080242 0.026197338 -0.020554533
-0.04816504 -0.048368167 0.058342215 -0.052105322 0.07460263 0.051189832 0.018027656 0.014169619
-0.01415599 0.0408482 -0.0567366 0.03251267 -0.021309916 0.03440954 -0.025324715 -0.038529605
-0.01385109 0.024133865 -0.07648006 -0.071353555 -0.010171167 -0.071134344 0.040610395 0.06372135
-0.0056713126 0.100673065 -0.07190344 -0.08075267 -0.041259266 -0.06287458 -0.069331676 -0.08410558
-0.09542283 0.013990052 0.037652783 0.10551384 0.096401185 -0.028642414 0.016742446 -0.021461697
0.05285656 -0.09008802 0.034304537 0.0038665142 0.00079687487 0.012207106 -0.018565018 0.05633164
0.061825544 0.041418582 0.03988301 0.032445114 0.08136572 0.0121414345 0.08651415 -0.006331978
0.0708949 0.03404943 0.029353773 0.10609352 0.011871841 -0.02489595 -0.038360298 0.020237977
0.030469691 -0.04581078 0.097838014 0.039734393 -0.056983616 -0.01731745 -0.03051093 -0.051831763
0.020086491 -0.035309676 -0.04339763 -0.029783515 -0.03939654 0.07858611 0.03190866 0.08178036
0.010000255 0.012580394 0.038931698 0.012560851 -0.06881302 -0.0494018 -0.02710754 -0.0004843926
0.033759493 0.03272125 0.07023654 0.0061843977 -0.032659784 -0.05563833 -0.061623342 -0.05316924
0.03915503 0.043273743 0.08079031 -0.019141387 -0.007185015 -0.013465022 0.019138828 0.030788135
-0.002148871 0.017312186 0.011009677 0.023046963 -0.020510985 -0.048380863 0.026647916 -0.014446919
-0.036277365 0.034412324 0.009929963 -0.00057737937 -0.03638427 0.0031790799 -0.07787504 0.016838975
0.0032137928 0.050281283 0.008359644 0.0021403234 0.023137568 0.07593602 -0.048147947 0.051588643
0.02029078 -0.05342812 0.03219059 -0.03743917 -0.020754784 -0.029908504 -0.04149149 0.07053668
-0.08006919 0.04455623 -0.07803987 -0.011914796 0.006774772 0.06265531 -0.025849488 0.026325902
0.015076866 0.062360033 -0.0001296565 0.03744975 -0.05314115 -0.04769953 0.07299056 -0.06345363
-0.0037011812 -0.017161267 0.09684954 -0.0044822404 -0.0661041 -0.020658623 0.041893817 0.03586525
0.06968542 -0.011816461 0.038201362 -0.090707116 0.03609056 0.04936881 0.059406273 -0.07062066
-0.025499227 0.020134497 -0.068164915 -0.06049076 -0.07177067 0.01784239 0.049164522 0.029603295
0.0028109953 0.0343225 -0.0676372 0.011139522 -0.024627095 -0.032503936 0.07858012 -0.071112
0.0077540018 -0.075782225 8.31803e-05 -0.04467772 0.030051216 -0.052417457 0.08332382 -0.070157096
0.048837323 -0.06681597 0.035023507 -0.03971487 0.0010725803 -0.008233699 0.06833257 0.027930226

model.base_model.net.2.bias f4 [128]
00000000: 2913 2fbb 7fa8 26bd e899 88bd 7aa8 48bd
00000010: 6781 3cbd 0f91 ad3d 3816 0f3b e835 46bd
00000020: 84d6 d0bb 8edf 8bbb 8741 c13c b5f9 043d
00000030: be80 713d f8b6 24bd 3734 86bc f91d a0bd
00000040: 455a eabc ea20 9abd 2c42 06bc 5eb1 4cbd
00000050: b9dc ffbc 943f ad3d 1716 a73d 18ac 3f3c
00000060: 063e 423d e3d7 573d 51f3 fc3b c18d 863c
00000070: b1ff 62bb f8ba 92bd 19a9 8b3d 2fa7 8cbd
00000080: d173 bfbc aced 9abd 90fb 50bd 0eeb b03d
00000090: e05a b9bb 58f1 c33c 6531 c53c 7c59 913d
000000a0: 29a5 ad3c b2b9 bc3a 84dd 12bd f9b8 5d3c
000000b0: 2ce5 c73c da60 64bd e4e5 77bd 43fc 1abd
000000c0: 5ef8 a33d e379 333d 4ea1 4c3d 66af 813d
000000d0: d6de 2cb7 3ad9 79bd 62e2 b13d 2346 723c
000000e0: a294 debc 6794 073d d1ee 6abd 2768 b73b
000000f0: c360 9e3d 248d 003d 91d2 94bd cb10 a63d
00000100: 96e5 833c 6e4b e2bc 21cb 8d3d 7de1 1d3d
00000110: 4581 5f3d d4f5 413d b54d 1fbd 1253 66bd
00000120: 00d5 743d cca7 11bc 3779 a23d 0bf9 323d
00000130: 3c6d abbd f0d5 5a3d 9905 353d 02b6 a7bd
00000140: e0e6 903b 8ebc 93bd 4773 483d a393 553d
00000150: 3212 ec3c 8b2a 743d c742 3ebd 75d2 81ba
00000160: 4b85 a1bc fee4 843d 01d1 833d f617 bebc
00000170: 073b 8fbd 0fde c338 77a2 953d 6ef2 b2bc
00000180: d57d 193d b0d1 7abd ce9f 6cbd 6ada 95bd
00000190: 7a1c 9bbd e3b1 14bd 1583 0ebd 1618 0a3d
000001a0: 88bd a13d 31a9 d93b 3e1a 143d f717 61bd
000001b0: 9c19 02bd 1d48 adbd 3fb9 ae3d b5ba 5f3c
000001c0: 07d3 b2bc 6f9c 94bd 9e39 a33c a2af b1bd
000001d0: 5724 653d 8c56 aabd ac46 913c 1f96 5c3d
000001e0: f2aa 95bd c927 7e3d 7379 a93d 749c 743d
000001f0: bcdc a93d 433d 29bd b66a 62bc 8ba0 a93d
-0.0026714301 -0.040688034 -0.0666998 -0.048988797 -0.046021845 0.08474933 0.0021833312 -0.048391253
-0.0063732285 -0.004268593 0.023590816 0.0324647 0.05896067 -0.040213555 -0.01638232 -0.07818217
-0.028607497 -0.07525809 -0.008194488 -0.049973838 -0.031233178 0.08459392 0.0815851 0.011698745
0.04742243 0.05269612 0.0077194353 0.016425015 -0.0034637267 -0.07164568 0.06819362 -0.06867825
-0.023370655 -0.075648636 -0.05102116 0.08638583 -0.005656585 0.023918793 0.024071405 0.07097146
0.021196919 0.0014398603 -0.035855785 0.01353287 0.02440127 -0.055756427 -0.060521975 -0.03783823
0.08006357 0.043817412 0.04995852 0.06332283 -1.0303882e-05 -0.06099818 0.08685757 0.01478723
-0.027170483 0.033100512 -0.05735666 0.0055971327 0.077332996 0.031384602 -0.07266725 0.08108672
0.016100686 -0.027623858 0.069235094 0.03854512 0.05456664 0.04735358 -0.038892467 -0.056231566
0.059773445 -0.008890104 0.07933276 0.043694537 -0.08370444 0.053426683 0.04419479 -0.08189012
0.0044220537 -0.07213698 0.048938062 0.05214275 0.02881727 0.059610885 -0.046450403 -0.000990464
-0.01971688 0.06488989 0.06436349 -0.023204785 -0.069936804 9.339686e-05 0.07306378 -0.021844115
0.03747352 -0.06123513 -0.05776959 -0.0731705 -0.07573791 -0.03630246 -0.03479298 0.033714376
0.07897478 0.0066424836 0.03615784 -0.054954495 -0.031762704 -0.0846102 0.08531427 0.013655354
-0.021829141 -0.072564 0.019924935 -0.086760774 0.05594286 -0.08317289 0.017733894 0.053854104
-0.07307996 0.06204966 0.08275118 0.059719518 0.08294055 -0.04131819 -0.013819387 0.08282574

model.base_model.net.4.weight f4 [128, 128]
00000000: 4d7f 853c 7a5a 81bd 298e 9f3d 2627 02bd
00000010: 3ece 05bd 62b3 963c 9e14 a43d 521b 65bd
00000020: c9e7 31bb 38e2 c8bc 1b33 20bd 27bd 2c3d
00000030: 4eb1 7e3b c899 c9bd 8f33 e3bb be4f 203d
00000040: d553 59bd 820b 763d 5bc8 c6bd b676 8f3c
00000050: b8d2 093d 11bc 003d 8c22 273d 8013 523c
00000060: 1945 70bc 6b60 7e3d 2173 74bb 6135 9c3d
00000070: dcb7 ad3d 283e b5bd 3ebc 8f3d eba2 a03c
00000080: 58b2 a6bd 625e 67bd 15dd 0fbd 0eb7 cb3d
00000090: bb27 793d d14f 93bc 47c5 8abd 249c 59bd
000000a0: c939 43bd a867 1abb 5df4 ddbd 7fe1 b7bd
000000b0: edc9 48bd d1e3 013d a628 163d 120f 2c3d
000000c0: c60e ad3d 4104 4a3d d61d debc b373 373d
000000d0: 515b eebc 93ac 8c3d df5b 0dbd 3ef3 71bd
000000e0: b4f9 86bc f626 76bd cc32 2ebd aa41 4abd
000000f0: ace1 7a3c 7c42 0abc be92 74bd 1eb8 b8bd
00000100: 42e6 95bd 5f01 bbbd 1710 b2bd 2a4e 9a3d
00000110: 819d 583d c9ed 543d ecc4 d13d c2fd 4dbc
00000120: c180 0abd 441e a4bc acbe 5cbd 5988 473d
00000130: 9891 923c 1286 c9bd 6328 0c3d c305 9ebd
00000140: c9eb 7d3d 7848 353b 3b08 423c 3952 09bd
00000150: 112d 51bc 6156 2e3c 8280 4e3c 891e 22bd
00000160: 14aa 2dbd ebbe 7fbd 098f 44bd a939 94bd
00000170: 1386 acbd 5a47 dc3d b5b4 e0bd 0b83 edbc
00000180: aded 06bb 5393 40bd 7d19 66bd cd8b b83c
00000190: 7503 14bc 3c36 a7bc 3608 f13d fe26 80bc
000001a0: 2dae 73bc fd56 0a3d ee8d 30bd d5cc 72bd
000001b0: da2b 9a3d 8758 9abd 687e aabd fc6e 6fbd
000001c0: a295 a83c 62cf 5c3d 372b b1bd 2a5c 86bd
000001d0: e90e 8e3d 133f d83d f47e f83c 59e4 9abd
000001e0: 4ed7 883d 24a6 97bc c71a b1bd 5977 873d
000001f0: 2603 77bd 7334 e83c 581d 21bd d45e 823d
00000200: e9c5 ba3c 6b4d ccbc 095b 413d 38c7 b23d
00000210: 79b2 8bbc 9e41 713d a2f6 27bd 51e7 53bd
00000220: 5d95 23bd 2db4 b8bd 660f 683d 6d1c f53c
00000230: 475f 51bd 6ebd 65bd 2311 6c3d 30a0 903b
00000240: 8581 78bd c7d6 3dbb 5868 e6bc 0fed 993c
00000250: 9e8b 36bd 164a 17bd dde7 13bd 864e 39bd
00000260: 32f9 b63b 176a 253d ba98 343c 5460 593d
00000270: c04c c4bc 3a79 2abd b1e4 69bd 2c92 83bd
00000280: e81a 89bd 18aa d3bc 4209 9b3d e0f1 aabd
00000290: 8c15 983d f5d0 5c3d bafd 693d cdc1 473d
000002a0: 7578 6b3d ba5e 9f3d 972d 483d 0180 eebb
000002b0: b97d 493d 103e f03b 0414 46bd 8298 533d
000002c0: 34a4 c53d f833 913d 070b 05bd 2581 a6bb
000002d0: b368 313d bfd8 473d 4f62 93bd 5991 a23c
000002e0: 3a2f b33b 150b a73d c6f1 183c 5e94 1abd
000002f0: f7d7 a4bc 8040 a23d d2e6 fabc e3b8 df3c
00000300: dc66 b73d 55bf 68bd 9e3d a7bc a6e0 aabd
00000310: c8db 7bbc 1160 333d 706a 433c c259 573d
00000320: c250 79bd 62b8 293d 249b 38bd ff02 263d
00000330: d03f 13bd 087a bf3d 5eba 053c 160a e53c
00000340: a664 9cbd 5ca3 0b3c ed45 903d 9d45 a5bd
00000350: a480 ae3d 2d51 3a3d eb4b e9bc 2123 79bd
00000360: d974 883d f53a 82bc 5d54 3d3d c7a2 50bc
00000370: 6b48 a13d fe90 66bd 7a6c 1f3b 9fc3 333d
00000380: 3e7d 2cbd 8b28 dabc bd80 80bc b133 a73d
00000390: 0c5b 013d 02c5 b3bd 4357 473c 7312 5b3d
000003a0: 828e f53c f379 c53d d117 d7bc a217 ab3b
000003b0: a17b 943d 3f07 9c3d dd36 a9bc 7d33 543b
000003c0: 88ea c33b 8825 793d e930 dfbc 78e5 8dbc
000003d0: 67d0 363d c758 c4bc f846 2fbd 2788 8a3d
000003e0: 4ae9 edbc 8c28 423d c7eb b1bc 1474 b1bd
000003f0: 6a0d 5fbd 66a4 3f3c 79c6 853d e4cc e0bc
0.016296053 -0.06316085 0.07790787 -0.031775616 -0.03266739 0.018396083 0.08011745 -0.055934258
-0.0027146211 -0.024521932 -0.039111238 0.042172577 0.0038863006 -0.098437846 -0.0069336365 0.039138548
-0.053058464 0.06006957 -0.097061835 0.01751266 0.033648223 0.031429354 0.04080443 0.012822032
-0.014664912 0.06210367 -0.0037300067 0.07627369 0.08482334 -0.08849746 0.07018326 0.019608935
-0.08139485 -0.056486495 -0.03512295 0.09947024 0.060828906 -0.017982395 -0.06775909 -0.053127423
-0.04766253 -0.002356032 -0.10837624 -0.08978557 -0.049020696 0.031711403 0.03665986 0.04200656
0.084500834 0.049320463 -0.027113836 0.044788074 -0.029096277 0.068688534 -0.034511443 -0.059069864
-0.01647649 -0.06009575 -0.042528912 -0.04937903 0.015312593 -0.008438703 -0.059710257 -0.090194926
-0.07319309 -0.09131121 -0.08694475 0.0753444 0.052884582 0.051984582 0.10242638 -0.012572708
-0.033814196 -0.020033963 -0.053892776 0.048714016 0.01789169 -0.09840025 0.034218203 -0.07715943
0.06199244 0.0027661603 0.011842783 -0.03352568 -0.012767092 0.0106407115 0.012603881 -0.0395799
-0.042398527 -0.062437933 -0.04798797 -0.0723756 -0.0842401 0.10755797 -0.10971967 -0.02899315
-0.0020588443 -0.0470155 -0.05617665 0.0225276 -0.009034027 -0.020411603 0.11769144 -0.015643593
-0.01487307 0.033774365 -0.043104105 -0.059277374 0.07527895 -0.075364165 -0.08324891 -0.058455452
0.020579163 0.053908713 -0.08650821 -0.06560548 0.06936438 0.105589055 0.030333973 -0.07563085
0.06681691 -0.01851184 -0.086476855 0.06614561 -0.060305737 0.028345322 -0.039334625 0.06365743
0.022799449 -0.02493926 0.04720596 0.08729404 -0.017052876 0.058900468 -0.04100669 -0.051734272
-0.039937366 -0.09018741 0.05665531 0.029920781 -0.051116254 -0.056088857 0.05763353 0.004413627
-0.060670394 -0.0028967129 -0.028125927 0.018789796 -0.044566743 -0.03693589 -0.036109794 -0.0452409
0.0055839056 0.04038438 0.011022741 0.05307038 -0.023962379 -0.041619517 -0.057102863 -0.064243644
-0.06694585 -0.025837943 0.07570125 -0.08346915 0.07425985 0.053910214 0.057126738 0.048768807
0.057487924 0.077817395 0.048871603 -0.007278443 0.049192164 0.007331617 -0.048358932 0.051659115
0.0965046 0.070899904 -0.03248122 -0.005081313 0.04331274 0.04879069 -0.07196485 0.019844698
0.0054682763 0.081564106 0.009334987 -0.03773915 -0.020122511 0.07922459 -0.030627642 0.02730984
0.08955166 -0.056823093 -0.020415124 -0.083436295 -0.015372224 0.043792788 0.011927232 0.052575834
-0.060868032 0.041435607 -0.04506983 0.0405302 -0.03594953 0.093494475 0.008162109 0.02795891
-0.07636385 0.008522835 0.07044587 -0.08069918 0.0852063 0.04548757 -0.028478583 -0.060824517
0.06662912 -0.015897254 0.046223033 -0.012734122 0.07875141 -0.05629062 0.0024326132 0.04388773
-0.042111628 -0.02663066 -0.015686387 0.08164156 0.03158097 -0.08777811 0.012166801 0.05348439
0.02997518 0.096424006 -0.026256474 0.005221323 0.07250143 0.076185696 -0.020656044 0.0032379322
0.005978886 0.06082681 -0.027245002 -0.017321333 0.04463234 -0.023968114 -0.04279229 0.0676425
-0.029041905 0.04740195 -0.021718873 -0.08664718 -0.054456152 0.0116969105 0.06531996 -0.02744145

model.base_model.net.4.bias f4 [128]
00000000: a69d 0fbd b93a a63d 6050 2dba 88c2 a73d
00000010: e725 e0bc 1298 7c3d a7a4 33bb f796 0dbd
00000020: de35 923d 3791 8fbd 2067 69bb fbda 793c
00000030: ac54 69bc ee51 30bd 2599 a9bc 3c89 573d
00000040: 7172 32bc 94e5 1bbd 8bed 0bbd e670 85bd
00000050: d04f 703d bdc3 a2bd ddad 24bd 0779 9e3c
00000060: 431b 9d3d f524 8dbd d232 3f3c c3e3 85bd
00000070: 3165 853d 8d2a 913d e260 6e3d 5ce9 21bd
00000080: c2a6 86bd a434 45bd a27f e0bc 4d0e 313d
00000090: 6a7d 81bc 8236 a53d ac4b a1bd f833 e93b
000000a0: 106f 94bd f08e a1bd 9244 6fbd 13c6 003c
000000b0: 03ba abbd 34fb ecbb c70e 30bd 5113 51bd
000000c0: 6efe a63d 4a8b dfbc ad9b a5bd 2a57 6e3d
000000d0: 65bb b6bd 15b9 07bb bd9f 8fbd 89ca 443d
000000e0: 186e 083d 1c4d 53bc 1153 b7bc 9338 80bd
000000f0: 9daa 81bd 8969 1a3d d1ba 85bd c08c e6bc
00000100: 92e7 873d 2e52 a9bd 108a c4ba d8bb fdbc
00000110: a0a5 2b3d 13ed fabc cece 973d 094d ea3c
00000120: 3d54 55bd 9b90 a43c 0d76 91bb c686 a3bb
00000130: 3807 52bd 0b2b 313d 5d2e 933c bc16 a3bb
00000140: fff1 33bd 9bc2 af3d 9a80 92bd ed53 113d
00000150: 23db 9dbd e05b 8dbd 8bda fe3c a4f9 9d3c
00000160: 7089 3bbc 986b 213d ad98 20bc 3112 e23c
00000170: bb9e 92bd f34c 193d b9ab bfbc dc6e 733d
00000180: 07f4 96bd ccf5 5f3c bbaa ffbc b089 163d
00000190: 80c5 85bd 4acb 91bd 7f0f 013d b6a2 013b
000001a0: 086a 6ebd 0281 78bd aeda 94bd d31b b33c
000001b0: 56a9 0e3d fd36 2abd 65e9 663d 05f8 513d
000001c0: 1d81 3d3c 98a0 56bd 3469 84bd 5edb 0ebd
000001d0: ea3d 62bd 83dc a83c 2a62 763d b8b2 9e3d
000001e0: 4629 28bd ca49 39bd 8768 6f3c 45b9 acbc
000001f0: 9dbd 5f3d 658c 9bbd c51a 2f3d 6f90 a93b
-0.035062455 0.08116669 -0.0006611403 0.08191401 -0.027361823 0.061668463 -0.0027411373 -0.0345678
0.071391806 -0.070101194 -0.0035614446 0.015249963 -0.014241379 -0.043046884 -0.020702908 0.05262111
-0.010891543 -0.03806074 -0.034162086 -0.06515674 0.058669865 -0.0794749 -0.04020487 0.01934482
0.076712154 -0.068918146 0.011669831 -0.06537583 0.06513441 0.07088194 0.058197863 -0.03952919
-0.06574775 -0.048145905 -0.02740461 0.04322653 -0.015806872 0.08067037 -0.078757614 0.007116791
-0.07247746 -0.07888591 -0.058415003 0.007859725 -0.08385088 -0.007232094 -0.042982843 -0.051043812
0.08153997 -0.027288098 -0.080863334 0.058188595 -0.089224614 -0.0020709683 -0.070128895 0.048044715
0.03330812 -0.012896802 -0.022378476 -0.06260791 -0.0633137 0.037698302 -0.06529773 -0.028143287
0.066359654 -0.08267628 -0.0014994759 -0.03097336 0.041906 -0.030630624 0.07412492 0.028601186
-0.05208229 0.020088485 -0.0044391216 -0.0049904315 -0.051276416 0.04325394 0.017966444 -0.0049770754
-0.043931957 0.0858204 -0.07153435 0.03548043 -0.07707813 -0.069022894 0.031110069 0.019284077
-0.011446342 0.03940925 -0.009802026 0.027596565 -0.07159182 0.0374269 -0.023397313 0.059431896
-0.07370763 0.013669442 -0.03120934 0.036752403 -0.06531811 -0.071188524 0.03150892 0.0019780821
-0.058206588 -0.060669906 -0.07268272 0.021863854 0.03482946 -0.041556347 0.056374926 0.05126192
0.011566428 -0.052399248 -0.064653784 -0.034877174 -0.055234827 0.02061296 0.06015221 0.07748932
-0.041054986 -0.045236386 0.014612324 -0.021084437 0.05462419 -0.075951375 0.04275014 0.0051746885

model.base_model.net.6.weight f4 [128, 128]
00000000: 028d 833d e22c 02bd 319b f33c e3ab 963c
00000010: dca5 7ebd 991e 93bd 77d8 4d3d aced 30bd
00000020: 8944 503d d53f 9e3c ee46 933c 18dc 803d
00000030: ca73 7dbc ec20 9fbc 5b43 1f3d c54b 1a3d
00000040: f257 7d3d 859d 993d 1946 ab3d 402c 1f3d
00000050: bd82 75bc 4885 a5bd 28de 43bc 1ef8 41bc
00000060: bf55 0e3c c01e 8bbd ae76 23bd cd5c 753d
00000070: 0cd3 56bd 52dd 5bbb f75e 4a3c ddc6 053d
00000080: 55a3 3c3c 2acc ce3d 9118 853d a041 033d
00000090: 2857 ecbc 5d50 8ebd c331 613d 4132 80bd
000000a0: d8d7 2abd a06b 4bbd b65e 523c 65fe 9e3c
000000b0: be70 213d 8a45 673c 0dd2 a1bd d07e 1c3d
000000c0: 3ed1 56bd 9e39 843c b5ae 7fbd fd41 083d
000000d0: b3c3 b4bd 3a36 823d cf63 383d d849 5dbc
000000e0: c058 63bb 8788 da3b d62a 97bd 6c7a 22bd
000000f0: 78d4 523c 24f3 673d d901 503d e934 803d
00000100: 70cc 8e3d a0c4 393d 0383 84bd 9b0e c03c
00000110: 2425 25bd a2a7 8abc 8c43 48bd c84d 1d3d
00000120: a64c 02bd 141e 2b3d 0a6c 083d f659 253d
00000130: a934 723d 3f5f 853c 3f1a 16bd 0256 433d
00000140: 97df b83d f813 5b3d 2303 8ebd 24ba 563d
00000150: d492 bcbc 8d46 d03d 2af8 15bd d326 dcbc
00000160: f794 483d 644d c9bd b2a1 ca3c 2a13 5f3d
00000170: ec46 9ebb 3d4a 9fbd 5f86 cfbd 88b1 8abd
00000180: e80d 9bbd d5e0 033d 8eb1 b5bc 850d 07bd
00000190: 3706 8f3d 71c6 473c d7f0 9bbd 3e45 0a3c
000001a0: 40a1 303d 1ad9 50bd 3b95 c13c 3702 14bd
000001b0: de59 a3bd d913 85bd 8002 1ebd 8c97 793d
000001c0: 9dad 793d c938 8ebd aea4 823d cb6c b5bc
000001d0: eccd 54bc 850f 0c3d 736a 313c b763 ec3c
000001e0: e7f2 bcbd 123f a83c b631 c7bd 82b2 af3d
000001f0: 4dc6 bf3d ed3d 9fbd f70d 7c3d 09b8 5b3d
00000200: 3bd9 9dbd 4a97 a53c c8eb 27bd 4571 56bd
00000210: 9065 5abd fc40 2bbd 4952 81bd 7e7f 5abc
00000220: 954d 9e3d 335d 9f3c 1d88 063a 02c7 91bd
00000230: 8e3c 783d 459a 9f3d 9e50 d2bb 15e4 e83d
00000240: 06bd e33d f1fd 393d ad4f a9bd 635b 37bd
00000250: 4ba7 f2bc 91fd 5abc 8a96 59bc 3eb2 f3bc
00000260: 0437 8cbc cfeb f9bc ee94 aebd 09c0 6bbd
00000270: b553 d23c 4b77 8b3d f0bb a33d a6cb af3d
00000280: 16a4 adbd f502 043b 2292 fabc bbf8 c23c
00000290: 1f33 ac3d 1a07 843d 557e 2a3d cdac 38bd
000002a0: ada2 943d b2ca 96bd 8aeb 6ebd 8eaf 283d
000002b0: 1b8b 8c3d 96ed 1b3d 8c27 cebd 6a95 683d
000002c0: d5ec bfbc 9edf 2abc 6b4f 18bd 8e5f 86bc
000002d0: 49b1 05bd e5cc 3cba e07b 3f3d 8732 57bd
000002e0: a0c8 00bd 2aac 753d 161b 65bd 3e13 56bd
000002f0: 9474 4b3c a94c 273d 29ac 62bb 2395 b7ba
00000300: 6b65 b73d b723 583d 7daa 9939 0723 663d
00000310: 159e a8bb 93e7 63bd ca99 0f3d 2cc7 84bd
00000320: 86cb 333d 869d 053d 4858 0c3d f156 e839
00000330: 3f98 6f3d 8ff8 3b3d 0b07 4d3d b2f1 5fbd
00000340: ed3e f33c 2af6 393d ac60 573d f8b1 cf3d
00000350: 8267 a0bd 37a8 d83d 08b4 693c 4d57 56bd
00000360: b399 57bd e938 aa3c f260 8e3d ba9d 853d
00000370: cd4d 783d d747 74bd c398 dabd 9d68 54bc
00000380: a297 50bd 4f88 93bd 3d04 b0bd 0420 e53c
00000390: bd21 043d e6e6 0e3d 05fd 61bd 7dff 8fbd
000003a0: 5b34 48ba 2cba ed3c fff4 163d 8892 073d
000003b0: 2ff5 06bd 9bae 1b3c 3b84 e8bb 6adc 943d
000003c0: c245 3c3d 0947 5dbc d71b 4cba 2378 c83d
000003d0: 7b6c 86bd e4fa 093d e59c 4cba 5bf1 26bc
000003e0: 80d9 02bc fd9e 7cbd 3523 debb 9313 6a3d
000003f0: 4b54 973d f319 9a3d 0eba 883d e729 a23d
0.064233795 -0.031781085 0.029737087 0.018392509 -0.062169895 -0.071835704 0.050255265 -0.04319541
0.05084661 0.019317547 0.017978158 0.062919796 -0.015469501 -0.019424878 0.038882595 0.037669916
0.06185145 0.075007476 0.083629794 0.03886056 -0.014984784 -0.08082062 -0.011954822 -0.011838941
0.008687436 -0.067929745 -0.039908104 0.059902955 -0.052447364 -0.0033548665 0.012351743 0.032660354
0.011513551 0.10097535 0.06498826 0.032045007 -0.028850153 -0.06948922 0.054979097 -0.06259585
-0.04170975 -0.049663186 0.012839964 0.019408414 0.03941416 0.0141157005 -0.07901392 0.038206875
-0.052445643 0.016140755 -0.062422473 0.033266056 -0.08826389 0.06357999 0.04501706 -0.013506375
-0.003469035 0.0066691074 -0.07381217 -0.03966753 0.012868039 0.05662836 0.050783012 0.06260092
0.06972587 0.04535353 -0.06470301 0.023444464 -0.040318623 -0.016925637 -0.048892543 0.038404256
-0.03181138 0.04177673 0.03330616 0.040368997 0.059132252 0.016280768 -0.036646124 0.047689445
0.090270214 0.05348584 -0.06934192 0.05242361 -0.023019232 0.101697065 -0.03661362 -0.026873982
0.04897019 -0.09829214 0.024735305 0.054461636 -0.004830232 -0.07777832 -0.10133051 -0.06772143
-0.07571012 0.03219684 -0.022179391 -0.032971878 0.06983607 0.012193308 -0.07614296 0.00843936
0.04312253 -0.050988294 0.023630729 -0.036134925 -0.07976125 -0.06497926 -0.038576603 0.060935542
0.060956586 -0.06944425 0.063790664 -0.022146603 -0.012988549 0.034194488 0.010828602 0.028856141
-0.092260174 0.020537887 -0.097262785 0.085789695 0.09363995 -0.07775483 0.061536755 0.053642306
-0.07707449 0.020213742 -0.040996343 -0.052354116 -0.053319514 -0.04181002 -0.06314523 -0.013336061
0.07729641 0.01945362 0.0005131977 -0.07118036 0.060604624 0.077930965 -0.0064183017 0.11371628
0.11120038 0.045408193 -0.0826715 -0.044764888 -0.029620787 -0.013366119 -0.01328052 -0.029748078
-0.017116077 -0.03050795 -0.085245 -0.057556186 0.02567468 0.06809863 0.079948306 0.08583765
-0.084785625 0.0020143364 -0.03058726 0.023800245 0.08408188 0.06446667 0.041624386 -0.04508667
0.072575904 -0.0736288 -0.058330096 0.041183047 0.0686247 0.038068376 -0.10066137 0.056783117
-0.02342836 -0.010429291 -0.037185114 -0.016402986 -0.032639775 -0.00072021625 0.046748996 -0.05253842
-0.03144133 0.05997864 -0.055934034 -0.052264445 0.012417931 0.040844593 -0.0034587479 -0.0014006238
0.08954891 0.052768435 0.00029309458 0.05618575 -0.005145798 -0.05564077 0.035058774 -0.064833015
0.043895267 0.03262093 0.03426388 0.00044315265 0.058494803 0.04589134 0.050055545 -0.054673858
0.029693091 0.045400776 0.052582428 0.10141367 -0.078322425 0.105789594 0.014264114 -0.05232935
-0.052636813 0.02077909 0.069520846 0.065242246 0.06062107 -0.059638824 -0.10673668 -0.012964395
-0.05092586 -0.07203733 -0.085945584 0.027969368 0.032258738 0.03488817 -0.05517294 -0.070311524
-0.0007637196 0.029019438 0.03685474 0.033098727 -0.03294867 0.009502078 -0.007095841 0.07268603
0.045964964 -0.013505706 -0.0007786131 0.09788539 -0.0656366 0.033686534 -0.00078053615 -0.01018938
-0.007986426 -0.06167506 -0.0067790993 0.057147574 0.073891245 0.07524481 0.06676112 0.079181485

model.base_model.net.6.bias f4 [128]
00000000: 1289 4abd bcee a5bd 9955 bbbc 3899 b03b
00000010: 9004 243c 8431 4abb ce77 b9bd eb24 ecbc
00000020: 3187 57bd 5846 8fbc de9a 3cbd d6ca a6bb
00000030: 0961 a0bc baa8 9abd f425 2b3d e5e7 d13c
00000040: 3484 cd3c 7534 f13c abf4 debb fdf0 ae3c
00000050: 565a b7bd e2a4 7b3d b62a 953d 6d90 edbc
00000060: 8b83 943d 8af6 fbbc e741 073d f23b 19bd
00000070: b2cc 5abd 6f03 2fbd d580 833d cbb2 f4bc
00000080: 8f97 8dbd a041 df3b aaf3 70bd 6a16 73bd
00000090: a6e9 53bd 7745 67bd 368e 63bd 9a7e 193d
000000a0: 23ec 0ebd 1013 ba3c e213 a13d e7c6 d03c
000000b0: 6468 bb3d 5917 8e3d 51d4 183c 5ec0 1c3d
000000c0: 7bf7 a43d c25d 77bd 3d33 55bd c943 753d
000000d0: fe54 2f3d 65a5 e03c 7d83 9b3c 47ab 5bbd
000000e0: c0d1 133d f265 4ebb d133 ca3b bb0b aa3d
000000f0: 26a6 483d d57e 2bbb bbf0 bebc e269 50bd
00000100: eb8b 283d e96c b53d 418a 44bd f636 6bbd
00000110: ed3f 683d 8fa4 93bd 54a6 ad3d 2478 613c
00000120: ecc8 a63d 6351 5b3b e603 f53c ff02 a8bd
00000130: 6523 8dbc 57c3 8f3d e535 01bd 57a3 9d3d
00000140: ca9f 59bc 71cd 41bd f991 41bd 2999 91bd
00000150: 41c0 f93c 6b22 47bd 8d26 003d e025 dbbc
00000160: f320 523d 4b4c 6c3d 6fce 85bd 1486 51bd
00000170: e0e2 683d e950 e2bc 3c62 95bd 970a 40bd
00000180: 3104 a4bd 34ed 68bd d736 8c3b 1701 7f3d
00000190: a006 8c3c cf7a 073c b4bd 53bb 23fa 45bd
000001a0: b0e4 183d 2349 833d a234 ff3c 5a77 9d3d
000001b0: 02fc b83d 9be7 d33b 9741 4fbd b7d2 883d
000001c0: 3685 4d3c 939e 6abc b6c1 61bc 12d2 0b3c
000001d0: 7199 33bd 002c 4b3d be6f 8fbd 9745 283c
000001e0: ed89 b9bd eaa3 1c3d da6f 24bd bbbe 2cbc
000001f0: 8ec9 943d 4e92 843c 9366 113b 6081 f83c
-0.049447127 -0.081021756 -0.022867965 0.005389359 0.010010853 -0.0030852268 -0.09056054 -0.028826198
-0.052619163 -0.017489597 -0.04604613 -0.005090098 -0.01957752 -0.07551713 0.04178424 0.025623271
0.025087453 0.029443959 -0.006804069 0.021355147 -0.08952777 0.06143654 0.07283537 -0.028999532
0.07251652 -0.030757207 0.033021834 -0.037410684 -0.05341787 -0.042727884 0.06421057 -0.029870411
-0.06913673 0.006813243 -0.058826126 -0.059347548 -0.051736496 -0.05646273 -0.055555545 0.037474252
-0.034893166 0.022714168 0.078651205 0.025485469 0.0915077 0.06938047 0.009327964 0.038269393
0.08055016 -0.06039215 -0.052050818 0.059879098 0.042805664 0.027422616 0.018983597 -0.05363014
0.036088705 -0.003149387 0.006170728 0.08303019 0.048986576 -0.0026168127 -0.023308149 -0.050882228
0.04114906 0.088586636 -0.04798341 -0.05742546 0.05670159 -0.072091214 0.0847899 0.013761554
0.081437916 0.0033465258 0.029909085 -0.082036965 -0.017228791 0.0701968 -0.03154554 0.0769717
-0.013282726 -0.047315065 -0.04725835 -0.07109291 0.030487182 -0.048616808 0.031286765 -0.026751459
0.051300954 0.057689946 -0.06533515 -0.051153257 0.05685699 -0.027626472 -0.07294127 -0.0468851
-0.08008612 -0.05686684 0.0042789984 0.0622569 0.017093003 0.008269026 -0.0032309117 -0.048334252
0.03732747 0.06410434 0.031153027 0.0768878 0.09032442 0.0064668185 -0.05059966 0.06680816
0.012543967 -0.014320034 -0.013779094 0.008533971 -0.043847505 0.04960251 -0.07003735 0.010270498
-0.090595104 0.038242258 -0.040145732 -0.010543521 0.07265006 0.016183045 0.0022186383 0.030335128

model.base_model.net.8.weight f4 [128, 128]
00000000: 3437 1d39 8495 4f3d 4769 23bc 9b3e 8b3d
00000010: 8776 6d3d b573 eebb 305b a13d 4e0d d63c
00000020: 7fc1 843d 7139 c8bd 9e76 d7bd eeb5 08bc
00000030: 8de1 c13c 93e0 08bd 44dc 67bc 9a41 5c3d
00000040: ea93 8b3d 7615 ba3c 9ca5 c63d bf99 923d
00000050: b403 e03c c815 3d3c dec5 c9bc e893 81bd
00000060: 0af1 1e3d f626 c93b 85e9 33bd 282e 20bc
00000070: 9cf2 53bd ba9a 093b 9243 473d ae0f 853d
00000080: a1ac 82bd f16a 5b3c ed29 1ebd f088 adbd
00000090: 2458 173d e2c2 a23d 9136 a73d 6d49 903d
000000a0: 8fd2 10bd 239d cd3c be9a cd3c 7df6 71bd
000000b0: d2a2 b33d 5e9c 75bd e700 bb3c 1b28 18bd
000000c0: e880 0f3d d8cf 7c3d f652 923b 2c79 1ebd
000000d0: 82af 5f3d e873 c5bd 6a8f 34bc ee10 a6bd
000000e0: 71f0 c3b7 a7a6 2b3d 9a93 3d3d 91d4 03bd
000000f0: 65f9 30bd c4ce 383c 4a16 4cbd 298b 99bd
00000100: c5cf 893d d654 b63c 3c77 83bd 1b2a acbd
00000110: 6e50 f53c 7fd5 bfbc 0c65 31bd 7b9c b63d
00000120: 4c67 1f3d 5470 b93d 7141 933b ee1b 78ba
00000130: 3e4e 44bd b5bb 133d b41a 1cbd dff1 9dbb
00000140: 3f65 9bbc fee8 483d f84e 023d 0c10 c4bd
00000150: 27f7 fb3b ebf6 9a3d 4ca0 75bb e937 863d
00000160: ea23 d9bc 683b 84bd 22b2 613d b22d dfbc
00000170: 04dc 2e3d af43 903d 4028 61bd c4b6 b0bd
00000180: 4cc3 30bc 3df4 51bd 299e 873d acf1 483d
00000190: 1e93 753d 6c2a 82bd d520 803c 4a94 3c3c
000001a0: 8ee4 53bd 1acb 3bbd 9028 373d f794 0d3c
000001b0: 1795 9f3d fd54 e43a 4f4f ee3c 2bec cd3c
000001c0: b7bd 7dbd c36e 2fbd 5520 1dbd ac3a 10bd
000001d0: ba3f e03c 8095 5cbd 54f0 95bd a8bc 1fbd
000001e0: d541 9bbd 3322 38bc 2664 cabd 35cc 95bc
000001f0: c242 86bd 746f b6bd d4ab 703d 4372 b03d
00000200: 3b43 6bbd d943 853c 68ba 9fbd cce5 56bd
00000210: a7be afbd 6025 60bd 36e1 be3d 2b57 bb3c
00000220: ee8c 373d 95c5 57bd e505 eb3c 097d ce3c
00000230: 05b1 fd3c 1b6e 083c e651 36bd d106 243d
00000240: 5860 a23d fc99 6cbc d526 c03d de44 a03b
00000250: 968b d43c 37d0 673d 81d9 9abc 94a4 dc3c
00000260: ec70 bbbc db90 85bd 0e69 6ebb cbc2 123d
00000270: 98ff 423c 88d1 013d cf7f c3bc eaa3 983d
00000280: 103f 91bd 2bda e93b 8acd 043c 0976 1c3d
00000290: 123f cbbc 834e c13c 7d2e 83bd ec14 d63c
000002a0: fe5d cabc 7020 743d bc25 953d dcc3 8e3d
000002b0: d6ef 59bd 7260 3b3d ea42 15bd a5b5 2b3c
000002c0: fec0 d23c 58f4 95bd 2b7b a5bd d486 ed3b
000002d0: 2165 053c 8ae1 87bd bef2 083d 4f27 783d
000002e0: 57ea 8abc 5200 a2bd 01f5 b33c 57b7 4cbd
000002f0: 6b6c 08bc 433c a8bc 6e57 613d dc42 c13c
00000300: e1c0 8fbd 3f28 acbd d044 20bd 628b abbd
00000310: 8eba 12bc 62f1 14bd 0618 17bd 925e acbd
00000320: 153c 853d dc39 49bd 38f8 1ebd 766a 8b3d
00000330: 9942 9cbb eef6 d4bc 2393 1b3d 5911 20bd
00000340: 1f1d 6d3d 97f1 cebb 3b5f 513d 6285 fc3b
00000350: 0252 32bd 2b27 f0bc dc32 3739 7808 b8bc
00000360: f975 593d 6abe 4c3d 627a 34bd 9af1 34bd
00000370: 22e9 9bbc 6b5a a23d d2c3 d33b f7e6 883d
00000380: adf3 063d f614 853b ceed 9fbd 792f 0fbc
00000390: be78 5bbd 516c 44bd 83cd 4b3d 5f08 43bd
000003a0: 8ea7 2abd ccbb 843d bed8 2cbd cca0 90bd
000003b0: 6ab1 f5bc 8a60 0f3b 60f8 8dbd ccd3 bdbd
000003c0: 4b74 afbd 3989 693c 6be7 463b 3ccf 9fbd
000003d0: c4bc 57bd c8d4 acbb ca5a 95bd 9f8f 4bbd
000003e0: 004a d7bc 699f bdbd cd4b a9bc 9ab6 cfbc
000003f0: 41eb 273c 55f4 c1bb c07a 213d d6ae edbc
0.00014993252 0.0506797 -0.009973831 0.067990504 0.057974365 -0.007276977 0.07878721 0.026129391
0.06482219 -0.09776581 -0.10520671 -0.008344157 0.023667121 -0.033417296 -0.0141516365 0.0537735
0.06815322 0.022715311 0.09699556 0.07158231 0.027345516 0.011540838 -0.024630483 -0.06327039
0.03880409 0.0061386777 -0.043923873 -0.0097766295 -0.051745042 0.0020996765 0.048648424 0.06497131
-0.063805826 0.013392196 -0.038614202 -0.084733844 0.03694929 0.07947327 0.081647046 0.07045255
-0.035357054 0.025099343 0.0250982 -0.05907296 0.0877129 -0.059963576 0.022827579 -0.037147623
0.035035044 0.061721653 0.004465456 -0.038689777 0.054610737 -0.09641248 -0.011020521 -0.08108698
-2.3357776e-05 0.04190698 0.046283342 -0.03218514 -0.04320659 0.0112797655 -0.049825944 -0.07497246
0.06729082 0.02225725 -0.064192265 -0.084064685 0.029945578 -0.023417233 -0.043309256 0.08916565
0.03891687 0.09054628 0.004493885 -0.0009464611 -0.04792618 0.036067683 -0.038111404 -0.004820093
-0.018969176 0.049050324 0.03181359 -0.09573373 0.007689375 0.07566627 -0.0037479578 0.06553633
-0.026506383 -0.06456643 0.05510152 -0.027243469 0.042690292 0.070441596 -0.054970026 -0.0862861
-0.01078875 -0.051258314 0.066219635 0.0490586 0.059954755 -0.063557476 0.015640656 0.011509964
-0.05173164 -0.04584799 0.044716418 0.008641473 0.077921085 0.0017420348 0.029090552 0.025137028
-0.061948504 -0.04283024 -0.038360912 -0.035212204 0.027374137 -0.05385351 -0.073212296 -0.038998276
-0.07580916 -0.0112386225 -0.09882383 -0.01828585 -0.06555702 -0.08907977 0.058757618 0.08615544
-0.057437163 0.016267704 -0.07799226 -0.052465245 -0.08581286 -0.054723144 0.09320299 0.022868713
0.044812135 -0.052678663 0.028689334 0.025206106 0.030968199 0.008327032 -0.0445117 0.040045563
0.07928532 -0.01444101 0.093824066 0.004891022 0.025945466 0.056595054 -0.018902542 0.026933946
-0.022880994 -0.065217696 -0.0036378535 0.0358303 0.011901759 0.031693965 -0.023864655 0.07453139
-0.07092106 0.0071366034 0.008105645 0.038198505 -0.024810348 0.023597008 -0.06405351 0.026133023
-0.024703022 0.059601247 0.07282588 0.06970951 -0.05320724 0.045746274 -0.036440767 0.010480319
0.025726791 -0.073219955 -0.08080133 0.007248739 0.008141787 -0.06634815 0.033434622 0.060584363
-0.016957445 -0.07910217 0.021967413 -0.049979534 -0.00832663 -0.020536548 0.05501502 0.023591451
-0.070192106 -0.08406114 -0.039128125 -0.083761945 -0.008955611 -0.036363013 -0.036888145 -0.08416475
0.065056 -0.049127445 -0.03881094 0.06807415 -0.0047686812 -0.025996652 0.037982117 -0.039079044
0.0578891 -0.006315421 0.05111621 0.00770633 -0.04353524 -0.029315552 0.00017471187 -0.022464976
0.053091023 0.04998628 -0.044062026 -0.04417572 -0.019032065 0.07927402 0.0064625526 0.06684678
0.03294723 0.0040613366 -0.078090295 -0.008739346 -0.053581946 -0.04795486 0.049756538 -0.047615405
-0.0416637 0.06481132 -0.04219889 -0.070619196 -0.029991824 0.002187761 -0.069321394 -0.09268913
-0.08567103 0.014253908 0.0030350338 -0.07803199 -0.052670255 -0.005274389 -0.07292707 -0.049697515
-0.026280403 -0.09258921 -0.020666027 -0.025355626 0.01024896 -0.005919019 0.039423704 -0.029014032

model.base_model.net.8.bias f4 [128]
00000000: aada 8bbd b1b3 2b3b aeef 2dbd 04e4 b03c
00000010: 3ce5 9cbd 67d8 3e3d 1d68 7a3d d5f1 903d
00000020: e537 aebc 58f9 71bd b094 523d 4a8c 483d
00000030: befa 0fbd d4ca 523d 2e83 a33c b8bf c6bc
00000040: f20b 423d e67b 473d 405f cf3c bf46 59bd
00000050: 0830 89bc a795 a43d f1cb 88bb 6b58 a9bd
00000060: c7c9 313b 7a05 edbc e9bd 073d 450c 35bd
00000070: a1bd 7fbc 0a59 87bd 784c a2bd a400 56bd
00000080: 217c 54bd 6fe7 bf3c 4af6 163d 8e27 723d
00000090: 922f 21bd 34b7 5bbd d67f c53c 1be0 3ebd
000000a0: 91a1 5abd cd77 9b3c e9b2 273d 10eb 903b
000000b0: a29d 92bd 5d6f c63c 611d 2f3d 340f 68bc
000000c0: 994a 4bbd d177 8d3c 5dbb 543c 02a3 3cbd
000000d0: f260 11bd 6f9d 30bd b57a 8fbc e704 f83c
000000e0: dfb0 24bd f09e 563b e27d 2bbd 29b7 d8bc
000000f0: 50d1 2a3c 07f8 153d 7687 613d d200 8ebd
00000100: f147 07bc 3c3e 97bc c27d 823d 3e36 05bd
00000110: 9a5c a6bc 9bbf 57bd 6517 3c3d 4a15 e9bc
00000120: 982a 0e3c 046d ecbc 2392 71bd bc08 95bd
00000130: 8191 1a3a 4774 913b 5545 0c3a 20f1 953d
00000140: 7a6a 6fbd b263 b4bb 3aed 423c f5a3 803d
00000150: a583 603d 4f18 733d 857e a0bd 3808 c23c
00000160: de05 9abd 728a ed3c 9d14 8dbd 5f0d a23d
00000170: 9ec0 a93d ebd9 863c 7c7e 6d3c f473 8ebd
00000180: e47d 0bbd e6db ea3a 6b2f 4cbc 30c9 b4bd
00000190: 8148 4cbd f418 43bd b283 283d 6881 623c
000001a0: 5f1e 2abd 74af 4a3d 94d8 92bd 9c74 a23c
000001b0: 94ed 613d 4c88 20bc 3b8d 483c bcad cdbc
000001c0: df03 abbc da40 42bd 18c1 7e3c 6d11 24bd
000001d0: 473c e9bc b45b 8fbd 2c50 323d 395f 99bd
000001e0: 271a 29bd 1050 2f3d d95f 9e3d 1553 93bd
000001f0: 91d1 b8bd 42a7 193d ff2a e8bc 707e 093d
-0.06828816 0.0026199634 -0.042464904 0.021593101 -0.076609105 0.046593096 0.061134446 0.07077376
-0.021266887 -0.059075683 0.05141133 0.048961915 -0.035151236 0.051462963 0.019960012 -0.02426134
0.047374673 0.048702143 0.025313973 -0.053045984 -0.016746536 0.080363564 -0.0041747023 -0.082688175
0.0027128325 -0.028933275 0.033140097 -0.044201154 -0.015609176 -0.0660878 -0.079247415 -0.052246705
-0.05187619 0.023425786 0.036855973 0.059119754 -0.039352007 -0.053641513 0.024108808 -0.046600442
-0.053376738 0.018978024 0.040942106 0.004422553 -0.07158972 0.024223024 0.042752627 -0.014163781
-0.04963169 0.017269047 0.012984124 -0.046053894 -0.035492845 -0.04311889 -0.017514566 0.030275775
-0.04020774 0.0032748543 -0.041868098 -0.026454525 0.010425881 0.03661349 0.055060826 -0.0693375
-0.008256898 -0.018462293 0.06371643 -0.032522433 -0.020307828 -0.052672964 0.04592075 -0.028452534
0.008677147 -0.028860576 -0.058977257 -0.072770566 0.00058963156 0.00443891 0.00053509074 0.073213816
-0.058451153 -0.0055050487 0.0118973795 0.06281272 0.054813046 0.059349354 -0.07836632 0.02368556
-0.0752065 0.02899668 -0.06888697 0.079127066 0.08288692 0.016461333 0.014495488 -0.0695571
-0.034055606 0.0017918318 -0.012462477 -0.08827436 -0.049873833 -0.04763122 0.04114122 0.013824798
-0.04153287 0.04948373 -0.07170215 0.019830994 0.055158213 -0.009798121 0.012240703 -0.025107257
-0.02087587 -0.04742513 0.015548967 -0.04005568 -0.028471125 -0.06999913 0.04353349 -0.074888654
-0.041284706 0.042800963 0.07733125 -0.07193581 -0.090243466 0.037513025 -0.028340815 0.033567846
