results/edm_swiss_roll/checkpoints/epoch=10-step=352.ckpt (torch, 842042 bytes, 37 tensors)

model.base_model.time_embedding.frequencies f4 [4]
000000 00 00 80 3f 97 1e 3e 3d 6b 31 0d 3b 16 b7 d1 38
       1.0 0.04641589 0.0021544348 9.999999e-05

model.base_model.net.0.weight f4 [128, 10]
000000 d1 6d 7e 3e d3 30 8d 3e d2 33 95 bd 5c 65 95 3e
       0.24846579 0.27576312 -0.072852746 0.29178894
000010 64 49 8d bd bc 9c 82 3d e4 c6 10 be 63 b1 49 3e
       -0.06898764 0.06377551 -0.14138371 0.19696574
000020 c3 7c 94 3e 99 0b 62 be aa 93 8a 3e 73 b5 95 3d
       0.29001436 -0.22074737 0.27065784 0.07309999
000030 3c 33 82 3e ae d8 81 3d 2f a0 2c 3e dd 1d 29 bd
       0.25429714 0.063401565 0.1685798 -0.041288245
000040 0a 36 81 3e b9 85 56 3d 25 69 11 be e8 99 b0 3d
       0.2523654 0.05237362 -0.14200266 0.08623105
000050 3d 55 17 be 66 15 29 bd 9c dd fe bd 09 60 5a 3e
       -0.1477861 -0.041280173 -0.124446124 0.21325697
000060 02 ed 7e be 18 3f 15 be 0c e5 c5 bd fa 9f 4a be
       -0.24895099 -0.1457485 -0.09662828 -0.19787589
000070 7b 1e b5 3c 12 e0 a3 be de e2 96 3e f4 76 88 be
       0.02210926 -0.3200689 0.2946996 -0.26653254
000080 18 b0 74 3e 9f 18 42 3d bd 61 db bd 34 1f 47 3e
       0.238953 0.04738676 -0.107120015 0.19445497
000090 cb ae 61 3d c7 e6 85 3e f7 47 26 3d b0 e7 bf bd
       0.055098336 0.26152632 0.040595975 -0.09370363
0000a0 31 06 ca 3d 82 ab a8 bd 4b 45 04 3e ba 63 8e 3e
       0.09864462 -0.082358375 0.12917058 0.2781046
0000b0 87 ca 36 3e fb 02 0f be 2d 7b 38 3e 51 23 61 3d
       0.17850696 -0.1396598 0.18015738 0.05496532
0000c0 c5 ca 22 3e 9c 05 47 be 32 48 ac be b5 65 02 be
       0.15897663 -0.19435734 -0.3364883 -0.1273411
0000d0 85 d6 76 be 77 df 85 3e 48 ec bf 3d 8a f5 07 3e
       -0.2410527 0.26147053 0.09371239 0.1327726
0000e0 b5 f0 db 3d 80 7f 3e 3a ce e5 81 3e ed b3 5f be
       0.107392706 0.0007266924 0.2537064 -0.2184598
0000f0 a1 aa eb 3b bc 2b 67 be 1d 60 bb 3d 76 eb ea bd
       0.0071919714 -0.22575277 0.091491915 -0.11470692
000100 62 85 bd 3d 08 73 88 bd 07 02 88 3e b5 2a 3c be
       0.092539564 -0.066625655 0.26564047 -0.18375666
000110 16 5d 3d be 12 60 3d be b5 60 96 3e 10 f9 d5 3d
       -0.1849254 -0.18493679 0.29370657 0.104478955
000120 1f a3 96 3e 13 da 8a be 0f 48 a5 be 0c 1b 80 be
       0.29421327 -0.27119502 -0.3228154 -0.25020635
000130 0b b4 5a be 8a 97 03 3e 23 c7 e8 3d b7 c0 86 3e
       -0.21357743 0.12850776 0.11366107 0.26318905
000140 6a b5 2e be 56 a2 64 be ac dc 25 3e e7 f2 08 be
       -0.17061391 -0.22327551 0.16197461 -0.1337391
000150 ee 2a 40 3e e9 fa 9a bd 94 86 31 3e 70 36 81 be
       0.18766376 -0.075673886 0.17336494 -0.25236845
000160 62 3d 2a be 1b cc b7 3d d8 cd a8 3d db 41 a3 bd
       -0.16624978 0.08974477 0.082423866 -0.07971545
000170 95 4c 3a 3e b9 11 55 3e ef 8e 71 be e9 2c 2f be
       0.18193276 0.20807542 -0.23589681 -0.17106976
000180 0a 4d 91 3e 05 e6 e3 bd e1 f4 ee bd 70 00 9f be
       0.2837909 -0.11127857 -0.11667801 -0.3105502
000190 63 13 35 be 1a e9 8a 3d 90 6b 69 bd d7 c3 7a be
       -0.17683177 0.06782742 -0.056987345 -0.2448877
0001a0 df 06 46 bb 6a 96 5e be e4 39 8e be 17 12 39 be
       -0.0030216498 -0.21737066 -0.27778542 -0.18073307
0001b0 23 14 91 be 80 ef 54 be 62 6a a8 3e 58 52 8a 3d
       -0.28335676 -0.20794487 0.32893664 0.06753987
0001c0 57 82 bb 3d d4 e2 99 be 93 39 58 be f4 61 d8 bd
       0.0915572 -0.3005587 -0.21115713 -0.10565558
0001d0 56 7b 7c 3d 67 5e 88 be c5 a8 fe bd 29 aa 35 be
       0.06164106 -0.26634523 -0.12434534 -0.17740692
0001e0 ee 37 84 bc f5 d3 f7 bd 73 32 96 bc a1 78 57 be
       -0.01613995 -0.121009745 -0.018334603 -0.2104211
0001f0 c7 b9 5a be d3 b0 3b be ff 97 d7 bd 2d 7b 7d be
       -0.21359931 -0.18329172 -0.10527038 -0.24754019
000200 20 ce 88 3e 80 aa 78 bd a5 9d 8d 3e 44 0d c4 3d
       0.2671976 -0.060709476 0.27659336 0.09572843
000210 36 d9 8f be 37 a7 52 3e df 98 c8 bd bc 4a fe bd
       -0.28095406 0.205716 -0.09794783 -0.12416598
000220 ff 68 83 be 4c 40 9d be de 25 c8 3d e1 3c 7d bd
       -0.25666043 -0.30713117 0.097728476 -0.061825637
000230 46 89 da 3d ef b9 86 be 39 46 75 3e 81 8f 68 be
       0.10670714 -0.2631373 0.23952569 -0.22710992
000240 dd aa 4b bd 62 e8 8b 3d 0d b3 29 3e 62 7a 83 3e
       -0.049723495 0.06831433 0.16572209 0.25679308
000250 5d 42 94 3e 4d 3a 7f be c7 30 88 3d 06 e4 0c be
       0.2895688 -0.24924584 0.066499285 -0.13758859
000260 8a bf e7 bc 84 89 6b be ee c6 96 3e d9 05 6b be
       -0.028289575 -0.23001677 0.29448646 -0.2295145
000270 e6 83 30 3e da 00 e8 3d 93 d7 d6 3d 32 e0 2c be
       0.17237815 0.113282874 0.10490336 -0.16882399
000280 7c e9 96 3e 4f 72 a3 3d 5f 9d 2e 3d a0 93 8d be
       0.2947501 0.07980787 0.04263055 -0.2765169
000290 fa 76 09 3e 37 8c 41 bd c1 bb 06 be 49 31 91 3e
       0.13424292 -0.04725286 -0.1315756 0.28357914
0002a0 94 de a8 3d 9b eb 26 be ab 5b 28 be 15 30 e5 bc
       0.082455784 -0.16300814 -0.16441219 -0.027977029
0002b0 9b fc 22 3e 3b 23 c9 bd 90 84 46 be 15 8b e2 bd
       0.15916674 -0.09821173 -0.19386506 -0.11061684
0002c0 86 87 77 be bd 87 e0 3d 44 6f 77 3e a9 08 9a be
       -0.24172792 0.1096339 0.24163538 -0.30084732
0002d0 0d 2e ae 3d 22 8b 26 3e 96 71 50 3d 28 7c f4 bd
       0.08504877 0.16264012 0.050889574 -0.119377434
0002e0 fe 60 23 3e 66 15 29 3e d2 56 ed 3d 5a 2f 69 bd
       0.15954968 0.16512069 0.11588825 -0.056929924
0002f0 3b 47 ae bd 6a 00 05 3d 76 0d 97 bd e4 9d c6 bd
       -0.0850968 0.032471098 -0.07375614 -0.09698084
000300 c1 48 55 3e eb 6d 8e 3e 63 cc cf bc 1a 95 8c bd
       0.20828535 0.27818236 -0.025366014 -0.06864376
000310 0b 37 da 3b 2f 2d 93 bc 5e 91 9d 3d b1 5b b7 3d
       0.0066593937 -0.017965881 0.07693742 0.089530356
000320 d0 e1 95 be a0 a7 03 be cc 91 7d 3e 30 54 d7 3d
       -0.29273844 -0.12856913 0.24762648 0.10514104
000330 dd 0d d9 bc 89 88 44 be 55 aa 43 be fb 07 8f be
       -0.026495868 -0.19192709 -0.19107945 -0.27935776
000340 8a 17 cb bd ae b8 e2 3d fb 2e 5f 3e 8f 27 16 3e
       -0.09916599 0.11070381 0.21795265 0.14663528
000350 de 41 94 be f4 46 4d be 1d 0e 73 bd db fa 9a 3e
       -0.28956503 -0.20046598 -0.05933963 0.30269513
000360 bf 26 33 3d 9b 7b a8 bd e2 96 05 3e e7 6d f7 bd
       0.043738123 -0.08226701 0.13045838 -0.12081509
000370 49 0a 68 be 93 02 6b 3e 51 71 0b be fd 60 62 bd
       -0.22660173 0.229502 -0.13617446 -0.055268276
000380 6e 1f 9d be 10 33 5b 3e b4 73 7f 3e 44 66 fc 3d
       -0.3068804 0.21406198 0.24946481 0.12324193
000390 f3 9b 59 be 31 b4 9b be cb db 89 be b6 60 82 3e
       -0.21250896 -0.30410913 -0.269255 0.2546441
0003a0 7f ed 26 3e ef f3 8d 3e 50 a1 2f 3e 61 1e a5 3d
       0.16301535 0.2772517 0.1715138 0.08062435
0003b0 e6 6a 6e 3c 94 c9 66 be b0 fb 82 be 92 b4 8f be
       0.014551854 -0.22537833 -0.25582647 -0.28067452
0003c0 af a7 09 3e 37 d0 29 be 01 28 ad bd 07 85 4f be
       0.13442872 -0.16583334 -0.08454896 -0.2026559
0003d0 a3 51 96 bd 2c 4c 67 be 82 67 4e be d2 6a e6 3d
       -0.0733979 -0.22587651 -0.20156673 0.11250843
0003e0 e6 df b0 bd cd b4 4f 3e 8c ff f0 bd 59 0f 6b be
       -0.08636455 0.20283814 -0.11767492 -0.22955073
0003f0 fa 5e 3c bd cf 8f 12 be 8b 18 b3 bd 7e 37 98 be
       -0.045989014 -0.14312671 -0.087449156 -0.29729837

model.base_model.net.0.bias f4 [128]
000000 d5 c7 5e be 61 4e 96 bd bf 59 1b bd 83 07 2e be
       -0.21755917 -0.07339168 -0.037927385 -0.16995053
000010 e2 d4 70 be 0e 2e 60 3e ae 84 5f 3e 0f d3 92 be
       -0.23518708 0.21892568 0.21827957 -0.2867665
000020 b5 6e c0 3d a2 19 fe 3d 07 6f 96 3e f9 89 47 3e
       0.09396116 0.12407233 0.29381582 0.19486226
000030 1d e6 95 3e a4 2c c5 bd c1 54 64 3e 57 cb 84 3e
       0.29277125 -0.09627655 0.22297956 0.25936386
000040 55 c6 92 be 4e 92 83 be ce 4c 80 3d 33 c0 31 3e
       -0.2866694 -0.2569756 0.06264649 0.17358474
000050 e9 de 1c be 46 24 0d 3d 9c bf f6 3b e7 dc c2 3d
       -0.15319408 0.03445842 0.007530166 0.0951479
000060 49 34 26 be 62 d2 3b 3e 9d b0 55 3e 3b 8d 5a be
       -0.16230883 0.18341973 0.20868154 -0.21342938
000070 9e ca a3 3b da d6 21 3c ea 59 cb 3d 72 18 99 3e
       0.004998519 0.009877885 0.09929259 0.29901463
000080 55 7c a8 3d 7c 15 7d bd 57 6e 8f 3e 27 21 fe bd
       0.082268395 -0.061788067 0.2801387 -0.12408667
000090 d6 8c ad bd 43 1a fb 3c 01 36 76 be 66 ff 1f 3d
       -0.08474128 0.030652171 -0.24044038 0.039061926
0000a0 16 1b 55 be 2c 60 f6 3c 07 ed e0 3c 3b 4b 2f 3d
       -0.20811114 0.030075155 0.027456773 0.042796355
0000b0 28 ef 88 be 96 6f 95 be bc e9 14 3e 35 e2 8b 3e
       -0.26744962 -0.29186696 0.14542288 0.2732102
0000c0 0b 21 90 be 6e cd f9 3d 41 72 6a be 87 ae be 3c
       -0.2815021 0.12197386 -0.22895147 0.02327658
0000d0 32 31 99 3e 50 15 78 3e c9 31 66 be 3d a2 4a 3e
       0.29920346 0.2422688 -0.22479929 0.19788451
0000e0 e9 a3 27 3e 64 04 a7 ba 86 ea 9b 3e 0a 92 f7 bd
       0.1637112 -0.0012742397 0.30452365 -0.120884016
0000f0 b3 cb 8e bd 74 b8 23 be 07 af 53 3d e6 a3 b4 3d
       -0.06972446 -0.15988332 0.05168059 0.08820324
000100 0d 07 02 3d 9e a5 2f be 90 23 0c be bb 2f d2 3d
       0.031745005 -0.17153022 -0.13685441 0.1026301
000110 82 e7 89 be 07 03 33 bd 1d c1 33 bb 41 f6 03 be
       -0.2693444 -0.04370406 -0.0027428337 -0.12886907
000120 7f 11 dd 3d 91 db b1 3c bd 75 69 3e bb cd ab bc
       0.10794353 0.021711143 0.2279882 -0.020972123
000130 0a af 45 be b4 6b 63 3e 34 7a 3a 3d 9d c9 c1 bd
       -0.19305053 0.22209054 0.0455267 -0.09462283
000140 bc de 4e be 1c d7 a4 3d 11 c1 94 be e0 cc ae 3d
       -0.20202154 0.08048841 -0.29053548 0.085351706
000150 ad 01 23 3e 09 cf 8c be 74 43 56 be de 35 68 be
       0.15918608 -0.27501705 -0.20924169 -0.22676799
000160 ef 92 8a 3e a6 66 8b 3e 62 14 c3 3c bf ea 99 3e
       0.27065226 0.27226752 0.02381343 0.3006191
000170 2f 19 de bd 06 c5 9a be 07 ef de 3d df 76 eb 3d
       -0.10844647 -0.30228442 0.108854346 0.11497282
000180 21 13 a2 3e f7 20 bb ba ef 3b 78 3e f7 1b 46 3e
       0.3165522 -0.0014276792 0.24241613 0.19346605
000190 dd eb 6c 3e dc 0f 9d be 98 ab 89 3e 2b 31 87 be
       0.2313685 -0.30676162 0.26888728 -0.264047
0001a0 5f c9 94 3e 10 e7 23 bc da ee 90 be 03 f0 be 3d
       0.29059884 -0.01000382 -0.2830723 0.09323122
0001b0 d9 6d 8d bd 0b c1 90 be c3 b6 ef bd 08 45 19 3d
       -0.069057174 -0.2827228 -0.11704781 0.03741935
0001c0 b7 60 7f 3e 4b f7 c2 bd fa fd 3c 3e c5 5b 17 3d
       0.24939238 -0.09519824 0.1845626 0.036952753
0001d0 3e 1e e2 3b c9 4a 83 3d c8 08 52 be e2 be 89 be
       0.006900578 0.064107485 -0.20511162 -0.26903445
0001e0 24 52 be bd 5a 8e 97 be 1a 1c 16 be 41 5f 89 3c
       -0.09293011 -0.29600793 -0.14659157 0.016769053
0001f0 c4 cd 56 be 02 21 01 be 8f d9 6b bd 7a 83 05 bd
       -0.20976931 -0.12610248 -0.057580527 -0.03259609

model.base_model.net.2.weight f4 [128, 128]
000000 00 ec 8c bd 81 ff 3a bc 53 1d 83 bc 3a 83 7d 3c
       -0.06880951 -0.011413456 -0.016005194 0.015473181
000010 2d f1 d9 bb ca 72 e8 bc 46 de 02 bd 3f 41 a3 bc
       -0.006651065 -0.028375048 -0.031950258 -0.019928573
000020 fd 2a 1e bd bc 9d 19 ba ca 4c 18 bc c9 6f a2 3c
       -0.038615216 -0.0005859991 -0.009295652 0.019828694
000030 3a 85 d6 3c 4d 51 5e 3d 52 21 d2 3a 31 9e 7c bd
       0.026186574 0.054276753 0.0016031659 -0.0616743
000040 11 5a b5 3c 96 72 76 bd b0 b4 b8 bc e8 db 7f bc
       0.022137674 -0.06016787 -0.022547096 -0.015616395
000050 b8 f5 09 bd c9 06 5a bd 85 5b be 3d 5a b4 4c 3d
       -0.0336816 -0.053229127 0.092948 0.049976684
000060 d9 e0 0e 3c f0 ee be 3d 6e 70 bd bd e1 3e 97 3b
       0.0087206 0.093229175 -0.0924996 0.00461565
000070 c7 0b 85 3d 69 7a 4d 3d df c9 a6 bd e4 d5 e7 3c
       0.06496387 0.050165568 -0.081439726 0.028300233
000080 8d 7e 5d bd 6f ae d3 bc 5b 2e 37 bc 70 1f a2 bd
       -0.054075766 -0.025840012 -0.011180486 -0.079161525
000090 ca 6a b6 bd 10 95 93 bd 55 e4 f3 3c 3e c0 25 3d
       -0.08907087 -0.07206166 0.029771963 0.04046654
0000a0 f4 b8 a8 bd 9d 41 11 bd 70 3c e9 bb 47 e8 c5 bd
       -0.08238402 -0.035462964 -0.0071178004 -0.09663444
0000b0 39 07 44 3d 90 b0 98 3d fc 91 c0 3c bf 7c aa bd
       0.04785845 0.074555516 0.02350711 -0.08324575
0000c0 8f aa 99 3c 7d 2d 02 3d 4a fe 82 3d aa ff 28 bd
       0.018758086 0.031781662 0.06396158 -0.041259445
0000d0 9c 78 92 bd 5e 54 f3 3c a7 44 ab 3c 95 94 a7 bc
       -0.07151911 0.029703315 0.02090676 -0.020456592
0000e0 7e a5 3b bd ac 37 27 bd b9 6e 89 3d 10 7d 05 bd
       -0.045812123 -0.040824577 0.06710572 -0.032589972
0000f0 f0 d2 98 3d e9 89 80 3d 17 90 9d 3c 0e 5a 77 3c
       0.07462108 0.06276304 0.019233746 0.015097154
000100 dc e9 23 bc 2b 5a 42 3d 2c 37 7e bd 36 fa fe 3c
       -0.010004487 0.047449272 -0.062064335 0.03112517
000110 ad b6 b1 bc e3 3f 2a 3d 9b cd 4f bc 73 78 1d bd
       -0.021693552 0.041564833 -0.0126832975 -0.038444947
000120 79 0a 66 bc 19 0d 18 3d d9 41 8a bd b8 d9 77 bd
       -0.014040583 0.037121866 -0.06750841 -0.060510367
000130 04 e6 72 bc 1e e7 4f bd d3 69 26 3d e4 48 7e 3d
       -0.014825348 -0.05075752 0.040628266 0.062081233
000140 8d cc 23 bb d3 e9 c5 3d e8 93 5b bd f9 43 8c bd
       -0.0024993748 0.09663739 -0.05360785 -0.06848902
000150 2a f4 16 bd d4 83 70 bd 8d a7 89 bd bc ca 9a bd
       -0.036853947 -0.05871947 -0.06721411 -0.075582
000160 4b 0e ae bd 6c 55 7c 3c 23 37 2b 3d 7d 23 cd 3d
       -0.0849882 0.015401226 0.04180063 0.100165345
000170 bf 60 bb 3d 81 9e a8 bc 26 d7 91 3c fa b1 01 bd
       0.09149312 -0.020583393 0.017802786 -0.031663872
000180 9c 04 48 3d 6b 1c ac bd 2b c0 22 3d b2 39 32 3c
       0.04883252 -0.08403858 0.039734047 0.010878013
000190 b9 03 35 3c 82 b3 c0 3c c4 02 c1 bc 25 ed 80 3d
       0.011048251 0.023523096 -0.023560889 0.06295232
0001a0 49 aa 6b 3d b3 3c 3a 3d 71 e8 00 3d e8 b2 29 3d
       0.057535443 0.045468044 0.031471673 0.041430384
0001b0 2c df 9b 3d 0d a8 f1 3c c9 2e aa 3d 06 e8 d7 bb
       0.07610926 0.029499078 0.08309705 -0.0065889386
0001c0 2a 7c 8c 3d ac ec 04 3d 62 66 17 3d 0c 35 cf 3d
       0.0685962 0.03245227 0.036962874 0.1011754
0001d0 66 a5 53 3c 6b e7 ce bc df 39 b3 bc 1c 5b a6 3c
       0.012917852 -0.025256833 -0.021878181 0.020307116
0001e0 d2 5e e0 3c 29 ec 15 bd 53 fc b5 3d 3b 15 47 3d
       0.027388964 -0.036602173 0.08886018 0.04860423
0001f0 84 10 6f bd 03 79 18 bc 66 01 aa bc a9 f0 4b bd
       -0.05836536 -0.009306195 -0.02075262 -0.04979006
000200 36 3b a2 3c 6b a3 d5 bc 1d 0f 34 bd 5c be c6 bc
       0.019803625 -0.0260789 -0.043959726 -0.024260692
000210 c9 a8 e4 bc 82 84 9a 3d ee 61 11 3d dd e8 ba 3d
       -0.027912514 0.07544805 0.035493784 0.091264464
000220 fe a1 61 3c 24 7b af 3c f2 68 1a 3d ae 79 a2 3c
       0.013771532 0.021421023 0.03769774 0.019833412
000230 e7 72 8f bd 10 5c 41 bd 35 f9 c2 bc a1 95 51 39
       -0.07004338 -0.04720694 -0.023800472 0.00019987534
000240 2b 49 25 3d bd 4c 09 3d c7 90 8f 3d a7 fd 23 3c
       0.04035298 0.03352045 0.07010036 0.010009206
000250 b6 00 01 bd 31 55 6f bd 27 1d 90 bd e1 be 59 bd
       -0.03149482 -0.058430854 -0.0703681 -0.053160552
000260 7d 92 1f 3d 98 52 30 3d 7e 9b ad 3d ea 2f b4 bc
       0.03895806 0.043047518 0.084769234 -0.021995503
000270 46 de 1a bc cd d9 9e bc 33 70 3f 3c 7b 4e f1 3c
       -0.009452408 -0.019390965 0.011684465 0.029456368
000280 de 6a 87 ba 91 72 88 3c 43 3d 10 3c cb ed e7 3c
       -0.0010331532 0.016656192 0.008803668 0.02831163
000290 8a 8b c1 bc 98 06 49 bd aa e4 da 3c 51 bf 34 bc
       -0.023626108 -0.049078554 0.026720364 -0.0110319415
0002a0 70 02 1a bd af 1d 18 3d e4 f7 e1 3b 27 15 1f 3a
       -0.03759998 0.037137683 0.006896006 0.00060685206
0002b0 9b 2e 2c bd c6 c8 7d bb a5 a0 a2 bd 3d e2 c7 3c
       -0.042036634 -0.0038724407 -0.07940797 0.024399871
0002c0 74 50 47 3b d7 90 53 3d d6 52 0a 3c 7a 0d 94 3b
       0.0030412944 0.051651802 0.008442601 0.004518208
0002d0 32 7f a3 3c a9 0c 9a 3d 21 7d 4f bd 86 c0 47 3d
       0.019958112 0.07521946 -0.05065644 0.04876759
0002e0 db d7 c3 3c 44 56 73 bd e4 32 0b 3d 21 35 38 bd
       0.023906639 -0.05940844 0.03398408 -0.044972543
0002f0 e4 08 03 bd 70 a8 f7 bc 76 7c 69 bd 55 c5 90 3d
       -0.0319909 -0.030231684 -0.05700346 0.07068888
000300 b6 4c 9c bd e2 8d 50 3d 43 b2 b5 bd d5 9c 29 bc
       -0.07631819 0.05091656 -0.08871891 -0.010352333
000310 97 93 06 3c 0b 62 77 3d 3f d3 ca bc 7f c4 de 3c
       0.008213899 0.060396235 -0.024758933 0.027193306
000320 b6 d4 76 3c ec fd 77 3d 8c b2 9c 3b ea d6 0e 3d
       0.015065363 0.060544893 0.0047820266 0.034872927
000330 30 62 61 bd bf 3b 59 bd e1 07 9b 3d 47 5f 88 bd
       -0.05502528 -0.053035494 0.07569862 -0.06658798
000340 88 9d 85 bc 79 2b 95 bc b8 7c be 3d 34 0d c7 bb
       -0.016310468 -0.018209206 0.09301132 -0.006074572
000350 7d 30 89 bd b1 e9 b5 bc 76 f1 42 3d 63 db f6 3c
       -0.066987015 -0.02220616 0.047593556 0.030133909
000360 e0 e5 93 3d a6 bd 49 bc d5 37 36 3d 84 d8 c3 bd
       0.072215796 -0.012313282 0.04448684 -0.095627815
000370 ba 5a dd 3c bc 36 4f 3d c2 f6 68 3d 2b ce 86 bd
       0.0270208 0.05058931 0.05687595 -0.06582292
000380 7f dd ff bc d1 27 a5 3c 04 07 80 bd 05 cb 8a bd
       -0.031233547 0.020160588 -0.06251338 -0.06777004
000390 e7 27 95 bd 34 47 68 3c bd bb 36 3d 83 31 fc 3c
       -0.072830014 0.014177132 0.044612635 0.030785328
0003a0 61 12 86 bb 19 30 17 3d ce 11 90 bd 7b 34 66 3c
       -0.0040915464 0.036911104 -0.07034646 0.014050598
0003b0 a9 3c f2 bc be 41 1f bd 7f 92 89 3d c7 e9 93 bd
       -0.02956994 -0.038881056 0.06717395 -0.07222324
0003c0 5f 73 01 3c ad 6e ab bd eb f0 e5 3b fc ab 48 bd
       0.007901042 -0.08370719 0.007017245 -0.048992142
0003d0 cc 90 00 3d d8 19 59 bd 3b b5 8b 3d 50 c4 8f bd
       0.03138809 -0.053003162 0.06821676 -0.070198655
0003e0 ed 04 40 3d c2 01 79 bd c6 92 08 3d 07 eb 17 bd
       0.046879698 -0.060792692 0.0333431 -0.037089374
0003f0 18 44 8d 3a df cc 41 bc c4 c0 81 3d c3 8a d6 3c
       0.001077774 -0.01182863 0.06335595 0.026189214

model.base_model.net.2.bias f4 [128]
000000 f2 10 ef ba 03 e1 29 bd 63 f1 92 bd 41 96 44 bd
       -0.0018239303 -0.041474354 -0.07174947 -0.047994856
000010 87 b5 4b bd 77 c8 ae 3d a8 7f 33 b9 b8 8f 60 bd
       -0.049733665 0.085343294 -0.00017118326 -0.05482456
000020 fc ad a7 bb eb 54 c9 bb 29 6a ae 3c 78 34 0a 3d
       -0.005117176 -0.006144156 0.021290855 0.033741444
000030 36 81 73 3d d0 4d 1d bd 9a e7 7f bc d6 c5 a5 bd
       0.059449397 -0.038404286 -0.015619183 -0.08094375
000040 c0 d6 ea bc 1a 70 96 bd ce 1d 39 bc 45 34 4b bd
       -0.028666854 -0.073456004 -0.01129861 -0.049610395
000050 7e f7 01 bd 99 d0 af 3d 46 8e a8 3d 92 1d ff 3b
       -0.031730168 0.08584709 0.082302615 0.0077855075
000060 44 f9 48 3d 9b 3a 5b 3d fd 3f 05 3c 0f 4d 8b 3c
       0.049065843 0.053522687 0.008132932 0.017004518
000070 38 5d d2 ba 9a 33 94 bd d0 34 8a 3d 8f 05 8d bd
       -0.001604951 -0.07236405 0.067483544 -0.06885826
000080 14 a8 cd bc 2d a7 9d bd f6 a3 54 bd 9a 5e af 3d
       -0.02510456 -0.07697902 -0.051914178 0.08562966
000090 19 b5 d9 bb b0 27 c6 3c b0 37 d0 3c f6 13 95 3d
       -0.006643903 0.024188846 0.025417179 0.07279198
0000a0 3d 57 b4 3c e6 a5 48 3b 91 af 0d bd 27 b9 61 3c
       0.022014255 0.0030616461 -0.03459126 0.013777054
0000b0 6e f2 bf 3c 99 84 69 bd 00 59 82 bd 6b 64 1e bd
       0.02343103 -0.05701122 -0.06364632 -0.038669985
0000c0 73 ef a3 3d 44 20 2c 3d 62 ea 54 3d 4d 13 83 3d
       0.08004656 0.04202296 0.051981337 0.06400166
0000d0 cf 80 81 3a e5 47 77 bd cf 37 b6 3d 98 3c 90 3c
       0.0009880307 -0.0603713 0.088973634 0.017607018
0000e0 97 56 da bc b4 99 05 3d 52 79 77 bd de 4a 2f 3a
       -0.026652617 0.032617286 -0.060418434 0.00066868763
0000f0 5d 52 a0 3d ea c5 08 3d f7 dc 9b bd 91 53 a5 3d
       0.078282095 0.03339187 -0.07610505 0.0807258
000100 8e 6e 8f 3c 10 20 e4 bc 54 9d 8a 3d a1 57 15 3d
       0.017508771 -0.02784732 0.06768289 0.036460523
000110 91 87 62 3d d5 c7 43 3d 12 bc 31 bd e2 8f 6c bd
       0.055305067 0.047797997 -0.04339225 -0.057754405
000120 8a a4 71 3d ab a2 ee bb 76 9f 9c 3d 30 ea 2b 3d
       0.058994807 -0.007282575 0.07647602 0.041971385
000130 da 1d ac bd 13 fe 5c 3d 85 8f 33 3d b6 a8 a8 bd
       -0.08404131 0.05395324 0.043838043 -0.08235304
000140 db 13 e7 3a ec 86 96 bd 19 af 47 3d 9c 63 4b 3d
       0.0017629819 -0.07349953 0.04875097 0.04965554
000150 fd dd f4 3c 50 36 76 3d 0d a5 35 bd 8b a6 6a bb
       0.029891009 0.06011039 -0.044346858 -0.0035804834
000160 98 49 ab bc 6c a2 88 3d ed 73 87 3d 95 87 d5 bc
       -0.020909116 0.066716045 0.06613908 -0.026065627
000170 1b 34 90 bd 74 d3 67 3a 24 55 99 3d 77 6a 96 bc
       -0.07041188 0.00088434597 0.074869424 -0.018361313
000180 44 d4 1a 3d fc 16 86 bd d0 6a 6a bd 4c 44 94 bd
       0.03780009 -0.06547353 -0.05723077 -0.07239589
000190 fb b3 9c bd 73 4f 13 bd aa 72 19 bd 1f 2f 06 3d
       -0.07651516 -0.03596444 -0.037462868 0.032759782
0001a0 22 f2 9e 3d a9 2a da 3b 60 c5 08 3d 4e 06 68 bd
       0.07761027 0.0066579175 0.033391356 -0.056646638
0001b0 20 de ff bc f9 d3 ad bd 01 e9 b1 3d 7a c2 49 3c
       -0.031233847 -0.08487696 0.0868702 0.012314433
0001c0 08 2c a7 bc 72 42 99 bd 79 b4 af 3c 75 96 b8 bd
       -0.020406738 -0.074833766 0.02144836 -0.090130724
0001d0 04 fe 6c 3d 85 5b ae bd a1 60 99 3c e3 ae 5a 3d
       0.057859436 -0.0851355 0.018722834 0.05338944
0001e0 2b 54 96 bd 2a 0d 7b 3d 0b 25 a9 3d b4 ac 72 3d
       -0.073402725 0.06129185 0.082590185 0.059246734
0001f0 ce 76 ad 3d d1 92 31 bd 81 66 41 bc 23 f4 a2 3d
       0.08469926 -0.043352906 -0.011804224 0.07956722

model.base_model.net.4.weight f4 [128, 128]
000000 aa 64 d9 3c fe 4b 4e bd ed ae aa 3d c5 06 cf bc
       0.026537258 -0.05036544 0.08334146 -0.025271783
000010 bc 58 f2 bc 23 73 b4 3c 13 8b b0 3d 5d 59 49 bd
       -0.029583327 0.022027558 0.08620276 -0.04915749
000020 d0 24 14 3b f4 71 3a bc 64 07 05 bd 69 bf 2b 3d
       0.002260495 -0.011379708 -0.03247775 0.04193059
000030 f0 ae 8d 3b f7 f1 ac bd f2 3a 98 3b 88 e1 4a 3d
       0.0043238327 -0.08444589 0.0046456987 0.04953149
000040 dc d7 27 bd 3a 6a 87 3d 41 14 9a bd 5e 64 dc 3c
       -0.040977344 0.06612058 -0.075233944 0.026903328
000050 54 19 52 3d 26 b8 f9 3c f8 50 0b 3d 87 85 42 3c
       0.051293686 0.030483317 0.034012765 0.011872656
000060 48 df 92 bc 1e 69 73 3d a5 3f 1c bc 8f 99 a6 3d
       -0.017928734 0.05942642 -0.009536658 0.08134758
000070 d2 3a aa 3d 53 eb b8 bd de 9a 98 3d 52 1b cf 3c
       0.08312 -0.090292595 0.074514136 0.025281582
000080 2e 6d 69 bd 07 3c 56 bd d4 fa e3 bc d2 17 ae 3d
       -0.056988887 -0.05230334 -0.027829565 0.08500637
000090 be a9 4b 3d 47 59 71 bc ca 12 82 bd c9 3d 64 bd
       0.049722426 -0.014730758 -0.0635124 -0.055722985
0000a0 8a 84 1f bd 4e 5b a5 ba 4a db be bd d4 af 9d bd
       -0.03894476 -0.0012615712 -0.0931917 -0.07699552
0000b0 90 88 6b bd 5c ca b1 3c f6 8b 03 3d 04 29 10 3d
       -0.057503283 0.021702938 0.0321159 0.035195366
0000c0 85 ab 9b 3d fe 16 03 3d 24 be 01 bd 0a e8 18 3d
       0.07601074 0.03200435 -0.031675473 0.037330665
0000d0 68 b2 07 bd 30 97 a2 3d e1 69 f6 bc 4e b8 6f bd
       -0.033129126 0.07938993 -0.030079784 -0.058525376
0000e0 3d 44 58 bc 13 1b 73 bd 19 5a 5c bc 46 fa 98 bc
       -0.013199863 -0.05935199 -0.013449215 -0.018674027
0000f0 01 6d 2c 3c 52 af 45 bc 8f 49 7b bd b3 00 a9 bd
       0.010524035 -0.012065725 -0.061349448 -0.082520865
000100 a9 d2 87 bd a4 8e a4 bd 47 92 b3 bd 2f 8d aa 3d
       -0.06631977 -0.08035019 -0.087681346 0.0832771
000110 86 a6 3f 3d 2e be 27 3d 77 96 80 3d 9d ee 3c 3c
       0.04678967 0.040952854 0.06278699 0.011531499
000120 72 38 1e bd 9b 36 71 bc 50 bc 18 bd 90 4e 59 3d
       -0.03862805 -0.014722492 -0.037288964 0.05305344
000130 26 01 62 3c 0e 33 b5 bd 09 1b b7 3c 0d d4 90 bd
       0.013794219 -0.088476285 0.022351759 -0.070716955
000140 27 95 7a 3d 82 0f 28 3c 9a b5 4c 3b ec 2b 39 bd
       0.0611774 0.010257604 0.0031236173 -0.045207903
000150 13 33 55 bb fb 20 59 3c 67 0b 9c 3c e3 23 78 bd
       -0.0032531663 0.013252492 0.019048406 -0.0605811
000160 ad 75 37 bd ba fc 7f bd 38 1d 44 bd 4b 0b 67 bd
       -0.04478996 -0.06249688 -0.047879428 -0.056407254
000170 f9 4a a6 bd 51 52 c0 3d 18 71 c4 bd 05 7c ce bc
       -0.08119769 0.093907006 -0.095918834 -0.025205621
000180 7c 70 e7 ba 12 ba 1e bd a5 b1 2f bd bf 34 c4 3c
       -0.0017657424 -0.03875167 -0.042894024 0.023950933
000190 bf 94 4d bc 01 76 a8 bc d0 03 b8 3d 6f 14 76 bc
       -0.012547671 -0.020564081 0.08985102 -0.01501952
0001a0 49 8b a3 39 f7 0a 22 3d c2 13 8a bc 99 cb 87 bd
       0.00031193558 0.03956124 -0.016855124 -0.0663063
0001b0 6f 50 a5 3d e5 5b 9c bd dc 36 a7 bd 91 5c 73 bd
       0.08071982 -0.07634715 -0.081647605 -0.05941445
0001c0 c4 cf 6d 3c 60 c5 8a 3d d2 c6 a4 bd c6 0e 4f bd
       0.014514867 0.067759275 -0.080457345 -0.0505512
0001d0 03 9e 9b 3d aa ea 9f 3d 5a 9b 08 3d 57 ef 95 bd
       0.07598498 0.078084305 0.03335128 -0.07321041
0001e0 86 a7 73 3d e4 4d 91 bc 3b 1d 8d bd 75 49 82 3d
       0.059485935 -0.017737336 -0.06890341 0.06361667
0001f0 91 70 72 bd 76 ad 9e 3c 00 8b 3f bd 7e e7 84 3d
       -0.059189383 0.019369822 -0.04676342 0.06489466
000200 d0 a4 8b 3c 5c 27 f6 bc a0 4c 3c 3d 7c 95 af 3d
       0.017046362 -0.030048065 0.045971513 0.08573434
000210 a5 ad 41 bc f7 2a 7a 3d a6 de 1c bd eb aa 4f bd
       -0.011821185 0.06107613 -0.03829827 -0.05070011
000220 a5 07 22 bd d5 ca be bd 87 33 8b 3d f0 bc ed 3c
       -0.03955807 -0.09316031 0.067969374 0.029020756
000230 b0 47 5d bd 5f f9 7e bd e6 2a 6a 3d 9b c9 9f 3b
       -0.054023445 -0.062249538 0.057169817 0.004876328
000240 e4 8f 89 bd eb a7 e7 ba da b6 0d bd d7 51 9c 3c
       -0.06716898 -0.0017673945 -0.03459821 0.019081993
000250 6d 33 37 bd 49 eb 11 bd 32 09 30 bd 72 8b 21 bd
       -0.044726778 -0.035624776 -0.04297752 -0.039439626
000260 08 4b ce 3b 14 61 41 3d f3 c2 88 3c e0 01 5c 3d
       0.0062955655 0.04721172 0.016694522 0.053712726
000270 c8 7a b8 bc 11 a9 00 bd 78 81 7e bd 89 8d 8c bd
       -0.022519484 -0.031411234 -0.06213519 -0.06862933
000280 56 8e 89 bd 09 79 c5 bc 49 eb a7 3d 0b e9 b7 bd
       -0.067166016 -0.024105566 0.08199174 -0.08979996
000290 05 0d 8a 3d 2f 3a 34 3d 66 af 4f 3d b5 d5 4a 3d
       0.067407645 0.0440008 0.050704382 0.049520213
0002a0 53 c6 51 3d c0 5b a4 3d a5 90 35 3d 69 64 43 bc
       0.051214527 0.080253124 0.044327397 -0.011925795
0002b0 c8 6f 2d 3d 1d 52 0b bc 38 7e 44 bd 7f cf 21 3d
       0.04234293 -0.008503464 -0.047971934 0.039504524
0002c0 fa 42 c1 3d ec 26 87 3d 96 5c 03 bd 14 6f 2b bc
       0.09436603 0.06599221 -0.03207072 -0.010463495
0002d0 63 36 25 3d 57 e0 38 3d 70 df 91 bd 2b c3 9e 3c
       0.04033507 0.045135822 -0.071226954 0.019380173
0002e0 a1 dd 88 ba 73 76 ab 3d 72 67 72 3c 3c c0 37 bd
       -0.0010442027 0.08372202 0.014795171 -0.044861063
0002f0 bb 1f b3 bc 9a d3 a1 3d d1 5f ff bc 1c db 8c 3c
       -0.021865716 0.07901688 -0.031173619 0.017194323
000300 ba df b2 3d aa 59 8b bd 85 64 7c bc 44 11 b2 bd
       0.08734079 -0.068042114 -0.015404825 -0.086946994
000310 a3 5e 95 bc 3c 0c 24 3d 99 25 07 bb 76 e3 44 3d
       -0.018233603 0.04005073 -0.0020621775 0.048068486
000320 24 be 5b bd c8 44 3b 3d 6b c8 2f bd 6e 72 42 3d
       -0.05364813 0.04571989 -0.042915743 0.04747241
000330 19 c5 e3 bc 06 f4 b2 3d bf bc 1e 3c 94 d5 d0 3c
       -0.027803944 0.0873795 0.009688555 0.025492467
000340 ac 50 93 bd 36 b0 df 3b 93 29 8d 3d ce 1f 9f bd
       -0.07193121 0.006826426 0.06892695 -0.07769738
000350 b9 20 9d 3d 5d 1d 2c 3d ba 94 e5 bc 97 b4 81 bd
       0.07672257 0.04202019 -0.02802502 -0.06333273
000360 2e f6 6e 3d 6c 78 94 bc 07 ee 36 3d 6d 13 ec ba
       0.058340244 -0.018123828 0.044660594 -0.001801116
000370 2a 59 a4 3d 09 01 7a bd 13 60 25 3a 77 69 3f 3d
       0.08024819 -0.061036143 0.00063085667 0.04673144
000380 af 7f 20 bd b5 8d e8 bc b0 f3 79 bc 80 cd b2 3d
       -0.03918427 -0.028387884 -0.0152558535 0.08730602
000390 15 60 14 3d 0e 5d ad bd f3 4e 5f 3c 47 50 81 3d
       0.036224443 -0.084650144 0.013629663 0.0631414
0003a0 7c 78 f7 3c 0c 8c b8 3d 8f da f1 bc 1d 17 b7 3b
       0.030208819 0.09011087 -0.029523162 0.005587472
0003b0 d4 70 9c 3d b5 e7 97 3d 88 86 b0 bc 6d 9a 6d 3c
       0.07638708 0.074172415 -0.021548524 0.01450215
0003c0 b2 eb f3 3b fb ee 8b 3d 2e 6f e4 bc 0e 5f 81 bc
       0.0074438686 0.06832691 -0.027885046 -0.015792396
0003d0 3d 09 32 3d 6e ec 8a bc b9 94 15 bd ce f5 8f 3d
       0.04346584 -0.016958442 -0.036518786 0.070293054
0003e0 70 5d 0c bd 97 37 58 3d 84 18 a4 bc 4a 32 a8 bd
       -0.034268796 0.05278739 -0.020031221 -0.08212717
0003f0 22 62 5b bd 9e ed 7c 3c 51 f9 88 3d d4 5e 85 bc
       -0.053560384 0.015437512 0.06688178 -0.01628057

model.base_model.net.4.bias f4 [128]
000000 a3 59 16 bd 77 05 a8 3d 8a e0 8d ba d6 fd ac 3d
       -0.036706578 0.08204167 -0.0010824364 0.08446853
000010 87 bc e5 bc 16 05 7d 3d 5c 17 11 bb a0 78 12 bd
       -0.028043998 0.06177243 -0.0022139167 -0.03575957
000020 73 a9 90 3d 79 6b 96 bd 2c 09 a1 bb 7c 6f 73 3c
       0.0706357 -0.073447175 -0.0049144235 0.014858123
000030 22 21 81 bc 87 ef 31 bd 56 a0 c0 bc a1 9a 58 3d
       -0.01576287 -0.04344132 -0.023513954 0.05288184
000040 b9 93 4b bc 4e cf 1f bd ab b4 12 bd fe c2 88 bd
       -0.012425357 -0.03901606 -0.03581683 -0.06677817
000050 ba 5a 71 3d 35 f2 a4 bd b8 46 27 bd 2a 95 a1 3c
       0.058924414 -0.0805401 -0.040838927 0.019724447
000060 3e 98 9f 3d b1 24 8d bd 70 2d 1e 3c 22 37 87 bd
       0.0779271 -0.06891764 0.009654388 -0.066023126
000070 8c 38 87 3d f2 27 91 3d 13 91 70 3d b2 4f 27 bd
       0.06602582 0.07087697 0.058732104 -0.040847488
000080 d9 61 85 bd a2 ad 4e bd c7 8b d8 bc bf 2e 30 3d
       -0.065128036 -0.050458558 -0.026433839 0.04301333
000090 4f 17 8c bc a6 b2 a6 3d 8c 9e a3 bd 86 13 01 3c
       -0.017100958 0.08139543 -0.07989225 0.00787819
0000a0 23 45 96 bd 91 24 a4 bd f1 ec 73 bd 2c ec e2 3b
       -0.073374055 -0.08014787 -0.059552137 0.0069251265
0000b0 28 bb ad bd 85 95 12 bc 76 28 2f bd d8 23 57 bd
       -0.08482963 -0.008946781 -0.042763196 -0.052524418
0000c0 f7 2a a7 3d 0a 32 e8 bc dc d8 a9 bd 72 57 6a 3d
       0.08162492 -0.028344173 -0.08293316 0.0572123
0000d0 ca 7c b9 bd 20 0e c0 ba 8a f4 91 bd db 35 45 3d
       -0.09057005 -0.0014652647 -0.0712672 0.048147064
0000e0 25 b8 09 3d 2b 18 6b bc fb de b7 bc 15 96 82 bd
       0.03362288 -0.014349024 -0.022445193 -0.06376282
0000f0 58 5c 85 bd a3 10 1d 3d d9 9b 88 bd 4f c0 00 bd
       -0.06511754 0.038345944 -0.066703506 -0.0314334
000100 99 64 8d 3d 06 2f ae bd db 7d 75 ba f6 35 01 bd
       0.06903953 -0.08505063 -0.0009364762 -0.0315456
000110 49 90 2d 3d cc 9f 01 bd 46 8d 98 3d b2 70 eb 3c
       0.04237393 -0.031646535 0.07448821 0.02874026
000120 07 ec 59 bd 82 4f a8 3c c9 dc b1 bb 79 1e b9 bb
       -0.05320361 0.020545725 -0.005427931 -0.0056493846
000130 2d fc 55 bd 17 41 2b 3d 75 a1 94 3c 21 53 e3 bb
       -0.052242447 0.04181012 0.018143395 -0.0069374
000140 82 31 3f bd f9 66 b0 3d 9d 8a 94 bd 7f 19 11 3d
       -0.046678074 0.086133905 -0.07253001 0.035424706
000150 9d 5a a1 bd 07 ec 8f bd ba e1 f7 3c 2f 4e aa 3c
       -0.07878611 -0.070274405 0.030259002 0.020789234
000160 04 d5 6c bc c8 fc 1e 3d f8 9a 2b bc 1d 52 d9 3c
       -0.014455084 0.03881529 -0.010473959 0.026528412
000170 08 31 93 bd 19 e1 1e 3d a8 9f b8 bc 85 cf 76 3d
       -0.07187086 0.03878889 -0.022537068 0.0602565
000180 ea 9c 9a bd 88 07 4f 3c be c1 03 bd 51 46 18 3d
       -0.0754946 0.012636073 -0.03216719 0.037176434
000190 30 3c 8a bd 25 05 96 bd 3b 66 01 3d 89 ea 92 3a
       -0.06749761 -0.073252 0.031591635 0.0011208813
0001a0 8f bb 71 bd 56 0d 7c bd 6c 3f 96 bd 1e 0d b9 3c
       -0.05901676 -0.061536156 -0.073363155 0.022589263
0001b0 ad 62 0c 3d c8 36 28 bd 90 bd 66 3d d1 6c 4e 3d
       0.034273792 -0.04106787 0.056333125 0.050396744
0001c0 8f 82 34 3c c5 6a 59 bd ca 10 8a bd cb fb 0f bd
       0.011017456 -0.05308034 -0.067414835 -0.035152238
0001d0 a0 56 63 bd ab 27 9b 3c 3f 1c 74 3d cd 32 9f 3d
       -0.055502534 0.018939814 0.05959725 0.07773361
0001e0 d6 be 26 bd c1 a4 39 bd 09 4e 75 3c dc c2 b4 bc
       -0.04070934 -0.045323137 0.014972218 -0.022065572
0001f0 4d 57 61 3d cd ed a2 bd ac c7 2c 3d 64 7c c0 3b
       0.055014897 -0.07955513 0.04218261 0.0058742035

model.base_model.net.6.weight f4 [128, 128]
000000 7d c4 9e 3d f1 65 01 bd 8e 07 dc 3c bd 77 75 3c
       0.07752321 -0.03159136 0.026859071 0.014982161
000010 3a 0e 5c bd ad 14 8a bd cb 27 5d 3d 0a f2 1c bd
       -0.053724505 -0.06742225 0.053993028 -0.038316764
000020 3f f9 73 3d e6 ac 8e 3c bf 99 45 3c db 03 5d 3d
       0.05956387 0.017416429 0.012060582 0.053958755
000030 53 42 df bc db 3e aa bc ae 1b 0d 3d bb cb ae 3c
       -0.027253306 -0.020781925 0.034450226 0.02133738
000040 fc 88 47 3d 3a bb 87 3d 37 6d a5 3d 50 1e 4c 3d
       0.048714623 0.066275075 0.08077472 0.049833596
000050 19 7f 24 bc 28 82 99 bd 39 9e c0 bc 4b da 43 bc
       -0.010040068 -0.074955285 -0.023512946 -0.011953901
000060 be 8a 9c 3b 0b ae 6e bd 31 80 17 bd c5 d7 7c 3d
       0.0047772815 -0.05827145 -0.036987487 0.06172921
000070 98 d6 5c bd e3 9e 43 39 a6 98 6f 3c a6 0a 83 3c
       -0.05391559 0.00018655839 0.014623797 0.015996289
000080 be d4 53 3c d5 ca b5 3d 86 d5 81 3d 66 9c 2c 3d
       0.01292914 0.08876578 0.063395545 0.04214134
000090 e8 5a e8 bc 38 d7 93 bd f1 f8 7f 3d 99 5e 83 bd
       -0.02836366 -0.07218784 0.06249327 -0.064145274
0000a0 e3 ab 1b bd d7 43 36 bd 1e 7e c7 3b 17 0b a3 3c
       -0.03800572 -0.04449829 0.0060880324 0.019902749
0000b0 c9 26 1a 3d 1e 32 a8 3c e8 9c 95 bd 0e 3d f9 3c
       0.037634645 0.02053171 -0.07305318 0.030424621
0000c0 f4 61 5b bd 84 2e 06 3d d6 d7 89 bd e9 4f 7a 3c
       -0.053560212 0.032759205 -0.067306206 0.015277841
0000d0 b8 73 ad bd 90 b5 80 3d a5 88 2b 3d 4a 3e 47 bb
       -0.08469337 0.0628463 0.04187836 -0.0030402117
0000e0 30 54 b4 bb 43 e5 0a ba b9 8c 71 bd 4f 3a 50 bd
       -0.0055032 -0.0005298445 -0.058972094 -0.050836857
0000f0 83 c7 c7 3b 10 61 67 3d 0c fd 33 3d 27 09 81 3d
       0.0060967817 0.05648905 0.043942496 0.06300574
000100 6e 11 85 3d ed 15 13 3d 2b 31 6d bd 0f 44 c0 3c
       0.06497465 0.035909582 -0.05790822 0.023469953
000110 68 67 39 bd 15 7c 53 bc a3 ce 4c bd 67 52 1d 3d
       -0.04526463 -0.012908001 -0.05000175 0.038408663
000120 42 dd 2a bd d6 07 3e 3d ed 05 23 3d ef b7 34 3d
       -0.041714914 0.04639419 0.039800573 0.044120725
000130 60 5e 6a 3d e3 91 66 3c 47 9f 1d bd c6 ea 27 3d
       0.05721891 0.014072868 -0.038481977 0.04099538
000140 99 db 9d 3d 1a 01 62 3d 0e bd 75 bd 4e ad 25 3d
       0.077079006 0.05517683 -0.05999475 0.04044848
000150 a7 a9 cc bc a4 f4 ad 3d d2 ac 0a bd b3 e6 9f bc
       -0.02498324 0.08493927 -0.03385622 -0.019519186
000160 4e a7 07 3d 06 da b2 bd 06 4c b7 3c e7 f4 4f 3d
       0.03311854 -0.08732991 0.022375118 0.050770666
000170 f0 3a 54 bc 5a 07 a8 bd f1 e6 b9 bd 44 56 88 bd
       -0.012953505 -0.08204527 -0.09077252 -0.06657079
000180 e3 52 97 bd bd c1 1b 3d 84 a3 9c bc 88 9c f2 bc
       -0.07388856 0.03802656 -0.01912094 -0.029615656
000190 7a 9a 84 3d 0f c6 1c 3c 3c b4 93 bd e3 86 82 3c
       0.064747766 0.009568705 -0.07212111 0.01593346
0001a0 76 99 2a 3d 55 0f 3e bd c3 61 bc 3c 31 cc 18 bd
       0.041650258 -0.04640134 0.022995835 -0.037304107
0001b0 08 69 96 bd 1c 08 75 bd 67 1d 45 bd 3a 71 58 3d
       -0.07344252 -0.059822187 -0.048123743 0.052842356
0001c0 f7 a4 90 3d 8f b7 79 bd 01 8c 63 3d e5 1a f0 bc
       0.070627145 -0.06096607 0.05555344 -0.0293097
0001d0 67 e9 26 bc 85 21 6f 3c 41 db b1 3c 72 48 95 3c
       -0.010187483 0.014595394 0.021710994 0.018223021
0001e0 ce b7 b8 bd f8 5e b7 3c 2b 63 b7 bd c1 f5 a5 3d
       -0.09019433 0.022384152 -0.08954462 0.081035145
0001f0 ec 0f b3 3d 1f 81 9a bd a6 2f 4f 3d 64 61 61 3d
       0.08743271 -0.07544159 0.05058255 0.05502452
000200 fb c7 79 bd bf e5 b6 3c 4f d8 24 bd 9e 62 78 bd
       -0.06098173 0.022326348 -0.04024535 -0.060640924
000210 9e 58 35 bd d5 dc 1e bd c2 1a 6f bd f4 09 1c bc
       -0.044273965 -0.03878482 -0.058375128 -0.009523857
000220 f8 58 b1 3d b4 88 8f 3c df f7 8b bb df 6f 9e bd
       0.086595476 0.01752124 -0.004271492 -0.077361815
000230 46 c1 25 3d 00 a9 a9 3d 00 dd 63 bc ae 2b be 3d
       0.040467523 0.08284187 -0.013907671 0.09285675
000240 eb 9d b9 3d 64 3f fe 3c d4 bb 9f bd cd 80 03 bd
       0.090633236 0.031036086 -0.07799497 -0.032105256
000250 39 45 af bc f2 3c f2 bb 18 2b 0f bd a5 d0 e7 bc
       -0.021395313 -0.007392519 -0.034953207 -0.028297732
000260 67 d4 e1 bc df 59 aa bc e5 91 9a bd 4f 92 64 bd
       -0.027567102 -0.020794807 -0.075473584 -0.055803593
000270 dc e2 e3 3c bc 74 93 3d 38 76 a8 3d fc 2b 85 3d
       0.027818136 0.072 0.082256734 0.0650253
000280 eb d1 a4 bd 05 00 56 bc 55 87 ea bc 03 68 06 3d
       -0.08047851 -0.013061528 -0.028628984 0.032814037
000290 95 37 ab 3d 9c 52 80 3d 9a 46 55 3d 82 86 2c bd
       0.08360211 0.062657565 0.052069284 -0.042120464
0002a0 9d ea 96 3d a1 fb 84 bd 7c 61 7e bd 54 c1 0f 3d
       0.07368968 -0.06493307 -0.062104687 0.03509648
0002b0 7a 07 86 3d 0c fb 34 3d 8c 87 b3 bd a7 d0 40 3d
       0.06544395 0.04418473 -0.08766088 0.047073986
0002c0 56 e7 c7 bc 0b 1b d8 3b 8f 35 2d bd 15 f3 1e bd
       -0.024402302 0.0065950206 -0.042287406 -0.03880604
0002d0 29 32 ec bc f4 93 88 3b a4 e9 24 3d ea 7f 21 bd
       -0.028832512 0.004168028 0.04026188 -0.03942863
0002e0 56 60 f5 bc f6 b3 4c 3d 4a 26 2e bd 82 88 6d bd
       -0.029953163 0.04997631 -0.042516984 -0.057991512
0002f0 08 0a 13 3a 92 d7 2d 3d 2f 56 67 bc 32 f4 8b 3b
       0.00056091 0.042441912 -0.014119669 0.0042710537
000300 dd 2e ab 3d 0b 36 29 3d f1 1c cd 3b 0c b9 64 3d
       0.08358548 0.041311305 0.0062595536 0.055840537
000310 ec bd f1 bb 6f f6 4d bd eb ff 19 3d fe 41 7f bd
       -0.007377377 -0.050283846 0.037597578 -0.062318794
000320 3c 8e eb 3c 58 80 25 3d 75 39 24 3d 22 16 a9 3b
       0.028754346 0.0404056 0.040093858 0.005160109
000330 46 04 5e 3d 42 3e 4e 3d c5 f2 4a 3d 11 4f 89 bd
       0.054203294 0.050352342 0.04954793 -0.06704534
000340 3f 52 99 3c d7 e7 18 3d c8 71 80 3d 2c e3 be 3d
       0.018715976 0.037330475 0.06271702 0.09320673
000350 0d 22 ad bd 1b 1b ab 3d 19 ab 7a 3c cf 19 3d bd
       -0.0845376 0.08354779 0.015299582 -0.04616719
000360 5b ec 9f bd fc 0d 03 3d 38 70 83 3d c8 b5 71 3d
       -0.07808753 0.03199576 0.064178884 0.05901125
000370 39 04 6c 3d d8 bd 7e bd 92 08 bd bd 30 56 64 bc
       0.057621215 -0.062192768 -0.0923015 -0.013936564
000380 a6 e3 40 bd 28 f9 86 bd 91 9a ae bd 24 77 10 3d
       -0.047092102 -0.065904915 -0.08525575 0.03526987
000390 ff f6 d1 3c 9a b7 17 3d c6 43 4b bd c7 d1 7f bd
       0.025630472 0.03704033 -0.04962518 -0.06245592
0003a0 50 7a 6e 3b 04 d6 1d 3d 3f e0 0f 3d 06 25 0a 3d
       0.0036388822 0.03853418 0.035125967 0.033726715
0003b0 2d 4a e6 bc ab 81 8d 3c 6d d4 d8 bc 87 ee 8d 3d
       -0.028111542 0.017273745 -0.02646848 0.06930261
0003c0 d9 10 61 3d af 73 3c bb bf 4e 27 bc 5c db a3 3d
       0.054947708 -0.0028755476 -0.010211646 0.08000824
0003d0 48 62 84 bd 71 88 9f 3b 6f 1b a6 3b 3d 83 a5 bc
       -0.06464058 0.00486856 0.0050691883 -0.02020418
0003e0 7f 6f e4 ba 57 6f 79 bd b2 ce 4f 3a a0 35 43 3d
       -0.0017428248 -0.060897198 0.00079272233 0.047658563
0003f0 20 5f 8b 3d 2b 2c 81 3d 57 87 35 3d f5 ba af 3d
       0.06805253 0.063072525 0.044318523 0.08580581

model.base_model.net.6.bias f4 [128]
000000 db 2a 4d bd 92 a7 ab bd 97 87 bc bc e2 a4 ab 3b
       -0.0500897 -0.08381571 -0.023013873 0.0052381614
000010 92 16 23 3c ab 99 45 bb 08 e7 ba bd 0c 9e eb bc
       0.009954112 -0.0030151408 -0.09126097 -0.028761886
000020 57 09 5d bd cf fe 91 bc 13 81 40 bd 26 e5 bd bb
       -0.053963985 -0.017821698 -0.046998095 -0.005795139
000030 fb ac a2 bc 2d 46 9d bd df 92 2b 3d 76 65 ce 3c
       -0.019857874 -0.076794006 0.041888114 0.025194865
000040 b6 e7 c5 3c 7b c3 f5 3c cd fb e6 bb f8 77 ae 3c
       0.02415834 0.030000439 -0.00704906 0.02129744
000050 9b e9 b8 bd 68 76 7b 3d 6d 24 96 3d 86 3f fe bc
       -0.09028932 0.061392218 0.073311664 -0.03103615
000060 b9 03 94 3d 3d d9 fd bc c6 fd 09 3d be d3 18 bd
       0.072272725 -0.030987376 0.033689283 -0.037311308
000070 15 84 5b bd f5 47 33 bd cb 8d 83 3d 33 96 fb bc
       -0.05359276 -0.043769795 0.06423529 -0.030711269
000080 58 fd 8e bd fe 2e db 3b bb 6b 71 bd 89 a3 73 bd
       -0.06981915 0.0066889515 -0.05894063 -0.05948213
000090 48 44 57 bd 6c 24 68 bd 6a 76 67 bd 0e e7 1a 3d
       -0.052555352 -0.05667536 -0.056509413 0.037818007
0000a0 dd 01 12 bd d3 20 bc 3c 0d 31 a1 3d 1e 9c d0 3c
       -0.03564631 0.02296487 0.07870684 0.025465067
0000b0 1f aa ba 3d be 2d 8f 3d 3e a7 1a 3c bd 14 1c 3d
       0.09114479 0.069911465 0.009439288 0.038105715
0000c0 46 20 a6 3d e7 e0 79 bd 95 e7 59 bd ad 8b 76 3d
       0.081116244 -0.0610055 -0.05319937 0.0601918
0000d0 6e 08 2c 3d 22 7a df 3c 36 1e 98 3c 2f 5e 5d bd
       0.042000227 0.027279917 0.018569093 -0.0540449
0000e0 dc 72 16 3d a9 a6 72 bb 04 47 d1 3b 22 71 a9 3d
       0.036730632 -0.0037025607 0.0063866396 0.082735315
0000f0 14 b7 4a 3d 60 17 5c bb 90 ec c3 bc 21 e1 50 bd
       0.049491003 -0.0033583269 -0.023916513 -0.05099595
000100 d9 72 28 3d 47 8b b5 3d 1c b3 45 bd 49 49 72 bd
       0.041125152 0.08864456 -0.048266515 -0.05915192
000110 54 41 6a 3d 93 12 95 bd 9d b4 ad 3d ea 16 6d 3c
       0.057191208 -0.072789334 0.08481715 0.014470795
000120 5f c9 a6 3d 10 92 60 3b 55 0e f4 3c 4a ec a8 bd
       0.08143877 0.0034266748 0.02979199 -0.082481936
000130 6f 85 8e bc 55 56 8f 3d 5e f1 00 bd 02 d2 9d 3d
       -0.01739761 0.069988884 -0.031480186 0.077060714
000140 4a e6 60 bc e0 80 46 bd d7 52 43 bd 85 e6 93 bd
       -0.01372678 -0.04846275 -0.047686424 -0.072217025
000150 4f 07 fa 3c 5b 2a 48 bd 3c 6d 05 3d cb 9c e2 bc
       0.030521063 -0.04886852 0.032574877 -0.027662655
000160 58 f1 4f 3d 38 aa 72 3d a9 f4 87 bd 38 f0 54 bd
       0.050767273 0.059244365 -0.06638462 -0.051986903
000170 a6 69 66 3d 86 94 e2 bc 8e b0 96 bd 94 65 40 bd
       0.056253098 -0.027658712 -0.07357894 -0.046971872
000180 17 34 a6 bd 4a 1b 6c bd 39 4e 88 3b 57 2b 80 3d
       -0.08115404 -0.057643212 0.0041597155 0.062582664
000190 6c ef 8b 3c c6 50 f7 3b 9d 87 8b bb 20 f6 49 bd
       0.017081939 0.0075474707 -0.0042581097 -0.04930699
0001a0 df f6 1e 3d cf 5c 83 3d c0 85 00 3d 85 e2 9d 3d
       0.038809653 0.06414186 0.031377554 0.07709221
0001b0 d0 3b b9 3d f5 12 cc 3b a7 4f 4f bd fa 3e 88 3d
       0.090446115 0.006227846 -0.05061307 0.06652637
0001c0 37 6c 51 3c fe ea 66 bc 92 15 68 bc 67 7a 04 3c
       0.012782148 -0.014094112 -0.014165299 0.008085824
0001d0 e5 b7 35 bd 3a 45 4c 3d 65 ad 91 bd 02 39 29 3c
       -0.04436483 0.049870707 -0.071131505 0.010328533
0001e0 5a c4 ba bd ff 6b 1d 3d 47 51 24 bd 5a 9d 32 bc
       -0.09119482 0.03843307 -0.040116575 -0.010901773
0001f0 94 86 94 3d 7e 37 80 3c f4 e3 e6 3a 4a d3 01 3d
       0.07252231 0.01565146 0.0017615543 0.03169564

model.base_model.net.8.weight f4 [128, 128]
000000 82 7f 9c 3b 9f a3 63 3d 5a 22 56 bb 28 32 81 3d
       0.0047759423 0.055575963 -0.0032674284 0.06308395
000010 9f 2e 6d 3d d2 21 17 bc d8 d7 99 3d 92 96 b6 3c
       0.05790579 -0.009224372 0.07511872 0.022288594
000020 05 5c 84 3d 8c 71 bd bd b8 d6 c5 bd 77 e9 5b 3c
       0.06462864 -0.09250173 -0.09660095 0.013422362
000030 54 a9 e1 3c be c2 0b bd 57 90 9c bc 1e 81 1a 3d
       0.027546562 -0.034121267 -0.019111795 0.037720792
000040 ea 6d a0 3d 20 6a db 3c a3 02 ac 3d d3 f7 96 3d
       0.078334644 0.026784003 0.083989404 0.073714875
000050 54 80 df 3c e5 5f 14 3c b8 e3 cd bc 58 54 80 bd
       0.027282871 0.009056066 -0.025132999 -0.06266087
000060 0f 4e 48 3d e1 7c 2b 3b 76 02 21 bd 09 58 89 bc
       0.048902567 0.0026166963 -0.039308988 -0.016765611
000070 74 4a 59 bd b6 fc 98 bb 56 1b 49 3d 38 d7 8e 3d
       -0.05304952 -0.0046687974 0.049098335 0.069746435
000080 0a 98 7a bd 6e d2 83 3c 75 5b 14 bd 09 c6 a9 bd
       -0.061180152 0.016091552 -0.036220033 -0.08289725
000090 a8 b2 33 3d a9 73 96 3d e2 91 9c 3d 9a bd 92 3d
       0.04387155 0.07346279 0.076450124 0.0716507
0000a0 62 69 09 bd 3b 9c ad 3c 57 5b e2 3c 70 86 78 bd
       -0.033547767 0.02119266 0.027631445 -0.060675085
0000b0 df 61 aa 3d 99 a4 8e bd 74 d1 29 3c b3 2c cd bc
       0.08319449 -0.06964988 0.010364879 -0.025045728
0000c0 8c 51 31 3d 09 68 81 3d 29 e9 b9 3b 17 84 0b bd
       0.04329066 0.06318671 0.005673547 -0.034061518
0000d0 68 ea 8f 3d 39 a6 b9 bd 2d af 15 bc 7c 2f a3 bd
       0.07027131 -0.090649076 -0.009136003 -0.07968041
0000e0 2a a8 55 bb df 09 4f 3d 7f b8 2b 3d 4d 5f 1d bd
       -0.0032601454 0.050546523 0.041923996 -0.038420964
0000f0 80 aa 2e bd 45 ba bd 3c b8 55 58 bd 7c 2a 9e bd
       -0.04264307 0.02316011 -0.052816123 -0.07722947
000100 c0 4c 8d 3d 4b d7 c1 3c aa ec 86 bd 5a 1f a4 bd
       0.068994045 0.02366223 -0.06588109 -0.08013792
000110 e6 92 fd 3c 4b 11 e5 bc 5e af 37 bd ed b1 b2 3d
       0.030953836 -0.027962347 -0.044844978 0.08725343
000120 ef 9c 27 3d 1d b4 99 3d 49 b6 17 3c f4 23 14 bb
       0.040921148 0.07505057 0.009259769 -0.0022604438
000130 8f 82 53 bd 27 f7 0e 3d 32 bd 17 bd c9 28 e7 bb
       -0.051638182 0.03490367 -0.037045665 -0.0070544225
000140 be ab 2a bc 1d 3b 6e 3d 75 30 08 3d 0c 87 b4 bd
       -0.010416923 0.058161844 0.033249337 -0.08814821
000150 03 14 9a 3b 6d 0f 8e 3d 60 52 5f bb a7 e7 94 3d
       0.0047020926 0.06936536 -0.00340762 0.07270747
000160 87 d8 0b bd 41 ac 7f bd 42 89 87 3d 71 28 fa bc
       -0.034142043 -0.062420134 0.06617977 -0.030536862
000170 f3 8e 6f 3d 92 d5 8c 3d e6 1c 6b bd 5f b1 b0 bd
       0.058485936 0.06876673 -0.057400607 -0.08627581
000180 e6 63 37 bc 49 f1 4e bd 8e 4a 82 3d 42 9c 38 3d
       -0.011193251 -0.050523076 0.063618764 0.045070894
000190 2e 6b 91 3d a4 7b 6d bd 74 1b 63 3c 0a bd 53 3b
       0.07100521 -0.05797924 0.013861526 0.003230872
0001a0 02 66 76 bd 5e 35 36 bd b1 84 2a 3d 82 ec 04 3c
       -0.060155876 -0.04448449 0.04163045 0.0081130285
0001b0 f9 14 a1 3d c8 a3 ab 3b a3 04 e3 3c d2 a5 eb 3c
       0.07865328 0.00523803 0.027712172 0.028765593
0001c0 87 eb 75 bd 96 1a 83 bd d6 11 4d bd d1 94 fe bc
       -0.06003907 -0.06401555 -0.050065838 -0.03107682
0001d0 8e df d7 3c 9e f5 4c bd e3 a5 92 bd a7 a1 15 bd
       0.026351716 -0.050038926 -0.07160547 -0.036531117
0001e0 e0 ad 9c bd 8d 4a 35 bc 37 99 c4 bd 88 25 51 bc
       -0.076503515 -0.011065138 -0.09599536 -0.012765296
0001f0 50 55 8b bd 08 45 ad bd cb c2 7d 3d c5 59 b2 3d
       -0.068033814 -0.08460432 0.061953347 0.087085284
000200 f1 64 6b bd 50 a4 90 3c 9a 35 9b bd 02 dc 5f bd
       -0.057469312 0.017656475 -0.07578583 -0.054653175
000210 f3 1e ad bd 81 7b 67 bd 73 89 ba 3d f3 52 c1 3c
       -0.08453169 -0.056514267 0.091082476 0.023599124
000220 3b 9b 34 3d 8c 1a 57 bd 4e ea 00 3d 21 cc 00 3d
       0.04409335 -0.05251555 0.03147345 0.031444672
000230 d1 25 03 3d 7e 27 17 3c 25 af 3d bd 69 88 07 3d
       0.032018486 0.009225724 -0.04630961 0.033089075
000240 f1 81 9b 3d 4d 95 4f bc 41 05 ae 3d 7b 89 fd 3b
       0.07593144 -0.012669873 0.08497096 0.007737336
000250 7c 61 d3 3c aa 8c 65 3d ed 4f 91 bc 6a a1 cd 3c
       0.02580332 0.05604235 -0.017738307 0.025101382
000260 f1 94 96 bc a5 80 88 bd 18 c9 0a ba 25 cd 05 3d
       -0.018381568 -0.06665162 -0.00052942475 0.032666344
000270 d4 18 17 3c ad 02 da 3c ca 99 cb bc e3 c8 98 3d
       0.009222228 0.026612604 -0.024853606 0.07460191
000280 0e f0 91 bd 8a d8 e5 3b f3 c6 09 3c 49 58 19 3d
       -0.07125865 0.007014339 0.00840925 0.03743771
000290 c8 fb d1 bc 13 16 b0 3c 60 0a 8a bd f5 be cd 3c
       -0.025632754 0.0214949 -0.0674026 0.02511547
0002a0 8d f0 c1 bc 24 f7 6c 3d 7f 3e 93 3d 78 4e 93 3d
       -0.023674274 0.05785288 0.071896546 0.07192701
0002b0 51 33 5d bd 75 80 28 3d d1 1b 27 bd 8b d9 88 3c
       -0.054004017 0.04113813 -0.040798012 0.016705295
0002c0 eb 39 06 3d 8c 74 9c bd 90 01 a6 bd 2b 10 1e 3c
       0.03277008 -0.07639417 -0.08105767 0.009647409
0002d0 02 47 de 3b a1 81 82 bd 80 2f 13 3d 63 15 76 3d
       0.006783367 -0.06372381 0.03593397 0.06007899
0002e0 c5 e8 a1 bc 3c f5 a1 bd ee 44 a2 3c 35 69 55 bd
       -0.019764313 -0.07908103 0.019808259 -0.052102286
0002f0 df 85 25 bc 9e 60 99 bc ed 3a 55 3d d3 dc c8 3c
       -0.010102718 -0.018722828 0.05205815 0.02451936
000300 37 81 8a bd 09 7e ab bd f3 f9 25 bd 1f 8e a7 bd
       -0.06762927 -0.08373649 -0.040521573 -0.08181404
000310 c9 23 cc bb 61 53 1a bd 05 7a 10 bd b1 62 ad bd
       -0.006229852 -0.037677173 -0.035272617 -0.084660895
000320 2e 8d 86 3d 42 1d 64 bd 05 ac 18 bd 8a 4a 88 3d
       0.06569897 -0.055691965 -0.037273426 0.06654842
000330 6a 8f db bb 85 5d cd bc 1e c4 19 3d 94 51 1e bd
       -0.006700446 -0.025069008 0.037540548 -0.038652018
000340 47 2d 6e 3d 14 75 9c bb 1b 98 51 3d a0 48 35 3c
       0.05814865 -0.004774699 0.05117045 0.011064678
000350 a3 f1 32 bd eb c3 07 bd 59 16 de b9 e3 51 a3 bc
       -0.043687474 -0.033145826 -0.0004235979 -0.019936508
000360 ee 6f 52 3d 35 31 52 3d 29 54 3c bd 74 ad 3b bd
       0.051376276 0.05131646 -0.0459787 -0.045819715
000370 bc ff 9f bc 35 c4 9e 3d 35 ea 9e 3b ac 8d 8a 3d
       -0.019531123 0.07752267 0.004849697 0.06765303
000380 d8 45 f9 3c f0 cd 54 3b 28 e3 9e bd c2 65 07 bc
       0.030428812 0.003247138 -0.0775817 -0.008264007
000390 30 db 52 bd 7e c0 51 bd 2f 62 3c 3d 6a 01 48 bd
       -0.051478565 -0.051208965 0.045992073 -0.048829474
0003a0 5b 46 3f bd 11 c3 85 3d ff 14 2b bd 97 80 8f bd
       -0.046697956 0.065313466 -0.04176807 -0.070069484
0003b0 d3 2f ea bc a8 cf 3e 3b 92 5c 8d bd a8 fa b9 bd
       -0.028587257 0.0029115472 -0.06902422 -0.09081012
0003c0 bb 3a a9 bd 51 ff a5 3b cb 8e 4c bb 44 65 9d bd
       -0.08263155 0.0050658365 -0.003121304 -0.076853305
0003d0 7f e3 66 bd 46 71 99 bb ee 38 98 bd eb b3 55 bd
       -0.0563693 -0.0046826927 -0.074327335 -0.052173536
0003e0 bb 1b e4 bc 4a b0 bd bd a8 83 9f bc 03 43 c9 bc
       -0.027845254 -0.0926214 -0.019471958 -0.024568086
0003f0 a6 27 27 3c b6 bb 55 bb 3a bc 26 3d ab 68 f9 bc
       0.010202324 -0.0032613105 0.04070685 -0.030445417
